Model/model_noisy_8_64.pth (torch, 21220 bytes, 7 tensors)

input_weights f4 [5]
000000 00 00 80 3f 00 00 80 3f 00 00 80 3f 00 00 80 3f
       1.0 1.0 1.0 1.0
000010 00 00 80 3f
       1.0

fc1.weight f4 [64, 5]
000000 f7 47 4c bf b8 08 32 be 6d db ad 3d fb 5d 05 3f
       -0.7979731 -0.17386138 0.08489118 0.5209653
000010 d5 7d af 3e 44 bf 06 be 76 6c cf be e3 fd aa bd
       0.3427569 -0.131589 -0.40512437 -0.08349206
000020 ed 39 fd 3e 69 06 32 3e 85 2e 7d 3f d4 85 d8 3e
       0.49458256 0.17385258 0.9889911 0.42289603
000030 87 c0 39 be d4 cc 7d be 42 69 ca 3d 48 7b 74 be
       -0.1813985 -0.24785167 0.098833576 -0.23875153
000040 54 ec 33 bc 6e a9 3c bf 49 df eb 3e 72 ac 14 3e
       -0.010981638 -0.7369603 0.4606879 0.14518908
000050 5c 8f be 3e 13 16 56 be e8 32 20 3e e7 a9 85 3e
       0.3721875 -0.20906858 0.15644419 0.26106188
000060 88 a2 18 3f 52 3f 84 be 21 4d c3 be 96 53 c2 be
       0.59623003 -0.2582956 -0.38144782 -0.37954396
000070 de 55 fc 3e 48 6e 7b be 2f e8 31 3f 93 c9 d2 3d
       0.4928426 -0.24553788 0.6949491 0.102923535
000080 5f 59 49 be 7e 3d ac 3e b0 9a 21 3e 32 c3 2e 3f
       -0.19662999 0.33640665 0.15781665 0.68266594
000090 c6 b1 25 3d 63 9d 04 3e 3d fe fe 3b 12 dd 2c bf
       0.04045274 0.12950663 0.0077817724 -0.67524827
0000a0 e1 83 af 3d d1 26 69 3b 02 7d 5b bf 49 db e9 3e
       0.08570076 0.0035576115 -0.8573762 0.45675114
0000b0 9a a6 4d 3e 45 5b a7 bf ab 32 8a 3d 46 22 96 bd
       0.20083085 -1.3074728 0.067479454 -0.07330756
0000c0 df c9 db bc 08 fe 4d bd 00 b5 83 bf 82 f3 8d be
       -0.026829658 -0.05029109 -1.0289612 -0.27724844
0000d0 b9 c8 bc bd fc 29 98 be 38 1d 22 be 8a 47 aa 3e
       -0.09217972 -0.29719532 -0.15831459 0.33257705
0000e0 a6 19 ae 3e 70 a6 bb 3e 4f f2 08 3f 51 30 ba bc
       0.34003943 0.3665042 0.53494734 -0.022728117
0000f0 7f 30 86 3d 39 e0 57 3f 10 88 0a bc d6 ab e4 be
       0.06552219 0.8432651 -0.008455291 -0.4466235
000100 54 b6 8e 3c c9 1c 0a 3e ab 68 ae 3d ba 36 07 3e
       0.017420925 0.13487543 0.085160576 0.1320447
000110 12 db 32 bf 06 1d 96 3e 37 4e 9a 3d c0 39 0b bf
       -0.69865525 0.29319018 0.075344495 -0.54384995
000120 10 e1 06 3f 0c a3 89 3d 40 d7 6f 3b 3a 3b 6f bf
       0.5268717 0.06720552 0.0036596805 -0.9344975
000130 b6 7a b8 3d 14 de 92 be 10 b8 4b be 01 a1 09 be
       0.0900778 -0.28685057 -0.19894433 -0.13440324
000140 02 a2 59 3f e6 80 37 3e d5 1f f2 be 92 11 8b 3e
       0.8501283 0.17920265 -0.4728991 0.27161843
000150 e8 de b3 3d 1e 07 52 3f cd 1c c5 3e 20 22 7c 3c
       0.0878275 0.8204211 0.38498536 0.015388995
000160 9b 5f c5 bd d1 05 70 be 50 71 67 bf 98 ac 3c 3d
       -0.09637376 -0.23439719 -0.90407276 0.046063036
000170 f2 49 b2 bd cf 58 78 3d 52 8c 01 3c 00 3c 81 3f
       -0.0870551 0.06063157 0.00790699 1.0096436
000180 3c 6d 2e 3e b4 23 09 3f db e0 0b 3d d0 27 41 3e
       0.17033857 0.53570104 0.034149986 0.18862844
000190 69 e8 6a bf 4f 9c e4 be 95 36 e1 be 4a 6c f3 3c
       -0.9176088 -0.44650504 -0.43986955 0.029714722
0001a0 b3 da 4e be e4 b6 9b 3e 4b f2 df 3e 89 9e 2f bf
       -0.20200615 0.30412972 0.43739542 -0.6860128
0001b0 e4 ae 9c 3e b6 8a 84 3e a8 96 04 bf 4b ce 20 3e
       0.3060218 0.25887078 -0.51792383 0.15703695
0001c0 34 e4 04 3e 9c 88 17 bf 1b c1 09 bf 97 74 2b be
       0.12977678 -0.59192824 -0.5381028 -0.16743694
0001d0 b2 98 88 bc a1 34 95 3e 57 51 55 be 07 46 91 bd
       -0.016674373 0.29141715 -0.2083181 -0.07093435
0001e0 35 69 67 bd 24 94 9f be e9 36 1e 3e c0 9e c6 be
       -0.056496818 -0.3116771 0.15450634 -0.38792992
0001f0 e1 ce c5 be d5 87 df bf 05 ba 9c 3d 5c 53 0a 3e
       -0.386344 -1.7463328 0.07652668 0.13508362
000200 a0 a4 25 3d 32 59 90 3c a2 1f 18 3f f5 2a 06 3f
       0.0404402 0.017620657 0.5942327 0.524093
000210 b5 c4 27 3e 83 ad fa be 6d 88 9d be 86 ea fe 3c
       0.16383632 -0.48960504 -0.30768147 0.031117689
000220 c7 5a dc bd 14 db 31 3f 4f bc 82 be fd 9f ee 3e
       -0.10759502 0.6947491 -0.25534293 0.46606436
000230 63 47 3d bf c1 41 38 3c 27 0b ed be ce 34 b7 be
       -0.7393705 0.011246146 -0.4629757 -0.35782474
000240 11 0a cf bd 75 69 9d 3e c8 08 7a bd e4 f8 08 be
       -0.10109342 0.3074452 -0.06104353 -0.13376194
000250 76 67 8e be 60 8f a2 3d cd 7b 1c bf 84 99 3e 3f
       -0.2781331 0.07937503 -0.61126405 0.74452996
000260 a9 34 23 bf 14 b6 19 3d 02 f7 c0 3e a4 78 bc 3b
       -0.6375223 0.03752716 0.37688452 0.005751686
000270 44 ce bc bc 9c f0 ac 3c 5b f1 2e 3e 0c 2e 9d bf
       -0.023047574 0.021110825 0.17084257 -1.2279677
000280 4f 46 13 3f 02 62 f7 bd 81 46 91 3d a5 cc 40 be
       0.5752916 -0.120792404 0.07093526 -0.18828066
000290 c1 a6 00 be ce eb 69 3e e2 b0 99 3e bd ad 93 3d
       -0.12563612 0.22843859 0.30017763 0.07210872
0002a0 0e 22 e9 3e 35 26 32 be 39 e6 32 be ee d3 37 3d
       0.45533794 -0.17397387 -0.17470635 0.044879846
0002b0 e0 3b f3 be cc 86 d7 be b7 93 eb 3d bd de b0 bb
       -0.47506618 -0.4209503 0.11502784 -0.005397646
0002c0 00 fe 86 3f f5 af 83 3e fa 08 3f be 4a a2 7a be
       1.0546265 0.25720182 -0.18655768 -0.24475971
0002d0 7e bf 05 3e c3 39 03 3f 82 85 83 bd c1 66 c7 be
       0.1306133 0.5126001 -0.06421949 -0.38945583
0002e0 53 10 49 be 42 68 3f 3f a8 94 cc 3c 3d d3 03 bf
       -0.19635133 0.7476846 0.024973229 -0.514942
0002f0 fa 8b 7f 3d bf 49 fe be 66 53 b7 be 21 cf da 3e
       0.06238935 -0.4966564 -0.35805815 0.42736152
000300 bc ef 06 be a1 88 bd be 4a 8b 9c be 19 c2 31 bf
       -0.13177389 -0.37018302 -0.3057502 -0.69436795
000310 1f 70 e1 3d f5 6a 12 be fc 64 19 be 3d d1 34 bf
       0.110077135 -0.14298613 -0.14979929 -0.7063177
000320 1a b2 48 bc fa 0b b3 be 41 96 61 bf 8f 73 db bc
       -0.012249494 -0.34970075 -0.88119894 -0.026788501
000330 bf 73 54 3e 8f e5 1b 3f 40 9a c6 3d 1b c3 a1 be
       0.20747279 0.60897154 0.096973896 -0.31594166
000340 f3 4a c2 3e 8d 1f 41 bd 44 73 28 3f 28 58 51 3d
       0.37947807 -0.04714923 0.6580088 0.051109463
000350 62 a2 c6 3e 6c 87 d2 3d ad 16 08 3d 70 10 ec be
       0.38795763 0.10279736 0.03322475 -0.4610629
000360 3f 83 42 3f 79 ed 95 be e9 ef 79 3e 36 e3 67 3d
       0.75981516 -0.2928274 0.24407925 0.05661317
000370 19 fb 81 3d dc 25 bb bc 50 47 dd be 90 15 e7 bd
       0.06346721 -0.022845201 -0.4321847 -0.112834096
000380 23 ff 59 be 9d 82 de be d6 a1 e0 3e a3 44 e8 3e
       -0.21288733 -0.43459025 0.4387347 0.45364866
000390 4c d7 f7 3e 62 58 93 3e b4 a5 43 bf 8d 3a 97 3e
       0.48406446 0.28778368 -0.7642472 0.29536858
0003a0 12 07 0b bf 2c ec 02 3f c3 00 42 3e 56 58 24 bf
       -0.54307663 0.5114162 0.18945603 -0.6419729
0003b0 cd 10 0f bd 17 09 87 bd cb 4e b6 be 33 14 b3 bc
       -0.03492813 -0.065935306 -0.3560699 -0.021860218
0003c0 7b 5a 5b 3e 8c 36 d6 3e 68 71 1e bf 5d 9c aa 3c
       0.21421234 0.4183849 -0.61891794 0.020826513
0003d0 ff 9d 71 be 8c d1 6b 3f 96 1d e4 bd 96 a4 7b be
       -0.23595427 0.9211662 -0.111384556 -0.24574503
0003e0 d2 88 1b bd 4e b5 06 bb 51 fc 51 3e 39 b4 34 bf
       -0.03797228 -0.0020554843 0.20506407 -0.705875
0003f0 6a 42 ee 3c b2 e8 63 be 63 36 d7 3c 0f 02 65 3e
       0.029084403 -0.22256735 0.02627105 0.22364067

fc1.bias f4 [64]
000000 e1 b7 ef 3c 55 4e 0c 3e 7d 0e d2 be f8 99 61 3e
       0.029262485 0.13701756 -0.4102668 0.2203139
000010 cb 94 8a 3e 2e a0 df 3a d4 8d 13 be c0 3c f6 bd
       0.27066645 0.0017061287 -0.14409572 -0.12023306
000020 40 55 de be 01 2e 5a 3e c9 14 04 3e 97 50 9c be
       -0.43424416 0.21306612 0.12898554 -0.30530235
000030 e6 e2 a2 bf 77 93 a6 be 99 02 47 3e 8b de 7c be
       -1.2725494 -0.32534382 0.19434585 -0.24694268
000040 22 a6 e2 be 51 5e c1 be a0 3e 8d 3f a5 6d 5a be
       -0.44267374 -0.3776727 1.1034737 -0.21330889
000050 58 3f 48 bf d4 51 db be df 8c 4c be 86 54 42 3f
       -0.78221655 -0.42835867 -0.19975613 0.7591022
000060 7d e5 54 3e cf a5 3b be a7 22 a7 be 2b 6a 9a be
       0.20790668 -0.1832497 -0.32643625 -0.30159125
000070 f0 53 17 bf 6b ed dd 3e 69 10 ba bd 22 9a b4 3e
       -0.59112453 0.43345198 -0.09085161 0.35273844
000080 28 8d 61 bd 6a 42 4a 3e 72 59 09 bf f5 38 55 bf
       -0.055066258 0.19751897 -0.5365211 -0.83290035
000090 ac 47 92 3e a0 13 7f bf 63 19 6a 3d eb 49 0e bf
       0.28570306 -0.9963932 0.057153117 -0.5558154
0000a0 76 fd b3 be 7c 9c 94 bd b3 26 62 bf e2 ee f5 3e
       -0.35154313 -0.072564095 -0.883403 0.48033816
0000b0 de 0a 9a 3d 7a 82 40 bf 76 1d 2b 3e 85 f5 c1 bd
       0.07521604 -0.7519909 0.16710457 -0.09470657
0000c0 9e 23 c5 3e db d0 f4 be e5 68 1e bc fe 70 d3 3e
       0.38503736 -0.47815594 -0.0096685635 0.41297144
0000d0 07 d2 99 bf b3 4a ac 3e 92 f1 9f bd 78 50 27 bf
       -1.201722 0.3365074 -0.07809748 -0.6535716
0000e0 f3 c7 28 bf 6b a8 10 3e 8e ff 68 bf f8 10 d6 be
       -0.659301 0.14126746 -0.91014946 -0.4180982
0000f0 5d c6 e1 3d 10 95 44 3e 81 bc 4b 3e aa 89 30 3e
       0.11024163 0.19197488 0.19896127 0.17240015

fc2.weight f4 [64, 64]
000000 e7 d5 b6 3e cf 77 dd 3e 32 ba 00 3e ae 7b c8 3e
       0.3571007 0.4325547 0.12571028 0.3915686
000010 c6 be 8c 3e 17 d3 fc 3c 2b dc ec be 18 37 6c bd
       0.274893 0.030862374 -0.46261725 -0.05766973
000020 73 84 00 bf 64 a8 d2 be a1 c4 5d be c2 06 26 3e
       -0.502021 -0.41144097 -0.21657039 0.16213515
000030 b4 e3 31 3f 6d b9 35 3e f8 26 82 3e 60 86 25 bf
       0.6948807 0.17746516 0.25420356 -0.64658165
000040 99 4c ef be a9 42 b6 be d5 f2 17 3e c3 aa 65 3e
       -0.46738127 -0.35597733 0.14838727 0.22428422
000050 03 20 e1 be 1f ab 08 bf ea 44 20 3c d4 ae 86 bc
       -0.43969736 -0.5338611 0.009782055 -0.016440786
000060 81 e8 de 3e 37 33 e8 be 02 d6 65 3e 54 7a 31 be
       0.4353676 -0.45351574 0.22444919 -0.1733182
000070 f6 cd bd 3e cf 22 0b be 3e 6d 24 bf 70 d0 05 be
       0.37071198 -0.13587497 -0.6422919 -0.13067794
000080 00 f1 1a 3e b8 f5 1c 3d fc 04 03 3e a7 79 09 3f
       0.15130997 0.038320273 0.1279487 0.5370125
000090 66 61 50 3e 2b d7 a6 3e ce 8c fe be c1 47 75 be
       0.20349655 0.32586035 -0.497168 -0.23953153
0000a0 e6 3d fc 3d a5 24 8b be fe fb fe 3d e9 d2 5d be
       0.12316494 -0.27176395 0.124504074 -0.21662487
0000b0 4d 8f 08 3e 4a 4e 5c 3e 87 71 46 bf e2 84 00 3f
       0.13335915 0.2151424 -0.7751698 0.50202763
0000c0 9f 6e 15 bb 67 df a0 3d 64 27 39 3e 8b f0 4a 3d
       -0.002280153 0.078551106 0.18081433 0.049545806
0000d0 4f be 21 3f b5 35 97 3c 1a b8 be 3e f7 70 c3 3d
       0.6318101 0.018458227 0.37249833 0.09543031
0000e0 6e 33 a6 bd 90 bc b5 be b5 51 8b bd cc e0 ee be
       -0.08115278 -0.35495424 -0.06802694 -0.4665588
0000f0 34 03 ed 3d 0d 4e a8 bd f9 8f ad bc d2 2f 8f 3e
       0.115728766 -0.08218012 -0.021186816 0.27966172
000100 c5 b7 a0 3e eb 12 65 be 84 6d 93 3e b9 f5 33 be
       0.31390205 -0.22370498 0.2879449 -0.17574205
000110 e4 df 2d be 39 71 d6 3e 09 42 42 be 38 e2 5c bd
       -0.16979939 0.41883257 -0.18970503 -0.053926677
000120 7f 79 8f 3e 42 26 07 3d 1c e9 08 3f 74 04 d8 3e
       0.28022382 0.03299547 0.53480697 0.42190897
000130 3d 28 fa 3d 42 1c 17 be c9 11 e1 bb 9b ce d9 3e
       0.12214706 -0.14756873 -0.0068685752 0.4254044
000140 47 d4 76 be d5 9d 41 bd 3a 01 03 3d 9f 94 da 3d
       -0.24104415 -0.04726966 0.03198359 0.106728785
000150 7a c2 f9 3e cd 0a 91 3d a9 9f c2 3d 84 bc 25 be
       0.48781186 0.07082138 0.09503109 -0.16185194
000160 fc 03 84 3b 7a 27 b2 3e 8b 1a e0 be d1 9f 59 bd
       0.0040287953 0.34795743 -0.4377025 -0.05313093
000170 f4 14 8d 3e f9 8e dc bc 97 47 5e 3e 58 bd 25 be
       0.27555048 -0.026923643 0.21706997 -0.1618551
000180 cf e1 15 bf 95 37 1e bf 5a 77 83 bd 75 9a 03 be
       -0.5854768 -0.6180356 -0.06419249 -0.1285189
000190 12 e7 e8 be fb 70 5b bf 8e b5 14 be 2f f5 e4 3e
       -0.45488793 -0.8571927 -0.14522383 0.4471831
0001a0 3c 2a 9f be d9 ca a1 be 59 55 5f be 89 8c 6f 3d
       -0.3108691 -0.31600073 -0.21809901 0.058483634
0001b0 53 f3 97 bd ea 27 62 be 31 b4 32 3e 95 c5 90 3e
       -0.07419457 -0.22085539 0.1745155 0.28275743
0001c0 c3 d6 a4 be 06 e8 aa 3f 92 32 d3 be 21 b1 6d bf
       -0.321951 1.3352058 -0.4124952 -0.928484
0001d0 2e 57 87 be 72 3a ca bd 53 2c f6 3c 48 41 9b be
       -0.264337 -0.09874429 0.030050432 -0.30323243
0001e0 a4 cc 45 3e 75 69 2b bf ee 58 72 3f 10 69 27 3e
       0.19316345 -0.6695779 0.94666946 0.16348672
0001f0 39 71 e7 3d f6 de c1 bd 9b 4e 14 bf 77 55 ea bd
       0.113008924 -0.094663545 -0.5793244 -0.114420824
000200 a4 f0 99 3d 3c 6f ca bd d9 c3 31 3e 49 f4 c2 be
       0.07516602 -0.098844975 0.17359866 -0.38077
000210 01 d0 dc bf af 7d 91 3a 12 fa cb be 0c 86 08 3f
       -1.7250978 0.0011100079 -0.39839226 0.5332954
000220 aa 06 be be 8f 05 24 3e ed 04 66 3e 70 c1 3d bf
       -0.3711446 0.16017745 0.22462817 -0.7412329
000230 16 9a e0 3e b2 17 6a be 21 be f9 be 0c 2c ad 3c
       0.43867558 -0.22860602 -0.4877787 0.021139167
000240 03 e2 fa 3c f4 93 06 3e d0 f3 57 be 4e df 87 bf
       0.030625349 0.13142377 -0.21089101 -1.0615022
000250 86 51 ad be 6f 3b 8d bc a2 4c 61 bd 6b 92 3f 3e
       -0.3385126 -0.017240254 -0.055004723 0.18708198
000260 4a 1b 9a 3d d7 63 ad 3d 4a 64 f2 3d 05 25 32 3d
       0.07524736 0.084663086 0.11835535 0.043492336
000270 3c 57 7a be cc a1 cf bd 9a c4 f7 3e 1f 1c 90 be
       -0.2444734 -0.10138282 0.48392183 -0.28146455
000280 7f 1f 77 bc 40 fc 93 3e ad 4f 3b be 19 4d b6 be
       -0.015083193 0.2890339 -0.18292113 -0.35605696
000290 a8 0b 2e 3e 4c f7 8c 3e 14 53 9c 3e 6c d6 9e 3e
       0.16996634 0.27532423 0.30532134 0.31022966
0002a0 bc 5f 3b 3d a7 27 2d be 9d 7f 87 bd 68 4f 64 be
       0.045745596 -0.16909657 -0.06616137 -0.22295916
0002b0 ac 1b f2 3d 8a 66 c8 3d 0d b9 9a 3c 15 9a 68 3d
       0.11821684 0.09785183 0.018887067 0.05678757
0002c0 c3 cc 93 3e 9c be 8c 3e 1b 50 90 bd 5b 1e cf 3d
       0.28867158 0.27489173 -0.07046529 0.10113212
0002d0 4a e8 65 bf f9 7f 3a be af 62 ff 3b 87 78 eb bd
       -0.8980757 -0.1821288 0.0077937464 -0.11497598
0002e0 dd 06 1a 3f 43 43 bd be ae 03 74 bd 80 41 87 be
       0.6016672 -0.3696538 -0.05957382 -0.2641716
0002f0 e5 98 20 3e d3 53 1f bf 6f 1d c4 bc bd af 0e be
       0.15683325 -0.6223728 -0.023939816 -0.13934226
000300 c3 2a e1 3b d8 5f 11 bf f5 88 43 3e 10 88 a3 3e
       0.0068715527 -0.5678687 0.19095214 0.31939745
000310 49 e3 55 3d 7f ff 1c be 37 c5 a7 be 7d 77 f7 bd
       0.05221871 -0.15331839 -0.3276765 -0.120833375
000320 a3 6c c8 be c7 ca 25 3d 0e a3 07 3e 0a f8 11 be
       -0.39145383 0.040476587 0.13245794 -0.14254776
000330 45 9f e2 be a1 52 d8 3d 1c b8 2c be 10 f5 96 3d
       -0.44262138 0.10562635 -0.16867107 0.07370961
000340 51 bb 29 bf ae 97 8a be 30 07 2f 3e 46 6c b3 3d
       -0.6630145 -0.27068847 0.17092586 0.08760886
000350 d5 93 e3 bc da 1f 47 be f2 a6 82 3d 0d 1a 2b 3e
       -0.027780453 -0.19445744 0.063794985 0.16709156
000360 56 87 85 3e 63 31 dd 3d a8 e0 37 3b 43 5c 67 be
       0.26079816 0.108004354 0.002805749 -0.22593789
000370 f2 04 1e bf b7 6d f4 3e 4e a1 07 bd 83 25 34 3d
       -0.61726296 0.47739956 -0.033112817 0.043981086
000380 0e 9a c0 3d 95 de 19 bf f2 a8 55 bf 2a 34 8c be
       0.094043836 -0.6010526 -0.83460915 -0.27383548
000390 ba 2f 73 3e 6b 0f 73 be 38 55 e3 bb d9 ee 04 be
       0.23748675 -0.2373635 -0.006937649 -0.12981738
0003a0 a7 9c d4 be e3 c3 1d bf bf 12 0c 3f e8 1d 20 3e
       -0.41525766 -0.61627024 0.54716104 0.15636408
0003b0 60 12 f5 be 60 28 4a be fd b7 8c 3e 08 3e 6e 3d
       -0.47865582 -0.19741964 0.27484122 0.058164626
0003c0 0c c3 f7 3d 24 6e cf be 84 64 5f 3e 6d 20 da bd
       0.12097749 -0.40513718 0.21815687 -0.10650716
0003d0 41 7b 91 bc 2f 5c 83 be 37 38 1c 3e 19 0d cc 3d
       -0.017758967 -0.25656268 0.1525582 0.09963436
0003e0 05 37 dc be d2 90 3c 3d 48 6c e1 bd b5 e8 8d bd
       -0.43010727 0.04603655 -0.11006981 -0.06929151
0003f0 4d 70 86 bd a6 cf 00 3e 60 1a 5c be 7b 37 75 be
       -0.065643884 0.12579212 -0.21494436 -0.23946945

fc2.bias f4 [64]
000000 ac b0 9e bd 3d 99 c0 be 6a 6e 57 bc 14 17 c7 3d
       -0.07748541 -0.37616912 -0.013148883 0.09721199
000010 07 4e ba 3e 12 81 fc 3d d9 1c ad be 35 95 eb 3e
       0.36387655 0.12329306 -0.33811072 0.46012273
000020 06 36 3f 3e 28 d6 a6 3d cf 94 97 3d 58 1d 9f 3e
       0.18672952 0.08146316 0.0740143 0.31077075
000030 63 3a 2e 3e 65 87 8a bc d8 1e 91 3e f4 ff dc 3c
       0.1701446 -0.016910264 0.28343844 0.026977517
000040 9d 93 72 be 9b d5 0b 3f 32 d9 7d be ea 75 70 3e
       -0.23689122 0.5462281 -0.24789885 0.2348248
000050 6a bc cb 3e f6 30 0b 3e 67 5e 13 3e 27 98 7c 3e
       0.39792186 0.13592896 0.1439148 0.24667417
000060 a4 67 00 3d 8d f2 12 3f 4b 79 bf 3e e4 4f d9 bd
       0.03134884 0.57401353 0.37397227 -0.10610941
000070 40 35 8c bd 03 c7 85 be c1 9d 80 bd a5 ef be 3d
       -0.06846094 -0.26128396 -0.06280089 0.09323052
000080 f8 07 bf bd d3 cb 43 be 78 62 de 3c 4e 3e 84 be
       -0.09327692 -0.19120722 0.027146563 -0.25828785
000090 17 48 5e 3e 84 df 75 bd d7 41 d3 3e ff 01 9c be
       0.21707188 -0.060027614 0.4126117 -0.30470273
0000a0 60 d4 73 3e 29 2f 85 3d e0 38 44 3e bf ad 00 3c
       0.23811483 0.06503136 0.19162321 0.007853924
0000b0 44 45 cf 3d cf ad 9b be 13 b2 f7 3d ed 62 18 3e
       0.10120633 -0.30406043 0.12094512 0.14881487
0000c0 91 ae 1e bf f1 60 20 bd 24 ba 84 be fb 6e f1 3c
       -0.6198512 -0.03915495 -0.25923264 0.029471865
0000d0 e8 ea d4 3d 6e 74 ec 3d 79 cb 93 3e 29 2f ee 3e
       0.10396367 0.11545645 0.28866175 0.46520355
0000e0 a7 69 c6 3d fc b6 83 bd c2 ec 1f bd a5 60 28 3d
       0.0968812 -0.06431386 -0.03904415 0.041107792
0000f0 6c e4 91 3e aa 65 86 3e 37 a3 49 bd 5d d8 b4 3e
       0.28494585 0.2624944 -0.04922792 0.35321322

fc3.weight f4 [2, 64]
000000 2b 5d 53 3e 3e 22 16 be dc c8 e9 be d7 ff 3b be
       0.2064101 -0.146615 -0.45661056 -0.18359314
000010 eb 5e a1 3e 50 df 27 3e c6 82 d8 3e bc 1e 8a bd
       0.3151773 0.1639378 0.42287272 -0.06744143
000020 37 fe d6 be c2 32 49 3d d7 3c 22 3e 92 42 fc 3e
       -0.41990826 0.049120672 0.15843521 0.4926954
000030 f5 c9 f3 be 0f b4 4a be 46 26 a6 be cc f1 27 3c
       -0.47615018 -0.1979525 -0.32451075 0.01025052
000040 aa 85 b2 3d 86 c8 12 be e8 cf 07 3e db e9 8f 3e
       0.08716901 -0.14334306 0.13262904 0.28108105
000050 be 8e a9 bb 21 34 93 be c3 21 85 3e 93 7b ab 3e
       -0.005174487 -0.2875071 0.2600232 0.33492717
000060 d8 a8 d5 be 42 5a aa 3d a3 6a d1 bc d2 ee 49 be
       -0.4173038 0.083179966 -0.025563544 -0.19720009
000070 e1 f0 65 be b1 4c dd 3d af fb 9d 3d 4d 93 9f 3c
       -0.2245517 0.10805643 0.077140205 0.019479418
000080 b7 74 a3 be 13 a8 e9 3e 51 78 2f 3e f5 d7 32 3d
       -0.31924984 0.45636043 0.17135741 0.043662984
000090 ee 39 82 bc 17 35 87 3e 0e b0 e4 bc 82 cf dd bd
       -0.015896764 0.26407692 -0.02791598 -0.108305946
0000a0 e6 47 de 3e df 0a 20 3f 47 69 a2 be ff 2c 12 3d
       0.4341423 0.6251659 -0.31720945 0.035687443
0000b0 33 d3 4c 3d 24 05 29 be f5 d9 c6 bc 4d 8c 8f be
       0.050006103 -0.16505867 -0.024273852 -0.28036729
0000c0 b4 8f 4b 3e 0b 1d 64 be d7 f0 83 bd 19 98 70 bd
       0.19879037 -0.22276704 -0.06442421 -0.0587388
0000d0 5d 66 36 3e 08 e7 9f 3e 78 f5 79 3e 5c b0 fe bd
       0.17812486 0.3123095 0.24410045 -0.12435982
0000e0 59 15 b6 3e 34 a8 87 3d 0f e0 c0 3e b7 51 46 bf
       0.35563162 0.06623879 0.37670943 -0.77468437
0000f0 e2 ea 04 be 85 98 59 3d 56 38 86 bf 0a 91 12 be
       -0.12980226 0.05312397 -1.0485942 -0.1431314
000100 55 e4 15 3f b0 49 80 bf 82 39 ab be f6 fe 7a be
       0.5855153 -1.0022488 -0.33442312 -0.24511322
000110 8f 06 5f 3d 26 5d 21 3f 5a 5a 2c 3e 67 12 50 3f
       0.054449614 0.6303276 0.16831341 0.8127808
000120 c4 77 d9 bd ad 11 46 3f 87 e1 88 be c5 3f fc 3d
       -0.106185466 0.7737072 -0.26734564 0.123168506
000130 5f a6 97 be 7e 8e 8b 3e ba 4b 21 bf fd 73 a5 3e
       -0.2961912 0.2725715 -0.63006175 0.32315055
000140 f9 d7 2c bf 9a 14 96 bf 85 94 41 3f cc d2 35 3e
       -0.6751705 -1.1725037 0.7561725 0.17756194
000150 a0 83 40 3f 5c 32 98 bd 58 c4 dc ba bc c6 1c be
       0.75200844 -0.0743148 -0.0016843183 -0.15310186
000160 30 3d 8b 3d cf c8 f8 3e 63 68 f5 be 22 33 f8 be
       0.0679878 0.48590705 -0.47931203 -0.4847651
000170 2c 10 c5 be 02 0e 46 bf e5 1f b3 3e 87 00 b0 3f
       -0.384889 -0.77365124 0.3498527 1.3750161
000180 d9 f2 df 3d 11 e6 b6 be f5 54 01 bf 54 dc 33 bf
       0.109349914 -0.35722402 -0.5052026 -0.7025807
000190 d0 0d f2 3f 12 b5 65 be 97 9f ed 3e 95 44 8c be
       1.8910465 -0.22432354 0.4641082 -0.27396074
0001a0 50 c9 78 3e f5 63 3e 3e 9a 4a 62 be d7 14 8c bf
       0.24295545 0.18592818 -0.2209877 -1.094386
0001b0 c5 64 8e be 8d cb 47 3f 0b 08 b3 be d2 89 69 be
       -0.27811256 0.7804497 -0.34967074 -0.2280648
0001c0 9b 22 84 bf ea 80 4f 3e 09 5e 5c bf 14 09 9c 3e
       -1.0323061 0.2026402 -0.86080986 0.30475676
0001d0 f1 20 ae be 56 db 41 bd f2 d4 79 3e 31 94 23 3f
       -0.34009507 -0.047328316 0.24397638 0.63898
0001e0 ac 38 e3 bb de b9 c0 be 67 0a 86 3e ed b5 26 be
       -0.006934246 -0.37641805 0.2617981 -0.16280337
0001f0 8d 0c d2 3e d3 3b f6 be b0 3a 45 be c2 32 02 3f
       0.410252 -0.48092517 -0.19260669 0.508587

fc3.bias f4 [2]
000000 77 12 37 be 17 aa 42 bd
       -0.17878138 -0.04752549
