Model/model_noisy_42_64.pth (torch, 22450 bytes, 7 tensors)

input_weights f4 [8]
0	0x40a00000	5.0
1	0x40a00000	5.0
2	0x40a00000	5.0
3	0x3f800000	1.0
4	0x3f800000	1.0
5	0x3f800000	1.0
6	0x3f800000	1.0
7	0x3f800000	1.0

fc1.weight f4 [64, 8]
0	0xbc715761	-0.014730305
1	0xbc3e9e96	-0.0116344895
2	0xbbbec9db	-0.005822403
3	0x3bf6f7d4	0.0075368676
4	0x3d0d6a56	0.034525238
5	0x3eb1977e	0.34685892
6	0x3d2afd0e	0.041745238
7	0xbf03ec4d	-0.5153244
8	0x33f8dc4a	1.158847e-07
9	0x32e2823c	2.6369086e-08
10	0x32996974	1.7859499e-08
11	0xb414f97c	-1.3874336e-07
12	0xb409d4b1	-1.2836496e-07
13	0xb4ae76ec	-3.2496553e-07
14	0xb3a8e52a	-7.864794e-08
15	0xb37505ac	-5.7048666e-08
16	0xb3a2f16b	-7.5876265e-08
17	0xb3922658	-6.8056295e-08
18	0xb2b47e70	-2.1012255e-08
19	0xb414406e	-1.3807013e-07
20	0xb4e5692a	-4.273109e-07
21	0xb47a4a7a	-2.3310159e-07
22	0xb30a4e30	-3.220174e-08
23	0x30865ee0	9.776748e-10
24	0x341d02b6	1.462275e-07
25	0x33cfe756	9.6812684e-08
26	0x3495321d	2.7789875e-07
27	0x33cca01b	9.528613e-08
28	0xb4e8728a	-4.3296706e-07
29	0xb12a1b40	-2.4753746e-09
30	0xb375ead4	-5.7257083e-08
31	0xb3d6e45f	-1.0006692e-07
32	0xbd3365c4	-0.043798223
33	0xbdfd91eb	-0.12381347
34	0xbe26a3ab	-0.16273372
35	0x3e88c5c7	0.26713392
36	0x3bfba4dc	0.007679565
37	0x3c9fbfff	0.01950073
38	0x3842f3a7	4.6480123e-05
39	0x3bbcad1e	0.005757942
40	0xb2c5b7dc	-2.3017428e-08
41	0x33f65975	1.147154e-07
42	0x33c1d98c	9.0268344e-08
43	0xb4a417d3	-3.0564715e-07
44	0x336ecd64	5.5600495e-08
45	0x3417e0d4	1.4144763e-07
46	0xb3c93ac3	-9.3704806e-08
47	0xb3a6d6cf	-7.769051e-08
48	0x3e3247b4	0.17410165
49	0x3c6390b6	0.013889482
50	0xbe788f0f	-0.24273323
51	0xbcbf8150	-0.02337709
52	0x3ccf9e77	0.025344117
53	0x3892ad0e	6.9940565e-05
54	0xbd0a378b	-0.033744376
55	0x3ddd0845	0.10792593
56	0x373a576b	1.11068175e-05
57	0x378e3744	1.6953454e-05
58	0x3e26e232	0.16297224
59	0xbdc8d698	-0.098065555
60	0xbca1bad9	-0.019742416
61	0xbce8cc52	-0.02841774
62	0xbd628534	-0.055302814
63	0x3efc6740	0.49297523
64	0x3ea0fef3	0.3144451
65	0x3c8df746	0.017329823
66	0x3d1f8b64	0.038951293
67	0xb799d1bc	-1.8336686e-05
68	0x3cae130b	0.021249315
69	0x3d0947f8	0.0335159
70	0xb6c0248b	-5.7263e-06
71	0x3715077f	8.882837e-06
72	0xb868797d	-5.5426255e-05
73	0x37a70bc6	1.9913434e-05
74	0xb6dd161a	-6.588886e-06
75	0x3980fe99	0.00024603753
76	0xb6e4a0c3	-6.8136446e-06
77	0xb60ffd4b	-2.1456096e-06
78	0x3f854591	1.0411855
79	0x3688fdc9	4.0826603e-06
80	0xb447b236	-1.8598152e-07
81	0x3480b642	2.3974468e-07
82	0x33b99ff2	8.643828e-08
83	0x33c5145a	9.177229e-08
84	0xb405743d	-1.2428877e-07
85	0xb4e89b3c	-4.3326315e-07
86	0x32fd7b5c	2.9509174e-08
87	0xb2a5cb68	-1.9301027e-08
88	0xb3dcf474	-1.0289014e-07
89	0xb414866c	-1.3832476e-07
90	0x32d980b8	2.532066e-08
91	0x34586ee3	2.0156908e-07
92	0x338fb092	6.6910744e-08
93	0xb46594ab	-2.1381372e-07
94	0x2e032c00	2.982503e-11
95	0x32979b30	1.7649285e-08
96	0x3d28032a	0.041018642
97	0x3d970d38	0.07375568
98	0x3e074b70	0.13212371
99	0xbde43145	-0.1114221
100	0xbc69d00f	-0.014270796
101	0xbd21517e	-0.039384358
102	0xbbe68e79	-0.007036027
103	0xbd3bd97e	-0.045861714
104	0xbe8d3a71	-0.2758365
105	0x3c42b09a	0.011882925
106	0x3e800055	0.25000253
107	0xbba39f0d	-0.0049933256
108	0xb8b27821	-8.510077e-05
109	0x39fb7559	0.00047961882
110	0x3ce2fb89	0.027707832
111	0x3e022414	0.12709075
112	0x3c2e8669	0.010652163
113	0x3cac650b	0.021044275
114	0x3de837b3	0.11338749
115	0x3e809f30	0.2512145
116	0xb88b0359	-6.62866e-05
117	0x3dd2787d	0.102768876
118	0x3c06ad4c	0.008220028
119	0x3da5ac70	0.080895305
120	0xb3650a11	-5.3327373e-08
121	0xb2ad4d52	-2.0175012e-08
122	0xb3ee5b68	-1.1099365e-07
123	0x32cf8970	2.4160471e-08
124	0x338703c2	6.287111e-08
125	0xb1e28214	-6.592254e-09
126	0x33397c78	4.3186873e-08
127	0xb31e1420	-3.6805545e-08
128	0x33e27320	1.0544886e-07
129	0xb3b61754	-8.479279e-08
130	0x3287df08	1.5817491e-08
131	0xb42e9c8e	-1.6261967e-07
132	0x33ae5ae8	8.119042e-08
133	0x34209d44	1.4958374e-07
134	0x30f38d40	1.7720723e-09
135	0x3380affe	5.992477e-08
136	0xb37b720a	-5.854421e-08
137	0xb39deb92	-7.353732e-08
138	0x33cf973b	9.666697e-08
139	0x33dececd	1.03752974e-07
140	0x32ca798c	2.3571168e-08
141	0xb34cae56	-4.765601e-08
142	0x349848ef	2.8365272e-07
143	0xb2ab9dbd	-1.9978751e-08
144	0x323dc9b8	1.10471134e-08
145	0x33b49e0f	8.410654e-08
146	0x31eee5b0	6.952824e-09
147	0x3434234a	1.6776644e-07
148	0x330eed98	3.327804e-08
149	0x3289552c	1.598763e-08
150	0x343cf938	1.759953e-07
151	0x33f62ca6	1.1463389e-07
152	0x3d0cf633	0.03441448
153	0xbd11669d	-0.03549825
154	0x3df3cdb0	0.11904466
155	0x3c7f41ad	0.015579623
156	0xbbd5f84a	-0.0065298425
157	0x3d50b4c3	0.050953638
158	0x3d5227b9	0.051307414
159	0xbf029115	-0.5100263
160	0x31659920	3.3410927e-09
161	0xb3797220	-5.8078626e-08
162	0x33830869	6.101693e-08
163	0x33b759bf	8.537926e-08
164	0x33d68040	9.98848e-08
165	0xb42902ff	-1.5740441e-07
166	0xb3f72f69	-1.1510458e-07
167	0x33fc0211	1.173504e-07
168	0x341b0838	1.443849e-07
169	0x33930abe	6.847175e-08
170	0x34252086	1.5378654e-07
171	0x331c7929	3.6431775e-08
172	0xb3e524fe	-1.0670372e-07
173	0xb408a6c0	-1.272665e-07
174	0x34082801	1.268054e-07
175	0xb409c9be	-1.2832513e-07
176	0xbd3e43bc	-0.046451315
177	0xbe0991cd	-0.13434525
178	0xbe3377cd	-0.17526169
179	0xbe029e75	-0.12755759
180	0x3d9f4165	0.07776145
181	0x3d6f485a	0.05841861
182	0x34f5de44	4.5796526e-07
183	0xb78c59a8	-1.673105e-05
184	0x3dfadf4d	0.122496225
185	0x3d5aac3b	0.053386908
186	0x3e0278be	0.12741372
187	0x38193494	3.652701e-05
188	0xbce0508b	-0.027382156
189	0xbd29d27b	-0.041460495
190	0x3772f52e	1.4481409e-05
191	0x3e4050c2	0.18780807
192	0xbd6877be	-0.05675482
193	0x3df0dfc7	0.11761432
194	0x3e12e8e6	0.14346656
195	0xbd62ccf7	-0.05537125
196	0xb88f701c	-6.839653e-05
197	0xb7dde475	-2.6451637e-05
198	0x399558f8	0.00028485782
199	0xbd4390a5	-0.047745366
200	0x3e18304f	0.14862178
201	0x3e259cab	0.16173045
202	0x3df69a6a	0.12041171
203	0xbd3e63b9	-0.04648182
204	0xbd5f9647	-0.054586675
205	0xbde67f91	-0.112548
206	0xbc76f17b	-0.015072222
207	0xbdd49f84	-0.10381988
208	0x3cd07b04	0.025449283
209	0xbdbfd345	-0.09366468
210	0x3ed997f9	0.42498758
211	0x3d6d9a07	0.05800822
212	0xbd208987	-0.039193656
213	0xbc3d698c	-0.011560809
214	0x37e645a4	2.7450566e-05
215	0xbbcd04e2	-0.0062566856
216	0x3406643d	1.2516189e-07
217	0x33d6d2a7	1.0003469e-07
218	0xb15d9aec	-3.2247796e-09
219	0x33f3bb42	1.1349631e-07
220	0xb4613730	-2.0974835e-07
221	0x3341c223	4.511288e-08
222	0xb23d3738	-1.1013803e-08
223	0xb4113660	-1.3523959e-07
224	0xb234a0f0	-1.0513972e-08
225	0x3404b950	1.2360874e-07
226	0x33e40153	1.0617318e-07
227	0x3418235c	1.4168967e-07
228	0xb3fd7668	-1.18027685e-07
229	0xb2e13760	-2.6218629e-08
230	0xb35a46a0	-5.0821313e-08
231	0xb457fa93	-2.0114594e-07
232	0xb4407eda	-1.7927542e-07
233	0xb437b81d	-1.7110183e-07
234	0x3401c8a3	1.2087052e-07
235	0xb3aa3efc	-7.927699e-08
236	0x342d23c8	1.6124898e-07
237	0xb45624fd	-1.994376e-07
238	0xb435dba4	-1.6936843e-07
239	0xb32c1962	-4.0069956e-08
240	0xb3a72d45	-7.784778e-08
241	0x333265c8	4.1536424e-08
242	0xb47a86a9	-2.3332053e-07
243	0x33d72397	1.00181914e-07
244	0x34232ffb	1.5198013e-07
245	0x3346ca46	4.6284434e-08
246	0xb474635e	-2.276042e-07
247	0xb42bbf1a	-1.5995138e-07
248	0x332f3206	4.079086e-08
249	0x330c984c	3.2734803e-08
250	0x31f65c18	7.170012e-09
251	0x34342484	1.677709e-07
252	0x3386fb18	6.285535e-08
253	0xb31dfe44	-3.6785664e-08
254	0xb3017f91	-3.0151174e-08
255	0x34188c90	1.420724e-07

fc1.bias f4 [64]
0	0xbdb907dd	-0.09034703
1	0x33b3716e	8.35597e-08
2	0x3426b6ba	1.552643e-07
3	0x339a2ce2	7.179348e-08
4	0xbe839bb2	-0.25704724
5	0x33d92e46	1.0113267e-07
6	0xbf231a48	-0.63711977
7	0x3ecb6b2e	0.3973021
8	0xb72bd9e3	-1.0243125e-05
9	0x36fce41e	7.5367416e-06
10	0xb3859cc1	-6.2218085e-08
11	0xb276af6e	-1.4358973e-08
12	0xbfa1e7f8	-1.2648916
13	0xbf3669fd	-0.71255475
14	0xbd2814e9	-0.041035566
15	0xb48416f4	-2.4603617e-07
16	0xb415711f	-1.391786e-07
17	0x32b3d978	2.0937236e-08
18	0xb3fb02c3	-1.1688601e-07
19	0xba5c0419	-0.00083929446
20	0x3246a810	1.156333e-08
21	0xb38c39bc	-6.52976e-08
22	0x3787694c	1.6142287e-05
23	0x3e5686b8	0.20949829
24	0xbf47e407	-0.7808232
25	0xbf6e27be	-0.9302939
26	0xbf5a83a3	-0.8535711
27	0xb41bf491	-1.4524473e-07
28	0x342894e2	1.5700383e-07
29	0xb206d120	-7.847376e-09
30	0x34360221	1.6950845e-07
31	0x341569d4	1.3915206e-07
32	0xbebccc65	-0.3687469
33	0x3ec3b259	0.38222006
34	0xb79ad0c9	-1.8455454e-05
35	0xb3b37df7	-8.35825e-08
36	0xb40c72d4	-1.308029e-07
37	0x37f36e5d	2.901925e-05
38	0xb404b25a	-1.2358342e-07
39	0x3efec1c3	0.49757203
40	0x3eb2ee63	0.349475
41	0xbd0ef902	-0.03490544
42	0x3393bfd1	6.880112e-08
43	0x36f38f79	7.2586668e-06
44	0x3f324ba9	0.696467
45	0x33660763	5.3557766e-08
46	0x33fd1084	1.1784235e-07
47	0xbeead665	-0.45866695
48	0xb420e044	-1.4982749e-07
49	0x3f6cae21	0.924532
50	0xb6a258c6	-4.838311e-06
51	0x32a4fc7c	1.920693e-08
52	0xbefc9896	-0.49335164
53	0x343f4a1c	1.7815222e-07
54	0xbf10777e	-0.5643233
55	0xb35bd55c	-5.118396e-08
56	0x371c579e	9.318725e-06
57	0xbea41665	-0.32048336
58	0xb1ee0020	-6.926726e-09
59	0x34168128	1.4016825e-07
60	0xb7d666c0	-2.5558635e-05
61	0xbd702be8	-0.058635622
62	0xbf9898ae	-1.1921594
63	0x3fc65e46	1.549752

fc2.weight f4 [64, 64]
0	0xb325ab61	-3.8572924e-08
1	0x3356214e	4.9856048e-08
2	0xb396c8d4	-7.02145e-08
3	0xb490fda0	-2.7006627e-07
4	0x33df1c2e	1.03893726e-07
5	0x332ad324	3.977324e-08
6	0xb370ca5e	-5.6063406e-08
7	0xb3dd382a	-1.03013306e-07
8	0x331d1580	3.6573965e-08
9	0x3303b544	3.0665674e-08
10	0x3334b64e	4.207532e-08
11	0xb2bd5a4e	-2.2043562e-08
12	0xb418214b	-1.4168215e-07
13	0xb4f9a066	-4.649657e-07
14	0xb22d5e6a	-1.0091393e-08
15	0xb392199c	-6.803313e-08
16	0x329458d8	1.7269869e-08
17	0x34a98068	3.157213e-07
18	0xb3cb9104	-9.479302e-08
19	0x33ad2db0	8.064251e-08
20	0x3410de86	1.3491999e-07
21	0x33507c40	4.854178e-08
22	0xb485032c	-2.4775488e-07
23	0xb436cc33	-1.7024358e-07
24	0xb489d66e	-2.5674257e-07
25	0x34ad5578	3.2285948e-07
26	0x30998480	1.1169874e-09
27	0xb3e2c76e	-1.0560221e-07
28	0x33d009d5	9.687543e-08
29	0xb2a46640	-1.913861e-08
30	0xb350aed8	-4.8587793e-08
31	0xb3615470	-5.246369e-08
32	0xb45137f9	-1.9485005e-07
33	0xb3fff807	-1.1919479e-07
34	0x3408f492	1.2754961e-07
35	0x34402ed5	1.7898431e-07
36	0xb45961ee	-2.0245326e-07
37	0x340c20d7	1.3050463e-07
38	0x33070c92	3.144357e-08
39	0x33c24fd7	9.048352e-08
40	0x342d4b5e	1.6139299e-07
41	0x342d428f	1.6136094e-07
42	0x33627b04	5.2731608e-08
43	0xb40c1a5d	-1.3048107e-07
44	0xb42c8424	-1.6066821e-07
45	0xb4169918	-1.4025534e-07
46	0x3133df40	2.6174831e-09
47	0x341aba4a	1.4410139e-07
48	0x342bfbaf	1.6017178e-07
49	0xb40ed1e4	-1.3301138e-07
50	0xb40ee4c9	-1.3308012e-07
51	0xb30c0375	-3.2599434e-08
52	0xb1a39140	-4.7604374e-09
53	0xb3f6fb2c	-1.15009556e-07
54	0xb3919dc0	-6.780783e-08
55	0xb38f9d46	-6.687564e-08
56	0x329ff308	1.8620554e-08
57	0xb2a501f4	-1.9209416e-08
58	0xb4480a58	-1.8630215e-07
59	0x3283384c	1.5276008e-08
60	0xb3ebe2e3	-1.0984311e-07
61	0x33213f57	3.754334e-08
62	0x33edc785	1.1072465e-07
63	0xb3997908	-7.146633e-08
64	0xbd399862	-0.04531134
65	0xb32e9d1a	-4.0655415e-08
66	0xb400554e	-1.1951963e-07
67	0x34060be8	1.2484054e-07
68	0xb7bc2ebc	-2.2433109e-05
69	0x34ad47d6	3.227603e-07
70	0x378246b5	1.5530133e-05
71	0xbdbdc924	-0.0926688
72	0x3d04eb8d	0.0324512
73	0xbac60210	-0.0015106816
74	0x33c80e3e	9.3158164e-08
75	0xb43ca042	-1.7567166e-07
76	0xbd8484a2	-0.0647061
77	0xb9254877	-0.00015762621
78	0x3d94598b	0.072436415
79	0xb316a7be	-3.5077157e-08
80	0x33546a08	4.945653e-08
81	0xb40f2a4e	-1.3333303e-07
82	0x344ff9ea	1.9369296e-07
83	0x3c388b6a	0.011263708
84	0xb3a38569	-7.614546e-08
85	0x3391ee55	6.795441e-08
86	0xbe99e404	-0.30056775
87	0xbd09e482	-0.033665188
88	0xb8248080	-3.9220322e-05
89	0x3d6504c3	0.055912744
90	0xbe19e137	-0.15027319
91	0xb3efd148	-1.1167373e-07
92	0x34035faf	1.2235135e-07
93	0xb370c254	-5.6056095e-08
94	0x342033a6	1.4919951e-07
95	0x322a76e4	9.922335e-09
96	0x3ea382e6	0.31935805
97	0x3dc9ae6f	0.09847724
98	0xbc1b426b	-0.0094762845
99	0x3460bbdc	2.0929969e-07
100	0xb369dc52	-5.444992e-08
101	0x3df6bed2	0.12048115
102	0xb48fa3de	-2.6755055e-07
103	0xbcb1cac4	-0.021703131
104	0x3de5cb6e	0.11220442
105	0x3817b442	3.6169084e-05
106	0xb406c162	-1.2550075e-07
107	0x3e16d74e	0.1473057
108	0xb7cdd1da	-2.4535624e-05
109	0xb4140838	-1.3786564e-07
110	0xb3b6ce60	-8.512575e-08
111	0xbf03b797	-0.5145201
112	0x336dd8a0	5.5377882e-08
113	0xbe56d4ae	-0.20979568
114	0xb924297d	-0.00015655714
115	0xb364bf72	-5.3259505e-08
116	0x3dbf841b	0.09351369
117	0xb1536b60	-3.0765577e-09
118	0x3df16296	0.11786382
119	0x33ae2a86	8.1102414e-08
120	0x3d6eccd7	0.05830082
121	0xbe6eb312	-0.23310497
122	0x342b911b	1.5978405e-07
123	0xb40899bd	-1.2721917e-07
124	0xbd820692	-0.063489094
125	0x3888ae7c	6.5174856e-05
126	0x3e0a55e4	0.13509327
127	0x3dbe2ccc	0.09285888
128	0x321b5e36	9.0436085e-09
129	0x3411d04b	1.3579954e-07
130	0x346e37d7	2.2185792e-07
131	0x344f23ae	1.9291357e-07
132	0xb3c312af	-9.0837936e-08
133	0xb401bd35	-1.2082894e-07
134	0x340e775b	1.3268202e-07
135	0x32dff868	2.6073579e-08
136	0xb3ee2ee3	-1.1091267e-07
137	0x32779b3c	1.44125885e-08
138	0xb402888e	-1.2156872e-07
139	0xb3bab9f8	-8.6951275e-08
140	0xb3f7c454	-1.1537546e-07
141	0xb42d7a19	-1.61563e-07
142	0xb2313dd0	-1.03168105e-08
143	0xb432fdd2	-1.6669881e-07
144	0xb2a84df0	-1.9593216e-08
145	0xb38753ec	-6.301693e-08
146	0x332302e1	3.7954013e-08
147	0x335cb978	5.1391424e-08
148	0x33083bd2	3.1719374e-08
149	0x33beaafa	8.878665e-08
150	0x3491afa4	2.713615e-07
151	0xb3b6cb10	-8.511972e-08
152	0xb3f5319b	-1.1417725e-07
153	0x34d715c9	4.0062721e-07
154	0x336d91b4	5.531338e-08
155	0xb3f9e33a	-1.1636298e-07
156	0x31b6db6a	5.3218416e-09
157	0x33dece48	1.0375203e-07
158	0x34131370	1.3697513e-07
159	0xb2fc904c	-2.940228e-08
160	0x33a80f7d	7.825927e-08
161	0xb404bc7c	-1.2362028e-07
162	0x34347f51	1.6810124e-07
163	0x341548b2	1.3903153e-07
164	0xb399d9ec	-7.1642575e-08
165	0xb38e279f	-6.619597e-08
166	0xb3ba5e20	-8.678421e-08
167	0x31870a00	3.930154e-09
168	0x3372ddf0	5.6546867e-08
169	0x3080d370	9.37332e-10
170	0x3460759b	2.090441e-07
171	0xb2e29c17	-2.6380844e-08
172	0x331e20e6	3.6817163e-08
173	0xb30bad50	-3.2521086e-08
174	0xb4244e62	-1.5302206e-07
175	0xb422dcdb	-1.5167772e-07
176	0x327ee3e0	1.4836559e-08
177	0xb3eb8baf	-1.09684485e-07
178	0x344f3569	1.9297808e-07
179	0xb4242792	-1.5288086e-07
180	0xb4d6fdc5	-4.0045248e-07
181	0xb2149a00	-8.649749e-09
182	0xb343c278	-4.5578844e-08
183	0x33a70c86	7.7788215e-08
184	0xb4340ddc	-1.6768848e-07
185	0xb4f6a785	-4.5942957e-07
186	0xb30e5c88	-3.3146108e-08
187	0x32b6c338	2.1276364e-08
188	0xb404f176	-1.2381301e-07
189	0xb14a9360	-2.9478642e-09
190	0xb39e9150	-7.3838805e-08
191	0x3222c118	9.4735455e-09
192	0xb2693ecf	-1.3576666e-08
193	0xb45d62ca	-2.0618168e-07
194	0xb46b617a	-2.1921542e-07
195	0xb1b0f558	-5.1501665e-09
196	0x3471c58c	2.2516741e-07
197	0x3441f4c2	1.8063568e-07
198	0x327c8110	1.4697676e-08
199	0x341fecea	1.4894218e-07
200	0xb1ca1ce0	-5.8822565e-09
201	0xb3974481	-7.043946e-08
202	0x32b13db4	2.0633571e-08
203	0xb3034dcc	-3.057157e-08
204	0x333ef0d4	4.4456854e-08
205	0x348ebd6a	2.6587378e-07
206	0xb3907c88	-6.7281746e-08
207	0xb4780c2e	-2.3101231e-07
208	0xb454729e	-1.9785736e-07
209	0xb3a1f10a	-7.5409915e-08
210	0xb3c5e994	-9.216015e-08
211	0xb42db32c	-1.6177063e-07
212	0xb1a14230	-4.6932414e-09
213	0x33686459	5.4107975e-08
214	0x338e0966	6.6141e-08
215	0xb4c791d6	-3.7172748e-07
216	0x34044eac	1.2322079e-07
217	0x340dbe4e	1.3200881e-07
218	0xb42704be	-1.5554812e-07
219	0x333b6a7a	4.363617e-08
220	0xb42a9800	-1.5887781e-07
221	0xb447ec75	-1.8619342e-07
222	0x33ad1068	8.0589245e-08
223	0x3459d8bb	2.0288546e-07
224	0x33951962	6.94297e-08
225	0xb487d7d6	-2.530275e-07
226	0xb338cb28	-4.3025608e-08
227	0x3341dd7c	4.5137753e-08
228	0xb4d43e1c	-3.9533268e-07
229	0xb43b1f77	-1.7427179e-07
230	0x335c93c5	5.1357137e-08
231	0x338136aa	6.016974e-08
232	0xb4413500	-1.7993807e-07
233	0x32085080	7.9345455e-09
234	0x343a1916	1.7331726e-07
235	0x33360844	4.2382695e-08
236	0x31933c30	4.2851056e-09
237	0x33f91abd	1.159983e-07
238	0x34447df1	1.829974e-07
239	0x3348acc2	4.672325e-08
240	0x342ce248	1.6101069e-07
241	0xb3eee3d4	-1.112418e-07
242	0x3442cf79	1.8143136e-07
243	0x32f4c029	2.8492723e-08
244	0xb4920bb0	-2.7203123e-07
245	0x34b957c2	3.4522787e-07
246	0x3342f014	4.5387495e-08
247	0x3441b885	1.8041654e-07
248	0x340b6a08	1.2983958e-07
249	0xb3eb44b3	-1.09555366e-07
250	0xb461ffc8	-2.104781e-07
251	0xb4a1d1a4	-3.014112e-07
252	0x34376277	1.7079024e-07
253	0x33c6dfe4	9.260819e-08
254	0x345492a9	1.9797393e-07
255	0x33226908	3.781409e-08

fc2.bias f4 [64]
0	0x33d3a456	9.855346e-08
1	0xbf266a43	-0.6500589
2	0x348a1a75	2.5723753e-07
3	0x33620be4	5.263054e-08
4	0x32d567ca	2.4843661e-08
5	0x3495db13	2.791281e-07
6	0xb34be46c	-4.747237e-08
7	0x34156214	1.3912387e-07
8	0x338a38d4	6.436463e-08
9	0x34e10aac	4.191728e-07
10	0xb1db5658	-6.383555e-09
11	0xbe0df9be	-0.138648
12	0x3ab9291c	0.0014126631
13	0x3e75fe95	0.24022897
14	0xb37af838	-5.8433415e-08
15	0x33111152	3.3776196e-08
16	0xb322164c	-3.7738843e-08
17	0xb414c306	-1.3854523e-07
18	0x3eac36a7	0.33635446
19	0x33aabab6	7.9502044e-08
20	0x331f812c	3.7137553e-08
21	0xb4029885	-1.216268e-07
22	0x337cf240	5.8893647e-08
23	0x338a8443	6.450184e-08
24	0xb60047de	-1.9115319e-06
25	0xbbc2ec4d	-0.0059485794
26	0x3e95e7f0	0.29278517
27	0xb47572c0	-2.2859149e-07
28	0xbcc37c5c	-0.02386301
29	0x333b7a7b	4.3650726e-08
30	0xb429e5a8	-1.58229e-07
31	0xb3a91866	-7.874114e-08
32	0x382f1c38	4.1749532e-05
33	0x330c6856	3.2691183e-08
34	0x340fb174	1.338247e-07
35	0xbd2cbe99	-0.042173956
36	0xb82f7225	-4.1829557e-05
37	0x31ddadb8	6.451696e-09
38	0xb37e9ed6	-5.9283444e-08
39	0xb4221d18	-1.509801e-07
40	0xb3af00a2	-8.1491876e-08
41	0x3e9f84fb	0.31156144
42	0xb4b4e9ed	-3.3697816e-07
43	0x33b70d8d	8.5240664e-08
44	0x3ed0f1bb	0.40809426
45	0xb3cd0f40	-9.54883e-08
46	0xb827b53e	-3.9984698e-05
47	0xb30775fd	-3.1539447e-08
48	0xb3d0d996	-9.7253334e-08
49	0x3ea612e2	0.3243628
50	0xb81390f5	-3.5182533e-05
51	0x346ee4fe	2.2248784e-07
52	0x31a73be0	4.8671467e-09
53	0xb402a320	-1.2166538e-07
54	0xb315885a	-3.4815777e-08
55	0x3307dd3a	3.163334e-08
56	0x341f263a	1.4821936e-07
57	0x316a3800	3.4083314e-09
58	0x3480858a	2.393902e-07
59	0x343f7151	1.7829485e-07
60	0xb2e4ba24	-2.662734e-08
61	0xb491aa7e	-2.7132404e-07
62	0xb4119805	-1.3559482e-07
63	0x328478ce	1.5421758e-08

fc3.weight f4 [2, 64]
0	0xb4585bf9	-2.0150027e-07
1	0x35c1b72c	1.4432931e-06
2	0x342a672b	1.5870016e-07
3	0xb484a2d4	-2.470539e-07
4	0x341963b4	1.4285507e-07
5	0x339fb140	7.436256e-08
6	0xb42369a4	-1.521899e-07
7	0xb40c6297	-1.3074383e-07
8	0x338aaea6	6.457894e-08
9	0x3485b5d6	2.4905484e-07
10	0xb2b9915c	-2.1602936e-08
11	0x3550e90a	7.7825155e-07
12	0x3f7a4b55	0.977712
13	0x32e74770	2.6924425e-08
14	0x336c9854	5.5086574e-08
15	0x32b6d198	2.12829e-08
16	0xb455e2d5	-1.9919692e-07
17	0x33fc0eaf	1.17373354e-07
18	0x367b7194	3.7468026e-06
19	0xb42a9bd6	-1.5889177e-07
20	0x3417884f	1.411256e-07
21	0xb4132dbe	-1.3707083e-07
22	0x326fdb00	1.3961426e-08
23	0x340e4294	1.3249002e-07
24	0xbf7e2c99	-0.992868
25	0xb510f9f7	-5.4007927e-07
26	0xb5202730	-5.966167e-07
27	0x34d7f75c	4.0226848e-07
28	0x33179899	3.5296214e-08
29	0xb4bf800b	-3.5669686e-07
30	0xb421511e	-1.5023804e-07
31	0x33e8be41	1.0837949e-07
32	0x3282f86c	1.5246961e-08
33	0xb42bd2ef	-1.6002353e-07
34	0xb1c9b6b8	-5.8706426e-09
35	0x353bf1c5	7.001475e-07
36	0x3583bf00	9.815849e-07
37	0x34904192	2.68698e-07
38	0x32f3698c	2.833692e-08
39	0xb42fcf60	-1.6373588e-07
40	0x327156b8	1.4047764e-08
41	0x34ac3f38	3.2083494e-07
42	0xb3a859fb	-7.839477e-08
43	0xb328d230	-3.9306713e-08
44	0x35c81a1c	1.490876e-06
45	0xb498c41f	-2.8454903e-07
46	0x3599bc26	1.1454147e-06
47	0x34e365ce	4.2356118e-07
48	0xb3c22cdb	-9.041988e-08
49	0xb622498b	-2.4182689e-06
50	0x339c658a	7.282786e-08
51	0xb2e9f92a	-2.7238077e-08
52	0x3381790a	6.0290475e-08
53	0x33ab0eac	7.965477e-08
54	0x32967754	1.7516562e-08
55	0x34f47069	4.553033e-07
56	0xb113d240	-2.1510829e-09
57	0xb3c68429	-9.244133e-08
58	0xb41fcb76	-1.4882048e-07
59	0x31f6a530	7.178322e-09
60	0xb40a5ac1	-1.2885268e-07
61	0xb2464a9c	-1.1542081e-08
62	0x3421efb1	1.5081493e-07
63	0xb3fffe38	-1.1920605e-07
64	0x312b4430	2.4922535e-09
65	0xc02d87aa	-2.7114053
66	0xb36a07de	-5.4489526e-08
67	0xb3ff69ca	-1.1893606e-07
68	0xb423be61	-1.5249817e-07
69	0x32933b18	1.7139925e-08
70	0xb483321e	-2.4437117e-07
71	0x335445f0	4.9423704e-08
72	0xb404a7b1	-1.2354464e-07
73	0xb2a064dc	-1.8672317e-08
74	0x32df6ee0	2.6011037e-08
75	0xbf8df944	-1.1091695
76	0x37c49918	2.343631e-05
77	0xbf7deab4	-0.99186254
78	0xb2741338	-1.4207039e-08
79	0xb3f06cd6	-1.1195668e-07
80	0xb48eab58	-2.657423e-07
81	0xb0ea6100	-1.705331e-09
82	0xbffa4a9a	-1.9554017
83	0x331c3b6e	3.637563e-08
84	0x315a8f00	3.1804461e-09
85	0x33a79615	7.803843e-08
86	0x3480c4a5	2.3984936e-07
87	0x338d280b	6.573108e-08
88	0x378a245b	1.6467811e-05
89	0xbfbc431d	-1.4707981
90	0xc040f19a	-3.0147462
91	0x34956506	2.7826917e-07
92	0x4041831f	3.023628
93	0xb33b54d6	-4.3616488e-08
94	0xb40b09e6	-1.2948985e-07
95	0x343d25ee	1.7615795e-07
96	0x4011e932	2.279858
97	0xb3bc6414	-8.772636e-08
98	0xb173b360	-3.5463117e-09
99	0xbf96150e	-1.1725175
100	0xc01b1ed3	-2.4237564
101	0x33adadb8	8.0875395e-08
102	0xb482728c	-2.429773e-07
103	0xb44da982	-1.915378e-07
104	0xb1ea1484	-6.8126287e-09
105	0x3fae8728	1.3634996
106	0x336f811e	5.5763955e-08
107	0x343598d6	1.691254e-07
108	0x3fe92056	1.8212993
109	0xb2caf988	-2.3629369e-08
110	0xbf93b9d2	-1.1541083
111	0x34178ffb	1.411535e-07
112	0x33f8ef06	1.1591878e-07
113	0x3fef1598	1.8678465
114	0xc0302c3b	-2.7526996
115	0xb3aa8fab	-7.942375e-08
116	0x340ed7dd	1.3303311e-07
117	0x344f01e3	1.9279064e-07
118	0xb2a28c67	-1.892313e-08
119	0x3fcf9adc	1.6219134
120	0xb3308ec5	-4.110804e-08
121	0x313c1750	2.7370852e-09
122	0xb39c6918	-7.2834325e-08
123	0xb38ebee6	-6.6471145e-08
124	0xb30d2d2e	-3.287021e-08
125	0x341ca501	1.458866e-07
126	0x33e3ca31	1.06072896e-07
127	0x32f138e0	2.8081956e-08

fc3.bias f4 [2]
0	0x36d9e65f	6.4939227e-06
1	0x3dbc1499	0.09183616
