Model/model_noisy_35_64.pth (torch, 22194 bytes, 7 tensors)

input_weights f4 [7]
00000000: 0000 a040 0000 a040 0000 a040 0000 803f
00000010: 0000 803f 0000 803f 0000 803f
5.0 5.0 5.0 1.0 1.0 1.0 1.0

fc1.weight f4 [64, 7]
00000000: bc0a b9b5 bb31 563d 6e76 1c3e 31f6 d83b
00000010: 54d0 e4bd b73a 4e3b e4d1 f63b c2bb 57bd
00000020: 7f2d 063e 6225 aa3e 90c9 a0b9 bd73 20be
00000030: bfde 9e3c f791 813f 554a 92be 17eb 833c
00000040: 1925 fe3d 5c24 873c 1033 1c3b 06f5 7cb6
00000050: a353 8737 fa4d b5bc 354a 30bd dd66 5cbe
00000060: 6fd0 ba35 29b6 38bc be6f 13ba 5414 35be
00000070: c025 9c32 1cee b032 dc1b 4d32 8032 92b1
00000080: d4ba 05b2 e34d ccb2 ece0 9731 d889 9831
00000090: 9ebe f832 7ca3 c832 990d 57b2 a2d5 80b2
000000a0: 5ca0 80b1 9705 3432 dbc8 8b32 ae6b 1232
000000b0: a9a0 2fb2 2e91 c3b1 bf6a d532 02b9 7031
000000c0: 144d 2732 48c3 1e31 2d9d 90b2 9790 d5b2
000000d0: 7cd6 9531 24f7 8c31 c034 fbb1 3cd9 17b3
000000e0: ea01 e6bb ae8e f3bc 830b 16be a761 e1b4
000000f0: 3c9d 263e c872 c73a 6d73 08bf d5ba a1b1
00000100: 4489 8a32 2499 afb1 701f 41b0 16f0 8bb2
00000110: cca6 ddb0 eaf8 ecb2 ca19 32b2 cc53 9932
00000120: c864 15b0 e825 80b1 3ee0 18b2 eef2 8f32
00000130: eef3 2933 be56 a5b1 40e6 63af 8170 26b1
00000140: 5942 abb2 43e8 7ab3 25e9 9031 a3c1 0133
00000150: 0258 1d3e ef8a 9d3d 8657 acbe eb35 21be
00000160: 1a50 983c d8d7 2cbc e422 a5b6 2997 2d32
00000170: 6d53 15b3 c5f0 5432 1901 f532 0a35 03b2
00000180: 9813 5eb2 22ef d0b2 2ab9 87b7 af38 1cbe
00000190: c467 bb3d 1f64 bdbe be8b acbd a4e0 c8bb
000001a0: 91fb f8bb f366 1332 9203 1a32 af6c 3332
000001b0: 89c0 c132 2e16 f332 0220 5db2 50fa 3630
000001c0: 8870 96b0 ffca de31 1d8b 75b2 f72b 1ab2
000001d0: 664a 2032 4681 a0b2 0007 1c2f ee71 b33d
000001e0: be2f 173d 73a6 8c3d d7fd f83a d349 6abc
000001f0: 18da 4e3c de46 6f3e 4824 c93c 98ac b4bd
00000200: fae5 3fbe 4710 0cbc 6b37 813b 67e8 35b6
00000210: c809 17bc ef65 a5be 0381 fcbc 8923 c2bd
00000220: 9106 a2b5 3433 2d3d f407 253c fdb8 b4be
00000230: 5a2d f531 bae2 5431 8083 2aaf e838 b6b0
00000240: b8e4 9d30 0d21 54b2 ca15 f231 70d7 af30
00000250: 9f1b 9cb2 9040 2bb0 2c65 7fb2 8005 5fb1
00000260: 49dc 9232 e55e c631 0a5c 0d32 5f87 4132
00000270: aa43 2fb3 109f 09b3 341d 9e32 2cf0 d6b1
00000280: ebc3 a332 909d 5a3e 78d2 5fbc 6d37 23bd
00000290: 6ed0 093d 53a8 953d d6ef 35bc b26c 96be
000002a0: 9f2d 37bd f5b3 64bc d8bc 04bd 5d8d dfbd
000002b0: 0e5d b3bc 7638 bcbd 7da9 573f 4eb6 67bd
000002c0: 105e d43b d6de 57bd 2090 1b3d d1c7 2bb8
000002d0: 67c2 da3c 6e53 c4be 35a2 e63d f2ec b2bc
000002e0: d6e8 273e bfb9 00bd 5589 3c3d 0db3 8936
000002f0: 4ed2 b2b6 c550 55bd e973 053e 9325 813e
00000300: 6a0d a93d 7ee3 dcbd 7b5e 01b6 3dd9 4837
00000310: 5260 d63b e5db 9ab5 b972 68b9 8244 9cbb
00000320: 22ef d235 9dde 88bf 31ec d339 b3c4 82b2
00000330: 8228 53b2 0059 9daf 40cf a8b0 37cd ce32
00000340: cc79 d0b1 46b4 be32 6b11 f132 4007 9130
00000350: e008 e130 cc7c b031 463a a5b1 e61a 9131
00000360: 5c85 6fb2 c863 6031 a8a1 78b2 d6c7 0db2
00000370: 2227 71b1 7b4e af32 ad6e 1132 a4fc f62f
00000380: ac68 9eb1 8278 c432 3e91 ad32 d032 4231
00000390: cd55 4032 62cf 3d32 cbe3 26b2 662b c23d
000003a0: 2b5d f73d 22bc 9ebc 0b8c 9abd 0aaa af3e
000003b0: 07bd 45bc d667 c93d f087 173f 8368 75bc
000003c0: 38a2 4abd c32f 253d 2fa3 e73b 79ee eebc
000003d0: d524 35ba 18b2 ae30 1009 89b2 5842 4f32
000003e0: d383 55b3 6bae bf32 e547 8e32 d71b 91b1
000003f0: e432 77b2 acc4 9530 edaf 0ab3 5447 00b3
-1.3786698e-06 0.05229352 0.15279552 0.006621145 -0.11172548 0.0031468102 0.007532345 -0.052669294
0.13103293 0.33231646 -0.00030667754 -0.1566915 0.019393323 1.012267 -0.28572336 0.01610331
0.124094196 0.01649683 0.0023834147 -3.7693549e-06 1.61322e-05 -0.022131909 -0.04303952 -0.21523614
1.3918742e-06 -0.011273899 -0.0005624256 -0.17683536 1.8177957e-08 2.0597376e-08 1.1938905e-08 -4.2549004e-09
-7.784099e-09 -2.3784144e-08 4.420249e-09 4.4394532e-09 2.8957682e-08 2.3357408e-08 -1.2517739e-08 -1.499831e-08
-3.743521e-09 1.047865e-08 1.6273068e-08 8.522802e-09 -1.02228706e-08 -5.691752e-09 2.4845006e-08 3.5029761e-09
9.738205e-09 2.310303e-09 -1.6835282e-08 -2.4862215e-08 4.360855e-09 4.102633e-09 -7.3110584e-09 -3.5355e-08
-0.007019271 -0.02973112 -0.14652829 -4.1980567e-07 0.16270918 0.0015216703 -0.53301126 -4.706957e-09
1.6127736e-08 -5.1105804e-09 -7.0257666e-10 -1.6290908e-08 -1.6127273e-09 -2.7587209e-08 -1.0366827e-08 1.784965e-08
-5.4349103e-10 -3.7295997e-09 -8.898551e-09 1.6757863e-08 3.957023e-08 -4.8119935e-09 -2.0727331e-10 -2.422013e-09
-1.9937191e-08 -5.84189e-08 4.217457e-09 3.0211265e-08 0.15365604 0.07692515 -0.33660525 -0.15743224
0.018592883 -0.010549508 -4.921445e-06 1.0104295e-08 -3.476764e-08 1.2394769e-08 2.8522253e-08 -7.637263e-09
-1.2926556e-08 -2.4323132e-08 -1.6179478e-05 -0.15255998 0.09150651 -0.3699045 -0.08425091 -0.006130295
-0.0075983484 8.579934e-09 8.964792e-09 1.0443883e-08 2.2555712e-08 2.829901e-08 -1.2871171e-08 6.656693e-10
-1.094592e-09 6.4841283e-09 -1.4292508e-08 -8.973976e-09 9.330142e-09 -1.8685238e-08 1.4190604e-10 0.08761965
0.036910765 0.06867685 0.0018996549 -0.014299828 0.01262524 0.23366877 0.024553433 -0.08821982
-0.18740073 -0.008548803 0.003943374 -2.7106378e-06 -0.009218641 -0.32304332 -0.030823236 -0.09479434
-1.2071852e-06 0.04228516 0.010072697 -0.35297385 7.1355943e-09 3.097894e-09 -1.5508128e-10 -1.3258417e-09
1.1488259e-09 -1.2347539e-08 7.045604e-09 1.2794157e-09 -1.817335e-08 -6.2301186e-10 -1.4865957e-08 -3.2453897e-09
1.7096811e-08 5.7733467e-09 8.2282074e-09 1.1264858e-08 -4.0806903e-08 -3.2042465e-08 1.8406901e-08 -6.255524e-09
1.906479e-08 0.21349168 -0.0136610195 -0.03984778 0.03364604 0.07307496 -0.011104545 -0.29379803
-0.044721242 -0.013958921 -0.032406658 -0.10915635 -0.021894958 -0.091904566 0.84242994 -0.056570344
0.0064809397 -0.052702747 0.037979245 -4.095567e-05 0.026704026 -0.38344902 0.11261407 -0.0218415
0.16397414 -0.03142714 0.046029408 4.1037624e-06 -5.329296e-06 -0.05207898 0.13032497 0.2522398
0.08254512 -0.10785578 -1.9277493e-06 1.1971509e-05 0.006542244 -1.1537892e-06 -0.00022167982 -0.004768909
1.5715816e-06 -1.0692936 0.00040421032 -1.522344e-08 -1.2291027e-08 -2.8621372e-10 -1.2282513e-09 2.4074877e-08
-6.0674434e-09 2.220089e-08 2.8064013e-08 1.0552199e-09 1.6373427e-09 5.136462e-09 -4.808757e-09 4.2231134e-09
-1.3941953e-08 3.265301e-09 -1.4472256e-08 -8.252718e-09 -3.509236e-09 2.040837e-08 8.465276e-09 4.492665e-10
-4.610305e-09 2.2872204e-08 2.02059e-08 2.82596e-09 1.119538e-08 1.1048401e-08 -9.714266e-09 0.09480934
0.12078317 -0.019376818 -0.07546242 0.34309417 -0.012068993 0.09834258 0.591918 -0.014978531
-0.04947111 0.040328752 0.0070690135 -0.029166447 -0.00069100905 1.2710784e-09 -1.595302e-08 1.2064071e-08
-4.971282e-08 2.2314643e-08 1.656367e-08 -4.2232204e-09 -1.4388863e-08 1.0897074e-09 -3.2290632e-08 -2.9867195e-08

fc1.bias f4 [64]
00000000: b45a 823f 4dfb 70be 3452 adb3 086c be3b
00000010: d2ea 1033 dc1b 15b2 e2fc 1d32 e498 0bb3
00000020: 8fac d3be d204 3fb3 48b2 c8b1 f0d3 3332
00000030: 118e 53b6 0eb8 13b2 9090 ea34 b5c4 3d31
00000040: 727c ceb2 0958 0dbe 32f6 bebe 08fb 0fbf
00000050: b45a cfb2 62b0 aab2 534f ce32 a950 3e3e
00000060: b8d7 e9b6 7cf7 d8b3 db85 0bbe 57c9 a8bf
00000070: 2366 f8b4 7c8f 9eb2 12f1 55b2 bd16 9432
00000080: 4227 4732 4376 a036 9bfe c93e ec7f fcb2
00000090: 43ff 3832 0e9e d932 bf44 37bf 88c5 2632
000000a0: 10af 8ebd 4823 c632 f0ca f3b0 f703 4532
000000b0: 88f1 af32 f0ef f7b0 5e17 16b2 f05d cf30
000000c0: 581c 2f31 c165 7cbe bee9 92bf ea76 c2b2
000000d0: 44b9 b9b1 ae11 0bb3 069d 98b2 739b 0dc0
000000e0: 9ddb 9f3f 4929 0bbe 9236 5c31 dd18 7a31
000000f0: cdeb 073a 0c03 60bf c774 f5bd 546c 8031
1.018393 -0.23533364 -8.070893e-08 0.005811218 3.374118e-08 -8.679276e-09 9.196102e-09 -3.2502513e-08
-0.4134259 -4.4475037e-08 -5.8410343e-09 1.046736e-08 -3.1524144e-06 -8.598375e-09 4.369108e-07 2.7614935e-09
-2.4038147e-08 -0.13803114 -0.37297207 -0.5624242 -2.4139219e-08 -1.9870814e-08 2.4017629e-08 0.18585457
-6.969054e-06 -1.0103301e-07 -0.1362528 -1.3186444 -4.6267914e-07 -1.845887e-08 -1.2453045e-08 1.7239808e-08
1.1592251e-08 4.782139e-06 0.3945206 -2.9394833e-08 1.0768249e-08 2.5334e-08 -0.71589273 9.707385e-09
-0.06966984 2.3066278e-08 -1.7738255e-09 1.1467811e-08 2.0482517e-08 -1.803981e-09 -8.736462e-09 1.5087931e-09
2.5481963e-09 -0.24648191 -1.1477582 -2.2638648e-08 -5.405271e-09 -3.237954e-08 -1.7766535e-08 -2.2126129
1.2488896 -0.13589968 3.2045233e-09 3.6393921e-09 0.00051849784 -0.8750465 -0.11985164 3.737606e-09

fc2.weight f4 [64, 64]
00000000: be12 b6b1 e042 cbb0 3e22 bab2 19c9 08b2
00000010: 12aa c3b2 9897 5932 f4e1 0732 4126 69b3
00000020: 6a9e 2033 02c5 7531 cd0d 8532 50b7 0933
00000030: 3c32 9432 38d7 ebb1 c0c0 ebb2 3820 4fb2
00000040: 1e87 9432 8a51 2d32 eaf0 5033 86d4 a5b2
00000050: 24e7 86b1 885a 56b1 5062 60b2 2231 b6b2
00000060: 4495 74b2 1a59 0032 88fe 05b1 a46c b6b2
00000070: ba99 b7b1 d3e2 3632 b609 71b1 8c9b abb2
00000080: b215 1a33 0312 1cb3 28e5 a4b2 148e 0eb2
00000090: 56da 2533 2ad1 2d31 653f b732 0b04 aa32
000000a0: e4b6 9bb0 8f5b fbb1 19b1 9bb2 1cdb 28b2
000000b0: 9068 2d32 d051 a131 7478 4cb3 76b5 4f31
000000c0: 0084 3b2f 0e6c 1232 b259 f8b1 1e2d 27b2
000000d0: 8267 6b32 44fa e1b1 48f2 5832 e141 a4b1
000000e0: d875 8db2 e0dc 8430 a502 bbb2 04ec a9b1
000000f0: 65f1 edb1 9200 ae32 4dee 1fb2 fe84 e4b1
00000100: 5b63 cab0 8f30 c532 0bba 0433 9a81 8fb2
00000110: 9d2c 9232 7538 5432 dd54 aeb1 9d88 ceb1
00000120: 9873 9732 ae02 a832 769a 0cb1 f846 3d31
00000130: f0ea 8432 70ed cbb0 a29a fb31 7c6f cb32
00000140: 4212 08b3 f4da dd31 4118 3a31 ed85 8a32
00000150: f691 1732 9ccc 1831 15ef 2633 b42b 01b3
00000160: f164 b332 5be4 ae32 545b 0933 b4b7 d5b1
00000170: 4056 2031 0579 16b2 80d7 c5b2 ae14 48b2
00000180: b002 f430 46ad deb1 2022 0e33 781f 0033
00000190: 9e63 9b31 cc7c 0b31 2a78 13b2 4290 6db2
000001a0: b436 40b1 6c37 4032 ba31 7233 b573 9c32
000001b0: 2cd5 a631 da06 f232 abf8 b5b2 e4a4 0032
000001c0: f0d0 8032 15a9 0432 970e db32 73c3 a4b1
000001d0: eebf 1632 980e 71b2 d04a 70b0 fa50 4fb2
000001e0: 6891 3631 de5a e131 002c c2ae d255 70b2
000001f0: 9155 8532 d0d6 69b0 d9bf 66b2 812c bbb2
00000200: 4638 08b2 d2cf 4db3 36c1 3831 dc1b 2db3
00000210: 4ab8 f7b1 d8aa ef31 efef a5b1 67e7 6db2
00000220: 92df c6b2 0c24 27b1 d65f 1d32 6f42 b6b2
00000230: 9382 4132 dc80 0ab3 187c 7d31 d478 a330
00000240: 6459 9632 0630 f6b1 3981 de32 02e4 b4b2
00000250: 7e34 c132 a786 4b32 c2c9 deb2 3873 0d31
00000260: fc42 24b2 a02f 3c31 1440 55b3 9026 67b2
00000270: 5826 8b32 9e4a 1cb3 d91a 3832 e638 0d32
00000280: c823 42b2 5207 14b2 d045 5fb1 a281 90b2
00000290: 7c36 63b1 286f 8ab2 60c4 fb30 b52f 07b2
000002a0: 58e3 5eb1 a677 84b1 ba28 1333 72f8 c0b2
000002b0: 6beb 7732 37ab 20b3 3e93 5f31 f696 a632
000002c0: f663 07b3 25c7 bb32 3e0a adb2 9da8 01b2
000002d0: 2064 70b0 6c67 b832 c53d c830 5a1a d6b2
000002e0: bc72 3f32 0984 c932 75f0 1733 fc98 0c32
000002f0: b084 bc30 d166 13b2 a0a6 f330 ce73 a931
00000300: b75d beb2 9561 4932 2496 f131 5a79 ac31
00000310: 8499 92b2 b2b6 1e32 d842 c7b0 da4f 3632
00000320: a567 83b2 9a60 f132 9007 6f32 f483 af32
00000330: d44d a1b2 c204 84b2 402f 7db0 74e9 b6b1
00000340: daaf f731 ba07 91b2 b1c9 93b1 95c9 ae32
00000350: 2112 21b2 c42c ac32 8870 92b1 4831 e6b1
00000360: 66ac 23b2 a4a8 b4b1 1edd b9b2 6b40 bfb2
00000370: f868 8830 3ceb c531 701a b932 38e7 cc31
00000380: 27c4 a7b2 31c6 5132 22e3 9431 aadb 8232
00000390: 0e67 12b3 2370 ec32 dff9 40b2 9750 2033
000003a0: 7255 37b2 6caa 80b1 1c6e 7a32 e0c9 0cb1
000003b0: 36c3 02b3 2c42 32b2 eb28 52b3 5740 2031
000003c0: 0955 4d32 0232 18b1 376d 5632 5bdc 4d33
000003d0: f0fc ebb2 9291 9432 c4ff b0b1 cb0a 5632
000003e0: 96b8 64b1 b073 a7af e4f7 53b2 9892 0131
000003f0: 7c74 7db2 0eef 42b2 6e83 d8b2 90d1 0db2
-5.299028e-09 -1.4789201e-09 -2.1668821e-08 -7.961966e-09 -2.2778327e-08 1.2665531e-08 7.90941e-09 -5.428433e-08
3.739698e-08 3.5764178e-09 1.5489514e-08 3.206452e-08 1.7252312e-08 -6.8638677e-09 -2.7445253e-08 -1.20563115e-08
1.7290912e-08 1.0088465e-08 4.8647884e-08 -1.9305173e-08 -3.926191e-09 -3.119256e-09 -1.306087e-08 -2.1209932e-08
-1.4236608e-08 7.47084e-09 -1.9498732e-09 -2.1236993e-08 -5.3434777e-09 1.0645368e-08 -3.5075636e-09 -1.9977755e-08
3.587565e-08 -3.6337962e-08 -1.9196321e-08 -8.297793e-09 3.861563e-08 2.529371e-09 2.1332832e-08 1.9792443e-08
-1.1329715e-09 -7.3154705e-09 -1.812491e-08 -9.828707e-09 1.00937e-08 4.6950177e-09 -4.7607003e-08 3.0225613e-09
1.7054447e-10 8.522887e-09 -7.227947e-09 -9.730938e-09 1.3702335e-08 -6.5768138e-09 1.2627943e-08 -4.7805178e-09
-1.646815e-08 9.66704e-10 -2.1770868e-08 -4.945379e-09 -6.925051e-09 2.0256525e-08 -9.309201e-09 -6.650793e-09
-1.4725673e-09 2.29559e-08 3.090285e-08 -1.6706327e-08 1.7016925e-08 1.2352861e-08 -5.0737143e-09 -6.01092e-09
1.763128e-08 1.9558993e-08 -2.0460482e-09 2.754346e-09 1.547366e-08 -1.4837678e-09 7.322641e-09 2.3683008e-08
-3.1681573e-08 6.4568386e-09 2.708035e-09 1.6126217e-08 8.8225445e-09 2.2235218e-09 3.886733e-08 -3.00749e-08
2.0884245e-08 2.036011e-08 3.198086e-08 -6.2200005e-09 2.3332092e-09 -8.758666e-09 -2.3031816e-08 -1.1646234e-08
1.77541e-09 -6.4807493e-09 3.3092988e-08 2.9830943e-08 4.522419e-09 2.02981e-09 -8.583848e-09 -1.3828016e-08
-2.7970772e-09 1.1188472e-08 5.6390242e-08 1.8213408e-08 4.8554707e-09 2.8175624e-08 -2.1184254e-08 7.488072e-09
1.4996175e-08 7.721856e-09 2.550159e-08 -4.795248e-09 8.774789e-09 -1.40313645e-08 -8.7417806e-10 -1.2067398e-08
2.656714e-09 6.5586923e-09 -8.8299146e-11 -1.3989352e-08 1.5522149e-08 -8.5070173e-10 -1.3431383e-08 -2.1789903e-08
-7.929037e-09 -4.7919293e-08 2.6885352e-09 -4.030504e-08 -7.2095974e-09 6.975238e-09 -4.8294093e-09 -1.384783e-08
-2.3151902e-08 -2.4322189e-09 9.160393e-09 -2.1217799e-08 1.1263768e-08 -3.2247826e-08 3.6886885e-09 1.1894152e-09
1.7502948e-08 -7.165002e-09 2.5902965e-08 -2.1058444e-08 2.2492028e-08 1.1846772e-08 -2.593595e-08 2.0583695e-09
-9.561287e-09 2.7384672e-09 -4.9651206e-08 -1.3454738e-08 1.6199166e-08 -3.6389444e-08 1.0716314e-08 8.220217e-09
-1.1300422e-08 -8.616398e-09 -3.2490455e-09 -1.6822757e-08 -3.3063818e-09 -1.6115862e-08 1.8318467e-09 -7.8688815e-09
-3.2434482e-09 -3.855308e-09 3.4263145e-08 -2.2464722e-08 1.443082e-08 -3.7408622e-08 3.2534468e-09 1.9393593e-08
-3.152305e-08 2.1860226e-08 -2.0144508e-08 -7.5471265e-09 -8.745378e-10 2.146745e-08 1.4569471e-09 -2.4924862e-08
1.1143751e-08 2.3459522e-08 3.537612e-08 8.183857e-09 1.3716512e-09 -8.579904e-09 1.7727935e-09 4.931713e-09
-2.2161528e-08 1.1721927e-08 7.031092e-09 5.019655e-09 -1.7066448e-08 9.2383505e-09 -1.4498154e-09 1.061195e-08
-1.529754e-08 2.8100022e-08 1.39133505e-08 2.0432687e-08 -1.8778259e-08 -1.5368986e-08 -9.210801e-10 -5.3234377e-09
7.208638e-09 -1.6883735e-08 -4.3011927e-09 2.0347935e-08 -9.375555e-09 2.0043792e-08 -4.2619526e-09 -6.6994836e-09
-9.527048e-09 -5.2578617e-09 -2.1637387e-08 -2.226462e-08 9.925136e-10 5.7601977e-09 2.1548857e-08 5.963468e-09
-1.9530559e-08 1.2210465e-08 4.333189e-09 1.5233883e-08 -3.4087e-08 2.752501e-08 -1.1232685e-08 3.73262e-08
-1.067143e-08 -3.744665e-09 1.4576951e-08 -2.0487434e-09 -3.0445527e-08 -1.0376009e-08 -4.893165e-08 2.3319637e-09
1.1951905e-08 -2.2147337e-09 1.2481272e-08 4.7930694e-08 -2.7472623e-08 1.7295665e-08 -5.1513513e-09 1.24588935e-08
-3.3283292e-09 -3.0459324e-10 -1.233818e-08 1.88553e-09 -1.4753024e-08 -1.1346641e-08 -2.5205477e-08 -8.254929e-09

fc2.bias f4 [64]
00000000: eec3 0db2 88a2 d2b0 6df7 4332 9c44 1633
00000010: 0144 2533 3be3 9336 c53e 9732 b0e7 5eb1
00000020: 28ee 95b2 005f 3fb1 31f5 e93e 570c abb2
00000030: f4a1 b532 0837 1b33 f0be b6b0 3d34 b432
00000040: 0590 93b2 484e 43b1 35d2 b732 ac08 4e3e
00000050: 8a75 0932 4468 27be 5ed6 4eb7 00bb 23b0
00000060: e214 0133 d636 15bf 68cd f032 edf4 0a3e
00000070: 54c5 a0b1 f87b f632 13a7 663e e63d 67b2
00000080: 6166 1bb2 0a5b 1a32 ce25 9a32 16df a73c
00000090: 8f37 3132 eca2 b032 00c7 c730 bec1 4cb2
000000a0: 6704 013e acf2 c632 e042 aa32 70d1 cbb2
000000b0: ef5c e4b1 3463 c3b1 7a20 d432 d716 eb3e
000000c0: 0526 903b 7410 b6b2 f876 9a30 aa67 e0b1
000000d0: b694 45b6 9671 d1be 54b7 a031 3db0 823e
000000e0: ae2a b832 0ec6 3cb2 8a81 3e33 fede 6132
000000f0: 0d55 1533 0c79 82b1 e58a 7fb2 73bd f33e
-8.251829e-09 -1.5325705e-09 1.1406752e-08 3.4986996e-08 3.8478905e-08 4.4073945e-06 1.7607258e-08 -3.243695e-09
-1.7454184e-08 -2.784816e-09 0.4569488 -1.9912632e-08 2.1144821e-08 3.61388e-08 -1.3296511e-09 2.0978513e-08
-1.7178545e-08 -2.8420732e-09 2.1399595e-08 0.20120496 8.001175e-09 -0.16348368 -1.2328468e-05 -5.95648e-10
3.0054146e-08 -0.582868 2.8033085e-08 0.13569994 -4.6790465e-09 2.8694544e-08 0.22524671 -1.3460044e-08
-9.045466e-09 8.98468e-09 1.7945151e-08 0.020492118 1.03153885e-08 2.0563185e-08 1.4535715e-09 -1.1918415e-08
0.12599336 2.3160588e-08 1.9821016e-08 -2.3727551e-08 -6.6462387e-09 -5.686525e-09 2.4694817e-08 0.45915863
0.0043990635 -2.119507e-08 1.1238788e-09 -6.5310433e-09 -2.9441849e-06 -0.40906972 4.677455e-09 0.25525084
2.1439828e-08 -1.0988073e-08 4.4355637e-08 1.3147426e-08 3.476912e-08 -3.7972594e-09 -1.48745345e-08 0.47605476

fc3.weight f4 [2, 64]
00000000: 9060 df30 2af9 0833 51fc 9031 7e97 0e32
00000010: 3778 49b2 3dd3 72bf ff3d c1b2 34ea 7631
00000020: 8421 b432 5899 f8b0 643c 9eb4 ddb0 b2b2
00000030: e4a6 9332 d17e 06b3 d0a6 a7b0 3f5f e332
00000040: 2004 792f 3866 6db2 689a f0b2 b42e 6e34
00000050: 6eeb dfb1 d18e 8035 01c0 3334 a682 dbb1
00000060: d71b 74b2 5fc5 5932 986f 08b1 68c2 3134
00000070: 484f 1f33 78f2 2731 5cd6 dab4 3ee4 3a32
00000080: cc13 7332 0436 95b2 4172 0bb3 842d 4e35
00000090: c735 71b2 3871 2e31 06cf 7b32 10e9 3132
000000a0: 8c6c 8eb3 fa4f 5933 79d4 53b2 72f5 ba32
000000b0: 6b37 85b2 4f79 46b2 7cb1 a9b1 d81f 1834
000000c0: 1677 783f 1693 dc32 6462 4eb2 7cdd ee32
000000d0: 8586 1e35 cc97 9832 2a29 ef31 0bec 78b3
000000e0: 28cd 06b1 12f8 18b2 3eed 1133 8e86 4232
000000f0: ea9d ed31 f851 0832 ae51 b732 ce95 9a34
00000100: d434 f831 4e86 ca31 3ecc 2f32 def7 8fb2
00000110: 78dc 18b3 792a 9f3d f689 ec32 a31c 19b2
00000120: d1c7 a732 29c9 abb2 12f2 ec3f 57d6 dfb1
00000130: eaa7 ceb2 6ce4 3a32 b4d5 9332 f8ad eeb1
00000140: c8b2 4632 cb95 dab2 5a00 36b2 b640 4fbf
00000150: 18c7 e2b2 cf6f 94bf 89a6 d8bf 8166 8f32
00000160: ec1b 6731 436f f7bf 43c9 8532 824b c0bf
00000170: 2c04 cbb1 2c28 ae31 b2e1 723f 403e a230
00000180: f0bd 85b2 5964 dfb2 c49d 0432 99ba 203f
00000190: 6de4 80b2 84af 15b3 9298 ab32 3cb1 79b2
000001a0: d29d 5ac0 5048 1832 f8c0 d730 926d 51b3
000001b0: 0920 4533 94de 0db1 b47f d8b1 034a 6c40
000001c0: af0b f6bb e6dc 9432 0fe7 8932 4ec1 0633
000001d0: 13c9 dabf f904 983f 62b7 9fb2 c712 0cc0
000001e0: f582 2932 80dc f131 3076 2fb2 70c3 6db1
000001f0: 9761 8831 2e43 bf31 54f2 8b32 1bfb a9bf
1.625283e-09 3.189158e-08 4.2196366e-09 8.299933e-09 -1.17270735e-08 -0.94853574 -2.249635e-08 3.593084e-09
2.0969999e-08 -1.8087958e-09 -2.9473733e-07 -2.0802355e-08 1.7188945e-08 -3.1314645e-08 -1.219826e-09 2.6469591e-08
2.2647884e-10 -1.38184575e-08 -2.8009893e-08 2.2182468e-07 -6.5169194e-09 9.578308e-07 1.6740525e-07 -6.388592e-09
-1.4208999e-08 1.2675939e-08 -1.9854038e-09 1.6555134e-07 3.7092178e-08 2.4439526e-09 -4.076163e-07 1.0878521e-08
1.4148963e-08 -1.7370446e-08 -3.2467373e-08 7.6807214e-07 -1.4040274e-08 2.538469e-09 1.4657195e-08 1.0355748e-08
-6.632135e-08 5.0596988e-08 -1.2330127e-08 2.1764865e-08 -1.5508439e-08 -1.1552699e-08 -4.938725e-09 1.4167688e-07
0.9705671 2.5678258e-08 -1.201315e-08 2.7807566e-08 5.905534e-07 1.7764158e-08 6.9604953e-09 -5.795668e-08
-1.9616184e-09 -8.903969e-09 3.3976214e-08 1.132288e-08 6.9155606e-09 7.934879e-09 2.1341148e-08 2.8793733e-07
7.223756e-09 5.8942424e-09 1.023278e-08 -1.6760108e-08 -3.5590773e-08 0.07771773 2.7536753e-08 -8.912283e-09
1.9532225e-08 -1.9998497e-08 1.8511374 -6.514522e-09 -2.4057915e-08 1.0878562e-08 1.7210233e-08 -6.9464896e-09
1.1565767e-08 -2.5446658e-08 -1.0593874e-08 -0.80958116 -2.64004e-08 -1.1596621 -1.6925822 1.6694004e-08
3.3630796e-09 -1.9330829 1.5574761e-08 -1.5023043 -5.908552e-09 5.0686335e-09 0.94875634 1.1804744e-09
-1.5569611e-08 -2.600625e-08 7.719283e-09 0.62784725 -1.5005037e-08 -3.4851396e-08 1.9976401e-08 -1.4534006e-08
-3.4158826 8.864006e-09 1.5698154e-09 -4.8761258e-08 4.5896773e-08 -2.0644721e-09 -6.3009455e-09 3.6920173
-0.007508717 1.732992e-08 1.6053972e-08 3.1375116e-08 -1.7092613 1.1876518 -1.8593429e-08 -2.188646
9.866871e-09 7.039091e-09 -1.0213213e-08 -3.4599132e-09 3.9692156e-09 5.566469e-09 1.6291928e-08 -1.3279756

fc3.bias f4 [2]
00000000: 5ae3 2fb4 9127 cb3d
-1.6380855e-07 0.09919656
