Model/model_noisy_22_64.pth (torch, 21938 bytes, 7 tensors)

input_weights f4 [6]
1.0 1.0 1.0 1.0 1.0 1.0
00000000: 0000 803f 0000 803f 0000 803f 0000 803f
00000010: 0000 803f 0000 803f

fc1.weight f4 [64, 6]
-1.3680599 0.1604746 -0.60411996 0.034642827 0.046864815 0.17151247 0.26081508 0.001979175
-0.00025356264 0.19342896 -0.22717744 0.5904157 0.5176291 0.07088247 0.06572052 -0.038030148
0.035177317 0.14999706 0.89721197 0.22834837 0.28356382 -0.037524972 -0.0048116045 -0.016878787
0.15987675 0.16484644 0.59884524 -0.10030169 0.018574985 0.10501729 -0.008360205 0.00089533714
-0.002904531 0.33870715 0.86978906 -0.91470027 0.037430577 0.31048965 0.3185107 0.14541817
-0.003923282 -0.19604139 0.27791268 -0.06521 0.06232377 -0.107960284 0.048134707 0.091073915
-0.0048841806 -0.013290434 -0.9474662 -0.04044092 -0.05748402 -0.2357342 0.47633338 -0.03392427
0.88778716 0.10086182 0.08036764 0.05713754 0.056767236 -0.5475813 -1.004708 -0.041635312
-0.027287249 -0.03337712 -0.10396715 -0.020768536 0.040001564 -0.23527578 0.16070056 0.43275392
0.5097643 0.3369795 -0.3359587 0.47368184 0.00719599 -0.16140255 -0.03575623 -0.53048027
-0.7162541 -0.038634263 -0.0027898157 0.054334532 -1.8278797 0.21981306 0.15701494 -0.010833898
0.0052949763 0.00066680455 0.24262631 -0.29632246 -0.21065341 -0.009030239 0.1542424 0.23834689
1.0603967 0.1449936 -0.35310218 0.024920102 0.0005882044 0.0005700793 -0.37609497 0.75475657
-0.28535917 -0.44458383 0.023080565 -0.012285847 -0.2018161 0.24789739 0.08776695 -0.44115967
-0.12040981 0.0066716275 0.104220495 -0.2706602 1.2611487 0.03461085 0.030011624 -0.047748152
0.07596352 -0.16586544 0.014504526 -0.24505684 0.004734462 -0.04881777 0.3514356 0.5213215
-0.38016844 -0.0833164 -0.12856446 -0.13164423 -0.09809406 0.17624812 -1.1918938 0.054241035
0.0048715584 -0.02391413 0.94637823 0.20280033 0.56614953 -0.045630395 0.028063076 -0.008895262
-0.0465185 -0.04896321 0.30705914 0.14918092 0.17027272 0.44360355 -0.043907814 -0.38480353
0.89091897 0.08868511 -0.05975911 -0.27831048 -0.021742813 -1.1153347 -0.1967597 -0.072125755
-0.01701276 -0.08285825 -0.42624593 0.19180869 0.3938867 -0.34571072 -0.015530873 0.035986654
-0.708352 0.09864935 0.11186132 -0.0037745219 -0.0005951179 0.020208528 -0.97932416 -0.12872832
0.101963475 0.037274186 0.13342868 0.330529 -0.3347171 -0.5044952 -0.4172682 -0.026996145
0.051448226 0.065951616 -0.39056212 -0.22292228 0.0063735875 0.5738221 0.027256586 0.063854344
0.038629025 -0.06840538 -0.10992818 -0.36410546 0.24241082 0.92197007 0.23289156 -0.09112924
-0.03747068 0.48125723 0.022065513 0.05402037 -0.16761707 -0.14201595 -0.003104596 0.15348917
-0.2393995 0.18664426 -0.05750646 0.6648049 0.20789655 -0.41741127 0.1646717 0.20150904
-0.052375287 -0.9020021 0.473073 0.079843216 0.072325 0.106963985 0.46381003 -0.026527662
0.07878051 0.33187366 -0.16243556 -0.38714334 -1.3308111 -0.058530383 -0.26352686 -0.027549304
0.010018797 -0.0057367515 0.014105237 0.22711717 -0.07396806 0.08331191 0.11631657 0.12571035
0.49870446 0.05351816 0.5744132 0.16083482 -0.025893442 0.26961026 -0.13299379 0.78541917
-0.25126946 0.4411207 -0.0637407 0.14620388 0.29046702 0.50258493 0.6226302 0.3324063
00000000: 961c afbf 7453 243e 9ba7 1abf a3e5 0d3d
00000010: 52f5 3f3d f7a0 2f3e 8e89 853e 0cb5 013b
00000020: 9af0 84b9 3e12 463e 34a1 68be 7c25 173f
00000030: 5783 043f d42a 913d 7b98 863d 80c5 1bbd
00000040: 1716 103d d498 193e afaf 653f 28d4 693e
00000050: 472f 913e c9b3 19bd aaaa 9dbb 6245 8abc
00000060: bbb6 233e 81cd 283e ec4d 193f f96a cdbd
00000070: 912a 983c 4e13 d73d 3ef9 08bc 0fb5 6a3a
00000080: f259 3ebb 066b ad3e 7faa 5e3f cc29 6abf
00000090: ce50 193d 80f8 9e3e d613 a33e 80e8 143e
000000a0: e08e 80bb 13bf 48be 924a 8e3e d28c 85bd
000000b0: 3647 7f3d 481a ddbd e628 453d f684 ba3d
000000c0: 7a0b a0bb 1fc0 59bc 258d 72bf 61a5 25bd
000000d0: 5d74 6bbd 4e64 71be f8e1 f33e 2df4 0abd
000000e0: 0546 633f a490 ce3d ca97 a43d 0e09 6a3d
000000f0: c384 683d 4a2e 0cbf 469a 80bf ca89 2abd
00000100: 8289 dfbc 72b6 08bd bbec d4bd c722 aabc
00000110: aed8 233d 22ec 70be b08e 243e ec91 dd3e
00000120: ea7f 023f 9488 ac3e c702 acbe 6d86 f23e
00000130: 57cc eb3b b646 25be 2075 12bd 8ecd 07bf
00000140: 6e5c 37bf f63e 1ebd 57d5 36bb e38d 5e3d
00000150: f6f7 e9bf ad16 613e 86c8 203e a980 31bc
00000160: 7b81 ad3b 7fcc 2e3a 0873 783e 94b7 97be
00000170: 87b5 57be 91f3 13bc b8f1 1d3e 3511 743e
00000180: 14bb 873f 3479 143e cfc9 b4be 3e25 cc3c
00000190: bb31 1a3a 6071 153a 858f c0be ba37 413f
000001a0: 991a 92be 7ea0 e3be 7413 bd3c 944a 49bc
000001b0: e1a8 4ebe d0d8 7d3e 29bf b33d aedf e1be
000001c0: 6b99 f6bd ab9d da3b 8e71 d53d f993 8abe
000001d0: 526d a13f 1bc4 0d3d f0da f53c 9193 43bd
000001e0: c392 9b3d a1d8 29be 64a4 6d3c 2ef0 7abe
000001f0: 8c23 9b3b 24f5 47bd 5eef b33e 5375 053f
00000200: 70a5 c2be caa1 aabd 67a6 03be bfcd 06be
00000210: 8ae5 c8bd 637a 343e fa8f 98bf d92b 5e3d
00000220: 98a1 9f3b 91e7 c3bc d845 723f e4aa 4f3e
00000230: 2def 103f f0e6 3abd 89e4 e53c 6fbd 11bc
00000240: 2f8a 3ebd a68d 48bd db36 9d3e e2c2 183e
00000250: f95b 2e3e 0120 e33e aed8 33bd f804 c5be
00000260: 4413 643f 8aa0 b53d f8c5 74bd b67e 8ebe
00000270: fc1d b2bc 4ac3 8ebf 607b 49be abb6 93bd
00000280: 585e 8bbc 96b1 a9bd e83c dabe 7f69 443e
00000290: 84ab c93e ff00 b1be 3475 7ebc be66 133d
000002a0: 8f56 35bf ac08 ca3d 8c17 e53d f85d 77bb
000002b0: b001 1cba 5b8c a53c fdb4 7abf 5bd1 03be
000002c0: 3ad2 d03d d1ac 183d 87a1 083e 193b a93e
000002d0: 0a60 abbe 9926 01bf 2da4 d5be 0527 ddbc
000002e0: 60bb 523d a411 873d c2f7 c7be bd45 64be
000002f0: 87d9 d03b 01e6 123f 3449 df3c 11c6 823d
00000300: 7839 1e3d 1f18 8cbd 0722 e1bd 086c babe
00000310: 8b3a 783e 3b06 6c3f 207b 6e3e f8a1 babd
00000320: db7a 19bd 5967 f63e bcc2 b43c 7744 5d3d
00000330: cfa3 2bbe a16c 11be 7a76 4bbb 442c 1d3e
00000340: 2425 75be ac1f 3f3e e58b 6bbd a730 2a3f
00000350: d5e2 543e eeb6 d5be b39f 283e 6358 4e3e
00000360: 7887 56bd 9ce9 66bf a036 f23e d784 a33d
00000370: 211f 943d ef0f db3d 8278 ed3e 8a50 d9bc
00000380: ad57 a13d 58eb a93e 8255 26be a737 c6be
00000390: 0558 aabf 8ebd 6fbd feec 86be 14af e1bc
000003a0: e125 243c 5cfb bbbb a719 673c 6791 683e
000003b0: 917c 97bd 6f9f aa3d 6237 ee3d 37ba 003e
000003c0: 3156 ff3e dc35 5b3d be0c 133f e2b1 243e
000003d0: 7c1e d4bc 5b0a 8a3e 862f 08be 3b11 493f
000003e0: 64a6 80be 93da e13e 7c8a 82bd 78b6 153e
000003f0: 18b8 943e 68a9 003f b164 1f3f 2931 aa3e

fc1.bias f4 [64]
-1.2428535 0.6372667 0.21421571 0.38964546 0.113182686 0.54518306 -0.0113092195 0.22955786
-0.43048817 -0.78693575 -0.33015484 -0.080953725 -0.6363283 -1.3323356 -0.014932244 0.17528468
-0.9900751 -0.68019605 -0.32642853 -0.7672035 0.2853804 -0.13164589 -0.581038 -0.11605998
0.1266793 -0.112770185 -0.6954254 -0.17310365 0.5930032 -1.0373218 0.18385307 -0.11236672
-0.7879758 0.12624453 0.18129586 -0.76036483 -0.27312773 -0.31557655 -0.3955655 0.22101949
-0.6287281 -0.43268192 -0.1817212 0.23603617 0.16283415 -0.1891335 -0.8066209 0.44773197
-0.95400745 -0.7786404 -0.45254648 -1.4262768 -0.11005288 -0.7633645 -0.02407842 0.2754984
-0.39696652 -1.2421794 -1.1456476 -1.4488473 -0.4500561 -1.4893131 -0.16225483 -0.0076342784
00000000: d315 9fbf e923 233f 5d5b 5b3e 9c7f c73e
00000010: 53cc e73d 1e91 0b3f 4e4a 39bc 3711 6b3e
00000020: f268 dcbe 9f74 49bf 0e0a a9be 11cb a5bd
00000030: 69e6 22bf f989 aabf 5fa6 74bc d47d 333e
00000040: 9075 7dbf 5421 2ebf a421 a7be 7367 44bf
00000050: 611d 923e 2ece 06be e8be 14bf dbb0 edbd
00000060: 38b8 013e 0ef4 e6bd 6607 32bf 1542 31be
00000070: 0fcf 173f f6c6 84bf fb43 3c3e 8620 e6bd
00000080: c8b8 49bf 3f46 013e 9fa5 393e 45a7 42bf
00000090: 66d7 8bbe 4093 a1be 9087 cabe ef52 623e
000000a0: 53f4 20bf 7c88 ddbe 1f15 3abe 77b3 713e
000000b0: ffbd 263e 36ac 41be b57e 4ebf 203d e53e
000000c0: d539 74bf fa54 47bf 2cb4 e7be 3d90 b6bf
000000d0: 6863 e1bd db6b 43bf 1b40 c5bc 200e 8d3e
000000e0: 323f cbbe bcff 9ebf 95a4 92bf d473 b9bf
000000f0: c16d e6be d0a1 bebf 2126 26be f828 fabb

fc2.weight f4 [64, 64]
-0.24062616 -0.11092583 -0.18499169 -0.1337503 -0.10002368 -0.027281933 -0.29107752 0.15320902
-0.3928611 -0.94998837 0.11174503 -0.11190748 -0.14709045 -0.0021951878 -0.1513351 0.05381855
-0.23723753 -0.34262514 -0.21988477 -0.4997468 0.31043065 -0.0504667 -0.26037702 0.35834694
-0.12583663 0.07205481 -0.17109099 0.030247962 0.31152248 0.13575402 0.20995419 0.036396045
-0.10209473 0.27749693 -0.12879387 0.42879984 0.32370526 0.2640205 0.61748123 0.05496865
0.032247175 -0.16357143 0.1137064 -0.13091743 0.30018055 0.083790414 -0.0085979225 -0.1447328
-0.006654289 -0.20469074 -0.011829865 -2.3424006 0.10864031 -0.20536013 -0.29203942 0.0078704655
-0.15642473 1.3501413 -0.6929301 0.24224769 -0.12541915 -0.62057495 0.079348445 -0.22842273
-1.2176323 0.15271372 -0.2040678 -0.09967424 -0.06655092 0.1151049 -0.635257 0.22256146
0.016982367 0.056412138 -0.14817981 0.04438074 -0.6136689 -0.20997111 0.022938961 -0.023581246
0.586767 0.38428685 0.039074395 0.406778 0.25304756 -0.15824926 0.10209253 0.18957399
0.30317765 -0.0724421 -0.43624198 0.19558637 0.08477227 -0.18500245 -0.30651882 0.13132267
-0.007303699 -0.12350697 -0.20702711 -0.8182 0.087365456 0.1991622 0.08485519 -0.11973322
0.09674248 -0.5207405 -0.25622442 0.039970167 -0.023448352 -0.048739377 -0.26093885 0.13616902
0.28418702 0.5492809 -0.39675936 -0.42627218 0.019465297 -0.85246253 0.002167682 0.24896082
-0.41952005 0.06283583 -0.28619373 0.43562266 0.12367609 -0.36786345 -0.13153182 0.14308672
-0.111618385 0.024179468 -0.15182766 -0.09857316 -0.6332893 -0.02987026 0.07007789 -0.022862144
-0.12520377 -0.557736 -0.5268618 -0.3981182 -0.29213566 -0.9175629 -0.1552196 0.14841326
0.320092 0.017139666 0.086907335 0.37484533 -0.0049643177 -0.14026488 -0.5377257 0.50883335
-0.7289219 -0.25011006 -1.2173816 -0.24768259 -0.15266116 -0.11965852 0.64666283 0.14825939
0.37219223 0.24596843 -0.23283242 -0.37335464 -0.8405634 -0.115920916 0.4687443 -0.12814723
-0.33231917 -0.43236908 -0.01991108 0.25781894 0.18888782 0.337403 0.22428577 0.101077676
-0.06514658 -0.23122202 -0.17810819 -1.2660884 -0.6466421 0.15347394 0.45315397 0.3338778
0.35671425 -0.21536167 0.31297067 0.051180698 0.047142748 -0.72069776 -0.08516858 0.29946497
-0.25133625 0.17054628 0.014833684 0.25653997 0.43471575 -0.060100917 -0.09375784 0.4883307
-0.04425595 0.1495817 0.050446846 0.23480651 -0.29382893 -0.37586746 -0.41186297 0.2866707
-0.051409747 -0.25137052 -0.25948182 0.06447423 0.44979882 -0.046752594 -0.039572313 0.08364975
-0.25841376 -0.3182082 0.09970295 0.24148557 -0.27010354 -0.99672085 0.05878524 0.05107875
-0.30891904 0.21383345 -0.044319898 -0.47738308 0.17079279 0.115028836 0.617198 0.46737304
0.084510736 -0.18661225 0.015893342 -0.27580452 0.6125528 -0.18927549 -0.29573864 0.28698775
-0.029242598 -0.09964324 -0.27510205 -1.3700469 -0.13496888 0.034073167 -0.30936262 0.28032592
-0.24903175 -0.13887835 -0.6727011 -0.12009712 -0.31641588 -0.6723278 -0.077075854 0.127351
00000000: b466 76be 152d e3bd 766e 3dbe d7f5 08be
00000010: 37d9 ccbd 5c7e dfbc 1d08 95be d3e2 1c3e
00000020: 1725 c9be 7032 73bf 94da e43d c02f e5bd
00000030: e19e 16be 24dd 0fbb 97f7 1abe d770 5c3d
00000040: 65ee 72be 906c afbe 7929 61be d0de ffbe
00000050: c4f0 9e3e 2cb6 4ebd 2350 85be 4079 b73e
00000060: 51db 00be 7991 933d 7a32 2fbe 93ca f73c
00000070: e07f 9f3e 1a03 0b3e 3bfe 563e 0514 153d
00000080: 0b17 d1bd 1414 8e3e 8ae2 03be a78b db3e
00000090: b2bc a53e b22d 873e 4013 1e3f cf26 613d
000000a0: 9d15 043d 457f 27be e7de e83d 380f 06be
000000b0: 44b1 993e 4f9a ab3d 4dde 0cbc d634 14be
000000c0: 390c dabb 739a 51be 0dd2 41bc e4e9 15c0
000000d0: d07e de3d ed49 52be 3186 95be 20f3 003c
000000e0: ce2d 20be 6ed1 ac3f de63 31bf c70f 783e
000000f0: e16d 00be 00de 1ebf 7081 a23d a6e7 69be
00000100: 60db 9bbf fc60 1c3e 26f7 50be 0222 ccbd
00000110: d94b 88bd 1ebc eb3d 34a0 22bf 27e7 633e
00000120: 9b1e 8b3c 6a10 673d 73bc 17be 94c8 353d
00000130: 6819 1dbf ab02 57be 7dea bb3c 752d c1bc
00000140: 5d36 163f 3fc1 c43e 790c 203d 3545 d03e
00000150: 738f 813e 180c 22be e315 d13d af1f 423e
00000160: 1a3a 9b3e 865c 94bd 1c5b dfbe cb47 483e
00000170: 159d ad3d 4871 3dbe 09f0 9cbe 7379 063e
00000180: de53 efbb 39f1 fcbd eafe 53be 8e75 51bf
00000190: a9ec b23d 2df1 4b3e 8fc8 ad3d b136 f5bd
000001a0: ec20 c63d 404f 05bf d92f 83be c2b7 233d
000001b0: c216 c0bc f1a2 47bd c799 85be e46f 0b3e
000001c0: f680 913e ac9d 0c3f 0b24 cbbe 5940 dabe
000001d0: b075 9f3c fc3a 5abf ab0f 0e3b 96ef 7e3e
000001e0: 55cb d6be 12b0 803d fc87 92be ef09 df3e
000001f0: e449 fd3d 9958 bcbe 47b0 06be 5385 123e
00000200: 2e98 e4bd 0514 c63c b678 1bbe bae0 c9bd
00000210: 3f1f 22bf 7ab2 f4bc ff84 8f3d 6449 bbbc
00000220: 6b35 00be c9c7 0ebf 6ae0 06bf 26d6 cbbe
00000230: ce92 95be 67e5 6abf e3f1 1ebe a5f9 173e
00000240: 19e3 a33e 7c68 8c3c 79fc b13d baeb bf3e
00000250: b7ab a2bb 99a1 0fbe 64a8 09bf e742 023f
00000260: a09a 3abf 6d0e 80be 29d3 9bbf 81a0 7dbe
00000270: 3553 1cbe 870f f5bd b28b 253f 4fd1 173e
00000280: fb8f be3e 26df 7b3e 9f6b 6ebe 5728 bfbe
00000290: 2a2f 57bf f267 edbd 41ff ef3e 0739 03be
000002a0: bd25 aabe 7b5f ddbe 901c a3bc d800 843e
000002b0: cf6b 413e 16c0 ac3e 2bab 653e d001 cf3d
000002c0: 926b 85bd 77c5 6cbe fe61 36be 2f0f a2bf
000002d0: 568a 25bf 4628 1d3e cc03 e83e 08f2 aa3e
000002e0: 40a3 b63e c587 5cbe b13d a03e daa2 513d
000002f0: c118 413d a67f 38bf dd6c aebd 7953 993e
00000300: 25af 80be afa3 2e3e fb08 733c 3559 833e
00000310: 1093 de3e 612c 76bd 1c04 c0bd 7b06 fa3e
00000320: ba45 35bd f22b 193e 5aa1 4e3d 1e71 703e
00000330: bf70 96be b371 c0be b4df d2be 81c6 923e
00000340: 0793 52bd a3b3 80be cdda 84be 110b 843d
00000350: 084c e63e a67f 3fbd 9416 22bd 8f50 ab3d
00000360: cf4e 84be 2fec a2be 0f31 cc3d fe47 773e
00000370: 034b 8abe 1929 7fbf cbc8 703d f437 513d
00000380: a32a 9ebe 28f7 5a3e c888 35bd 8e6b f4be
00000390: 4ee4 2e3e 3d94 eb3d b000 1e3f 854b ef3e
000003a0: f713 ad3d 4817 3fbe c132 823c 4036 8dbe
000003b0: 43d0 1c3f 6fd1 41be 0e6b 97be 0ff0 923e
000003c0: 2c8e efbc c111 ccbd 2dda 8cbe b25d afbf
000003d0: 4835 0abe 4e90 0b3d c764 9ebe e186 8f3e
000003e0: 2e02 7fbe 2036 0ebe 2436 2cbf 7bf5 f5bd
000003f0: 4301 a2be ad1d 2cbf f2d9 9dbd 4d68 023e

fc2.bias f4 [64]
0.27479926 0.13429737 0.5055555 0.34893724 -0.055691306 -0.3291778 -0.6481049 -0.26815504
0.2634946 -0.24881642 0.29095483 -0.11997285 -0.04323873 -0.3518941 -0.20428269 0.27309203
-0.032692347 0.29707968 0.122345604 0.17878397 0.13842592 -0.25878775 0.26229385 -0.21212433
0.36974052 0.42407405 0.48492888 0.3140489 0.4947664 -0.5422815 -0.0010678043 -0.033606887
-0.28207216 -0.25724113 -0.67088825 -0.34984726 -0.3258773 0.3011826 0.24065186 -0.057903517
-0.18202777 0.068402395 0.40320298 -0.37124017 -0.24581471 -0.57709926 -0.64363045 0.10507574
0.34993476 0.45139915 0.33797583 0.119150996 0.1371685 0.042442076 -0.019307977 0.4362538
-0.09757857 0.5566963 -0.3110529 0.34649017 -0.35977125 0.5201834 0.32004908 -0.026940644
00000000: 7db2 8c3e 4085 093e 166c 013f e7a7 b23e
00000010: 911c 64bd fe89 a8be 34ea 25bf 9e4b 89be
00000020: c4e8 863e bbc9 7ebe 08f8 943e 53b4 f5bd
00000030: 181b 31bd 772b b4be 7b2f 51be b8d2 8b3e
00000040: 69e8 05bd d41a 983e 5590 fa3d 2513 373e
00000050: 86bf 0d3e d47f 84be 614b 863e 1f37 59be
00000060: a14e bd3e 3c20 d93e 9948 f83e 04cb a03e
00000070: 0652 fd3e f6d2 0abf 91f5 8bba 60a7 09bd
00000080: c36b 90be 1cb5 83be 55bf 2bbf 2e1f b3be
00000090: 64d9 a6be 9b34 9a3e 716d 763e 3d2c 6dbd
000000a0: 7d65 3abe 8e16 8c3d 9f70 ce3e 3113 bebe
000000b0: dab6 7bbe c7bc 13bf f7c4 24bf f331 d73d
000000c0: a62a b33e ca1d e73e 2b0b ad3e 7005 f43d
000000d0: e675 0c3e bed7 2d3d c32b 9ebc a85c df3e
000000e0: 46d7 c7bd a683 0e3f 5342 9fbe 2967 b13e
000000f0: f033 b8be bd2a 053f 79dd a33e a0b2 dcbc

fc3.weight f4 [2, 64]
0.07237188 0.2638914 0.021609494 0.10114065 0.103367016 -0.14220233 -0.054480802 0.11650447
0.0007313107 -0.90247995 -0.008381973 -0.2880341 -0.12798977 0.18330067 -0.33289734 -0.38114882
-0.05153247 -0.039260115 -0.36108 -0.35948706 2.325008 0.5508024 -0.41314918 -0.8333329
-0.22595695 0.27666777 -0.002740265 -0.096526176 0.0069582607 0.031918254 0.260696 -1.010569
0.09030083 0.6952484 0.0120451255 0.08128346 0.06264856 -0.10617898 0.20742397 0.20139603
-0.6560775 -0.17989895 0.021026745 0.09521253 0.0038624408 -0.68309784 0.5454783 0.12974665
-0.061288126 -0.29279813 -0.4528455 -0.03322672 0.010425172 -0.33140624 0.52257395 0.31180343
-0.0703129 0.031701006 -2.0406873 0.07526324 -0.061605625 -0.07069828 -0.09200005 0.022759294
0.44596916 -0.07900088 -0.66519797 -0.39927125 0.59314924 0.6849469 1.1320244 0.6614934
0.763079 -0.8384773 -0.6857015 0.09890209 -0.7445416 0.41025445 -0.20598777 -0.11443824
-0.4167076 0.46805668 0.28329536 -0.02662105 -0.25905117 0.1504204 0.017445676 0.049495477
0.4864906 -0.04196689 -0.86045146 -0.5085187 -0.6259379 -0.7904613 -0.8249903 -0.17338128
2.0490904 -0.040729355 -1.0380476 0.63926274 -0.65111166 -0.33093435 0.625824 0.05707052
0.31988817 0.60546744 -0.32655084 -0.91356015 0.5512531 0.008025841 0.016488425 -0.74454224
0.34769347 -0.091376394 -0.04111447 0.3812411 -0.6545258 0.07931682 -0.036555644 -1.0132082
-0.50756913 -0.4235048 -0.17100243 0.5680411 1.1253189 -0.6306632 1.1780128 0.5977132
00000000: b537 943d c61c 873e 6506 b13c d422 cf3d
00000010: 16b2 d33d 7d9d 11be 4327 5fbd e599 ee3d
00000020: 6eb5 3f3a ed08 67bf 8b54 09bc 3579 93be
00000030: c00f 03be 2cb3 3b3e 8571 aabe f025 c3be
00000040: b613 53bd 37cf 20bd 7adf b8be b00e b8be
00000050: eecc 1440 6301 0d3f 4a88 d3be 4e55 55bf
00000060: 4261 67be 66a7 8d3e 0596 33bb 84af c5bd
00000070: 1f02 e43b b7bc 023d f279 853e 535a 81bf
00000080: a4ef b83d cdfb 313f eb58 453c f177 a63d
00000090: e34d 803d 5d74 d9bd f366 543e c33a 4e3e
000000a0: b2f4 27bf 6e37 38be 4840 ac3c c9fe c23d
000000b0: 0121 7d3b 80df 2ebf 77a4 0b3f 4edc 043e
000000c0: 4209 7bbd a3e9 95be 5edb e7be be18 08bd
000000d0: 57ce 2a3c 14ae a9be 68c7 053f b3a4 9f3e
000000e0: 3600 90bd ead8 013d 9f9a 02c0 9d23 9a3d
000000f0: 2e56 7cbd 43ca 90bd 866a bcbd b371 ba3c
00000100: 1256 e43e 37cb a1bd 6a4a 2abf 486d ccbe
00000110: a1d8 173f ae58 2f3f 2de6 903f a257 293f
00000120: 2559 433f 73a6 56bf 228a 2fbf 2e8d ca3d
00000130: 479a 3ebf df0c d23e 75ee 52be 995e eabd
00000140: b35a d5be 20a5 ef3e 170c 913e 6314 dabc
00000150: 5ba2 84be ce07 1a3e 3cea 8e3c c5bb 4a3d
00000160: 4c15 f93e 79e5 2bbd 8c46 5cbf 482e 02bf
00000170: 773d 20bf ac5b 4abf 9032 53bf dd8a 31be
00000180: 4c24 0340 d3d3 26bd bede 84bf b9a6 233f
00000190: 41af 26bf 3a70 a9be 0036 203f c7c2 693d
000001a0: 62c8 a33e eaff 1a3f ac31 a7be 14df 69bf
000001b0: ec1e 0d3f d17e 033c bc12 873c 529a 3ebf
000001c0: e104 b23e 8c23 bbbd a667 28bd 0932 c33e
000001d0: 018f 27bf db70 a23d 5fbb 15bd ceb0 81bf
000001e0: 0df0 01bf 9fd5 d8be 431b 2fbe 246b 113f
000001f0: 730a 903f 2573 21bf 20c9 963f bb03 193f

fc3.bias f4 [2]
-0.022561593 -0.0470855
00000000: 17d3 b8bc badc 40bd
