Model/model_transformer.pth (torch, 354006 bytes, 40 tensors)

state_embedding.weight f4 [64, 6]
000000 7c cd 6c be 40 f0 d4 3d 69 3d 6e 3e 4f 11 4e be
       -0.23125261 0.103973866 0.23265614 -0.2012379
000010 c0 76 81 3e 17 d2 c1 3e b6 88 97 be fd 2e 9c 3d
       0.25285912 0.37855598 -0.2959649 0.0762615
000020 97 c3 a3 be a4 d2 9a 3e e1 3f c1 be c9 98 bc 3e
       -0.3198516 0.3023883 -0.37744048 0.36835316
000030 1b ee 67 bd 90 50 e8 3e 34 1e 27 3c 2a 35 5e be
       -0.05662356 0.45373964 0.010200072 -0.21699968
000040 9d 97 0f 3f 6e 3c ac 3e 72 88 dc bd 27 bd eb 3e
       0.5609072 0.33639854 -0.107682124 0.4604275
000050 e2 d2 f9 3e 16 3e d2 3e 71 ab 17 be fa cf b2 3e
       0.48793703 0.41062993 -0.14811493 0.349243
000060 e9 a3 02 3d 72 07 eb 3d f2 37 0a bf 0e 11 c3 be
       0.0318946 0.114760295 -0.53991616 -0.3809895
000070 f1 7e 78 3d 3e 03 9c 3e 7e 84 1b 3e d6 be 8e 3e
       0.060667936 0.30471224 0.1518726 0.2787997
000080 07 cc 1a 3f 12 d0 29 3d c2 29 41 3e 53 f4 85 3e
       0.6046757 0.041458197 0.18863586 0.26162967
000090 e3 71 b6 bc 85 b0 c8 be 6b f1 92 be fc 21 ba be
       -0.022271102 -0.39197174 -0.28699812 -0.36354053
0000a0 ba df f7 bd 32 7c d9 3d 17 05 45 bc 7e 22 0e be
       -0.12103219 0.106193915 -0.012025139 -0.13880345
0000b0 ac c2 3e 3e d4 e2 ac 3d c5 46 f3 be b2 09 8e 3e
       0.18628949 0.084417015 -0.4751493 0.27741772
0000c0 ea 70 a6 3e 4f 93 84 3e be 46 19 3c 6c 84 21 be
       0.32508022 0.25893638 0.009355245 -0.15773171
0000d0 01 95 bf be dd 4a 99 bd c8 68 4e be 9b 8d 09 bc
       -0.37418368 -0.07484982 -0.20157158 -0.008395578
0000e0 aa 09 02 bf b2 5a ac 3e f4 ae c2 be 0c 8f a4 3e
       -0.50795996 0.33662945 -0.38024104 0.32140386
0000f0 dd d5 71 3c b1 1a 97 3e 86 41 f4 be c4 f9 19 3e
       0.014760462 0.2951255 -0.4770624 0.15036684
000100 10 a9 07 be 0d ba b3 3e 5c 94 2b 3e 08 c3 3b be
       -0.13248086 0.35102883 0.16755813 -0.18336117
000110 60 ce 4f be 0d 8e 0e be 10 6f 33 bd 48 63 3d be
       -0.2029357 -0.13921376 -0.04380709 -0.18494904
000120 35 a0 d0 bd b7 b0 34 3e 78 c5 8b be b9 60 0a be
       -0.10186807 0.17645536 -0.27299094 -0.1351346
000130 b6 0a 99 3e 92 ad 88 3d a6 b4 af 3e f1 34 c4 3d
       0.29890984 0.06673731 0.3431751 0.0958041
000140 73 e2 1a 3f d6 b1 53 be 6d 2b 0a 3f 4a e8 58 3e
       0.60501784 -0.20673308 0.5397251 0.21182361
000150 16 21 4f bd 34 52 3c 3d 9e ab af be 44 ab 2c bd
       -0.050568663 0.045976833 -0.3431062 -0.04215552
000160 67 c8 bb 3c 2a 34 7a be 70 48 74 be 05 e8 6b 3e
       0.022922708 -0.24433962 -0.23855758 0.23037727
000170 70 2c 0b bf 44 06 71 3c da 90 e1 3b 30 b0 44 3e
       -0.5436468 0.0147109665 0.0068837227 0.19207835
000180 b0 b7 53 3d 18 e6 e3 3e 92 a5 00 3f bd 21 44 3d
       0.05168885 0.44511485 0.5025264 0.047883738
000190 cb 0f 01 3f ff 07 31 3c 0f 18 91 3d 23 db 47 be
       0.50414723 0.010805129 0.07084667 -0.19517188
0001a0 05 04 53 3e 82 ff 02 bf 02 41 ca 3d 24 ec 87 3c
       0.20607002 -0.51171124 0.098756805 0.016592093
0001b0 62 af 4d 3e 45 33 99 3d 91 08 88 3d fb e1 c3 3e
       0.20086434 0.07480482 0.06642259 0.38258347
0001c0 e0 87 97 3e 02 7d 35 3e 64 a4 1b 3c 42 ca 82 3d
       0.29595852 0.17723468 0.009499643 0.06386234
0001d0 d8 aa b7 3e a8 cc 74 bd 28 d6 78 3e 3c ca 8d 3e
       0.3587253 -0.059765488 0.24300444 0.27693355
0001e0 12 e7 10 be 87 ed a1 be 0b c4 02 3d a3 dc 5e bd
       -0.14150646 -0.3162653 0.031925242 -0.054409634
0001f0 71 ea 8e be 2e fb 13 be 38 a7 25 be da 53 f2 3d
       -0.2791324 -0.14451286 -0.1617707 0.118324
000200 d9 e7 f9 bd bb e5 76 3e be f5 b0 3e 42 c5 14 3d
       -0.122024246 0.24111073 0.34562486 0.036320932
000210 22 ae e6 3b 7c 05 87 be a8 91 f7 3e a7 40 79 bd
       0.007039801 -0.26371372 0.48353314 -0.060852673
000220 74 b2 63 be dc 41 9d 3e 6d 64 d4 3d 45 f1 f2 be
       -0.22236043 0.3071431 0.10370717 -0.474497
000230 63 09 01 3f cb 0e 02 be fd 57 c5 3c 78 80 50 3d
       0.5040495 -0.12700956 0.024089808 0.050903767
000240 27 07 af bd d6 5c 63 3e d5 06 a4 bd 88 44 37 be
       -0.08546286 0.22203383 -0.080091156 -0.17897236
000250 45 22 47 3e 56 e5 21 be c7 4b 19 3e 3c 1e 87 38
       0.19446667 -0.15810141 0.14970313 6.442933e-05
000260 87 5c 2e 3d 20 82 b9 be 1f 53 46 3e 06 41 1d 3e
       0.04256871 -0.3623209 0.19367646 0.15356836
000270 60 46 54 be 56 80 99 bb 28 a5 26 bd 6d 13 b1 3e
       -0.20729971 -0.0046844883 -0.04068485 0.34585133
000280 7c 78 6e bd ec c0 56 3e b8 93 66 3e 4a b9 20 3e
       -0.05822037 0.20972031 0.22517288 0.15695682
000290 b1 1e 28 3f bf 23 11 bf da 54 b6 3d 53 83 9b bd
       0.6567183 -0.5669517 0.08902903 -0.075934075
0002a0 93 1a 93 3e cc a6 cb 3d fd 14 a5 bc 70 3e 9d 3e
       0.28731212 0.09943923 -0.02015161 0.307117
0002b0 9d 32 d3 3d 1a aa 1d bd 63 a7 02 be f8 42 bf 3e
       0.10312388 -0.0384923 -0.12759165 0.3735578
0002c0 ab 9b ce 3e 54 dc b1 3d 03 d5 9d 3d 69 d5 e4 3d
       0.4035314 0.086846024 0.077066444 0.11173517
0002d0 1c 77 c8 bb 8e 8f 50 bc ea 97 df 3e 44 54 6f be
       -0.0061177146 -0.012729539 0.4367059 -0.23371989
0002e0 a1 60 ab 3e 76 37 cf bc 99 85 02 be 97 d0 46 3e
       0.3347216 -0.025295 -0.12746276 0.19415508
0002f0 6c b5 db be 92 54 d1 3e 51 1a 42 3e 4b 1b 88 be
       -0.4291185 0.40884835 0.18955351 -0.26583323
000300 4e 63 91 bc 0e 9a 5d 3e ee f4 94 3e af 8f b0 3e
       -0.017747547 0.21640798 0.29093117 0.34484622
000310 96 07 9d be 58 9f 62 3e 41 bc d6 3d 0d a1 7e 3d
       -0.3066985 0.22131097 0.10485125 0.06216531
000320 06 c3 04 3f e1 ad 76 be 9f 3b 12 3e 63 06 4d 3e
       0.5186008 -0.24089767 0.14280556 0.20021968
000330 e2 72 74 be f8 2f e9 3d dd 42 c1 bd db 98 da 3e
       -0.2387195 0.113861024 -0.09436581 0.42694744
000340 2d 4f 94 3e 32 6a 91 be fc dc 62 3d 54 f6 d9 3e
       0.28966656 -0.28401333 0.05538653 0.42570746
000350 f1 a4 38 3e c0 17 4c bd c9 de 12 3f ed 7e b1 3d
       0.1803167 -0.049827337 0.57371193 0.08666787
000360 d7 3f 8b 3c 98 38 ba 3e 1e 7d 61 3d 27 56 62 be
       0.016998215 0.36371303 0.05505096 -0.22103177
000370 36 97 82 be d7 7c e8 3d b9 6f 32 be 62 16 7f bd
       -0.2550599 0.11351936 -0.17425431 -0.062277205
000380 d9 55 61 3d 2b 0a c9 3e 77 85 0e 3c 42 cd 05 be
       0.05501351 0.3926557 0.008698813 -0.13066581
000390 e2 70 b0 3d c2 6d cc be da 2d d3 3e f1 9e 02 bc
       0.08615281 -0.3992749 0.4124592 -0.007972465
0003a0 e8 b4 97 be bb 54 f5 bd 12 2d 9c 3e 59 29 16 3e
       -0.29630208 -0.11979052 0.30503136 0.1466421
0003b0 ce 63 b8 3e 47 9f d1 3e e9 f2 46 3c d9 be 0e be
       0.36013645 0.4094183 0.012142875 -0.1393999
0003c0 22 aa 93 be 47 a2 7a bd 2a 66 14 bf b0 ec 07 3f
       -0.2884074 -0.061189916 -0.5796839 0.5309553
0003d0 e0 b4 16 3e 84 dc 91 3e 55 8b ce 3d 08 fb ae be
       0.14717436 0.28488553 0.10085169 -0.34175897
0003e0 ec cb 18 bf 78 f0 23 be fd 3c 48 be e5 f9 46 bd
       -0.5968616 -0.160097 -0.19554515 -0.04857816
0003f0 66 59 73 3e 41 5a b0 3e df 20 22 3f 3b bd de be
       0.23764572 0.34443858 0.6333141 -0.43503746

state_embedding.bias f4 [64]
000000 c8 8c 0b 3d bf 91 cf bd 8e bc a0 3e 11 c4 34 3e
       0.034069806 -0.10135221 0.31393856 0.17652918
000010 69 cf 0e bc 06 23 a8 3e ee f6 bc 3e f0 29 95 bd
       -0.008716443 0.3283922 0.36907142 -0.072833896
000020 bf 19 f5 3e 34 0e 68 3e f2 f1 1e 3e 5e f9 b6 be
       0.47871205 0.22661668 0.15521982 -0.35737127
000030 4c f2 bf 3d 14 f7 93 3e a0 66 b3 3d cc 8f 07 3f
       0.09372386 0.28899443 0.087598085 0.5295379
000040 d3 bf 34 3e 5f 50 dd bd 2c c1 da be 99 33 da 3e
       0.176513 -0.10806345 -0.42725503 0.4261749
000050 8a 45 dd be b5 61 b1 3e a1 52 10 be 37 de ec be
       -0.43217117 0.34644857 -0.1409402 -0.46263286
000060 e9 c7 d2 3e 2a e7 ca 3d 32 ce 8b be 7a 9c 66 3e
       0.41168144 0.09907372 -0.27305752 0.22520629
000070 01 fe a5 3e 42 70 08 3f 5a 56 2a 3e 68 39 df 3d
       0.32420352 0.5329629 0.16634503 0.10899621
000080 0b 4b 30 3e c4 91 cf 3e 82 a7 9b 3e 51 75 b5 be
       0.17216127 0.40540898 0.30401236 -0.35441068
000090 a9 20 3d be 28 f8 d0 3d 4c 03 4f 3e fd 34 51 be
       -0.1846949 0.10203582 0.20216101 -0.2043037
0000a0 73 7f 34 3e c3 6a 74 be 45 2d 52 3d d1 ef 21 be
       0.17626743 -0.23868851 0.051312704 -0.15814139
0000b0 2b 38 df 3d 13 0e 8b be b9 bc 3c 3e 81 ea 22 3e
       0.10899385 -0.27159175 0.18431367 0.15909769
0000c0 1f e1 14 be 05 e3 cf 3d 4e 8d 12 bd 4a cb 0c bf
       -0.14539002 0.101507224 -0.03577929 -0.54997694
0000d0 1f e2 05 bf ce 3e 99 be d8 97 93 3e 3f 63 95 be
       -0.5229816 -0.2993073 0.28826785 -0.2917728
0000e0 dc 3b 6c be 44 4f 81 3e 86 84 b2 3e 86 45 b9 be
       -0.2306971 0.25255787 0.34866732 -0.36185855
0000f0 ff 1a 15 be 12 54 01 3f 41 60 eb 3e 6e e8 cc be
       -0.1456108 0.50518906 0.45971873 -0.4002108

action_embedding.weight f4 [64, 2]
000000 39 5d ff 3e 49 27 86 3e 9c 07 6f 3d 23 d3 92 3d
       0.4987581 0.26201847 0.058356866 0.071691774
000010 be 99 48 3f b8 55 21 bf 70 57 fb be a0 6a d9 3e
       0.7835959 -0.6302142 -0.49090147 0.4246416
000020 43 d1 01 be 81 8a 89 3e 39 43 29 bf 99 dc 02 3f
       -0.12677483 0.26863483 -0.661182 0.51117855
000030 3e 29 08 bf e2 45 ae be 41 9b 1d 3f 21 c7 14 bf
       -0.5318793 -0.3403769 0.61565024 -0.58116347
000040 28 84 94 be 66 fc 4f 3f 63 66 00 3e f3 74 06 3f
       -0.29007077 0.81244504 0.12539057 0.525222
000050 b8 f6 ef 3e aa 88 f4 3e fc ee 89 be 62 69 05 bc
       0.4686792 0.47760516 -0.26940143 -0.008142801
000060 79 1d 11 3f 89 2e 4f 3f 4b 8e 95 bd 1e be ce bd
       0.56685597 0.8093038 -0.07302531 -0.10094856
000070 f6 a0 62 3e f9 1f 89 3e 39 5b 65 3f c5 fa a1 3e
       0.22131714 0.26782206 0.8959232 0.31636634
000080 18 ce 55 bf 3e 9a cf be 21 14 53 3f 12 26 9c be
       -0.835176 -0.40547365 0.8245259 -0.30497795
000090 25 77 1d 3f c7 64 8a 3e ba f3 04 3f 5c 45 5a be
       0.61509925 0.27030012 0.519344 -0.21315521
0000a0 89 57 24 be 88 65 4f bf 04 da 27 3f 0c 9c 54 be
       -0.16049017 -0.810143 0.6556704 -0.20762652
0000b0 02 f4 26 3d 11 1f 7f 3e 3d 58 48 3f 01 59 a9 3e
       0.040760048 0.24914195 0.7825964 0.33075717
0000c0 ed e5 d5 3e 01 51 f9 3e c5 37 2d bf dc 38 ef 3e
       0.41776982 0.48694614 -0.6766322 0.46723068
0000d0 88 a4 cc be e5 9a 5a 3f bd 4a 08 3e 15 2e 1c be
       -0.39969277 0.853926 0.1330976 -0.15251954
0000e0 7b 0e 7c 3e f5 aa 05 bf b5 49 9e be 28 e6 f4 bd
       0.24614899 -0.52213985 -0.3091561 -0.11957961
0000f0 f0 50 3f 3f cd c7 31 be 8b d4 c8 be f9 4e 92 3e
       0.74732876 -0.17361374 -0.39224657 0.28575876
000100 3c cd c3 3d 27 54 d7 3b 6e 52 85 3e a4 ac 26 bf
       0.0956063 0.006571311 0.2603945 -0.6510718
000110 96 f2 37 bf 12 fa 8d be c2 b8 f1 3e 24 ed aa 3e
       -0.7185453 -0.2772985 0.47211272 0.3338405
000120 bc 71 1e 3f 47 05 9c 3e de 82 41 bf 2d 92 c8 be
       0.61892295 0.30472776 -0.7559031 -0.39174023
000130 57 60 e1 3b 06 27 48 3f a6 a3 ec 3d cb 3e 04 bf
       0.0068779397 0.78184545 0.11554651 -0.51658314
000140 e7 e0 39 be d3 e3 27 bf 79 d6 1c 3f bb d1 05 bf
       -0.181522 -0.6558201 0.6126476 -0.5227315
000150 70 9a 69 bf e9 83 b2 3e 4d 08 a1 be fc b2 e6 be
       -0.9125128 0.34866264 -0.31451645 -0.4505843
000160 05 26 50 be 11 2b 70 bf 5b 7e 2d bf 56 4c e5 3e
       -0.20327003 -0.93815714 -0.6777093 0.44784802
000170 bb 6c 9b be 8c 3e fc 3e d9 8a 06 be 39 c7 e4 3e
       -0.30356392 0.4926647 -0.13138904 0.44683245
000180 cf fb 24 3f a4 76 0f 3f b8 c4 97 be fd 8b 14 3f
       0.6444673 0.56040406 -0.29642272 0.58026105
000190 2c 89 04 bf 2e c6 b9 be 0d 58 3b bf d0 04 9b bd
       -0.5177181 -0.36284012 -0.7318123 -0.07569277
0001a0 2f 87 cd 3e 8f f0 25 bf 57 18 05 bf 8e 29 0c 3f
       0.401422 -0.6482019 -0.51990265 0.5475091
0001b0 bf 7e 40 bf 15 7c c4 be 21 83 bb 3e a6 cc 1d 3f
       -0.751934 -0.38375917 0.3662348 0.61640394
0001c0 3e 84 9b 3c b5 25 b9 3e fe e0 28 bf 76 fe ff be
       0.018983956 0.3616158 -0.6596831 -0.49998826
0001d0 34 06 bc 3e f4 28 d4 be 7b 80 1c 3f c6 c5 f0 be
       0.36723483 -0.41437495 0.61133546 -0.4702589
0001e0 86 ce 61 3e 8e 28 21 bf 82 f2 2c 3f eb 67 04 bf
       0.22051439 -0.62952507 0.6755754 -0.51721066
0001f0 7e 52 22 bf da 41 ff 3e 34 2e 70 3e 1e f8 03 3f
       -0.63407123 0.49854928 0.23455125 0.5155047

action_embedding.bias f4 [64]
000000 42 1d cc bd ea d7 1a bf d0 84 de 3e fc 4d 9b 3e
       -0.09966518 -0.6048571 0.43460703 0.30332935
000010 75 e0 c5 be a0 d7 d4 be 70 17 86 be 9c 7e cf 3e
       -0.3864781 -0.4157076 -0.26189756 0.40526283
000020 de 16 11 bf e9 7b b1 3e 0b 17 96 3e 48 da fe 3d
       -0.5667552 0.34664848 0.29314455 0.124439776
000030 1d 1f e0 be f6 fa 32 3e f4 14 05 bf c7 5c 2e bf
       -0.43773738 0.17478547 -0.51985097 -0.68110317
000040 b2 66 99 3e 4a ef 48 3f 7d c4 b2 be 43 07 09 bf
       0.29961163 0.78490126 -0.34915534 -0.53526706
000050 e7 d4 cc be 6e f4 b0 bc 2f cf ef be fc 63 10 bf
       -0.40006182 -0.021600928 -0.46837756 -0.56402564
000060 2d c9 0b be a4 dc 96 3e 77 fc 1a 3f 68 ee 96 3c
       -0.13650961 0.2946521 0.6054148 0.018424228
000070 15 70 24 be a5 40 08 be bc a4 c5 be 18 98 b4 3e
       -0.16058381 -0.1330591 -0.38602245 0.35272288
000080 e0 42 14 bb 50 57 ba 3e aa d9 c6 3e 7a 46 97 bd
       -0.0022622868 0.3639474 0.3883794 -0.07386489
000090 aa 48 7c be 83 7e bc 3e 3f 9d 36 be a2 5f 8d 3d
       -0.24637094 0.3681527 -0.17833422 0.06903006
0000a0 60 94 0a be fc dc e9 3d 09 3a fb be c3 e6 d7 3d
       -0.13533163 0.114191025 -0.49067715 0.10542061
0000b0 66 65 22 bf 42 63 73 3d c4 12 7f bd 32 46 cc be
       -0.6343597 0.05942083 -0.062273756 -0.39897305
0000c0 0e a0 ab bd 35 ff 8e be 56 e5 68 be 79 5a 65 3d
       -0.083801374 -0.27929083 -0.22743735 0.055994485
0000d0 c3 7f 24 be f5 35 5a 3d 4a 05 ef be 2f c1 cd 3e
       -0.16064362 0.053274114 -0.46683723 0.4018645
0000e0 fb 6f 18 bf 91 d4 2b 3d 40 92 1b 3e 6d 72 2c 3f
       -0.5954587 0.041950766 0.15192509 0.673621
0000f0 ea e3 69 3e 59 07 28 be c5 52 f5 be c1 77 f2 be
       0.22840849 -0.16409053 -0.4791471 -0.4735699

transformer.encoder.layers.0.self_attn.in_proj_weight f4 [192, 64]
000000 ca d6 d5 bd ae 9b e2 bd 6c ce 82 3d 38 1a f3 3d
       -0.104413584 -0.1106485 0.06387028 0.11870235
000010 2d 36 ae bc b3 20 2c bd 89 e2 62 bd dc 07 c8 bc
       -0.021266067 -0.042023372 -0.055391822 -0.02441781
000020 93 ad 36 3d ef b2 e0 3d be 27 f3 3c 50 c6 9b 3d
       0.044599127 0.10971629 0.029682036 0.076061845
000030 b4 21 56 3d ad 6c 02 3e 6b a0 69 3d 89 86 9f 3d
       0.052278236 0.12736769 0.057037752 0.077893324
000040 71 ad f9 bb da fe 2c be a8 90 df 3d ed 55 11 be
       -0.007619553 -0.16894093 0.10916263 -0.14192934
000050 77 4e 82 bd 64 65 67 3d 12 db ea bc 22 1b 9f 3d
       -0.06362622 0.056493178 -0.028668914 0.07768847
000060 ad e5 bb bd 95 3e 26 bd 69 c3 a2 bd e0 7f a9 3d
       -0.091746666 -0.040587027 -0.07947428 0.08276343
000070 b5 02 b3 bd c8 23 10 be a4 70 16 be 26 6b a6 bc
       -0.08740751 -0.1407615 -0.14691406 -0.020314764
000080 cf 9b bf 3d 7a 5d 96 3d e9 99 56 bd ef 23 52 3e
       0.0935589 0.07342048 -0.052392874 0.2052152
000090 8f 25 98 3c 4f 96 d9 bd 41 f6 f7 bd 87 47 ca bd
       0.018572597 -0.10624372 -0.12107516 -0.09876924
0000a0 5c 96 bb bd 18 f8 83 3d d7 c2 af 3d 14 9a a4 3c
       -0.09159538 0.064438045 0.085820846 0.020093001
0000b0 3b 14 ac 3d 12 35 14 be 5a 5a 8b 3d 89 ac 6a 3d
       0.08402296 -0.1447337 0.068043426 0.05729345
0000c0 73 77 72 bd 30 5a 70 3d 2f 52 d0 bc 0c a4 af 3d
       -0.059195947 0.05867976 -0.025429813 0.08576211
0000d0 3f 6c 63 bc 22 f9 be bc a4 9d 56 bd 12 ce ac bd
       -0.013880788 -0.023312155 -0.05239643 -0.08437742
0000e0 a8 4e 29 3e ca f4 4b 3d fb 28 d9 bd 3d dc 58 3d
       0.16533911 0.049793996 -0.106035195 0.05294441
0000f0 72 9d 4f 3e 06 0d be 3d 69 cb 84 3c 09 32 3c 3d
       0.20274904 0.09279828 0.016210275 0.045946155
000100 9f c1 30 be 8d c0 c2 bd 21 d9 f1 bd b7 26 ea 3c
       -0.1726136 -0.095093824 -0.11808992 0.028582914
000110 a9 f5 ff 3d 15 e0 34 3e ff b3 4b 3e 3f 78 72 3c
       0.12498028 0.17663606 0.19892882 0.014799177
000120 ad bc 41 3e 72 0c d4 bc 76 e2 90 3d 26 43 3f 3e
       0.1891963 -0.02588484 0.07074444 0.18677959
000130 16 4d 8b be 41 4f 02 3e 53 9a 98 3d af a2 47 be
       -0.2720725 0.12725545 0.0745131 -0.19495653
000140 19 a5 a7 bd c6 4c 16 3d 2e 53 7e bd 5c 0c 29 bd
       -0.08185787 0.03669431 -0.062091045 -0.041271552
000150 3e 9b 3c be b4 a2 99 3d ec 49 c3 3d 58 f0 df 3c
       -0.18418595 0.07501736 0.09535584 0.027336285
000160 bc f2 a8 3d ff cc 92 bc e3 21 1e be d6 47 13 bd
       0.08249423 -0.017920015 -0.15442614 -0.03595718
000170 c0 1e 86 3e 65 bb a6 bd fe de d1 3c 23 1c d2 3d
       0.26195335 -0.081412114 0.025619026 0.10259273
000180 dc 63 fe 3c 58 e4 cd bc 57 79 1c be 2c 83 ba be
       0.031053476 -0.025133297 -0.15280662 -0.364282
000190 90 1e 43 be fc 51 f0 bd d0 c9 13 3e bc 76 20 3d
       -0.19054627 -0.11734387 0.14432454 0.039175734
0001a0 4a d3 e3 bb 25 1a 6e bd c5 a8 e2 bd 78 d5 32 bd
       -0.006952678 -0.058130402 -0.110673465 -0.04366061
0001b0 f6 d7 97 bd 55 bf f3 3d ba 86 cd bd c7 ca 4a bd
       -0.07414238 0.11901728 -0.10035463 -0.04950979
0001c0 73 b9 72 3d 01 20 1d be 42 01 66 be e5 f1 e1 3d
       0.05925889 -0.1534424 -0.22461417 0.11032466
0001d0 8e 3f e3 3d fb 65 3e bd 45 c6 28 3e d4 d7 09 be
       0.110961065 -0.046483975 0.16481884 -0.13461238
0001e0 65 88 f9 bd c3 7e 65 bc 4a cd 89 3d 58 6e 95 bd
       -0.12184218 -0.014007273 0.06728609 -0.07296437
0001f0 73 ff 74 bd f5 fe ea 3d 13 38 90 3c 4b 2f b3 bd
       -0.059813928 0.114744104 0.017604863 -0.08749255
000200 0e 61 1f bc 65 79 2b be 4a 41 7f 3c 1d 61 9d bd
       -0.0097277295 -0.16745527 0.015579531 -0.076845385
000210 7d 60 01 3d 6c 41 16 3d 81 87 35 3e 52 30 f7 bd
       0.03158616 0.036683485 0.17727472 -0.12069763
000220 f9 a6 78 3d 94 45 d7 3d de 66 22 3e 93 4e c8 bd
       0.060706113 0.10511318 0.15859553 -0.09780612
000230 8a 8c a0 bd da a8 f1 3c 02 e7 c9 3d 1a c7 06 3d
       -0.07839306 0.02949946 0.09858514 0.03290472
000240 2f 59 ba 3d 0e 1d a5 bc ce 13 06 b9 00 24 6d 3d
       0.09099042 -0.020155456 -0.00012786614 0.05789566
000250 34 df b1 3d 9e 19 fa 3d 21 2e 67 be 91 0d 04 bd
       0.08685151 0.12211917 -0.2257619 -0.0322395
000260 18 61 8c 3d 1b 73 91 3c 95 91 e0 bd 79 b0 15 be
       0.06854457 0.017755082 -0.109652676 -0.146181
000270 4c f9 70 3e a5 e4 11 be 22 5b e7 3c 9d d5 4c 3e
       0.23532599 -0.14247377 0.028241698 0.20003362
000280 77 7b 81 3d d6 22 a6 bd f1 7a 54 3d 8a 54 b6 be
       0.06322377 -0.08112113 0.05187506 -0.35611373
000290 b5 b8 c1 bd 3d 4d cb 3d 3f 3d 18 3e 19 d0 18 3e
       -0.09459058 0.099268414 0.14867114 0.14923133
0002a0 fd 0a f3 3d 0e ea b2 bd 3e 44 3b bd 9f 46 b7 bc
       0.1186733 -0.08736049 -0.045719378 -0.022372542
0002b0 f9 5c ba 3d 49 a7 eb bc 14 3e 35 3e 1e 8d 80 bd
       0.090997644 -0.028766291 0.17699462 -0.06276916
0002c0 01 47 3f be 0b f8 fa bc 29 11 32 be 95 b7 89 bc
       -0.1867943 -0.030635854 -0.17389359 -0.016811172
0002d0 43 1a 0d bd d9 d6 a3 bd 51 85 02 3e 20 4b 86 3d
       -0.034448873 -0.07999963 0.12746169 0.06557298
0002e0 36 dc 82 bd 42 ad 22 be 58 5f 4b bd c9 51 4b be
       -0.06389658 -0.15886405 -0.049651474 -0.19855417
0002f0 f7 6e 63 3d c0 f7 94 3d 91 e5 b7 3d c6 02 1c be
       0.055525746 0.07273817 0.08979333 -0.15235433
000300 ef 97 b6 bd 94 ce 4f bd 30 68 21 be c9 d7 99 bd
       -0.08915698 -0.050734118 -0.157624 -0.07511861
000310 84 a3 54 bc 93 3b 7c bc 71 ab 22 3e 47 11 32 be
       -0.012978438 -0.015395063 0.15885712 -0.17389403
000320 d7 07 3d 3e 27 1b 4d 3d 8f b7 e4 3d 8f e0 08 be
       0.18460022 0.050074723 0.111678235 -0.13366912
000330 f2 66 c2 3c 6e 42 06 3e ae 46 aa 3d 61 95 0a be
       0.023730729 0.13111278 0.08314262 -0.13533546
000340 4a 65 da 3c 96 fd d3 3a b4 4c 7a bd 42 9a 13 3e
       0.026659627 0.0016173597 -0.061108306 0.14414313
000350 94 7c 1b be ee 07 bc bd 44 97 11 be 35 fd 7c 3d
       -0.15184242 -0.091812 -0.1421786 0.061764915
000360 3f 63 67 bd 62 ad 13 3e c1 a4 71 bd fd 9d 6f bd
       -0.056491133 0.14421609 -0.058995012 -0.05850028
000370 51 f2 a5 3d e4 b9 39 3d 8b ed 27 bd 3b 60 83 3b
       0.08102859 0.045343295 -0.040998023 0.0040092743
000380 cc 22 05 3e 67 db a4 3d 73 df 3a 3e 0c 64 a8 be
       0.13001555 0.0804966 0.18249302 -0.3288883
000390 c7 59 4d be fc 1f 22 3d 66 1b 65 bc 39 d8 c3 3d
       -0.20053779 0.039581284 -0.013983583 0.095627256
0003a0 da 32 09 3c cf 9e 61 b9 91 2e 5c be a6 f4 59 bd
       0.00837394 -0.00021516833 -0.21502139 -0.05321183
0003b0 3c e4 5a 3e 19 5e 1a 3c 3d 82 a2 bd d0 80 bb bc
       0.21376127 0.009421849 -0.07934997 -0.022888571
0003c0 9a 3d 18 be 35 7e 8c bd 5e a0 41 bd 6d 35 75 bd
       -0.14867249 -0.068600096 -0.04727208 -0.059865404
0003d0 04 c7 78 3d f7 ac 22 3d dc 3f 3e 3e 59 23 e9 bd
       0.06073667 0.039715733 0.18579048 -0.11383695
0003e0 2d 0a b2 bd a5 3e 1e 3d 2b ad 76 bd 34 82 86 be
       -0.08693347 0.03863396 -0.06022374 -0.26271212
0003f0 20 dc 04 bd ce 59 89 3d a3 44 bf 3d e1 1f 3f bc
       -0.03243649 0.06706582 0.09339263 -0.011665315

transformer.encoder.layers.0.self_attn.in_proj_bias f4 [192]
000000 fc 70 d2 bc 15 7e 1c 3e 97 7f 19 3e c2 61 1d 3e
       -0.02568864 0.15282471 0.14990078 0.15369323
000010 98 60 05 3e 36 bf ee bd 33 67 1b be 0d 96 0a be
       0.13025129 -0.11657564 -0.15176086 -0.13533802
000020 de 21 ee 3d 56 26 ff bd ba ec 30 be 44 56 ff bd
       0.116275534 -0.12458484 -0.17277804 -0.12467626
000030 bc 65 25 3d 48 4d 22 3e 78 8e aa bd 23 9d 0b be
       0.040380225 0.15849793 -0.08327955 -0.13634162
000040 36 7c 00 be cf e1 1a 3e 7f e8 10 3e 29 dd 38 be
       -0.12547383 0.15125202 0.1415119 -0.18053116
000050 70 71 e9 bd 2f 22 c6 bd b3 fb 09 be 75 6b f6 bd
       -0.113985896 -0.09674489 -0.13474922 -0.120322146
000060 41 a9 23 3e c9 e5 94 3d 32 19 12 3e 63 e7 45 be
       0.15982534 0.072703905 0.14267424 -0.19326548
000070 1b a5 b4 bd 87 c5 2a be 37 c1 97 3d 76 64 2e 3e
       -0.08820554 -0.16676913 0.074099 0.1703051
000080 24 43 b4 bd e9 30 ed 3d 28 c4 8e bd a6 9f b3 bd
       -0.088018686 0.115815945 -0.069710076 -0.08770685
000090 72 68 6c 3d 1d 53 83 3c 69 29 ad bd 56 41 b2 3d
       0.057716794 0.016030842 -0.08455164 0.08703868
0000a0 1e 18 c5 bd ca 18 aa bd dc 61 8b 3d 3d 49 b9 3d
       -0.096237406 -0.083055094 0.068057746 0.09047172
0000b0 e0 82 98 3d aa 9a a5 3d 6b 0e 91 bd 00 b9 76 3d
       0.074468374 0.080861405 -0.07082828 0.060235023
0000c0 a0 6e a2 3d 3b 00 60 bd b4 3a 1e be 56 99 43 bd
       0.07931256 -0.05468772 -0.15452081 -0.047753654
0000d0 dd e2 23 3e 0d b0 cc 3c 58 4d 06 3e 19 40 21 be
       0.1600451 0.024986291 0.13115442 -0.15747108
0000e0 76 8c 33 be d8 db ba bd 32 d6 f8 bd 2a 3d 16 be
       -0.1753405 -0.09123963 -0.121502295 -0.1467177
0000f0 dd e8 47 3e 97 3d 2e be 19 7d 3b 3e 59 24 1a be
       0.19522424 -0.17015682 0.1830944 -0.15052928
000100 ec 2f 54 36 51 91 3c 38 11 0b 22 39 a0 29 97 38
       3.1618356e-06 4.495803e-05 0.00015453646 7.207994e-05
000110 96 2c af 38 4c ea 49 b7 1f fb 3e b9 0c 99 1e b8
       8.352955e-05 -1.2035085e-05 -0.00018213362 -3.781267e-05
000120 1f b1 d2 38 05 15 f9 b5 43 5c d7 b8 07 f6 b6 b8
       0.00010046572 -1.8558063e-06 -0.00010269184 -8.7242624e-05
000130 d5 cf 63 37 15 b7 d6 38 bd 27 9d b8 7e 20 65 b8
       1.3578644e-05 0.00010238417 -7.493745e-05 -5.4628115e-05
000140 90 7b b9 37 fc e3 04 b9 31 a0 c9 38 7c 37 4b 39
       2.2111257e-05 -0.00012673432 9.614265e-05 0.00019380258
000150 39 57 17 38 25 4a f7 37 00 b2 78 b8 84 8a 29 b8
       3.6082438e-05 2.947922e-05 -5.9293583e-05 -4.0421743e-05
000160 da 19 7d b8 ac 2f 4c b9 05 43 06 b9 4e 37 36 38
       -6.0343977e-05 -0.00019472715 -0.00012804203 4.3443688e-05
000170 7d 80 c2 38 f5 2e 04 38 2c a9 1a b7 dd c2 60 b8
       9.274574e-05 3.1514985e-05 -9.218504e-06 -5.3587242e-05
000180 87 ae df 38 54 fe 08 3a f2 7d bb b9 3b 8e ff b9
       0.00010665977 0.0005225886 -0.00035761256 -0.0004874336
000190 42 c8 9e 39 00 76 87 39 ed 7f 2b 38 6d 03 97 39
       0.00030285312 0.00025837123 4.0888717e-05 0.00028803517
0001a0 76 96 37 b9 bf 8c 43 37 00 d4 95 b8 71 c7 7a 39
       -0.00017508291 1.1655676e-05 -7.144362e-05 0.00023916156
0001b0 4f f1 7e 38 37 90 b7 38 71 08 e7 36 c6 29 4a 39
       6.0783055e-05 8.752982e-05 6.885319e-06 0.00019279783
0001c0 cb fb 46 39 a7 fa 9d b9 ab 51 6d ba ac 34 3d 38
       0.00018976552 -0.00030132124 -0.0009053002 4.5110166e-05
0001d0 38 94 55 3a 7b 93 c9 b7 78 3b 6e 3a a3 0e 56 ba
       0.00081473915 -2.4029743e-05 0.0009087841 -0.0008165633
0001e0 dc a0 2d ba f0 07 b1 b9 af 96 af b9 b0 b9 8e ba
       -0.0006623396 -0.00033765985 -0.0003349087 -0.001088908
0001f0 e8 ba 94 3a 5a a4 83 ba 0b 42 8a 3a 71 0c 89 ba
       0.0011347206 -0.0010043487 0.0010548247 -0.0010455978
000200 5e 2c c8 bb 17 ea ac bd 8e 44 d6 bd 49 9a 09 3e
       -0.0061088046 -0.084430866 -0.104622945 0.13437761
000210 a4 f8 d7 3d 6a 53 45 bd af 59 7a 3d 74 0a e6 3b
       0.10545471 -0.048175253 0.061120685 0.007020289
000220 76 43 f8 3d e5 c0 95 3d 4f 9d c4 3d bc 35 de bd
       0.12122242 0.07312182 0.09600317 -0.10850093
000230 de d9 21 be a7 8c d4 3d 86 b2 a9 bd f2 7a aa 3d
       -0.15805766 0.1037839 -0.08286004 0.08324231
000240 63 45 14 3d 15 3f b9 3c fc d0 8e 3d b8 89 64 3d
       0.036198985 0.022613088 0.06973454 0.0557954
000250 08 4f 7d 3d f4 0b 31 bd a6 3e 53 bd a3 aa e7 bd
       0.06184295 -0.04322429 -0.051573418 -0.11311843
000260 26 16 97 3d fa 65 93 3c c0 91 9b 3d 76 80 ce 3b
       0.07377271 0.017992962 0.07596159 0.006301935
000270 4f 95 1d bd e7 4d 17 3c f3 de 0d bc c5 2e 26 3d
       -0.03847247 0.009234882 -0.008659112 0.040571947
000280 69 8e e9 3d 68 02 ac 3d 42 a2 78 bc d1 53 d7 bc
       0.11404116 0.083988965 -0.015175404 -0.026285084
000290 93 94 a7 bd 61 bd a9 bd 87 1a 9a 3b 24 8c 72 bd
       -0.08182635 -0.08288074 0.0047028693 -0.05921568
0002a0 f9 f1 30 3d 09 9c 32 3d ac dd ed bb d0 61 fa bc
       0.043199513 0.043605838 -0.0072590914 -0.030564219
0002b0 2c 05 33 3d d5 c0 49 3d 30 23 41 3d 33 34 4a 3d
       0.043706104 0.049256165 0.047152698 0.049366187
0002c0 83 63 39 bd a5 f5 63 bd 65 e6 04 3d fd f4 3b 3d
       -0.045260917 -0.055654187 0.032446284 0.045887936
0002d0 5c cb a4 bd ab e0 51 3d 22 bd 79 bd 0d 58 18 bd
       -0.080466 0.05123965 -0.060971387 -0.037193347
0002e0 e9 6b 45 bd 6c 61 29 3d 09 29 22 3b e3 d8 ba bd
       -0.048198614 0.041352674 0.0024743697 -0.09123399
0002f0 45 5b cd bc 41 56 e2 3d c3 38 b2 bd 25 46 53 bd
       -0.025067935 0.11051608 -0.08702233 -0.051580567

transformer.encoder.layers.0.self_attn.out_proj.weight f4 [64, 64]
000000 3f 6f 54 3e f0 5f 85 3b 03 32 37 3e ce a2 3d bd
       0.20745562 0.0040702745 0.17890172 -0.04629784
000010 1b ab 2e be cf 95 9a bd f2 5b 81 3d 5a ed 13 3e
       -0.17057459 -0.07548105 0.06316365 0.14446011
000020 f3 e1 2c bb 93 fd be 3b eb 80 c9 bd 47 21 85 3e
       -0.0026379793 0.0058285682 -0.09839042 0.2600195
000030 79 16 f5 bd 99 7f ed bd 0d 3d 2f be aa 0a 4d bd
       -0.11967177 -0.11596603 -0.17113133 -0.050059
000040 fe d0 39 be d4 01 71 3e 65 d4 12 bd d3 1e 6e 3e
       -0.1814613 0.23535854 -0.035847086 0.23253946
000050 cc ac 90 bd 11 66 c2 3d 6c 4d c6 bc 31 04 96 be
       -0.070642084 0.09492124 -0.02420684 -0.29300073
000060 3a fd 81 bc 3f 53 6e 3d 79 66 15 3e 14 e1 1d be
       -0.015867818 0.05818486 0.14589871 -0.15417892
000070 dc a6 a8 3d 05 ca 63 3c bb de 99 3d 7b 17 82 3e
       0.08234951 0.013903146 0.075131856 0.2540854
000080 cc 9d 01 be 76 62 36 bd 4c 7c a3 bd 0b 7a b2 3c
       -0.12657851 -0.044527493 -0.07982692 0.02178671
000090 65 3d d6 bd 00 76 a1 bd 78 1a fb 3d a3 19 93 bd
       -0.10460929 -0.07883835 0.12260908 -0.07182624
0000a0 b1 37 19 3e f7 b2 ea bc 05 53 d4 bd 18 6b c9 bd
       0.14962651 -0.02864979 -0.10367397 -0.0983488
0000b0 2b 0e 11 3e ee 20 b7 3d bf 89 58 be 8b e6 2e bb
       0.14165561 0.08941828 -0.21146296 -0.0026687707
0000c0 67 dd 0c be 55 44 92 bd c2 12 48 3d 72 f1 50 be
       -0.13756333 -0.071419396 0.048846014 -0.20404604
0000d0 68 45 11 be d9 e9 cf bd f7 75 1d 3e 00 f2 b2 3d
       -0.14186633 -0.10152025 0.15377031 0.08737564
0000e0 4f f4 53 be 85 53 04 bd e1 1c 2e 3d b4 33 b0 bd
       -0.20698665 -0.032306213 0.04250801 -0.086036116
0000f0 41 ca d6 3c df a8 e2 bd 6f cd 0b be 4c 34 34 be
       0.026219489 -0.11067366 -0.13652585 -0.17598075
000100 95 e3 1b 3d ed d0 02 3e 6c 79 34 3e 2b c2 55 bd
       0.038058836 0.12775011 0.17624444 -0.052187126
000110 4d df 04 3e f8 c3 24 3e f2 0c 77 bd ea fb e4 bd
       0.12975807 0.16090381 -0.06031508 -0.11180861
000120 5d a7 22 be cf 00 2b be ab 9d f1 3d 94 ea af bd
       -0.15884157 -0.16699527 0.11797651 -0.08589664
000130 64 65 1f 3e 3c 91 b5 bd 0d e9 2d 3e a1 b0 73 3d
       0.15566021 -0.08865592 0.16983433 0.05949462
000140 26 65 15 3e c7 ba 43 3d d4 2b c5 bd a6 e5 4b be
       0.14589366 0.047785547 -0.096275 -0.19911823
000150 0f ee 7d 3b b1 70 96 3d 3e b9 10 3e 7a 78 6d 3c
       0.003874663 0.07345713 0.14133164 0.014494056
000160 bc 47 61 be 00 64 86 3d 4a 39 f7 bc 6b 5d 70 bc
       -0.2200002 0.06562042 -0.030178685 -0.01467071
000170 e9 bb d1 3d 3e ad 11 be 2c e6 ae bd 68 5f ef bd
       0.10240919 -0.14226243 -0.085399956 -0.11688119
000180 80 8e 1c be 63 a1 84 bd f5 df 5f 3e 90 ad 87 be
       -0.15288734 -0.064760946 0.21862777 -0.26499605
000190 f6 cb 10 3e 21 f3 6f 3c 24 5b 1b 3e c9 a8 e7 3c
       0.14140305 0.014645369 0.15171486 0.028278725
0001a0 45 1e f4 3c 14 b3 2e 3d 17 22 8c 3d 1e 46 91 3d
       0.02979959 0.04265125 0.068424396 0.07093452
0001b0 e7 10 2d 3e ce ce 51 3e be ea 20 3d 79 8d c7 bd
       0.16900979 0.20489046 0.039286368 -0.09743781
0001c0 f4 91 40 be 7b 38 9d 3c 31 c0 38 be 5d 84 75 be
       -0.18805677 0.019191971 -0.18042065 -0.23976274
0001d0 9c c3 0a 3e 90 ec 81 3d 90 6c 9e 3c 88 e5 9d bd
       0.13551182 0.06343949 0.019338876 -0.07709795
0001e0 57 ab 0e 3e d7 35 3f 3c 73 7e 38 be 74 7b b7 3d
       0.13932548 0.011670551 -0.18016987 0.08959094
0001f0 6e 77 21 be 60 79 0e be d0 72 0a 3d 5d 9c 72 bc
       -0.15768215 -0.13913488 0.0338009 -0.014807788
000200 2e d0 05 be 6b 4a 94 bd 1e 17 b1 3b 2e 10 33 be
       -0.13067695 -0.072407566 0.005404367 -0.17486641
000210 f8 3a de 3d 2e cf 00 3e e3 f0 44 bd d3 b9 87 bd
       0.10851091 0.12579033 -0.04808129 -0.0662724
000220 a2 67 12 3e cc 57 e2 3c 2d b1 88 bd 45 b5 60 3e
       0.14297345 0.027629755 -0.066744186 0.21944149
000230 a2 f4 4e 38 7c 23 73 bd 06 b8 00 be 76 86 9c bb
       4.934206e-05 -0.059360012 -0.125702 -0.004776771
000240 19 a0 94 3d 3c 4e 84 3e c1 a4 31 3e 8f ea 05 be
       0.07257099 0.25840938 0.17348005 -0.13077758
000250 55 d2 b6 3d d0 65 3c be 5d 6f f8 3d c1 cb 09 3d
       0.089268364 -0.18398213 0.12130616 0.03364158
000260 37 88 21 3e 5f 48 09 3d 44 64 de bd 7a 68 ee bd
       0.15774618 0.033516284 -0.10858968 -0.11641021
000270 51 03 e7 bc 0f fa 4e be 0f b1 43 3d 38 33 3b 3e
       -0.028199824 -0.20212577 0.047776278 0.18281257
000280 cc aa 2c 3e 87 05 a1 3c 23 69 e3 3d b3 4d 72 3d
       0.16862029 0.019655956 0.111040376 0.05915613
000290 5b 05 07 3e 0c 5f 1d be a3 39 07 be 6a 09 67 3d
       0.13185637 -0.15368289 -0.1320558 0.056405462
0002a0 11 49 85 bd 35 e4 31 bd d2 2c 1c be 96 6f c4 bc
       -0.06508077 -0.043430526 -0.15251473 -0.02397899
0002b0 e6 ec 85 3d 62 c0 fa 3d fa 10 96 3d 93 80 76 3e
       0.065393254 0.12243725 0.07327457 0.24072485
0002c0 e5 3a c3 bd 3f 37 8f 3d f4 a4 66 3e 00 9b 41 be
       -0.095327176 0.06992959 0.22523862 -0.18906784
0002d0 07 a8 61 3e 28 ed aa bc 9d c4 5d 3e dc 5d 2f be
       0.22036754 -0.020865038 0.21657033 -0.17125648
0002e0 12 c7 5f be 25 d0 0a 3e a9 d8 42 3d 69 aa 8d 3d
       -0.21853283 0.13555963 0.047569904 0.06917269
0002f0 d0 00 dd bb 70 b3 2c 3d 88 7c 2d be ca ea 6e be
       -0.0067444816 0.042163312 -0.16942036 -0.23331752
000300 ad 8b 13 be b6 e6 3c 3e e3 fe e5 bd d1 64 e7 bd
       -0.14408751 0.18447384 -0.112302564 -0.11298526
000310 bc 9d c5 3d 79 85 90 3d 8d f4 90 3d 17 b2 2d be
       0.09649226 0.07056708 0.07077894 -0.16962467
000320 96 e1 58 3e a6 6c 81 3d eb 66 c0 3d 3b b9 27 be
       0.21179804 0.06319551 0.0939463 -0.16379254
000330 28 1f af 3d d8 ff f4 bd 80 c6 3d 3c 82 67 18 3e
       0.085508645 -0.11962861 0.011582971 0.14883235
000340 f0 43 cd 3d 32 3a 45 be 03 8f 48 be 8e c2 30 bb
       0.10022724 -0.19260481 -0.19585805 -0.0026971432
000350 7a 4d 3f 3e 8b bb e1 bd b6 41 98 bc 56 87 77 be
       0.18681899 -0.11022099 -0.01858602 -0.2417272
000360 03 00 38 3d bb 72 e4 bc f1 3c fb bc f9 a6 f5 bc
       0.044921886 -0.027886739 -0.030668708 -0.029986845
000370 9e 0d ea 3d 2e 62 21 be 76 62 3d 3e 45 af 83 3d
       0.114283785 -0.15760109 0.18494591 0.064299144
000380 95 e6 84 bc a6 6c 53 3d e5 7e e4 bd 29 62 1c be
       -0.016223231 0.051617287 -0.11157016 -0.1527182
000390 f7 0b 6c bd 45 20 90 3d 1c 3a b4 3d 79 bc 48 be
       -0.057628598 0.07037405 0.08800146 -0.19603147
0003a0 e1 ad 1f be 3f 9b 66 be 1f 78 55 3e a2 88 80 3e
       -0.15593673 -0.22520159 0.20846604 0.25104243
0003b0 f9 48 26 3d 8e b6 e0 bc 64 50 93 3d b5 44 57 3e
       0.040596936 -0.027430799 0.07193068 0.21022303
0003c0 a0 06 26 be b4 03 76 be 8c 18 25 bd f0 60 57 3e
       -0.16213465 -0.2402485 -0.040306613 0.21033072
0003d0 d4 21 0d be ac d7 a6 bd 74 cb ea 3d 94 6a 9f bd
       -0.13782436 -0.08146605 0.11464587 -0.07784
0003e0 13 86 ec 3c a7 ea 3a be 3d 9c 85 3d c9 8c 22 3e
       0.028872525 -0.18253575 0.06523941 0.15874018
0003f0 e3 e8 20 3d 84 95 3a 3d e8 08 41 bd d8 75 6a 3e
       0.039284598 0.045552745 -0.047127634 0.22896516

transformer.encoder.layers.0.self_attn.out_proj.bias f4 [64]
000000 94 46 89 bc ea c7 f7 bd 26 61 e5 3c 5f 60 de 3d
       -0.016757287 -0.120986775 0.028000426 0.10858225
000010 ae 9c b9 bd 19 39 bf 3d 7b aa b9 3d 6d 1a 60 bd
       -0.090630874 0.093370624 0.0906572 -0.0547127
000020 5f 9e bf 3d cc 92 11 be 07 58 b7 bd 5f d4 b4 bb
       0.09356379 -0.14216155 -0.08952337 -0.0055184807
000030 a3 c0 d5 3d b9 4b e9 3d 8a a1 91 3d c1 26 dc 3d
       0.10437133 0.11391396 0.07110889 0.10749579
000040 92 8d b1 3d e9 56 d3 bd d1 4f 3f bc a4 43 0e 3c
       0.086695805 -0.10319311 -0.011676745 0.008683119
000050 38 06 48 be 38 8c 7a 3d 00 5e 08 3d f7 30 87 3d
       -0.19533622 0.06116888 0.03329277 0.06601136
000060 2a 9f dd bd c2 24 d6 3d 28 d9 fc bd 9c 9f 01 3e
       -0.10821374 0.1045623 -0.12346107 0.12658542
000070 0e 5c 09 3d 16 90 24 3e b2 2e 96 3d 03 c8 b2 bd
       0.033535056 0.1607059 0.07333125 -0.087295555
000080 35 e1 ac 3d 6b a4 f7 3c 19 d3 9b bd f5 7a da bc
       0.08441392 0.030229768 -0.07608623 -0.026669959
000090 9b 49 6b bd d7 c7 40 bd 95 f7 42 bd c7 f9 e2 3d
       -0.057443243 -0.047065582 -0.047599394 0.110827975
0000a0 ba 45 54 bd 30 7d bf bd 2f c1 b9 3d 1c 66 15 3d
       -0.05182431 -0.093500495 0.0907005 0.036474332
0000b0 61 f3 0c bd 57 94 ab bd 16 0d f4 3c e7 53 ac bd
       -0.03441179 -0.08377903 0.029791396 -0.084144406
0000c0 59 08 83 3d 76 83 ce bd f5 56 c3 bd 5e 82 b3 bd
       0.063980766 -0.10083668 -0.0953807 -0.087651
0000d0 14 8a ba bd 5e 7b cc bd 68 17 92 3d 42 43 a3 3d
       -0.091083676 -0.09984468 0.07133371 0.07971813
0000e0 7c f8 30 bc 6b 4d de 3d 78 ec b6 3d 1b 4b c0 ba
       -0.010801431 0.1085461 0.089318216 -0.0014670821
0000f0 ac bf ac bb 65 28 02 3e 2a 05 53 3d 52 57 c7 bd
       -0.0052718725 0.12710722 0.051518597 -0.09733452

transformer.encoder.layers.0.linear1.weight f4 [128, 64]
000000 e9 af 24 bd 8c 14 55 3e b6 27 50 3e 21 f1 d9 bc
       -0.040206823 0.2080862 0.20327649 -0.026604237
000010 83 5a b6 bd 72 04 ae 3c 7d f4 36 3e 29 e8 33 be
       -0.089039825 0.021242354 0.17866702 -0.17569031
000020 5c c9 8e bd 0d a2 8f 3e 63 7b 1d 3e a5 63 9a bd
       -0.06972 0.28053322 0.153791 -0.07538537
000030 85 98 53 3e c5 b2 d2 bd 92 00 f4 3d 8f 66 64 3e
       0.2066365 -0.10288004 0.11914171 0.22304748
000040 79 c0 3e bc 21 67 71 be 83 af 02 be 4b 7b 0a 3d
       -0.011642569 -0.23574497 -0.12762265 0.033808988
000050 6f dd 49 3e 1f 1b 8b 3d 53 1a be 3d 8d 31 d4 3d
       0.19713376 0.06792282 0.09282365 0.103610136
000060 7b fc de 3d 48 41 c1 bd 93 fa f7 bd ba df 46 3c
       0.108880006 -0.094362795 -0.1210834 0.0121383015
000070 02 b3 20 be 2a 5b 72 3c 67 b8 ad 3d 9e 97 fa bd
       -0.15693286 0.014792243 0.084824376 -0.1223595
000080 45 31 eb bd c0 26 2f be 07 63 76 3d 3b 20 90 3d
       -0.11484007 -0.17104626 0.060153034 0.070373975
000090 28 88 3a 3d b3 5f 49 3d 2c 93 c6 3d ef 27 9e bc
       0.045540005 0.04916353 0.096960396 -0.019306151
0000a0 b9 a6 ef bd bf e9 be 3d eb cf 0c be 54 ad 44 bd
       -0.11701722 0.09321927 -0.1375119 -0.04801686
0000b0 c7 78 c4 bd a4 4e 14 bb 27 b3 ef bd 51 75 b7 3d
       -0.09593349 -0.0022629881 -0.117040925 0.08957923
0000c0 3b c8 0a be 11 22 1c 3e 22 0c eb 3d 98 4f 40 3e
       -0.13552944 0.1524737 0.114769235 0.18780363
0000d0 4b 12 13 3e 42 49 5c 3e 91 d1 60 3d 1b 9d 20 be
       0.14362447 0.2151232 0.054887358 -0.15684931
0000e0 71 02 c6 bd c5 e7 5b 3d 92 14 4f bd 8c 3a e8 bd
       -0.096684344 0.05368783 -0.050556727 -0.11339292
0000f0 d1 ec 62 bd 4c 81 89 bd 68 b8 d7 3d 3a 26 42 3c
       -0.055401627 -0.067141145 0.105332196 0.011849934
000100 26 6b e0 3d 06 6f 9a be 6b 75 07 3e 64 31 9e 3c
       0.10957937 -0.3016283 0.13228385 0.01931066
000110 1f 46 a5 bd 4c a5 37 be 40 b3 2f 3e 43 1d b4 bd
       -0.08070015 -0.1793415 0.17158222 -0.08794644
000120 0a 0a 22 3d da 93 8f 3e a8 d7 c2 bd 53 0e c6 bd
       0.039560355 0.2804249 -0.095137894 -0.09670701
000130 b2 d3 5c 3e 76 f0 b7 3d d0 f7 8e 3e 4a e3 ac 3e
       0.2156513 0.08981411 0.2792344 0.33767158
000140 87 62 9e 3d 9f 4b 82 be 35 8b 40 bb e0 bf 84 bc
       0.07733636 -0.2544832 -0.002937985 -0.016204774
000150 04 15 4d bd 10 52 8e 3e be 10 3c 3c 2d 7a 06 be
       -0.05006887 0.27796984 0.011478601 -0.13132544
000160 9c 98 81 3d d6 6c b0 3d 09 e3 8f bd f2 5e a2 3c
       0.06327936 0.08614509 -0.070257254 0.019820664
000170 60 88 f2 3c 94 5c 1e 3e 7a 54 3d 3e c4 80 c1 3b
       0.029606044 0.15465003 0.18489257 0.0059052426
000180 7e 95 b7 3d e5 1e 2a be 12 e9 ec bd 74 33 76 bd
       0.0896406 -0.16613348 -0.11567892 -0.060107663
000190 57 38 1b 3e 87 fb fd bd b0 3e 96 be 09 24 a5 bd
       0.1515821 -0.12401491 -0.29344702 -0.08063514
0001a0 59 84 6d 3e c5 7c 28 be eb 75 85 3d 7a 9e b1 bc
       0.23195018 -0.16453846 0.06516632 -0.021682013
0001b0 0e d8 fb 3d e1 64 83 ba 24 f5 60 be e7 ce 43 3e
       0.122970685 -0.0010024571 -0.21968514 0.19121896
0001c0 d7 ed 6e bd 1e 68 88 3e 6b a6 9a ba 0b c6 02 3e
       -0.05833229 0.26641935 -0.0011798864 0.1277086
0001d0 8e 45 d7 bc f8 26 0d 3e 57 6f 4b bc cf e5 2a 3d
       -0.026278283 0.13784397 -0.012416682 0.04172307
0001e0 0d 06 56 3e bb 18 a5 3d 86 39 15 3d 46 7a 09 bd
       0.20900746 0.080613576 0.03643181 -0.033563875
0001f0 f8 3a 4d 3d 9d a8 96 3d 34 58 17 3d 3c 54 6e bd
       0.050105065 0.07356379 0.03694935 -0.0581858
000200 d1 7e 5b bc bf bc 05 3e 37 4a 5e 3c ca 7e 2b 3e
       -0.013396935 0.13060282 0.013567499 0.16747585
000210 df ac b0 bd 1f e2 a7 bd 3f 57 00 3e c9 f5 21 3e
       -0.086267225 -0.08197426 0.12533282 0.15816416
000220 d9 92 c6 bb 57 7b 07 3e e7 47 89 3d 7c 56 66 be
       -0.006059986 0.13230644 0.067031674 -0.22493929
000230 dd e2 4c 3e e0 6e 8f 3d 4a de 71 3c eb a2 d4 bd
       0.20008416 0.070035696 0.0147624705 -0.10382637
000240 75 da b7 bd 03 6b 18 3e 90 dd ad 3d 86 af ff 3d
       -0.08977214 0.14884572 0.08489525 0.1248465
000250 7a ed 08 3e 9e dd 57 bd 22 5f 18 3d 10 90 a3 bb
       0.1337184 -0.052701585 0.0372001 -0.004991539
000260 aa 1a ce bd 05 2e 29 be 65 38 02 bd 02 9d 64 3a
       -0.100636795 -0.16521461 -0.031792063 0.0008720906
000270 ac c3 02 3e 8b 1c 57 bb 00 c2 87 bc 31 f2 5a 3d
       0.12769955 -0.003282341 -0.016571999 0.053453628
000280 03 3c 03 be 7c a8 b7 bc 31 13 55 3e 0c 6b 89 be
       -0.12815861 -0.022419207 0.20808102 -0.26839483
000290 94 0e 87 bd cc 4b a4 3d ac 64 60 3d cf ca 3c be
       -0.065945774 0.080222696 0.05478351 -0.1843674
0002a0 f9 a0 04 3e 2b 40 e9 bd a8 48 8b bd 92 85 ff bc
       0.12952031 -0.11389192 -0.068009675 -0.031191621
0002b0 cd ac c1 3d bd 07 eb bd 47 6f 4d be 02 32 0b bd
       0.09456787 -0.11476085 -0.2006198 -0.033983238
0002c0 81 d9 50 3e ec 96 5b bd 14 6c 04 be 69 95 01 be
       0.20395471 -0.053610727 -0.12931854 -0.12654652
0002d0 e7 23 42 be f3 2e f3 bd 3e 40 42 bd cb f4 83 be
       -0.18959008 -0.11874189 -0.047424547 -0.257727
0002e0 31 63 01 3e ce 05 1a 3e dd 89 0d 3e e4 92 da bd
       0.12635495 0.15041277 0.13822122 -0.106725484
0002f0 6c 30 b4 3d f3 a0 4b bd ff a1 58 3d cf 05 ac bd
       0.08798298 -0.04971404 0.052888867 -0.083995454
000300 3e d7 9b 3d 51 b3 b7 bd b8 d7 34 be f6 10 0c be
       0.076094136 -0.08969749 -0.17660415 -0.13678345
000310 32 c0 dd 3d 57 48 80 be 24 77 93 3d fb 93 13 bc
       0.10827674 -0.2505519 0.07200459 -0.009007449
000320 0e c1 9e bd 4a 01 fd bd 36 10 77 bd d6 b4 5a be
       -0.07751666 -0.123537615 -0.060318194 -0.21358046
000330 0f 38 1a 3d 4b 78 77 be 40 cf 38 3e 1a 85 e7 3d
       0.037651118 -0.24166982 0.1804781 0.11304684
000340 70 5b e2 3d 63 77 b3 3d 38 cd 81 3c 7e fa f9 bd
       0.110525966 0.087630056 0.015844926 -0.12205981
000350 15 c9 04 be 0d 2c 09 3e b8 b9 9f 3d 4e b8 05 be
       -0.12967332 0.1339571 0.07799095 -0.13058588
000360 b1 66 1f 3c b6 19 90 bd c1 69 63 3c 76 4b 16 be
       0.009729073 -0.07036154 0.013880194 -0.14677224
000370 37 f2 f6 bd 34 64 0d be 88 87 07 3e bb b9 1f be
       -0.120579176 -0.13807756 0.13235295 -0.15598194
000380 49 7a 6b be 8f 9b 01 3e 76 5e 18 be e6 f8 ba bd
       -0.22995867 0.12656997 -0.14879784 -0.09129505
000390 c8 c6 05 bd ef 58 aa 3d ea 17 84 3d 8d 17 70 3d
       -0.032660276 0.08317744 0.06449874 0.05861621
0003a0 84 8b 20 3e 91 ec 0f be 94 16 dc 3d 7f 13 71 3e
       0.15678221 -0.14055087 0.10746494 0.23542593
0003b0 66 04 2b be 99 0d df 3d f5 9f a8 3c b7 07 55 3d
       -0.16700897 0.108912654 0.020584086 0.05200931
0003c0 54 b6 86 3e 46 fb 9b bd b9 74 37 3e 48 78 42 be
       0.2631098 -0.07616286 0.1791562 -0.18991196
0003d0 30 13 15 3d c8 4d b8 3d 8a 0e 6f be cb 22 33 3e
       0.03639525 0.089992106 -0.2334539 0.17493741
0003e0 a8 60 6b 3e cb f3 95 bc 8d 58 0b 3d e4 d0 fc 3d
       0.2298609 -0.018304726 0.034019995 0.1234453
0003f0 d3 73 47 3e e5 01 3a 3c 21 1c a6 bb 12 e1 0d be
       0.19477777 0.011352991 -0.005069271 -0.13855389

transformer.encoder.layers.0.linear1.bias f4 [128]
000000 a2 9a e1 bb 03 d9 a6 bd 32 cc 91 bc 3e c4 2b bd
       -0.0068848887 -0.081468605 -0.017797563 -0.041935198
000010 5c 6b bc bd 00 7b 11 3d 3f eb df bd 77 9a 0b bd
       -0.09200165 0.035517693 -0.109335415 -0.034082856
000020 00 00 d0 bd bc 9f a2 3d 25 d4 b1 bd 48 5c a9 bd
       -0.1015625 0.07940623 -0.086830415 -0.082695544
000030 28 73 cc 3c fa 94 ef bd ba 5b bd bd ce 6a 1a be
       0.024957255 -0.11698337 -0.09246011 -0.15079805
000040 ac 39 60 bd ab 74 ad bd f7 f6 d4 bd e1 a7 dd 3d
       -0.0547425 -0.08469518 -0.10398667 0.10823036
000050 94 28 2b be a0 a0 eb bd 76 32 d1 bc 55 a0 ce 3d
       -0.16714698 -0.11505246 -0.025536757 0.10089175
000060 b9 72 41 bd 38 91 7e 3d 03 97 89 3d be ba 19 3d
       -0.04722855 0.06215021 0.06718256 0.037531607
000070 c6 6b 0b be 1f ed e6 bd 4d dc c4 bd 3d f4 29 bc
       -0.13615331 -0.11275696 -0.096123315 -0.010373172
000080 39 2c 03 be c9 d9 9b bd 72 fe b3 bd d3 88 9e bd
       -0.12809838 -0.076098986 -0.08788766 -0.07740941
000090 85 a1 2d be f4 a1 60 bd ae 96 17 3d af c3 40 be
       -0.16956146 -0.05484195 0.037008934 -0.18824647
0000a0 69 3d dd 3c 63 b1 81 3d 5a c2 db bd 4e f4 a5 bd
       0.027006822 0.06332662 -0.10730429 -0.08103238
0000b0 ac ed a0 bd 85 ab a2 bc 36 61 15 be fc d4 02 bd
       -0.07857832 -0.019857178 -0.14587864 -0.0319414
0000c0 67 80 1f be 90 a8 b8 3d 63 45 52 bd 5c c3 9d 3d
       -0.15576325 0.09016526 -0.051335704 0.077032775
0000d0 e2 12 e8 bd 4c 72 05 be 97 d2 87 3d b7 98 0a bc
       -0.113317266 -0.13031882 0.06631964 -0.008459262
0000e0 80 76 88 bc a9 54 43 be 93 01 ad 3c 6a d5 23 be
       -0.016658068 -0.19075264 0.021118915 -0.1599938
0000f0 c9 b3 83 3d 84 9d 15 be 20 08 fb ba f1 95 1f be
       0.06430776 -0.14610869 -0.0019152202 -0.15584542
000100 49 68 e6 bc 1f 21 99 bb d1 4b cf bd 9b d6 8c bb
       -0.028125899 -0.004673138 -0.10121883 -0.004298044
000110 da 43 3d 3d 44 56 8c bc a9 78 21 bd 25 c7 24 bd
       0.046207286 -0.017130978 -0.03942171 -0.04022898
000120 6a 1a af bc 9b 12 49 be 3b 01 9c bd 70 7e 0b 3d
       -0.0213749 -0.19636004 -0.07617422 0.034056127
000130 15 25 8a 3c 42 e7 43 bd 1f aa ea bd 69 39 22 be
       0.016863385 -0.047827967 -0.11458229 -0.15842213
000140 09 91 fc ba d9 1f da bd 6c 2e 89 3d 34 ac d0 bd
       -0.0019269298 -0.10650606 0.066983074 -0.10189095
000150 a5 45 40 3d 62 cf 8f bd 50 5f 1b 3d 24 8a c9 bd
       0.04694142 -0.07021977 0.037932694 -0.09840801
000160 53 ed 9d 3c 8c 89 95 bd 44 4c 14 be 26 1c 13 be
       0.019278204 -0.073016256 -0.14482218 -0.14366207
000170 31 08 32 be c5 43 ac bd 37 b3 18 bd 47 ea c2 bd
       -0.17385937 -0.084113635 -0.037280288 -0.09517341
000180 f2 62 94 3c 8b 64 0f be 57 db a3 bd 69 18 80 3d
       0.018113587 -0.14003198 -0.0800082 0.06254656
000190 fd be 22 be f1 cc 09 be 25 11 a5 bc bb 3c 2f be
       -0.15893169 -0.13457085 -0.020149777 -0.1711301
0001a0 92 f2 0e be cd be f9 bd fd 22 e4 3b f6 6b 64 bd
       -0.1395972 -0.121945955 0.0069621787 -0.055767022
0001b0 99 3a 9e 3d 7f 6b b3 bc 66 f3 a5 bc 1b af 44 bd
       0.0772602 -0.021901844 -0.020257663 -0.048018556
0001c0 54 10 d0 3b 97 a5 13 bd ad 91 11 bb 8c 61 a8 3b
       0.0063496027 -0.03604659 -0.0022212074 0.0051385816
0001d0 0f c0 a2 bd 63 21 c0 3d 9c 28 0e 3d db 9e 7a bd
       -0.079467885 0.09381368 0.034706697 -0.061186653
0001e0 bb 0b a2 bd 44 ee 26 be 1d bc c3 bd 96 18 56 be
       -0.07912394 -0.16301829 -0.09557364 -0.20907816
0001f0 ae 3c 51 3d b6 e8 dd bd 24 0d 91 bd 94 d7 c5 3d
       0.05108326 -0.10835402 -0.070825845 0.09660259
