Model/model_noisy_38_64.pth (torch, 22450 bytes, 7 tensors)

input_weights f4 [8]
5.0 5.0 5.0 1.0 1.0 1.0 1.0 1.0
00000000: 0000 a040 0000 a040 0000 a040 0000 803f
00000010: 0000 803f 0000 803f 0000 803f 0000 803f

fc1.weight f4 [64, 8]
-2.638057e-07 2.56411e-07 1.2559319e-08 1.07427844e-07 2.366514e-07 1.13490955e-07 -1.3106695e-07 1.1693707e-07
-2.6138858e-07 7.173912e-08 -1.9683057e-08 1.8681719e-07 -9.747652e-09 8.886795e-08 3.0767922e-07 2.5537052e-08
-0.011852168 0.094307244 0.102393314 -0.40594763 -0.041235946 -3.695911e-05 -5.0032068e-06 1.632593e-05
-0.045675658 0.16098318 -0.28313348 -1.841589e-05 0.008595025 0.14655729 1.0027547e-05 -3.1635056e-05
0.3000422 0.019495744 0.07854801 -0.010877076 -0.026979487 -0.109704964 -7.054906e-05 0.37501958
-9.7405284e-08 -8.0398216e-08 2.0583433e-07 -2.9910524e-08 1.1046466e-07 -1.5097625e-07 2.1133772e-08 -2.3888617e-08
7.97219e-08 4.3765235e-07 2.3325057e-09 7.4545214e-09 3.957414e-09 1.5838953e-07 -5.6971675e-08 1.8506164e-08
0.48504248 0.05679688 0.19037186 1.956994e-05 -0.0064959014 -0.05302999 -1.4981586e-05 0.112791516
-1.6205473e-07 6.9237906e-08 1.9997228e-07 -1.0446665e-07 -5.946934e-08 1.12757014e-07 -7.37926e-08 -1.52983e-07
-9.752736e-08 6.490118e-08 8.871187e-08 1.2598355e-07 8.7494534e-08 -4.4235333e-07 -1.775529e-07 -4.663154e-08
-1.1686815e-07 -4.5079126e-08 -9.926559e-08 2.9640378e-07 -5.6739815e-08 -2.011888e-09 -2.1385077e-08 2.666826e-08
-0.646355 -0.044297222 -0.111019515 -0.064668335 0.01891708 0.044352517 -3.166928e-05 -0.03032134
7.372355e-05 -3.0814954e-07 8.016615e-07 0.00064908166 -1.9415995e-07 2.8079725e-05 1.0487927 -3.2532132e-06
1.8371118e-08 1.1819316e-07 1.7653196e-07 1.751513e-07 -2.5538064e-08 2.7455167e-07 -1.7040622e-07 -4.2923077e-08
6.4964794e-08 -7.785856e-08 1.10120986e-07 8.662113e-09 -1.3114361e-07 2.723505e-07 7.6160525e-08 -2.8271378e-07
1.7009465e-07 -9.581692e-08 5.7982405e-08 7.501657e-08 1.2425585e-07 -6.863914e-09 -9.879983e-09 1.5824553e-07
0.00075358193 -0.02469412 -0.129746 0.001754537 0.119018726 0.19123146 -0.015235651 -0.5022689
-2.0816302e-08 2.3058297e-07 -1.4331623e-07 9.22116e-08 -2.0135771e-07 -3.8948265e-08 7.595706e-08 -1.85838e-07
9.159681e-08 6.590548e-08 2.291884e-09 3.6179273e-08 -4.0235165e-08 1.7607356e-07 1.8028408e-07 -2.8522174e-07
9.0335284e-08 -8.609132e-08 1.4609117e-07 -4.6697792e-08 1.1997707e-07 -3.4583516e-07 4.8627996e-08 -6.301019e-08
0.026601493 -0.13022748 -0.40649107 0.29152855 0.09585412 0.13442852 -0.0062843696 -0.0669476
0.09158764 0.022227008 0.026431212 2.8977327e-05 0.009062588 7.374565e-05 0.034803707 0.49367097
9.121507e-09 1.2418938e-07 1.2268075e-07 -2.450099e-07 -1.0925477e-07 -6.708986e-08 2.6294217e-08 -7.347438e-08
1.3913848e-09 1.7071052e-07 1.0037405e-07 1.54001e-07 5.5400122e-08 -1.3023424e-08 -1.4521626e-07 9.303275e-08
0.00010426173 0.088819884 0.053098757 -0.01875018 0.21885744 0.37774152 6.692618e-07 0.070856564
4.1163027e-08 3.365568e-08 3.00466e-08 -1.6552372e-07 -2.732372e-07 6.533339e-08 -2.5507916e-07 2.7767297e-07
0.5918481 -0.03001778 -0.05242424 -0.0043960363 -6.263414e-05 0.010476288 -0.017890483 0.043845538
-4.9754867e-10 -1.1868826e-07 -3.0534042e-07 2.2920955e-07 9.780622e-08 2.7420862e-07 -1.4100266e-08 9.497627e-08
0.0727754 0.014247403 0.09332636 -0.024397515 -0.10041904 -0.16445607 -0.053883508 -0.0006918657
-3.511149e-08 1.7886138e-07 -1.3424095e-07 -9.950245e-10 -3.481179e-08 -9.528517e-09 -1.0434655e-07 5.1460887e-08
0.24233444 -0.014974068 0.030368196 -1.1776044e-05 0.00027155783 7.836685e-05 4.798564e-06 -0.4407561
-1.6251147e-07 1.8366711e-07 -2.7926845e-07 1.4401735e-07 1.2496753e-07 3.422139e-07 3.0532152e-07 1.3611728e-07
00000000: 2ea1 8db4 dca8 8934 78c4 5732 15b3 e633
00000010: 3e1a 7e34 50b8 f333 69bb 0cb4 d61e fb33
00000020: f954 8cb4 000f 9a33 8013 a9b2 eb97 4834
00000030: a076 27b2 acd7 be33 1c2f a534 925c db32
00000040: 982f 42bc 2824 c13d 96b3 d13d 5ed8 cfbe
00000050: 06e7 28bd 8b04 1bb8 38e1 a7b6 abf3 8837
00000060: 6616 3bbd c6d8 243e dff6 90be d37b 9ab7
00000070: 26d2 0c3c 1d13 163e fd3b 2837 e2af 04b8
00000080: 229f 993e 8ab5 9f3c c7dd a03d c335 32bc
00000090: 1604 ddbc ffac e0bd bdf3 93b8 9102 c03e
000000a0: 1f2d d1b3 63a7 acb3 4f03 5d34 f876 00b3
000000b0: 9738 ed33 091c 22b4 a889 b532 a033 cdb2
000000c0: 9433 ab33 7bf6 ea34 e049 2031 5511 0032
000000d0: c8f9 8731 c811 2a34 05b1 74b3 7cf7 9e32
000000e0: 7d57 f83e d8a3 683d d7f0 423e 202a a437
000000f0: 92db d4bb fa35 59bd 6c59 7bb7 3dff e63d
00000100: 4401 2eb4 f1af 9433 f6b7 5634 2657 e0b3
00000110: 3b6b 7fb3 d324 f233 e977 9eb3 a643 24b4
00000120: 3c70 d1b3 cd5f 8b33 de81 be33 1846 0734
00000130: a1e4 bb33 947c edb4 5fa5 3eb4 ec47 48b3
00000140: f2f8 fab3 069d 41b3 d62b d5b3 6d21 9f34
00000150: 16b2 73b3 8241 0ab1 48b2 b7b2 2014 e532
00000160: 8577 25bf 0171 35bd 335e e3bd d570 84bd
00000170: fef7 9a3c fcaa 353d a1d4 04b8 7564 f8bc
00000180: 089c 9a38 c06f a5b4 c231 5735 2227 2a3a
00000190: 487a 50b4 c08c eb37 d73e 863f c751 5ab6
000001a0: 84ce 9d32 60d1 fd33 bc8c 3d34 3911 3c34
000001b0: cc5e dbb2 1866 9334 e8f8 36b4 6c5a 38b3
000001c0: c682 8b33 3233 a7b3 a77b ec33 60d0 1432
000001d0: 7bd0 0cb4 9137 9234 b18d a333 e3c7 97b4
000001e0: 43a3 3634 e9c3 cdb3 5408 7933 cc18 a133
000001f0: 306b 0534 a0d7 ebb1 a0bc 29b2 33ea 2934
00000200: 078c 453a 534b cabc 23dc 04be 7ef8 e53a
00000210: 17c0 f33d 2ed2 433e f49e 79bc b294 00bf
00000220: 88cf b2b2 2a96 7734 77e2 19b4 dd05 c633
00000230: c934 58b4 1248 27b3 d61d a333 c38a 47b4
00000240: e1b3 c433 ec87 8d33 407f 1d31 8863 1b33
00000250: 08cf 2cb3 bb0e 3d34 1c94 4134 9420 99b4
00000260: 59fe c133 34e1 b8b3 3cdd 1c34 c490 48b3
00000270: 0cd3 0034 39ab b9b4 0cdb 5033 3850 87b3
00000280: 60eb d93c 5a5a 05be 991f d0be 3b43 953e
00000290: 2a4f c43d a1a7 093e 1ded cdbb d31b 89bd
000002a0: 4d92 bb3d 6a15 b63c 4586 d83c 5614 f337
000002b0: 407b 143c e5a7 9a38 558e 0e3d 71c2 fc3e
000002c0: d0b4 1c32 eb58 0534 3aba 0334 e789 83b4
000002d0: 729f eab3 0a13 90b3 98dd e132 f8c8 9db3
000002e0: 003b bf30 8d4c 3734 388d d733 795b 2534
000002f0: 14f1 6d33 a0bd 5fb2 beec 1bb4 4cc9 c733
00000300: 17a7 da38 33e7 b53d 157e 593d fa99 99bc
00000310: 2a1c 603e 5667 c13e 52a7 3335 3f1d 913d
00000320: 3acb 3033 d08c 1033 960c 0133 d0ba 31b4
00000330: 6fb1 92b4 694d 8c33 d0f1 88b4 1513 9534
00000340: 5b83 173f d9e7 f5bc cdba 56bd a00c 90bb
00000350: 735a 83b8 bda4 2b3c 108f 92bc 6197 333d
00000360: e0c3 08b0 90e1 feb3 abed a3b4 a41c 7634
00000370: 8a09 d233 f236 9334 a03d 72b2 c2f5 cb33
00000380: 450b 953d f06d 693c e421 bf3d 4cdd c7bc
00000390: 7fa8 cdbd 2c67 28be f4b4 5cbd 525e 35ba
000003a0: 7ecd 16b3 0b0d 4034 df23 10b4 50c1 88b0
000003b0: f883 15b3 dcb2 23b2 1f15 e0b3 d805 5d33
000003c0: 8526 783e cb55 75bc b9c6 f83c b991 45b7
000003d0: e05f 8e39 e258 a438 5a03 a136 c9aa e1be
000003e0: d07e 2eb4 0836 4534 5dee 95b4 30a3 1a34
000003f0: d02e 0634 85b9 b734 12eb a334 a227 1234

fc1.bias f4 [64]
-1.2531893e-07 -1.5123553e-07 -0.16777442 -1.3029434e-05 0.5479313 1.9591361e-08 1.3644896e-07 -6.467395e-05
1.8955828e-07 6.7990946e-08 1.865369e-07 -1.2452979 9.6913e-05 1.7044195e-07 4.7816428e-08 2.011543e-07
-0.26489782 -2.0575911e-07 1.3262411e-07 -1.1889027e-07 -0.14473544 -0.0007735493 -2.1942259e-07 2.6771815e-07
-1.1075893e-05 1.671723e-08 0.4297067 2.5589873e-07 -0.103086665 1.4570347e-07 -0.14425854 1.596198e-07
-4.2724915e-07 2.6207687e-08 -4.1580094e-08 -2.2196842e-05 -1.078596e-07 -1.9381106e-07 0.2911005 5.2976752e-08
-0.4608787 1.8489202 -1.9766813e-07 1.9718343e-09 5.5690507e-06 -0.44770718 -2.4521938e-08 -1.00034946e-07
-0.6877996 -1.1648307e-08 2.9887593e-07 6.748891e-05 2.467928e-07 -4.349334e-07 -8.5381984e-08 -4.3730317e-09
0.77224946 -7.717591e-08 -3.543839e-08 -0.29017892 1.1042365 0.19608143 3.748761e-08 4.7942372e-08
00000000: 688f 06b4 4e63 22b4 0fcd 2bbe fe98 5ab7
00000010: 3a45 0c3f dc49 a832 ce82 1234 90a1 87b8
00000020: 6289 4b34 6b02 9233 df4a 4834 ec65 9fbf
00000030: c53d cb38 ba02 3734 b85e 4d33 dffc 5734
00000040: b0a0 87be a2ee 5cb4 7067 0e34 9e50 ffb3
00000050: 8735 14be 04c8 4aba 6c9a 6bb4 e7ba 8f34
00000060: 99d2 39b7 9499 8f32 8402 dc3e 7462 8934
00000070: 1a1f d3bd aa72 1c34 83b8 13be f563 2b34
00000080: ad60 e5b4 501f e132 cc95 32b3 5b33 bab7
00000090: 71a0 e7b3 611a 50b4 200b 953e 8e88 6333
000000a0: 4bf8 ebbe 6ba9 ec3f 9a3e 54b4 e080 0731
000000b0: c8dd ba36 e039 e5be 50a4 d2b2 cbd2 d6b3
000000c0: a213 30bf cc1d 48b2 3275 a034 d588 8d38
000000d0: f27e 8434 cb80 e9b4 3e5b b7b3 9841 96b1
000000e0: 24b2 453f e8bb a5b3 ec34 18b3 5592 94be
000000f0: 9f57 8d3f 92c9 483e 1002 2133 32e9 4d33

fc2.weight f4 [64, 64]
1.5699342e-08 -5.2377857e-08 -9.035459e-08 -1.0928675e-08 -6.419256e-08 -2.1142519e-09 7.912365e-08 -9.692306e-08
-1.3960413e-07 6.7683075e-08 -1.2589257e-07 -1.3712193e-07 -1.4141955e-07 8.480141e-08 9.7490044e-08 4.622825e-09
1.7193248e-07 4.6518178e-08 1.5908583e-07 -5.0818336e-08 6.9630772e-09 -1.641557e-07 -2.1028238e-07 2.8306422e-07
3.1734402e-09 2.618358e-07 -2.524598e-07 1.8153804e-07 -1.383593e-07 8.733153e-09 -8.9182734e-08 6.278576e-08
-2.0016275e-07 2.1745262e-07 -2.6901597e-07 -1.4210804e-07 8.636518e-08 -1.2801692e-07 -5.5740703e-08 -1.2533272e-07
7.6067664e-08 5.953742e-08 -9.637096e-08 -1.0160836e-07 5.9096834e-09 -2.2306615e-07 -2.7523723e-07 2.946275e-08
1.389349e-07 -3.8116752e-08 6.567128e-08 -1.135234e-07 1.225174e-07 -4.4803272e-08 -1.8968811e-07 8.3819785e-08
-1.862449e-08 -3.1710965e-07 2.7888987e-08 -3.947727e-08 7.5058594e-08 6.694975e-08 5.4636004e-08 -3.3311164e-08
-5.007371e-08 3.3026925e-08 -1.4478988e-07 -3.8602863e-08 1.2875914e-07 -1.0121576e-07 -5.980733e-08 1.5970764e-07
8.8953726e-08 -1.1900699e-07 -2.8745838e-08 -1.6627106e-07 9.429427e-08 -1.8007154e-07 4.4940498e-07 -4.318023e-08
9.865648e-09 9.6178645e-08 -4.7630984e-08 -1.3233961e-07 1.1596869e-07 3.7813678e-08 2.0104764e-07 -7.856899e-08
-1.4188313e-08 -6.130792e-08 7.912024e-08 1.3574972e-07 -3.7723473e-07 -5.6489288e-08 -2.891544e-07 2.633909e-07
-1.1096892e-07 1.2633976e-07 1.1111633e-07 2.6597252e-07 8.036757e-08 4.5276572e-08 3.80722e-08 1.0428885e-07
4.8458116e-08 -1.758741e-08 1.7468717e-07 -2.7626086e-08 7.46795e-08 -5.231913e-08 2.4181907e-07 -1.2833087e-07
-4.9252403e-08 -1.877665e-07 -1.7095412e-07 -1.0379805e-07 3.2245495e-10 4.7962047e-08 1.989053e-07 -2.2583706e-08
-5.64521e-08 -1.2401968e-07 7.1540995e-08 -9.560682e-08 1.5322823e-07 -8.5220286e-08 -2.1530764e-07 -1.6437113e-07
-1.6632359e-07 1.2559735e-07 1.8816569e-07 -2.3027637e-07 -3.5760117e-08 -2.5521913e-08 -5.0251217e-08 2.4026736e-08
-1.4574891e-08 -1.6174653e-07 7.4825365e-08 1.3413458e-07 -3.2648657e-08 -2.7380572e-08 -5.6684456e-08 3.0386508e-07
-1.2899727e-07 -4.0931297e-07 1.3901138e-07 -1.2992089e-08 -7.649629e-08 -1.5098004e-07 9.19371e-08 1.1609853e-07
3.013563e-08 6.8535854e-08 2.0464313e-08 1.2493379e-07 -1.0482187e-07 -5.99738e-08 -3.4411576e-07 -2.4068333e-07
-1.7232895e-07 -4.70135e-08 -1.6119677e-07 -1.4367379e-07 7.707602e-09 -2.0624208e-07 1.815167e-08 8.3748354e-08
-1.4455068e-07 -2.75268e-07 -1.3485052e-07 -5.850849e-08 5.5417363e-08 5.639474e-08 -1.6676631e-07 1.577974e-08
1.2933499e-07 1.05828315e-08 -1.4343635e-07 2.3047131e-07 -2.1846543e-07 9.689562e-08 1.3072929e-07 -2.1987759e-07
-1.1455463e-07 1.12700334e-07 -2.739522e-07 1.0058926e-08 2.3806415e-08 -2.666919e-07 1.3105053e-07 4.387214e-08
2.2565517e-07 2.1601096e-08 1.0332812e-08 1.7375562e-08 3.4050657e-08 -5.8926258e-08 -3.9791033e-08 -1.1885889e-07
-1.1625637e-07 1.3333472e-07 -1.07055484e-08 1.4467095e-07 3.223256e-08 -1.4121812e-07 6.5958815e-08 -5.1934478e-08
9.9818564e-08 2.3495968e-08 -5.3217935e-08 7.86831e-08 -3.225691e-08 1.3118307e-07 -9.5628224e-08 -6.665363e-08
-8.796562e-08 -3.41866e-08 -4.5584308e-08 -2.5177343e-07 -9.15524e-08 -2.1536785e-07 -1.1741957e-07 3.3819637e-07
-1.2731053e-07 1.1528779e-07 4.9789776e-08 2.2405838e-07 1.2554725e-07 9.281344e-09 2.6232456e-07 -2.0128954e-07
-1.4932276e-08 -1.373896e-07 -3.8292157e-08 2.027327e-07 1.7392573e-07 -5.7659378e-08 3.1153746e-08 -8.3962334e-08
3.6076276e-08 2.1093053e-08 -9.0684296e-08 -1.4394828e-08 2.584442e-07 4.7017124e-08 2.0350619e-08 -1.7641703e-07
-5.639472e-08 -1.7507094e-07 -3.0526206e-07 1.2374429e-08 -2.3546012e-07 3.1439725e-08 -6.008153e-08 -1.2860933e-07
00000000: 38db 8632 10f6 60b3 f608 c2b3 d2c0 3bb2
00000010: 3cda 89b3 504a 11b1 b0ea a933 0424 d0b3
00000020: 17e6 15b4 2a59 9133 162d 07b4 ca3b 13b4
00000030: 1cd9 17b4 111c b633 b85b d133 ccd6 9e31
00000040: 719c 3834 47cb 4733 2ed1 2a34 5a43 5ab3
00000050: e03f ef31 c642 30b4 fbc9 61b4 0df8 9734
00000060: c013 5a31 7092 8c34 d089 87b4 ccec 4234
00000070: ea8f 14b4 d008 1632 ba84 bfb3 d6d4 8633
00000080: 51ec 56b4 ec7c 6934 466d 90b4 5c96 18b4
00000090: c377 b933 0675 09b4 8d67 6fb3 3293 06b4
000000a0: a45a a333 16b6 7f33 7ff4 ceb3 c933 dab3
000000b0: 200e cb31 f583 6fb4 51c4 93b4 4615 fd32
000000c0: 222e 1534 d0b5 23b3 2b07 8d33 26ca f3b3
000000d0: 548d 0334 b86d 40b3 12ad 4bb4 6a00 b433
000000e0: b0fb 9fb2 383f aab4 8890 ef32 b88d 29b3
000000f0: e62f a133 04c6 8f33 eca8 6a33 0312 0fb3
00000100: a010 57b3 7dd9 0d33 8a77 1bb4 4ccc 25b3
00000110: 0b41 0a34 f45b d9b3 6d6f 80b3 1a7c 2b34
00000120: d406 bf33 c990 ffb3 c4ec f6b2 3e88 32b4
00000130: d37e ca33 b059 41b4 c045 f134 2a75 39b3
00000140: 947d 2932 c58a ce33 d292 4cb3 3c19 0eb4
00000150: 760a f933 9468 2233 8edf 5734 c2b9 a8b3
00000160: dcc0 73b2 63a8 83b3 d0e8 a933 99c2 1134
00000170: bf86 cab4 a19e 72b3 143d 9bb4 2b68 8d34
00000180: cf4d eeb3 02a8 0734 d99e ee33 fcca 8e34
00000190: 8a96 ac33 1e76 4233 d484 2333 67f5 df33
000001a0: 4320 5033 2013 97b2 a591 3b34 684e edb2
000001b0: 7d5f a033 7eb5 60b3 5cd3 8134 52cb 09b4
000001c0: 9789 53b3 dd9c 49b4 838f 37b4 95e7 deb3
000001d0: 8045 b12f d4fe 4d33 ac92 5534 18fe c1b2
000001e0: be75 72b3 452a 05b4 14a2 9933 6850 cdb3
000001f0: 0e87 2434 5902 b7b3 502f 67b4 fe7d 30b4
00000200: ae96 32b4 f0db 0634 970a 4a34 e341 77b4
00000210: aa96 19b3 483b dbb2 ccd3 57b3 5a63 ce32
00000220: 0c65 7ab2 8cac 2db4 aeaf a033 a206 1034
00000230: 9439 0cb3 8432 ebb2 3875 73b3 e622 a334
00000240: 8082 0ab4 8cbf dbb4 2843 1534 d033 5fb2
00000250: 4846 a4b3 141d 22b4 f56e c533 d851 f933
00000260: 7a6e 0133 fc2d 9333 80c9 af32 8a25 0634
00000270: 6f1a e1b3 f2ca 80b3 e9be b8b4 4437 81b4
00000280: 6c09 39b4 e4eb 49b3 6e15 2db4 c044 1ab4
00000290: 646a 0432 6473 5db4 f2eb 9b32 25d9 b333
000002a0: ca35 1bb4 8cc8 93b4 6ecb 10b4 c44a 7bb3
000002b0: 0904 6e33 ac36 7233 6010 33b4 048c 8732
000002c0: 55df 0a34 c9cf 3532 7c03 1ab4 7977 7734
000002d0: 5293 6ab4 ee14 d033 985e 0c34 7e17 6cb4
000002e0: 1301 f6b3 aa05 f233 b413 93b4 a0cf 2c32
000002f0: dc7e cc32 db2d 8fb4 e5b6 0c34 ee6d 3c33
00000300: 9f4b 7234 508d b932 3084 3132 4441 9532
00000310: 183f 1233 1b16 7db3 b4e6 2ab3 5e3f ffb3
00000320: 9ea8 f9b3 c52a 0f34 80eb 37b2 d956 1b34
00000330: 1370 0a33 bea1 17b4 3ea5 8d33 900e 5fb3
00000340: d65b d633 2ed4 c932 bd91 64b3 7ef8 a833
00000350: d98a 0ab3 54db 0c34 2c5c cdb3 3823 8fb3
00000360: 9ce7 bcb3 90d4 12b3 7ac8 43b3 7a2b 87b4
00000370: 779b c4b3 dd3f 67b4 1728 fcb3 5b91 b534
00000380: dab2 08b4 2294 f733 70d8 5533 b394 7034
00000390: 2ace 0634 c873 1f32 9dd5 8c34 0c22 58b4
000003a0: 6c44 80b2 5e85 13b4 ac76 24b3 beae 5934
000003b0: 57c0 3a34 28a5 77b3 e8cd 0533 c84e b4b3
000003c0: 49f2 1a33 1d30 b532 38be c2b3 204d 77b2
000003d0: 4dc0 8a34 e0ef 4933 7ccf ae32 256d 3db4
000003e0: a636 72b3 22fb 3bb4 e6e2 a3b4 5097 5432
000003f0: c9d2 7cb4 5808 0733 2c06 81b3 dd17 0ab4

fc2.bias f4 [64]
-7.292871e-08 -6.983248e-08 -1.5523991e-08 -4.145597e-08 -2.7328593e-07 1.5343201e-05 -1.6431463e-07 1.0883024e-07
-7.465147e-08 -1.0377734e-07 1.3652122e-07 -2.2959213e-05 -7.74427e-08 4.0063384e-09 -1.818714e-07 -6.490856e-08
4.7433893e-08 -0.0010997585 -7.6805364e-08 -6.679336e-09 2.0988911e-05 -1.15387905e-07 1.206012e-07 0.124190405
-3.4578508e-07 0.08097034 -1.3336503e-07 3.1127377e-07 3.305408e-06 -0.7357178 7.3428254e-08 -1.8142421e-07
-2.0225376e-07 -3.7864588e-08 -4.4949653e-07 -3.2790751e-07 -5.237965e-05 -1.06654724e-07 -9.4521255e-08 0.32806048
8.731502e-08 -7.054304e-08 4.602782e-08 0.20558248 1.3201395e-07 -1.3267498e-07 5.6308807e-09 8.774481e-08
-5.9059744e-08 6.141723e-08 4.1034127e-09 1.3370756e-07 1.4527691e-07 4.7710554e-08 1.666779e-07 0.09676005
-0.03844907 -8.284956e-06 -1.7731652e-07 -6.2071024e-08 3.1420134e-07 7.412455e-08 -2.2357923e-05 -2.4541393e-07
00000000: fb9c 9cb3 d0f6 95b3 9e59 85b2 520d 32b3
00000010: 22b8 92b4 46b5 8037 766e 30b4 0fb6 e933
00000020: 1450 a0b3 32dc deb3 ab96 1234 8998 c0b7
00000030: 934e a6b3 20a8 8931 6e48 43b4 dc63 8bb3
00000040: 1eba 4b33 c625 90ba 32f0 a4b3 1080 e5b1
00000050: 5811 b037 2ccb f7b3 9b7e 0134 8a57 fe3d
00000060: 57a4 b9b4 c7d3 a53d 1a33 0fb4 241d a734
00000070: 7ad2 5d36 0058 3cbf 9caf 9d33 82cd 42b4
00000080: 172b 59b4 8ea0 22b3 5552 f1b4 440b b0b4
00000090: 39b2 5bb8 0e0a e5b3 9cfb cab3 8bf7 a73e
000000a0: f181 bb33 727d 97b3 20b0 4533 3784 523e
000000b0: b8bf 0d34 6c75 0eb4 c079 c131 386e bc33
000000c0: e0a8 7db3 7be4 8333 00fe 8c31 4191 0f34
000000d0: 6afd 1b34 4fea 4c33 13f8 3234 222a c63d
000000e0: c67c 1dbd 9dff 0ab7 6564 3eb4 e84b 85b3
000000f0: 81af a834 672e 9f33 468d bbb7 6fc1 83b4

fc3.weight f4 [2, 64]
-2.9401548e-10 1.5216928e-08 1.4108161e-07 1.0580061e-07 -7.8369304e-08 5.780204e-07 -1.4195732e-07 -4.5078167e-07
4.7852918e-08 -6.647488e-08 1.3682337e-07 1.910021e-05 4.7360885e-08 2.022585e-07 7.916469e-09 -3.3530135e-08
1.4525206e-07 -1.0869779e-06 -2.3032209e-07 -1.2990508e-07 0.97243935 4.2555513e-08 1.2489316e-08 1.0776073e-07
5.7488343e-08 1.7033528e-05 1.2023929e-07 8.6274696e-08 -0.8766 -3.477427e-05 1.02929484e-07 -1.4754212e-07
-1.7888466e-07 -3.3844515e-07 4.8868177e-08 1.7802756e-07 1.1026816e-06 1.7644756e-07 1.6040917e-07 8.4577005e-07
-4.59948e-09 4.993542e-08 -9.119084e-09 -5.679438e-07 -1.2191722e-07 5.2017995e-08 -7.906299e-08 3.094376e-07
-1.4191151e-07 -1.3888524e-08 1.2379259e-07 2.0178454e-08 -1.1025537e-07 -7.0976725e-08 -8.706832e-08 -1.0850761e-05
-6.780908e-08 -4.8270726e-06 -1.74938e-07 -4.1922252e-07 -2.7673758e-07 -4.503063e-08 -2.1289242e-07 2.9024756e-07
-2.6396506e-08 2.8615517e-08 -9.0488506e-08 2.6505717e-08 -2.827028e-07 2.149925 4.5712014e-08 2.4916028e-07
-3.6363346e-08 1.0011287e-07 -2.7838418e-08 -1.2543029 -2.2950431e-07 8.029439e-08 -1.0617498e-09 6.124317e-08
-1.8856485e-07 2.184451 -2.6874562e-07 4.1592102e-08 2.1908176e-05 -9.1244885e-08 2.1720781e-07 1.4496223
-3.5426467e-08 0.8480707 6.7150985e-08 9.811041e-08 0.09539812 -1.5720509 -2.403569e-09 -9.004309e-08
1.6155215e-07 7.6213205e-08 -1.2314662e-07 -3.797296e-09 -1.04099 -3.430839e-07 9.378384e-08 1.3407859
-9.719343e-08 1.1094089e-07 -2.6252678e-07 -1.0113499 2.950823e-07 9.8550466e-08 -1.6514285e-07 1.8531374e-08
1.7627187e-07 -2.2055971e-08 -7.806838e-08 1.6019767e-07 -2.658075e-07 8.540039e-08 -1.715925e-08 -2.6509109
-2.134362 -1.0054473 6.553826e-09 2.5283225e-07 -4.6345832e-08 -1.4552626e-09 -2.1328292 -8.8933604e-08
00000000: 00a3 a1af 61b6 8232 387c 1734 8034 e333
00000010: fb4b a8b3 4229 1b35 ee6c 18b4 f602 f2b4
00000020: d786 4d33 f4c0 8eb3 b9e9 1234 6339 a037
00000030: d869 4b33 652c 5934 0001 0832 c602 10b3
00000040: 95f6 1b34 47e4 91b5 744e 77b4 097c 0bb4
00000050: c9f1 783f 48c6 3633 9890 5632 166a e733
00000060: 1ae9 7633 39e3 8e37 201b 0134 0446 b933
00000070: dc68 60bf 97da 11b8 150a dd33 126c 1eb4
00000080: 7113 40b4 8cb3 b5b4 21e3 5133 d827 3f34
00000090: daff 9335 8975 3d34 f03c 2c34 e008 6335
000000a0: 7409 9eb1 9378 5633 28aa 1cb2 cd74 18b5
000000b0: 5ae8 02b4 646a 5f33 57c9 a9b3 c820 a634
000000c0: 5760 18b4 609a 6eb2 d9eb 0434 e454 ad32
000000d0: 88c5 ecb3 de6b 98b3 51fa bab3 aa0b 36b7
000000e0: 709e 91b3 3df8 a1b6 97d6 3bb4 8111 e1b4
000000f0: 8692 94b4 b467 41b3 6c97 64b4 52d3 9b34
00000100: 88be e2b2 30ce f532 9552 c2b3 b0ae e332
00000110: 61c6 97b4 5f98 0940 e454 4433 54c4 8534
00000120: ec2d 1cb3 a2fd d633 5421 efb2 ff8c a0bf
00000130: aa6d 76b4 4f6e ac33 00ed 91b0 ca84 8333
00000140: 5078 4ab4 0cce 0b40 1e48 90b4 00a3 3233
00000150: 73c7 b737 68f2 c3b3 a139 6934 398d b93f
00000160: d027 18b3 291b 593f a534 9033 c5b0 d233
00000170: 1760 c33d f738 c9bf 082c 25b1 b65d c1b3
00000180: 1e77 2d34 a7aa a333 493a 04b4 5e79 82b1
00000190: 293f 85bf 1831 b8b4 3666 c933 df9e ab3f
000001a0: a7b8 d0b3 663e ee33 68f1 8cb4 ea73 81bf
000001b0: cd6b 9e34 b1a2 d333 1f52 31b4 ec2e 9f32
000001c0: 3e45 3d34 9875 bdb2 8ca6 a7b3 cd02 2c34
000001d0: 4eb4 8eb4 5c65 b733 9765 93b2 86a8 29c0
000001e0: 6399 08c0 7fb2 80bf 1030 e131 00bd 8734
000001f0: c80d 47b3 8002 c8b0 4680 08c0 c4fb beb3

fc3.bias f4 [2]
7.922758e-06 1.8341318e-05
00000000: fdeb 0437 aedb 9937
