Model/model_noisy_40_64.pth (torch, 21682 bytes, 7 tensors)

input_weights f4 [5]
1.0 1.0 1.0 1.0 1.0
00000000: 0000 803f 0000 803f 0000 803f 0000 803f
00000010: 0000 803f

fc1.weight f4 [64, 5]
-0.2843846 0.010930471 0.22717959 0.010361308 0.40393582 1.0410465 0.04016464 0.04896866
0.05269147 -0.027250232 0.22616343 -0.32604122 0.02387785 -0.26278228 0.3262538 -0.19597447
0.08133199 -0.047059234 -0.16264234 0.60562545 -0.06622988 0.21884479 -0.068090156 -0.3428426
0.16145891 -0.4118756 -0.04137497 0.5089293 -0.20085154 -0.32753146 0.053136814 0.040634226
0.11699196 0.11686634 -0.530371 0.13889818 -0.21657456 0.21021368 0.4203279 -0.19730361
0.8175422 0.0008271705 -0.05730379 0.023340113 0.034897182 -0.73118234 0.21325602 -0.027745238
-0.10848108 -0.14510642 0.52455026 0.048121143 0.097485065 0.074176475 -0.29627788 0.5820442
-0.023725778 0.07785526 0.19774549 -0.41187748 -0.549136 -0.0012500165 0.06645873 -0.001198229
-0.0041342545 0.32385626 -0.15434155 0.2893687 -0.051310327 -0.4443361 0.7162639 -0.051515736
-0.16838337 -0.89322954 -0.27609247 -0.04598316 0.10705224 -0.10585829 0.38698462 0.31872147
-0.052620176 0.52998537 0.07950334 -0.036181223 0.36164364 0.72788525 0.00018310673 -0.13501586
0.34060916 -0.23013924 -0.07795644 0.5637033 0.0485219 -0.4261134 -0.06503405 -0.95286924
-0.0060220407 0.2240182 0.23617797 -0.036921956 0.7393604 0.0736752 1.1313986 -0.24984929
-0.21599783 0.50452864 0.050702095 -0.10349232 0.32618928 -0.44727448 -0.6211234 -0.22003421
0.6491307 -0.006424295 -0.08548765 -0.24232693 0.0108590275 -0.1574578 0.55601025 0.026465142
-0.0100069195 0.19979922 -0.041845676 0.36866957 -0.0629956 0.19565502 -0.41569126 0.45223153
-0.010113277 0.12276171 0.82520896 -0.00095570297 -0.028788334 0.014368934 0.0016393628 0.95164365
-0.057866942 -0.09747315 0.059581343 -0.4660142 0.083274305 0.2637965 0.15981662 0.023669798
-0.27978384 0.56022143 0.08196832 0.8577096 -0.3643104 0.011639898 -0.43122572 0.051410202
0.38287207 -0.29423258 -0.043087218 -0.4034127 -0.04056634 -0.1067389 -0.3092822 -0.35219753
-0.060995124 -0.12194046 2.2813458 0.05658344 0.26228225 -0.33723077 0.03828016 0.056699477
-0.74890965 -0.0006952029 -0.8603465 -0.11407891 -0.06471195 0.16011012 -0.035353534 0.08109094
-0.20944881 -0.22487533 -0.8355296 0.08736878 -1.126532 -0.011336431 -0.07045351 -0.15797856
0.020686032 0.022425944 -0.093028486 -0.08833331 0.09932873 -0.20630762 0.41814145 0.45415032
-0.31060606 -0.008875296 -0.19309631 0.38045928 0.1389349 0.65327483 -0.013135336 -0.23978435
0.46298555 0.16275156 0.003957474 -0.5824627 0.15404588 -0.114695475 0.015069024 1.0898703
0.23060393 0.34801292 0.07408568 -0.10557554 1.1938143 0.019784814 0.058317296 0.23295586
0.018738786 -0.16449231 -0.27889046 -0.56855273 0.51630026 0.0041210274 0.22812839 0.038749363
0.1837512 -0.14703216 0.09815344 1.2854567 0.16259077 -0.36492035 -0.264698 -0.4766803
0.14531347 0.39684874 0.4201408 -0.5914351 -0.28887695 0.04448531 -0.05449968 0.41143012
0.058353264 -0.33814046 -0.06854588 -0.24620242 0.4921859 0.40367284 -0.025532031 0.015442389
-1.0786668 -0.1691969 -0.026082443 -0.18548076 -0.6822303 0.10840918 -0.03253522 0.44756868
00000000: dc9a 91be b815 333c c4a1 683e 7ac2 293c
00000010: add0 ce3e 0341 853f ad83 243d 5d93 483d
00000020: 03d3 573d e13b dfbc 6397 673e e0ee a6be
00000030: 7b9b c33c 668b 86be bd0a a73e 88ad 48be
00000040: 6391 a63d 2fc1 40bd b78b 26be 450a 1b3f
00000050: 88a3 87bd d918 603e da72 8bbd 1189 afbe
00000060: 7c55 253e 5ce1 d2be cd78 29bd 3149 023f
00000070: 07ac 4dbe 34b2 a7be fda5 593d 1370 263d
00000080: 7b99 ef3d 9f57 ef3d 65c6 07bf 533b 0e3e
00000090: b9c5 5dbe 4142 573e 3835 d73e f509 4abe
000000a0: 724a 513f 79d6 583a 61b7 6abd c433 bf3c
000000b0: 59f0 0e3d c42e 3bbf c95f 5a3e fb49 e3bc
000000c0: 542b debd c796 14be ed48 063f ad1a 453d
000000d0: 40a6 c73d d6e9 973d bcb1 97be d900 153f
000000e0: 905c c2bc 9472 9f3d cb7d 4a3e 9be1 d2be
000000f0: 2d94 0cbf 98d7 a3ba 841b 883d e50d 9dba
00000100: a478 87bb 7dd0 a53e b60b 1ebe 2228 943e
00000110: c72a 52bd 0580 e3be 125d 373f 2a02 53bd
00000120: b16c 2cbe b1aa 64bf fe5b 8dbe d758 3cbd
00000130: 343e db3d 3bcc d8bd d922 c63e 762f a33e
00000140: 4188 57bd 1fad 073f a6d2 a23d c332 14bd
00000150: 5b29 b93e b056 3a3f 5700 4039 9941 0abe
00000160: 5364 ae3e 9fa9 6bbe a0a7 9fbd dc4e 103f
00000170: e6be 463d 892b dabe 9230 85bd 3def 73bf
00000180: 8a54 c5bb 0765 653e a3d8 713e 7a3b 17bd
00000190: b946 3d3f 06e3 963d abd1 903f 7ed8 7fbe
000001a0: 892e 5dbe ca28 013f 00ad 4f3d c8f3 d3bd
000001b0: 4802 a73e 2901 e5be f101 1fbf a650 61be
000001c0: 6e2d 263f e482 d2bb 2614 afbd 8d24 78be
000001d0: 10ea 313c 9e3c 21be b056 0e3f 6dcd d83c
000001e0: 10f4 23bc 2b98 4c3e 5f66 2bbd 42c2 bc3e
000001f0: d603 81bd ca59 483e 7cd5 d4be e48a e73e
00000200: 28b2 25bc 7e6a fb3d e540 533f 2488 7aba
00000210: 83d5 ebbc ad6b 6b3c e3df d63a eb9e 733f
00000220: e305 6dbd 01a0 c7bd 910b 743d 6a99 eebe
00000230: b88b aa3d 5610 873e f8a6 233e 2ae7 c13c
00000240: d43f 8fbe ac6a 0f3f 02df a73d db92 5b3f
00000250: e586 babe 45b5 3e3c 9ec9 dcbe 8193 523d
00000260: cf07 c43e a7a5 96be 397c 30bd 1c8c cebe
00000270: e428 26bd ed99 dabd 3d5a 9ebe 3c53 b4be
00000280: 06d6 79bd ebbb f9bd 9201 1240 0ac4 673d
00000290: dc49 863e 83a9 acbe a8cb 1c3d b63d 683d
000002a0: 8bb8 3fbf 473e 36ba ab3f 5cbf 34a2 e9bd
000002b0: b387 84bd e8f3 233e dece 10bd 0213 a63d
000002c0: c079 56be b845 66be 45e5 55bf 67ee b23d
000002d0: 3332 90bf 70bc 39bc ee49 90bd 22c5 21be
000002e0: c175 a93c 9db6 b73c b885 bebd 18e8 b4bd
000002f0: dc6c cb3d 4e42 53be a316 d63e 6486 e83e
00000300: c207 9fbe b169 11bc 0abb 45be 8fcb c23e
00000310: f344 0e3e 053d 273f 9835 57bc 078a 75be
00000320: 710c ed3e 58a8 263e b3ad 813b 471c 15bf
00000330: 34be 1d3e 76e5 eabd 11e4 763c df80 8b3f
00000340: 7023 6c3e c02e b23e 3cba 973d fd37 d8bd
00000350: e8ce 983f c313 a23c 1ede 6e3d fb8b 6e3e
00000360: 1582 993c ac70 28be bbca 8ebe ac8c 11bf
00000370: 412c 043f af09 873b 7d9a 693e a7b7 1e3d
00000380: 4629 3c3e 998f 16be ac04 c93d d889 a43f
00000390: 327e 263e d7d6 babe 7f86 87be 710f f4be
000003a0: 0ecd 143e c22f cb3e b21c d73e 4a68 17bf
000003b0: aee7 93be 3a36 363d 0e3b 5fbd f8a6 d23e
000003c0: d503 6f3d bf20 adbe c861 8cbd 7d1c 7cbe
000003d0: caff fb3e 35ae ce3e 8d28 d1bc 1302 7d3c
000003e0: c111 8abf f441 2dbe d9aa d5bc abee 3dbe
000003f0: a5a6 2ebf a205 de3d a743 05bd b927 e53e

fc1.bias f4 [64]
-0.040380534 -0.59781915 0.67177993 -0.25657535 1.1246244 0.29253224 0.42244047 0.6651161
-0.89895993 -0.22005303 -0.021948108 -0.124425896 -0.6621435 -0.0033312854 -0.73133814 -0.019320741
-0.48914444 -0.3996677 -0.2326155 -0.3547998 -0.51133394 -0.30103424 -0.35753143 0.13734055
-0.10045934 0.3813809 0.6528763 -0.29277378 0.5221873 -0.07718783 -0.49844894 -0.94850177
0.033845425 -0.04628717 -0.4201247 0.023458716 0.3480802 0.013830725 -0.74530256 0.44689092
-0.039382488 -0.01600549 -0.1639995 -0.05373192 0.55005735 -0.39798132 -0.33071554 -0.07750618
-0.4368937 -0.22501439 0.13318744 -0.5859945 -0.14571653 -0.43774918 -0.46248212 0.29492095
0.019330116 -0.24574052 0.6458238 -0.43750876 -0.37449786 0.18209453 -0.21741988 0.632316
00000000: 0f66 25bd ad0a 19bf c5f9 2b3f d85d 83be
00000010: b1f3 8f3f c9c6 953e 1e4a d83e 0c45 2a3f
00000020: 3d22 66bf 9555 61be 85cc b3bc 01d3 febd
00000030: 3d82 29bf b251 5abb fa38 3bbf 8846 9ebc
00000040: 2471 fabe 3fa1 ccbe c232 6ebe 52a8 b5be
00000050: c8e6 02bf 2921 9abe 5c0e b7be 00a3 0c3e
00000060: a0bd cdbd 5b44 c33e e722 273f 72e6 95be
00000070: 11ae 053f a714 9ebd b334 ffbe 03d1 72bf
00000080: 80a1 0a3d 9e97 3dbd 961a d7be 7e2c c03c
00000090: 9137 b23e 449a 623c 26cc 3ebf e3ce e43e
000000a0: 884f 21bd f21d 83bc 7cef 27be 0016 5cbd
000000b0: 8fd0 0c3f 35c4 cbbe 8c53 a9be 8fbb 9ebd
000000c0: 88b0 dfbe 2c6a 66be 4a62 083e bc03 16bf
000000d0: b736 15be a920 e0be 75ca ecbe e1ff 963e
000000e0: 315a 9e3c 67a3 7bbe b554 253f 2601 e0be
000000f0: 2fbe bfbe fd76 3a3e 51a3 5ebe 76df 213f

fc2.weight f4 [64, 64]
0.10079664 -0.6825047 0.017097052 0.30395812 0.044370595 0.20344251 -0.021463228 -0.06933084
0.34859583 -0.15177481 -0.5811122 -1.0019463 0.1275645 0.07256638 0.05851283 0.11447309
0.036830604 -0.5083452 -0.03174549 -0.09390619 0.27337196 -0.30701563 0.23394895 -0.040372115
-0.16166149 0.019949216 -0.25899723 0.2935741 0.054748565 -0.07687768 0.20015359 -0.22130084
0.05791932 -0.0074204043 -0.10671219 -0.082476534 0.16124941 -0.19243862 0.6617903 0.09301602
0.27935344 0.20422284 -0.16322051 -0.3374914 0.043385424 -0.32722864 0.21917154 -0.013431433
0.24838005 0.1252538 -0.081474274 -0.00975468 -0.21166307 0.1793104 -0.11140654 -0.14032151
0.10963708 -0.0023735166 0.12632258 0.3427192 0.1473575 0.14921361 -0.013561865 0.12244561
0.047873262 -0.27035642 0.069183506 0.084268235 -0.044157173 -0.22819166 -0.0062525347 0.12974848
0.14097555 0.15838788 0.066757865 0.07124305 0.08908238 0.21401727 0.23993115 0.08181487
0.47289693 -0.13687536 0.17957218 0.11699757 0.033333916 -0.14837755 -0.5348782 -0.14169051
0.016913027 -0.06814178 -0.049265888 0.019978527 0.12011629 0.23019183 -0.42872444 -0.29388356
-0.416318 -0.4643934 0.05328482 -0.030682879 0.013305174 -0.20038754 -0.13123348 -0.1223801
-0.15467364 -0.013363595 0.12692942 0.13295928 -0.05472556 0.14680298 -0.34206644 -0.52933896
-0.049067505 0.15294792 0.05352713 0.12900606 -0.19126509 0.29151753 -0.1361337 0.09410346
-0.13622259 0.09806892 -0.14903434 -0.090974286 0.2699012 0.09724806 -0.10474694 0.07874641
-0.44154173 0.1475886 -0.37439293 -0.14193884 -0.033465162 0.0135093825 0.14863911 -0.07776999
-0.38588867 0.036516316 0.2654234 0.074115925 0.23272283 0.10750921 0.06425744 -0.0957527
0.032201175 -0.16225384 0.20767397 -0.825023 0.15971126 0.20147419 0.22996768 -0.21428761
0.14189145 0.00209004 0.030616634 0.040249236 -0.0071703224 0.18362644 0.12966691 0.050083123
0.16945378 0.19546555 -0.8380386 0.26025417 0.14909016 0.0894495 0.11549264 0.069468856
0.205715 -0.7825811 0.2265584 0.22590953 -0.056627892 -0.18428999 0.48770025 -0.14425938
0.075481005 0.25302243 0.036045596 -0.08411261 0.06629966 0.30969384 -0.3092802 -0.28982848
0.16913494 0.2551895 -0.25795332 0.06622963 -1.2206504 0.19492146 -0.088575095 0.025931364
0.13490124 -0.41981345 0.0083988225 0.09934857 0.04913193 -0.012942711 -0.04208405 0.12189436
0.14515692 0.08602396 -0.065592974 -0.19482887 0.14383073 -0.022757582 -0.051567353 -0.042742234
-0.029664516 -0.006171909 -0.044901203 -0.09482954 0.05275206 -0.14281347 0.18022732 0.023420928
0.0029718573 0.032819528 -0.031299707 -0.12105349 0.04027812 -0.17946848 0.15484957 -0.20026419
-0.0014259838 0.11002436 -0.096243024 -0.19901864 0.2925093 -0.43123502 0.064472646 0.11669846
0.15188603 0.14293498 -0.45452452 -0.009309928 0.1767782 -0.40260735 -0.0031684684 0.07247578
-0.5736892 -0.14432652 -0.23610486 -0.0879665 0.1111977 0.26610208 0.03178737 0.22626996
-0.24251541 -0.19098596 0.007386934 0.190547 -0.030474816 -0.011566256 -0.1575989 -0.1338397
00000000: 786e ce3d a1b8 2ebf 1e0f 8c3c 66a0 9b3e
00000010: f1bd 353d 3c53 503e a7d3 afbc 54fd 8dbd
00000020: 277b b23e db6a 1bbe c5c3 14bf c73f 80bf
00000030: 45a0 023e af9d 943d 26ab 6f3d de70 ea3d
00000040: b0db 163d e922 02bf 8f07 02bd e351 c0bd
00000050: 69f7 8b3e 2731 9dbe 5090 6f3e 3b5d 25bd
00000060: 978a 25be 8a6c a33c 499b 84be 584f 963e
00000070: 0840 603d 0c72 9dbd 10f5 4c3e b09c 62be
00000080: cf3c 6d3d dd26 f3bb ec8b dabd 75e9 a8bd
00000090: 911e 253e a10e 45be 176b 293f 2f7f be3d
000000a0: 6a07 8f3e cb1f 513e 4723 27be accb acbe
000000b0: eab4 313d 838a a7be 816e 603e 830f 5cbc
000000c0: 5757 7e3e 8842 003e fcdb a6bd 18d2 1fbc
000000d0: 34be 58be 259d 373e 1d29 e4bd 71b0 0fbe
000000e0: 6889 e03d 008d 1bbb b55a 013e e478 af3e
000000f0: e2e4 163e 74cb 183e 9632 5ebc c4c4 fa3d
00000100: c116 443d 286c 8abe 15b0 8d3d d394 ac3d
00000110: 27de 34bd 13ab 69be 10e2 ccbb c9dc 043e
00000120: e55b 103e 6f30 223e 59b8 883d e0e7 913d
00000130: d370 b63d 5827 5b3e 83b0 753e 8e8e a73d
00000140: 8c1f f23e 0e29 0cbe c5e1 373e 6c9c ef3d
00000150: 2589 083d 49f0 17be c7ed 08bf 5117 11be
00000160: 308d 8a3c eb8d 8bbd 07cb 49bd 02aa a33c
00000170: 88ff f53d 68b7 6b3e c581 dbbe e877 96be
00000180: a227 d5be f9c4 edbe 2f41 5a3d a95a fbbc
00000190: f2fd 593c 6432 4dbe 1262 06be 6ba2 fabd
000001a0: c462 1ebe fbf2 5abc c9f9 013e 7a26 083e
000001b0: e927 60bd 8553 163e 5523 afbe c282 07bf
000001c0: 02fb 48bd 619e 1c3e 443f 5b3d 2a1a 043e
000001d0: ffda 43be c941 953e a266 0bbe 51b9 c03d
000001e0: ef7d 0bbe 5cd8 c83d 759c 18be ba50 babd
000001f0: 7d30 8a3e fe29 c73d 9085 d6bd cc45 a13d
00000200: c211 e2be 7721 173e 6eb0 bfbe 6a58 11be
00000210: c412 09bd 7556 5d3c da34 183e df45 9fbd
00000220: 3393 c5be 2292 153d 93e5 873e 17ca 973d
00000230: e54e 6e3e ca2d dc3d 6899 833d fe19 c4bd
00000240: 61e5 033d df25 26be 7ca8 543e b534 53bf
00000250: 598b 233e 404f 4e3e a67c 6b3e 366e 5bbe
00000260: fe4b 113e 0df9 083b bccf fa3c 62dc 243d
00000270: 06f5 eabb 9208 3c3e 67c7 043e f623 4d3d
00000280: 4b85 2d3e 1f28 483e b389 56bf 0940 853e
00000290: 17ab 183e 4d31 b73d 6887 ec3d b045 8e3d
000002a0: f4a6 523e 3c57 48bf edfe 673e d454 673e
000002b0: a6f2 67bd 84b6 3cbe d9b3 f93e bbb8 13be
000002c0: c995 9a3d 288c 813e 8ca4 133d 3b43 acbd
000002d0: 1ec8 873d 3190 9e3e f959 9ebe 6664 94be
000002e0: b631 2d3e 33a8 823e 7512 84be 66a3 873d
000002f0: 463e 9cbf 7e99 473e dc66 b5bd 036e d43c
00000300: 8d23 0a3e caf1 d6be 379b 093c 4377 cb3d
00000310: 903e 493d aa0d 54bc 5360 2cbd c0a3 f93d
00000320: 04a4 143e 542d b03d 9c55 86bd 3881 47be
00000330: 5d48 133e 1c6e babc 4a38 53bd 7b12 2fbd
00000340: 0003 f3bc ba3d cabb 53ea 37bd fd35 c2bd
00000350: 8b12 583d b23d 12be 838d 383e 3fdd bf3c
00000360: 7ec3 423b c56d 063d 1f34 00bd e4ea f7bd
00000370: acfa 243d 96c6 37be e390 1e3e 0e12 4dbe
00000380: 14e8 baba 7454 e13d 101b c5bd 8bcb 4bbe
00000390: c7c3 953e d6ca dcbe 3c0a 843d 9aff ee3d
000003a0: 0388 1b3e 8c5d 123e 70b7 e8be ab88 18bc
000003b0: 5805 353e 8d22 cebe 14a6 4fbb 2f6e 943d
000003c0: 4cdd 12bf 55ca 13be 79c5 71be c827 b4bd
000003d0: 9fbb e33d 883e 883e 7933 023d 50b3 673e
000003e0: f655 78be d391 43be 180e f23b c11e 433e
000003f0: 52a6 f9bc 6580 3dbc 9b61 21be 460d 09be

fc2.bias f4 [64]
0.08236643 -0.039704405 -0.001270113 0.23610061 0.37870347 -0.017658224 0.258131 0.1324488
0.055355728 0.045834336 0.10630216 -0.07474605 0.17418882 0.13064298 0.049761944 0.3071923
-0.059139825 0.067435764 0.16527654 0.41903725 -0.025326299 0.13745633 0.07654697 0.19178414
-0.086869195 0.21935622 -0.07304846 0.19375627 -0.1444562 -0.23607329 0.108614326 -0.1421202
0.104215465 -0.26831195 0.07794428 0.15234867 -0.19575426 -0.007597595 -0.30363685 0.35325265
0.12143517 0.14801618 0.08284226 0.11518594 0.069736734 0.14965916 0.40411577 0.28410366
0.067165956 -0.06600229 0.169545 0.028472655 0.19275323 0.3925478 0.03491451 0.28698313
-0.09425748 0.4322747 0.284409 0.18951702 0.15634136 0.3130098 -0.09983532 0.16402337
00000000: bbaf a83d 16a1 22bd ec79 a6ba 5cc4 713e
00000010: 6ce5 c13e fba7 90bc bf29 843e a9a0 073e
00000020: b0bc 623d c9bc 3b3d f2b4 d93d 7514 99bd
00000030: 8e5e 323e 46c7 053e 2ed3 4b3d 4f48 9d3e
00000040: 9a3c 72bd c31b 8a3d 413e 293e 0d8c d63e
00000050: 1979 cfbc 5ac1 0c3e a8c4 9c3d 1063 443e
00000060: 7ae8 b1bd eb9e 603e 6e9a 95bd 0b68 463e
00000070: 53ec 13be 32bd 71be 3071 de3d f587 11be
00000080: eb6e d53d 2f60 89be 40a1 9f3d 4a01 1c3e
00000090: ce73 48be 3ff5 f8bb 4a76 9bbe 88dd b43e
000000a0: 01b3 f83d 8e91 173e 34a9 a93d 9be6 eb3d
000000b0: 22d2 8e3d 4040 193e 43e8 ce3e 0976 913e
000000c0: 4e8e 893d 352c 87bd 349d 2d3e 7c3f e93c
000000d0: 1a61 453e 06fc c83e 8402 0f3d 74ef 923e
000000e0: 110a c1bd 1c53 dd3e 0e9e 913e c010 423e
000000f0: f317 203e d242 a03e 7676 ccbd bef5 273e

fc3.weight f4 [2, 64]
2.5820728e-07 -1.2735761e-07 4.230772e-09 -8.576323e-08 1.8540836e-08 -2.43037e-07 -5.3932922e-08 7.235066e-08
1.09704485e-08 -6.218417e-08 7.8774384e-08 -3.0690217e-07 -1.0016997e-07 -3.331289e-07 -2.6698072e-07 -9.3081326e-08
-4.858632e-08 -7.2154776e-08 -1.7584375e-07 3.007095e-09 -2.4556843e-07 -7.410948e-08 -2.3520339e-07 5.827972e-09
1.246928e-07 1.2428235e-07 6.233919e-08 -6.977462e-08 -7.65486e-08 9.1449536e-08 9.265473e-08 6.098726e-07
8.966259e-08 -1.9034353e-08 1.324057e-08 -6.1921597e-09 4.8912927e-09 1.1730518e-07 2.4121198e-07 3.5701596e-08
2.0074589e-07 -4.043104e-08 3.090825e-07 -8.28826e-08 5.8375758e-08 6.828939e-08 8.663779e-08 -6.784351e-08
-2.4552054e-07 -1.8075286e-07 2.9921072e-08 6.5186725e-07 -9.282432e-08 5.2839276e-08 4.0290465e-07 2.8599475e-08
-3.3172793e-07 -3.618853e-08 -2.3535007e-07 -1.08725e-07 -2.0571301e-07 1.2554679e-07 -8.62916e-08 -1.2262997e-08
0.15752664 0.14771938 -0.2575933 0.12474658 0.3658933 0.25456288 -0.87476844 0.20314349
-0.26682678 -0.43994346 0.16158584 -0.11001818 0.49595374 -0.42757204 0.34443036 0.15067059
-0.13695426 -0.18416534 0.0884812 -0.9024476 0.87213266 -0.2559919 0.24530244 0.38441172
-0.29377025 -0.15963149 -0.61137843 -0.42889416 -0.32250887 -0.22563098 -0.19967172 -0.6846305
0.69613624 -0.18577124 -0.36916712 -0.66273534 -0.9321945 -0.31926113 0.6391149 1.4311073
0.056586783 -0.45365244 -0.64343184 0.25444916 0.3355006 0.3631617 -0.7778907 -1.2989372
-0.79391146 0.43777353 -0.35226777 0.124986626 0.27426532 0.52019346 -0.12932754 0.6221875
0.3513466 0.74092096 -0.60552496 0.47996426 -0.24221379 -0.6357266 0.37180862 -1.4786007
00000000: bd9f 8a34 cbbf 08b4 445e 9131 d62c b8b3
00000010: bb43 9f32 c07a 82b4 e0a3 67b3 325f 9b33
00000020: 8b78 3c32 1c8a 85b3 ad2a a933 50c4 a4b4
00000030: 061d d7b3 e3d8 b2b4 8d55 8fb4 00e4 c7b3
00000040: 39ad 50b3 82f3 9ab3 90cf 3cb4 60a5 4e31
00000050: abd6 83b4 1e26 9fb3 378c 7cb4 623f c831
00000060: 4ce3 0534 7972 0534 55df 8533 01d7 95b3
00000070: 0a63 a4b3 ea62 c433 7af9 c633 20b6 2335
00000080: 888c c033 fc80 a3b2 a578 6332 d0c2 d4b1
00000090: 4410 a831 34e9 fb33 ec7f 8134 5256 1933
000000a0: 9c8c 5734 66a6 2db3 faef a534 31fd b1b3
000000b0: d3b8 7a33 7da6 9233 a10d ba33 5db1 91b3
000000c0: 16d0 83b4 f814 42b4 9182 0033 fafb 2e35
000000d0: b656 c7b3 66f1 6233 cb4e d834 e9aa f532
000000e0: 5718 b2b4 b66d 1bb3 89b4 7cb4 337c e9b3
000000f0: f6e1 5cb4 0ace 0634 4f4f b9b3 3bad 52b2
00000100: aa4e 213e c043 173e 45e3 83be 237b ff3d
00000110: 5e56 bb3e 1156 823e d3f0 5fbf d904 503e
00000120: 859d 88be 4540 e1be c276 253e 3651 e1bd
00000130: a6ed fd3e b9ea dabe 2d59 b03e 6449 1a3e
00000140: bd3d 0cbe d795 3cbe a235 b53d ce06 67bf
00000150: 1644 5f3f 5f11 83be 9030 7b3e 9dd1 c43e
00000160: 0e69 96be 7076 23be 4c83 1cbf 0498 dbbe
00000170: e21f a5be cf0b 67be be76 4cbe f243 2fbf
00000180: fc35 323f d13a 3ebe 7903 bdbe 06a9 29bf
00000190: 4ca4 6ebf 3276 a3be 099d 233f 862e b73f
000001a0: 8bc7 673d 2245 e8be f3b7 24bf 2947 823e
000001b0: bcc6 ab3e 55f0 b93e d823 47bf 9343 a6bf
000001c0: c83d 4bbf da23 e03e 715c b4be fdf8 ff3d
000001d0: 816c 8c3e 662b 053f 706e 04be ae47 1f3f
000001e0: b4e3 b33e ffac 3d3f af03 1bbf e0bd f53e
000001f0: e406 78be fabe 22bf b35d be3e ca42 bdbf

fc3.bias f4 [2]
-6.039468e-06 0.047050018
00000000: a3a6 cab6 85b7 403d
