Model/model.pth (torch, 7790 bytes, 7 tensors)

input_weights f4 [5]
0	0x3f800000	1.0
1	0x3f800000	1.0
2	0x3f800000	1.0
3	0x3f800000	1.0
4	0x3f800000	1.0

fc1.weight f4 [32, 5]
0	0x3e974ec2	0.29552275
1	0xbeceb799	-0.4037445
2	0xbeb36922	-0.35041147
3	0xbe9c4be8	-0.30526662
4	0x3f03bf6d	0.5146397
5	0xbf62216e	-0.8833226
6	0x3da4ef09	0.08053405
7	0xbdc90a58	-0.09816426
8	0xbf39da7e	-0.7259902
9	0xbc8aa4d9	-0.016924309
10	0x3f2ac2d9	0.66703564
11	0x3cd47862	0.02593631
12	0x3ebff94f	0.37494895
13	0x3e3e9f3f	0.18615435
14	0xbe519a38	-0.20468986
15	0xbf5be4f1	-0.8589621
16	0x3da42585	0.08014969
17	0x3b910a0f	0.004426248
18	0x3e7e7e5b	0.24852888
19	0xbcdf52c6	-0.02726115
20	0xbdbe023d	-0.09277771
21	0x3d26442f	0.04059237
22	0xbdc3671a	-0.095411494
23	0xbf94dca9	-1.162984
24	0xbf0d387c	-0.55164313
25	0x3fd5f471	1.6715223
26	0xbd18b503	-0.037282
27	0x3e6fcc01	0.23417665
28	0x3e81d249	0.25355747
29	0x3ca7e011	0.020492585
30	0x3e61a049	0.220338
31	0xbe9e613e	-0.30933565
32	0x3eba7652	0.36418396
33	0x3cbcda21	0.02305323
34	0x3eaddaef	0.33956096
35	0xbfa1d090	-1.2641773
36	0x3d83935e	0.064245924
37	0xbebc8134	-0.36817324
38	0x3f31777c	0.69322944
39	0x3ef70f64	0.4825393
40	0xbe01f45c	-0.12690872
41	0xbda76b32	-0.08174743
42	0xbd0ae2f0	-0.03390783
43	0x3f8b36a6	1.0876052
44	0xbdc6bbe7	-0.09703808
45	0x3ff95022	1.947758
46	0xbceeac54	-0.029134907
47	0xbdace468	-0.084420025
48	0xbe305d2c	-0.17223042
49	0x3dc8e83b	0.098099194
50	0x3e914823	0.28375348
51	0x3ed4326a	0.41444713
52	0xbd966ec7	-0.07345348
53	0x3dd9bc40	0.10631609
54	0xbd7a9c28	-0.06118408
55	0xbd062afb	-0.032755833
56	0x3e2c15dd	0.16805215
57	0x3f2d8ef3	0.6779625
58	0x3f3d601d	0.7397478
59	0x3d1340fa	0.03595064
60	0xbef199e4	-0.47187722
61	0xbd9bc331	-0.07605589
62	0x3edf7127	0.43641016
63	0xbefbe76c	-0.49199998
64	0xbe94c8a7	-0.29059336
65	0xbf951eb8	-1.165
66	0x3e5093e1	0.20368911
67	0x3ebecedc	0.37267196
68	0xbd10e228	-0.03537193
69	0xbed14ef0	-0.40880537
70	0xbd56cd7e	-0.052442066
71	0x3ec2baee	0.3803324
72	0x3e2a0d27	0.1660658
73	0x3e816e9e	0.25279707
74	0x3e64626b	0.22303168
75	0xbef2fe57	-0.4745967
76	0x3f2c64c5	0.6734126
77	0x3eec651e	0.46170896
78	0xbe8f1685	-0.2794687
79	0x3e2b8bc0	0.16752529
80	0xbefe2f69	-0.49645546
81	0xbeaf7f6b	-0.342769
82	0x3deecdac	0.116603225
83	0xbe8ba18e	-0.27271694
84	0x3d63cecc	0.05561714
85	0xbfa1f57a	-1.2653039
86	0xbda54f42	-0.08071758
87	0x3e8ae0b7	0.2712457
88	0x3d8d3dce	0.06896554
89	0xbd93827d	-0.07202623
90	0xbe88b7c3	-0.267027
91	0xbd54783a	-0.05187247
92	0xbe46f300	-0.19428635
93	0xbe46ed1e	-0.1942639
94	0x3a8829ac	0.0010388396
95	0x3f18f0c9	0.5974241
96	0xbe164c23	-0.14677481
97	0x3e811db3	0.2521797
98	0xbd067632	-0.032827564
99	0x3ca10356	0.019654911
100	0x3e2beeeb	0.16790359
101	0x3debd599	0.1151535
102	0x3f189458	0.59601355
103	0xbe6a6457	-0.22889839
104	0x3e3f220d	0.18665333
105	0xbfd51eb7	-1.6649998
106	0x3c7938f3	0.015211332
107	0x3d939b9b	0.07207414
108	0xbc7f80cd	-0.015594673
109	0x3d15b735	0.036551673
110	0x3d2cad13	0.042157244
111	0x3be202ae	0.006897292
112	0xbeac9ce8	-0.3371346
113	0x3f11f379	0.57012135
114	0x3e5cd4ee	0.21565601
115	0x3d9cc1b8	0.076541364
116	0xbf1fd8fd	-0.6244047
117	0x3e201e58	0.15636575
118	0xbf1174d5	-0.56818897
119	0xbe8bbc8e	-0.27292293
120	0xbbb707f5	-0.0055856653
121	0x3d49f8db	0.049309593
122	0x3e265a02	0.16245273
123	0xbe9501c3	-0.29102907
124	0xbec188b2	-0.37799603
125	0x3de0146f	0.109413974
126	0x3d5521cd	0.052034188
127	0x3edae919	0.42755964
128	0xbea9e871	-0.3318515
129	0x3d0b5b18	0.03402242
130	0xbf76880d	-0.96301347
131	0xbdedc958	-0.11610669
132	0xbf5dc33d	-0.86626035
133	0xbd0b0db6	-0.033948623
134	0xbeb6b047	-0.35681364
135	0xbd96f063	-0.07370069
136	0x3e63cd53	0.22246294
137	0xbef05559	-0.46940115
138	0xbc3d78de	-0.0115644615
139	0x3d6628df	0.05619132
140	0xbd89029a	-0.06689949
141	0x3da74293	0.08166995
142	0x3e688f6f	0.22710966
143	0x3f97ea13	1.1868309
144	0xbea7a0d2	-0.32739884
145	0xbf8ac005	-1.083985
146	0x3cc85d98	0.024458691
147	0xbd033cdf	-0.032040473
148	0x3e249304	0.16071707
149	0x3c9125fc	0.017718308
150	0x3f473390	0.77813053
151	0x3d02d5db	0.03194223
152	0x3e1603c7	0.14649878
153	0x3f14870e	0.5801858
154	0x3d825eed	0.06365762
155	0xbeb00c1e	-0.34384245
156	0xbb8938c9	-0.0041876775
157	0x3e1c816b	0.15283744
158	0x3efcad77	0.49351093
159	0x3d046262	0.032320388

fc1.bias f4 [32]
0	0xbf3c09f8	-0.7345271
1	0xbeeb3664	-0.45939934
2	0x3ef11990	0.47089815
3	0x3ef39615	0.4757544
4	0xc0385393	-2.880101
5	0xbfdafb5e	-1.7107961
6	0xbe0a5c04	-0.13511664
7	0xbf5ffd47	-0.87495846
8	0xbbec396d	-0.007208994
9	0x3efb2aa4	0.4905597
10	0x3e8f7a6c	0.28023088
11	0xbf110119	-0.566423
12	0x3e740f87	0.23834048
13	0xbf9a44e2	-1.2052271
14	0x3edc5c6a	0.43039256
15	0xbf950e43	-1.1644977
16	0x3ed8169f	0.4220476
17	0xbebe1acb	-0.37129816
18	0x3edf31f7	0.43592808
19	0x3e8ee8a4	0.27911866
20	0x3bff793f	0.007796436
21	0xbede0d76	-0.43369645
22	0x3f533089	0.82495934
23	0xbf1899b4	-0.5960953
24	0x3ee073bb	0.43838295
25	0x3ea924db	0.3303593
26	0xbfa48452	-1.2852881
27	0x3d018d98	0.031629175
28	0xbf3a2f2b	-0.7272822
29	0x3f75559e	0.95833766
30	0x3ea90ff3	0.3301998
31	0x3f45519f	0.7707767

fc2.weight f4 [32, 32]
0	0xbf18f019	-0.5974136
1	0x3e98a88c	0.2981609
2	0xbf60fe73	-0.8788826
3	0x3f0330c8	0.5124631
4	0x3dab52a2	0.0836537
5	0xbf78ecdc	-0.9723642
6	0xbde84ea3	-0.11343124
7	0x3f4f86ce	0.8106507
8	0x3f01224b	0.5044295
9	0x3b0860df	0.0020809693
10	0x3eb8a974	0.36066782
11	0xbea289df	-0.31745812
12	0x3f2fecd2	0.68720734
13	0x3ee24be1	0.44198516
14	0x3eca8792	0.39556557
15	0xbf2e2e9d	-0.68039876
16	0x3f2096ba	0.6272999
17	0x3dcb1ac9	0.09917218
18	0xb9b8ab81	-0.00035222995
19	0xbe3866fb	-0.18008034
20	0x3ddac42e	0.106819496
21	0x3e73a280	0.23792458
22	0xbea13885	-0.31488433
23	0x3f210c99	0.6290985
24	0x3f07916c	0.5295627
25	0xbd9d26ae	-0.07673393
26	0xbf1f28c4	-0.6217158
27	0xbf252876	-0.64514863
28	0xbeec93e4	-0.46206582
29	0xbe2b616f	-0.16736387
30	0x3eaf88bc	0.34284008
31	0xbea5bd97	-0.32371208
32	0x3cb2a000	0.02180481
33	0x3ea34fa4	0.31896698
34	0x3ddc6514	0.107614666
35	0xbe21b7b5	-0.15792735
36	0xbe87ad98	-0.2649963
37	0x3dd207d5	0.102554
38	0x3f1a0acf	0.6017274
39	0xbd1fdbe5	-0.039028067
40	0x3e93a190	0.288342
41	0x3e89d00a	0.26916534
42	0x3d0c29e7	0.03421965
43	0x3f2b36cc	0.6688049
44	0xbf763912	-0.9618083
45	0x3dc39ae3	0.09551027
46	0xbe823837	-0.25433514
47	0xbdcd489b	-0.10023614
48	0xbf08e7b5	-0.53478557
49	0xc00bf159	-2.1866057
50	0x3ea91113	0.3302084
51	0x3f0fefec	0.56225467
52	0xbeb4a2c6	-0.35280436
53	0x3f21b85a	0.63171923
54	0xbdcf1460	-0.10111308
55	0xbe99b9f4	-0.30024683
56	0x3f3e1726	0.7425407
57	0xbf5f356e	-0.871909
58	0x3eae48f2	0.34040028
59	0x3e7c269e	0.24624106
60	0x3eaacf56	0.3336131
61	0xbdd4117e	-0.10354899
62	0x3f174b30	0.590991
63	0x3e04ca81	0.12967874
64	0x3e73dc48	0.238145
65	0x3eb02154	0.34400427
66	0xbcc05af1	-0.023480864
67	0xbd0889fa	-0.03333471
68	0x3f1bfb6b	0.6093051
69	0xbf9063a6	-1.128041
70	0xbeecf519	-0.46280745
71	0xc0389a0a	-2.8844018
72	0xbdeb41d0	-0.11487162
73	0x3e3287a9	0.17434563
74	0xbe01a842	-0.12661842
75	0x3ecddc5d	0.40207186
76	0x3da1e4ad	0.079049446
77	0xbc78e08a	-0.015190253
78	0xbdbd8f15	-0.09255806
79	0x3e725d07	0.236683
80	0x3f33f703	0.70298785
81	0x3f13a6d5	0.5767644
82	0xbdfa5ca3	-0.122247
83	0xbf250890	-0.6446619
84	0xbe549922	-0.2076154
85	0xbf18b645	-0.5965312
86	0x3ad07fe7	0.0015907258
87	0x3e17fff2	0.14843729
88	0x3dacfb35	0.084463514
89	0x3c6fabbe	0.014628349
90	0xbc08b557	-0.008344016
91	0xbe3fd17e	-0.18732259
92	0xbe514973	-0.20438175
93	0xbf5d9db4	-0.8656876
94	0x3e871b08	0.2638781
95	0x3f3097fe	0.6898192
96	0xbed4c7fd	-0.4155883
97	0x3de15880	0.11003208
98	0xbea64ce9	-0.32480553
99	0x3f014b9f	0.50506014
100	0xbff07bed	-1.8787819
101	0xbecc52ef	-0.39907023
102	0x3d85d3c2	0.0653453
103	0xbf5753d4	-0.84112287
104	0x3eaa11b5	0.33216634
105	0xc0695555	-3.6458333
106	0xbecf089b	-0.40436253
107	0xbd314ca0	-0.043285966
108	0x3db40454	0.08789888
109	0xbef70d2f	-0.48252246
110	0x3ef320fc	0.47486103
111	0xbe3bb757	-0.18331657
112	0xbeebf4a8	-0.46085095
113	0xbe7336ae	-0.23751327
114	0xbe63bec5	-0.22240742
115	0xbef87a87	-0.4853098
116	0x3d95e275	0.07318584
117	0x3cecab94	0.028890409
118	0x3de68c7d	0.11257265
119	0x3e7c1c40	0.24620152
120	0x3eff42b5	0.4985558
121	0xbe2a0191	-0.1660216
122	0xbf24f4df	-0.64436144
123	0x3ebe4bda	0.37167245
124	0xbedc164c	-0.4298576
125	0x3eb79eda	0.35863382
126	0x3f02b8d8	0.510633
127	0x3d04905c	0.032364234
128	0xbf4ab1b5	-0.7917741
129	0x3e9b5cc9	0.30344227
130	0xbd4e9d51	-0.050442997
131	0xbea337b5	-0.3187844
132	0x4015eb1c	2.342475
133	0xbfdc0d93	-1.7191643
134	0xbdf7a04d	-0.12091122
135	0xbfa9aedc	-1.3256488
136	0xbe095786	-0.13412294
137	0xbe5f97c9	-0.21835245
138	0x3e9e7351	0.30947354
139	0xbe328e58	-0.17437112
140	0xbd6ccabc	-0.05781053
141	0x3e677f3c	0.2260713
142	0xbd7e0f50	-0.062026322
143	0xbee58885	-0.4483072
144	0x3e5066a5	0.20351656
145	0xbf1030e3	-0.56324595
146	0x3eab2361	0.3342543
147	0x3ef5dcd3	0.48020038
148	0x3e9fc1b7	0.3120248
149	0xbf4248a3	-0.75892085
150	0xbeacbff0	-0.33740187
151	0x3d35a58d	0.044347335
152	0x3e196a49	0.14981951
153	0xbefc1e7b	-0.49242005
154	0x3dcfc102	0.10144235
155	0x3d426f7d	0.047469605
156	0xbe62bd17	-0.22142445
157	0xbe51724e	-0.2045376
158	0x3d32de4f	0.04366904
159	0x3f0c28ec	0.5474994
160	0x3e6d4f11	0.23174693
161	0x3f49162d	0.7854946
162	0x3e99f740	0.3007145
163	0xbe825acc	-0.25459898
164	0xc012718e	-2.2881808
165	0xbf24b63c	-0.6434057
166	0xbe786f6f	-0.24261259
167	0xbd936a65	-0.071980275
168	0x3df728f7	0.1206836
169	0xbf70125d	-0.9377802
170	0x3ea3a970	0.31965208
171	0xbe42b8c2	-0.19015792
172	0xbea0e379	-0.31423548
173	0x3e080698	0.13283765
174	0x3d36adb0	0.044599235
175	0xbebff6d3	-0.37493
176	0xbea71a32	-0.32637173
177	0xbe3d00ac	-0.18457288
178	0x3f32e9e9	0.6988817
179	0x3f4a00ab	0.7890727
180	0x3d2b2989	0.041787658
181	0xbd042267	-0.03225937
182	0x3d7cfcbc	0.061764464
183	0xbf887319	-1.0660125
184	0x3d0ab052	0.03385956
185	0x3e9bc766	0.30425566
186	0x3dc9d8b3	0.09855785
187	0x3ea6e330	0.32595205
188	0xbe8cc443	-0.27493486
189	0x3effc5c4	0.4995557
190	0xbe9c9bc9	-0.30587605
191	0xbe6e7b63	-0.23289256
192	0x3e8a0018	0.26953197
193	0xbe1dc1de	-0.15405986
194	0xbd339566	-0.04384365
195	0x3e96dd7f	0.29465863
196	0x3fb16bde	1.3861043
197	0xbe76b28f	-0.24091552
198	0x3ee4dfc8	0.44701982
199	0xbeab20ff	-0.33423612
200	0xbd256143	-0.04037596
201	0xbe57bc94	-0.2106803
202	0xbeaae1fc	-0.33375537
203	0xbeab8968	-0.3350327
204	0x3eb92f50	0.3616891
205	0xbe69a373	-0.22816257
206	0x3d971cda	0.0737855
207	0xbf2de23c	-0.6792333
208	0xbeae7171	-0.34070924
209	0xbe4badc2	-0.19890502
210	0x3e577b64	0.21043164
211	0xbccf9c9d	-0.025343234
212	0xbeee3e74	-0.46532023
213	0xbea32764	-0.3186599
214	0x3d451221	0.048112992
215	0xbe69c529	-0.22829117
216	0x3ebb0d72	0.36533695
217	0x3e9ad2f4	0.3023907
218	0xbfca9d93	-1.5829338
219	0xbecbe612	-0.39823967
220	0x3f42fb79	0.76164967
221	0x3da6c323	0.08142688
222	0xbd1220e9	-0.035675917
223	0xbec2b54b	-0.3802894
224	0xbddd78d5	-0.108140625
225	0xbe703e5f	-0.23461293
226	0x3e3e0dce	0.18559954
227	0xbfc3c976	-1.5295856
228	0x3f18005e	0.5937556
229	0x3fd02a5f	1.6262931
230	0xbf3ead25	-0.7448295
231	0x3eb52af3	0.3538433
232	0x3f0eacce	0.5573243
233	0xbe96bcce	-0.29440922
234	0xbe8b196e	-0.2716784
235	0xbe34c684	-0.17653853
236	0x3eb1d2d2	0.34731156
237	0x3fd7213b	1.6807016
238	0x3fbcc8d0	1.4748783
239	0xbf30db8f	-0.6908502
240	0x3e13e22b	0.14441745
241	0xbf4366bb	-0.7632863
242	0x3deceec5	0.11568979
243	0xbecd5a47	-0.4010794
244	0x3e76cf2b	0.24102466
245	0x3f36ceaa	0.71409094
246	0xbf0d3348	-0.55156374
247	0x3e2b47cd	0.16726609
248	0xbeb06e8a	-0.34459335
249	0x3d96879b	0.073500834
250	0xbd4d772f	-0.05016249
251	0x3eaf9e62	0.34300524
252	0x3f007b2c	0.50187945
253	0xbf23424f	-0.63773054
254	0xc0502b64	-3.2526484
255	0xbfd34a26	-1.6507003

fc2.bias f4 [32]
0	0xbd725805	-0.059165973
1	0xbe9f1890	-0.31073427
2	0x3e0ae53f	0.13564013
3	0x3edf0a58	0.4356258
4	0xb87faf54	-6.0960025e-05
5	0x3f19423e	0.598667
6	0xbca54fe7	-0.020179702
7	0x3f8b8049	1.0898525
8	0x3eae17da	0.34002572
9	0x3e394221	0.18091632
10	0xbef344b6	-0.4751336
11	0x3efbf23d	0.4920825
12	0x3f246b76	0.6422647
13	0x3ed6fe85	0.41991058
14	0xbe4cfd41	-0.20018484
15	0x3f22ffe3	0.636717
16	0x3ea0f985	0.31440368
17	0x3e81e0e2	0.25366884
18	0xbf549eef	-0.83055013
19	0x3f06d047	0.52661556
20	0x3f3d1e12	0.7387401
21	0x3ea3ba78	0.31978202
22	0x3e8c96bf	0.2745876
23	0x3ead0ac5	0.3379728
24	0x3d708f4f	0.05873042
25	0xbd7274ca	-0.05919341
26	0x3cc9d000	0.024635315
27	0xbe530c64	-0.20610195
28	0x3e9a7226	0.30165213
29	0x3f21e5c1	0.632412
30	0x3e1dde07	0.15416728
31	0x3f6bb848	0.92078066

fc3.weight f4 [2, 32]
0	0xbf2950f7	-0.6613917
1	0x3e93985d	0.2882718
2	0x3f05312f	0.52028173
3	0x3b9a20fc	0.004703639
4	0x3f87959f	1.0592536
5	0xbf664daf	-0.89962286
6	0x3edc36f0	0.43010664
7	0xc026c526	-2.605783
8	0x3d9fde13	0.07806029
9	0xbbccb7c0	-0.0062474906
10	0xbe319b5f	-0.17344426
11	0xbf1fdeb9	-0.6244922
12	0x3d086c54	0.033306435
13	0x3f39c8bb	0.72571915
14	0x3f27394e	0.65321815
15	0xbf21b1a8	-0.63161707
16	0xbe57a80a	-0.21060196
17	0x3e1101ae	0.14160797
18	0x3ed43d1f	0.41452882
19	0x3f2cdb20	0.6752186
20	0x3e51bb72	0.20481661
21	0x3e70bfd6	0.2351068
22	0xbcc77322	-0.024346892
23	0x3e134702	0.14382556
24	0xbe5e1d4e	-0.21690866
25	0x3ede30f4	0.43396723
26	0x3ef0565d	0.4694089
27	0xbe70e1d4	-0.23523647
28	0xbe90bf3b	-0.28270897
29	0xbea424d9	-0.32059363
30	0x3ec2e949	0.38068607
31	0xbe949862	-0.2902251
32	0x3ddd88eb	0.10817131
33	0x3f024151	0.50880915
34	0xbed6a8b7	-0.41925594
35	0xbf702fb3	-0.93822783
36	0x3f8ea4e2	1.1144068
37	0xbdc22fec	-0.094817966
38	0x3eb0811c	0.34473503
39	0x3ce72259	0.02821462
40	0x3edc31bf	0.43006703
41	0xbf03e1b8	-0.51516294
42	0xbedaa323	-0.42702588
43	0x3e28e2f2	0.16492823
44	0xbf8dac79	-1.106826
45	0x3e9e7145	0.30945793
46	0xbed6e20a	-0.4196933
47	0x3c25ad37	0.010112098
48	0x3eb9761e	0.3622293
49	0xbf0e5e4e	-0.5561265
50	0xbfa63889	-1.2986003
51	0x3e81ca90	0.25349855
52	0xbf6c903c	-0.92407584
53	0xbf61a79b	-0.8814637
54	0x3ef7aba9	0.48373154
55	0x3f3f9108	0.74830675
56	0x3e9b503b	0.30334648
57	0xbe2f2329	-0.17103256
58	0xbe512d32	-0.20427397
59	0xbe78299b	-0.24234621
60	0xbf092cd6	-0.5358404
61	0x3f9f8a76	1.246413
62	0xba016823	-0.0004936477
63	0xbfe0d174	-1.756392

fc3.bias f4 [2]
0	0xbe3e1098	-0.18561018
1	0xbe8165a4	-0.25272858
