Model/model.pth (torch, 7918 bytes, 7 tensors)

input_weights f4 [6]
0	0x3f000000	0.5
1	0x3fc00000	1.5
2	0x3f800000	1.0
3	0x40000000	2.0
4	0x3fc00000	1.5
5	0x3e99999a	0.3

fc1.weight f4 [32, 6]
0	0xbe22a255	-0.15882237
1	0x3ec80ece	0.39073795
2	0x3ea8e7df	0.32989404
3	0xbd553e8d	-0.052061606
4	0x3e034238	0.12818229
5	0x3d83578a	0.06413181
6	0x3ddf5336	0.10904543
7	0x3e4b026e	0.19825146
8	0xbee85418	-0.45376658
9	0x3e4e2a7a	0.20133391
10	0x3e7249be	0.23660943
11	0xbfe16e0c	-1.7611709
12	0x3e5f9182	0.2183285
13	0xbf0964ec	-0.5366962
14	0xbe788ee9	-0.24273266
15	0x3eae9528	0.34098172
16	0x3e7febde	0.2499232
17	0x3f4c2669	0.7974611
18	0xbe682cd2	-0.22673348
19	0xbe165e04	-0.14684302
20	0x3edaf749	0.4276679
21	0xbd37446e	-0.044742994
22	0xbe35855e	-0.17726657
23	0xbf869683	-1.0514683
24	0x402d4fff	2.7080076
25	0x3c4a4fb0	0.012348101
26	0x3e15bffb	0.14624016
27	0x3d5ac044	0.053406015
28	0x3bbe6a6a	0.0058110254
29	0x3e878e9f	0.26476
30	0x3ead0a85	0.33797088
31	0x3ed81f36	0.42211312
32	0xbe420907	-0.18948756
33	0xbeaa8726	-0.33306235
34	0xbdedf3d7	-0.116187744
35	0x3f73b624	0.951998
36	0x3f67af95	0.9050229
37	0x3d9cef49	0.076628275
38	0x3e9c25f9	0.3049772
39	0x3ef92223	0.48658857
40	0x3a90254c	0.0010997443
41	0xbf2c638d	-0.673394
42	0xc0071698	-2.110754
43	0x3bc0ca54	0.0058834944
44	0xbd05598e	-0.03255611
45	0x3cafe399	0.021470832
46	0x3ba83d8c	0.00513429
47	0x3ebf1441	0.3732014
48	0xbcd54ba9	-0.026037054
49	0x3dfadf58	0.12249631
50	0x3f36e2eb	0.7144
51	0x3dca0ea0	0.09866071
52	0x3d5d6927	0.05405536
53	0x3f9b4799	1.2131225
54	0xbe80cfb8	-0.25158477
55	0x3e57178f	0.2100508
56	0x3d5f63b9	0.054538462
57	0xbdfc2541	-0.12311793
58	0xbe64ecac	-0.22355908
59	0xbf5299f0	-0.8226614
60	0x3f514a11	0.8175364
61	0xbd1e4e25	-0.038648743
62	0xbe54dac1	-0.20786573
63	0x3e9f4445	0.31106773
64	0xbdd0c801	-0.10194398
65	0xbf82ca3b	-1.0217966
66	0xbca95ffc	-0.020675652
67	0x3d2f5f5e	0.04281556
68	0x3d9d60f1	0.07684506
69	0x3dd5db28	0.10442191
70	0x3c9ae2dc	0.018907003
71	0x3ffb08dd	1.961208
72	0x3f7dfd1c	0.9921434
73	0x3eed5ec6	0.4636137
74	0xbebc9ddb	-0.36839184
75	0xbcd4dfda	-0.025985647
76	0xbe83b900	-0.2572708
77	0xbeb72049	-0.3576682
78	0xbf69a9d2	-0.9127475
79	0x3daa0dc5	0.083034076
80	0xbda6b62f	-0.081402175
81	0x3e9b74c8	0.30362535
82	0x3e3459f5	0.17612441
83	0x3ed64a07	0.41853353
84	0xbfb40ed4	-1.4067025
85	0x3daec21d	0.08533118
86	0x3f6299f1	0.88516146
87	0x3dc04785	0.09388641
88	0xbd005b41	-0.031337027
89	0xbf91cc9b	-1.1390566
90	0xbccd76f1	-0.02508113
91	0xbd2859aa	-0.041101135
92	0xbf41538b	-0.755181
93	0xbe595f92	-0.21227863
94	0x3d5f9d85	0.05459358
95	0xbe897a71	-0.26851228
96	0xbecf70f2	-0.40515858
97	0xbde1e41e	-0.11029838
98	0x3dba7776	0.091048166
99	0xbe64653f	-0.22304247
100	0x3e43b917	0.19113575
101	0x3fae3101	1.3608705
102	0xbe0b1233	-0.13581161
103	0xbce20663	-0.027590936
104	0xbdbec813	-0.09315505
105	0x3dd991ca	0.1062351
106	0xbe617c64	-0.22020108
107	0x3e04b0e8	0.1295811
108	0xbf2153ad	-0.63018304
109	0x3dd44fce	0.10366784
110	0x3da6ae0f	0.08138668
111	0x3edae16c	0.42750108
112	0xbe12e85f	-0.14346455
113	0x3f1a8a49	0.60367256
114	0xbef5b0a9	-0.47986344
115	0xbd2fc214	-0.042909697
116	0x3e1cf6c4	0.15328509
117	0x3e0b93d0	0.13630605
118	0x3d732c59	0.059368465
119	0xbfaec228	-1.3653002
120	0xbf0bccd4	-0.5460942
121	0x3dbc010c	0.09179887
122	0xbf29238b	-0.6606986
123	0x3e707a11	0.23484065
124	0x3eb56b5a	0.35433465
125	0x4021750d	2.5227692
126	0x3f2c40eb	0.67286557
127	0xbe5bfdad	-0.21483488
128	0xbf1057e1	-0.5638409
129	0xbe6c1cab	-0.23057811
130	0xbda208ca	-0.07911833
131	0x3eab387e	0.33441538
132	0xbdbbe020	-0.09173608
133	0xbedc0eb0	-0.42979956
134	0x3e23cf3a	0.1599702
135	0xbe96f989	-0.29487255
136	0xbdc2247d	-0.09479616
137	0x3f3f0668	0.7461915
138	0xc029bb68	-2.6520634
139	0x3b4f3a34	0.0031620385
140	0x3d5811e4	0.052751437
141	0x3ca6034a	0.02026524
142	0xbc3634b6	-0.011120966
143	0xbe2fdeee	-0.17174885
144	0xbd3b3704	-0.045706764
145	0xbb7f83bc	-0.0038988432
146	0x3e8b2055	0.27173105
147	0xbf2b9476	-0.6702341
148	0xbeda10b0	-0.42590857
149	0x3efe7946	0.497019
150	0xc01ee471	-2.482693
151	0xbbcdf21d	-0.0062849657
152	0xbdad6c0c	-0.08467874
153	0x3cbe862e	0.023257341
154	0x3b93d5c3	0.0045115664
155	0x3e10407c	0.14087099
156	0xbeb03a44	-0.34419453
157	0x3e45a409	0.19300856
158	0x3ce1485f	0.02750033
159	0x3e4fa2d7	0.20276962
160	0xbd287bb4	-0.041133597
161	0xbfa4cbe6	-1.2874725
162	0x3de05f22	0.10955645
163	0x3d5de122	0.05416978
164	0xbec6b103	-0.38806924
165	0x3e87d120	0.26526737
166	0xbd8dcac0	-0.06923437
167	0xbf7f6b79	-0.99773365
168	0xbf3c40e6	-0.7353653
169	0xbd912faa	-0.07089169
170	0x3e7c04c8	0.24611199
171	0x3dbe479a	0.09291001
172	0x3d6b2be6	0.05741491
173	0x3fa63919	1.2986175
174	0x3c60c3fb	0.0137186
175	0x3ca2b72e	0.019862738
176	0x3f6e2aab	0.93033856
177	0xbeaa0dd9	-0.3321369
178	0xbd29c213	-0.04144485
179	0x3ed9fd2e	0.42575973
180	0xbe681f00	-0.22668076
181	0x3e04fa47	0.12986098
182	0xbe4a9058	-0.19781625
183	0x3e35ca69	0.17752995
184	0x3d70ed31	0.058819953
185	0x3fff209e	1.9931829
186	0x3fd622af	1.6729335
187	0xbdbe7429	-0.092994995
188	0x3d3b7cd7	0.045773353
189	0x3ea67ccf	0.32517096
190	0x3dca7cc1	0.09887076
191	0xbdd65e60	-0.10467219

fc1.bias f4 [32]
0	0xbf330b2d	-0.6993893
1	0x3e857c42	0.26071364
2	0xbe5af648	-0.21383011
3	0x3eec3f35	0.46141973
4	0xbf9ebeba	-1.2401955
5	0xbf6f8e79	-0.9357677
6	0xbdedcfbe	-0.11611889
7	0x3f30bc84	0.6903765
8	0x3ee307bd	0.4434184
9	0x3f8fa3ce	1.1221864
10	0xbe67ae07	-0.2262498
11	0xbe8e21e3	-0.2776023
12	0xbee583c6	-0.44827098
13	0x3e7eb73d	0.24874587
14	0xbf043ff7	-0.516601
15	0xbf733593	-0.9500362
16	0xbef9fc7f	-0.48825452
17	0x3e82f93f	0.25580785
18	0x3dc27ddc	0.09496662
19	0x3f5f5bfb	0.87249726
20	0xbea2c758	-0.31792712
21	0xbf4c6c33	-0.798526
22	0xbef061f2	-0.46949726
23	0xbecf004c	-0.40429914
24	0xc0172f0a	-2.362246
25	0x3e942354	0.28933203
26	0x3de1004c	0.10986385
27	0x3c85a892	0.016315732
28	0x3e21dfbe	0.15808007
29	0xbfb63729	-1.4235584
30	0x3f4b8e37	0.7951388
31	0x3f4fb88d	0.8114098

fc2.weight f4 [32, 32]
0	0x3ec09386	0.3761255
1	0xbeff7f60	-0.49901867
2	0xbe5e5bf6	-0.21714768
3	0x3ea3502c	0.31897104
4	0xbdf9e5e5	-0.12202052
5	0x3f499349	0.78740364
6	0x3f19e101	0.60108954
7	0x3eacaf0b	0.33727297
8	0xbd3a7f05	-0.04553129
9	0xbcf8aeaf	-0.030356733
10	0xbf884ad6	-1.0647838
11	0x3d2d537f	0.042315956
12	0xbd6d58c2	-0.057945974
13	0x3e2c4e73	0.16826801
14	0x3da55b40	0.08074045
15	0x3ee328b5	0.44366995
16	0x3ea84436	0.3286454
17	0x3e3839cb	0.17990796
18	0xbdde3e30	-0.10851705
19	0xbe86c451	-0.26321653
20	0x3f22ad5f	0.63545793
21	0x3e6e1e05	0.23253639
22	0xbd7b5126	-0.061356686
23	0xbdda8162	-0.10669209
24	0xbd915cf2	-0.07097806
25	0xbe961aab	-0.2931722
26	0x3cdc24c5	0.026873002
27	0x3f127bc7	0.5722012
28	0x3e19db14	0.15024978
29	0xbee4c83e	-0.44684023
30	0xc01f8f94	-2.4931383
31	0xbef08d06	-0.46982592
32	0xbe2d010a	-0.16894928
33	0xbec1d301	-0.37856296
34	0x3e8b3b33	0.27193603
35	0xbf10bfcc	-0.5654266
36	0x3e88c5f3	0.26713523
37	0x3d98a799	0.07453842
38	0xbe1adb90	-0.15122819
39	0x3d20c0bd	0.03924631
40	0x3d08bf3e	0.033385508
41	0x3f26afcc	0.65111995
42	0xbec0b237	-0.37635967
43	0xbe63509a	-0.22198716
44	0x3e6a4b77	0.2288035
45	0x3f6619df	0.89883226
46	0x3d5e16dd	0.054221023
47	0xbe7a5206	-0.24445352
48	0xbe94fba4	-0.29098237
49	0x3e5c44a9	0.21510567
50	0x3f112622	0.5669881
51	0xbe0e64b1	-0.13905598
52	0xbf4679cb	-0.7752959
53	0x3d323c3e	0.043514483
54	0xbc4b1620	-0.012395412
55	0xbee840ad	-0.45361844
56	0xbdfefba6	-0.12450342
57	0x3e8b683c	0.27227962
58	0x3e1da328	0.1539427
59	0xbe0d625b	-0.13807051
60	0x3e22de68	0.15905154
61	0xbe377f01	-0.17919542
62	0x3e8fea7d	0.28108588
63	0x3e9854e7	0.29752275
64	0xbec79e6e	-0.3898806
65	0x3d46d35e	0.04854142
66	0xbeac5fd5	-0.33666864
67	0xbd90cdb2	-0.07070483
68	0xbedb1546	-0.42789668
69	0x3d996f27	0.07491904
70	0x3f8b259c	1.0870852
71	0x3edd42a9	0.4321492
72	0x3ec04df3	0.3755947
73	0xbd39b32b	-0.045336884
74	0xbf89438e	-1.0723741
75	0xbe4f214d	-0.20227547
76	0xbd94fc4d	-0.07274685
77	0xbd16b4a5	-0.03679337
78	0xbf1bbc0e	-0.60833824
79	0x3daa886d	0.083268024
80	0xbe8b33c8	-0.27187943
81	0xbe1ee87a	-0.1551837
82	0x3eacd189	0.33753613
83	0xbed66fa6	-0.41882056
84	0x3e9e0348	0.30861878
85	0xbe4add99	-0.19811095
86	0x3ec18b6f	0.37801692
87	0x3eff0862	0.49811083
88	0xbf22d2b7	-0.63602775
89	0xbf0d066b	-0.5508792
90	0x3e69d0e1	0.22833587
91	0x3e38984f	0.18026851
92	0x3dbee2c6	0.09320597
93	0x3f558800	0.83410645
94	0xbe908fb5	-0.2823464
95	0xbeb5370a	-0.35393554
96	0xbe482809	-0.19546522
97	0x3b197497	0.002341544
98	0x3d963a3d	0.07335327
99	0x3e8bc128	0.27295804
100	0xc00e1a57	-2.2203577
101	0x3dcebfcb	0.10095175
102	0x3e876dda	0.26450998
103	0xbea43f15	-0.32079378
104	0x3e98051b	0.29691395
105	0x3e52fca4	0.20604187
106	0x3d381bcb	0.04494838
107	0x3ecdef0e	0.40221447
108	0x3cc8bd99	0.02450447
109	0x3d6c6d6b	0.057721537
110	0xbe3be1a2	-0.18347791
111	0xbe8459b3	-0.25849685
112	0xbe40729c	-0.1879372
113	0xbe85957f	-0.2609062
114	0x3b6fbda4	0.003658154
115	0x3ece95c5	0.4034864
116	0xbe37c7f3	-0.17947368
117	0x3da21511	0.07914174
118	0xbea78a4d	-0.32722703
119	0x3efe3aa8	0.49654126
120	0xbf38eab3	-0.7223312
121	0xbf5c5317	-0.86064285
122	0xbe6b7138	-0.22992408
123	0xbe1dbbfd	-0.15403743
124	0x3dff6e42	0.12472202
125	0x3ec7fd8f	0.39060637
126	0x3e91f8b3	0.28510055
127	0xbc0abb04	-0.00846744
128	0xbeb024a0	-0.34402943
129	0xbccc94e8	-0.024973348
130	0x3d5e8b33	0.05433197
131	0xbe2a270f	-0.16616462
132	0xc006a3c9	-2.1037467
133	0xbf145065	-0.5793517
134	0xbd1b4b8e	-0.03791385
135	0xbc51b73e	-0.012800036
136	0x3e65a09d	0.2242455
137	0x3d41449d	0.047184575
138	0xba3ced2d	-0.0007206973
139	0x3d0bb893	0.03411157
140	0x3de13387	0.10996156
141	0x3ddc73ec	0.10764298
142	0xbe9f9838	-0.3117082
143	0x3e2aeaf9	0.16691197
144	0x3e929a3f	0.28633305
145	0x3e965f51	0.29369596
146	0xbc9a6393	-0.018846309
147	0x3e6c3fbf	0.23071192
148	0xbdc577bd	-0.09641979
149	0x3e0744ef	0.1320989
150	0x3e093d7a	0.13402358
151	0xbf1efee9	-0.6210771
152	0xc02dc23e	-2.7149806
153	0x3b525d09	0.003209891
154	0xbe7fdb05	-0.24985893
155	0xbe818946	-0.25300044
156	0xbde49a35	-0.11162225
157	0x3e9c4fd9	0.3052967
158	0x3e601855	0.21884282
159	0x3e157d3d	0.14598556
160	0xbdb11b60	-0.086477995
161	0x3c2c0985	0.0105003165
162	0x3d15a82d	0.036537338
163	0x3d050762	0.032477744
164	0xbf28a001	-0.65869147
165	0xbe0efd53	-0.13963823
166	0x3c7f0220	0.0155644715
167	0xbf7952ff	-0.97392267
168	0xbdaf409b	-0.085572444
169	0x3e8f54d9	0.2799442
170	0x3e51604e	0.20446894
171	0x3e10cecc	0.14141387
172	0x3cdcdbe9	0.02696033
173	0x3e342efd	0.1759605
174	0x3dffdbe3	0.12493112
175	0xbdf96f7e	-0.121794686
176	0xbd8f9ca3	-0.07012298
177	0xbe3bb511	-0.1833079
178	0xbda75883	-0.08171179
179	0xbe528072	-0.2055681
180	0xbdb134b0	-0.086526275
181	0xbde64d58	-0.11245221
182	0x3c014116	0.007889053
183	0xbea24192	-0.3169065
184	0xbe1c6c9c	-0.15275806
185	0x3faef736	1.3669193
186	0xbddaecb2	-0.10689677
187	0xbe5b5e1d	-0.2142262
188	0x3d33194b	0.043725293
189	0x3cfd3f99	0.030914115
190	0xbdb98e4c	-0.09060344
191	0x3e873c2d	0.26413098
192	0x3e2a320e	0.16620657
193	0xbde58e2a	-0.11208756
194	0xbe09364b	-0.13399617
195	0xbdf35447	-0.11881309
196	0x3f02cd58	0.5109458
197	0x3eb16ce8	0.346534
198	0xbebc1830	-0.36737204
199	0x3f0e884d	0.5567673
200	0xbdf403c0	-0.11914778
201	0x3db0a4b5	0.086251654
202	0xbe57ef85	-0.21087463
203	0xbe0e7b29	-0.1391417
204	0xbea03644	-0.312914
205	0xbde2063c	-0.11036345
206	0xbd9d49d4	-0.07680097
207	0x3efc8b8f	0.49325225
208	0x3e6c32a7	0.23066197
209	0xbe515c3b	-0.2044534
210	0x3ea50271	0.32228425
211	0xbe4d64de	-0.20058009
212	0x3df5c054	0.11999574
213	0x3eb35482	0.35025412
214	0x3f2b694c	0.66957545
215	0xbfb4de85	-1.4130408
216	0xbedd99ab	-0.43281302
217	0xbfa59cf6	-1.2938526
218	0x3f576732	0.8414184
219	0x3e274095	0.1633323
220	0x3d9b30de	0.0757768
221	0xbd87e929	-0.06636269
222	0x3c3ad2a0	0.011402756
223	0x3ddbd8c6	0.107347056
224	0xbe3cd4c5	-0.1844054
225	0x3d467717	0.048453417
226	0x3b3101e5	0.0027009186
227	0x3ec228d5	0.37921777
228	0xbee71749	-0.45134953
229	0xbd1afc92	-0.037838526
230	0xbe7180ac	-0.2358424
231	0xbf243979	-0.64150196
232	0x3eac31e8	0.33631825
233	0x3ec0cbeb	0.37655577
234	0xbd15a37d	-0.036532868
235	0x3c6c35d6	0.014417132
236	0xbe02c55b	-0.12770598
237	0x3ea14dc1	0.31504634
238	0xbf717783	-0.94322985
239	0xbeb3b1d4	-0.3509661
240	0xbe0cfca7	-0.13768254
241	0x3dc41507	0.09574323
242	0xbe80d0f8	-0.2515943
243	0x3f53c4e9	0.82722336
244	0xbea9eaab	-0.3318685
245	0x3c85fba5	0.016355345
246	0xbd4e3783	-0.05034591
247	0xbfefbd29	-1.8729602
248	0xbf512c43	-0.81708163
249	0x3deae803	0.11470034
250	0xbe0e6cec	-0.13908738
251	0xbd69db6e	-0.05709403
252	0xbe241ff8	-0.1602782
253	0x3e86572d	0.26238385
254	0x3eb6dd6d	0.3571581
255	0x3e4d48fb	0.20047371

fc2.bias f4 [32]
0	0xbd9b60e9	-0.075868435
1	0x3ed5710e	0.41687816
2	0x3efc23d3	0.49246082
3	0x3f3735fb	0.7156674
4	0x3f289900	0.6585846
5	0xbddfe06d	-0.10931478
6	0xbe0a5121	-0.1350751
7	0x3ef0641a	0.4695137
8	0x3f01528c	0.5051658
9	0xbe2e8d59	-0.17046107
10	0x3e836174	0.25660288
11	0x3ee92c56	0.45541638
12	0x3e0b18c6	0.13583669
13	0x3e0e9304	0.1392327
14	0xbec0f90d	-0.3769001
15	0xbe7f3672	-0.24923113
16	0x3f04bc6f	0.51850027
17	0xbfa80ec8	-1.3129511
18	0x3ecc7fb7	0.3994119
19	0x3f0e1ad1	0.5550967
20	0x3e2ae52e	0.16688988
21	0x3e02deab	0.12780254
22	0x3ea95cf3	0.33078727
23	0xbe3df883	-0.18551831
24	0x3e997036	0.29968423
25	0xbf74e9e3	-0.9566938
26	0xbe77b267	-0.24189149
27	0x3f3b4e4a	0.73166335
28	0xbf1d9abb	-0.61564225
29	0x3e78e44a	0.24305835
30	0x3f0f8011	0.5605479
31	0xbc2148df	-0.009844034

fc3.weight f4 [2, 32]
0	0xbd53c72e	-0.051703624
1	0xbecee09c	-0.40405738
2	0xbeeb7961	-0.45991042
3	0xbf06f1e4	-0.52712846
4	0x3e90fe17	0.28318855
5	0x3e495161	0.1965995
6	0xbf1ff2c9	-0.62479836
7	0xbe94d0aa	-0.29065448
8	0xbf22c426	-0.6358055
9	0xbfc8f3f0	-1.5699444
10	0x3efa5d98	0.4889953
11	0xbe595ff6	-0.21228012
12	0x3f03120f	0.5119943
13	0x3f10bd55	0.565389
14	0xbec6a175	-0.38795057
15	0xbe634c4c	-0.22197074
16	0xbeadf94a	-0.33979255
17	0x4055fc5e	3.3435283
18	0xbb5b7aae	-0.003348987
19	0xbedeec88	-0.43539834
20	0x3e8b1f34	0.27172244
21	0x3ec1d8ff	0.37860867
22	0x3ee8260f	0.45341536
23	0x3f02d68c	0.5110862
24	0xbec40724	-0.38286698
25	0xbdaf8efc	-0.08572194
26	0x3edf5d39	0.4362581
27	0x3f2dd505	0.67903167
28	0xc061b0b5	-3.5264103
29	0x3e9f0ff4	0.3106686
30	0xbd50c50e	-0.050969176
31	0x3b2556a7	0.002522865
32	0xbf3f6eb7	-0.7477831
33	0x3e1f2c91	0.15544344
34	0xbd6ba189	-0.0575271
35	0x3f258674	0.64658284
36	0x3f578c3d	0.8419836
37	0xbfbe2649	-1.4855434
38	0xbeec838f	-0.4619412
39	0xbf1f811d	-0.62306386
40	0x3dbfb6f1	0.09361065
41	0x3e70ad07	0.23503505
42	0x3bed617f	0.0072442885
43	0x3e721550	0.23640943
44	0xbe370c41	-0.17875768
45	0x3c15b1ac	0.009136599
46	0xbf3c6e6c	-0.7360599
47	0xbf614e9a	-0.8801056
48	0x3d95870b	0.07301148
49	0x3f232d2b	0.63740796
50	0x3f575bb3	0.84124297
51	0xbf26b1e6	-0.651152
52	0xbe45fca3	-0.19334655
53	0x3eeb0ac6	0.45906657
54	0xbe3c34f7	-0.1837958
55	0x3caf2c23	0.02138335
56	0xbdf9c559	-0.12195844
57	0xbf8ec715	-1.1154505
58	0x3f6e2a4c	0.9303329
59	0xbe06a835	-0.13150103
60	0xbe22d15e	-0.1590018
61	0xbf31e259	-0.69486004
62	0x3ee3a436	0.4446122
63	0xbecb82f1	-0.39748338

fc3.bias f4 [2]
0	0xbeee4cd0	-0.46542978
1	0x3d8acc85	0.0677729
