Model/model_noisy_21_64.pth (torch, 21682 bytes, 7 tensors)

input_weights f4 [5]
0	0x3f800000	1.0
1	0x3f800000	1.0
2	0x3f800000	1.0
3	0x3f800000	1.0
4	0x3f800000	1.0

fc1.weight f4 [64, 5]
0	0xbebba613	-0.36650142
1	0x3f1753bb	0.5911214
2	0x3cfe3fcb	0.031036278
3	0x3afdb4ec	0.0019356287
4	0x3d87e992	0.06636347
5	0x3e450de5	0.19243582
6	0x3e20b5aa	0.156943
7	0x3f8a570a	1.0807812
8	0x3ca0e496	0.019640248
9	0xbd8cdf5a	-0.068785384
10	0x3ec94b6f	0.39315364
11	0x3e281596	0.16414484
12	0x3eca6e93	0.39537486
13	0xbe3aacfa	-0.18230048
14	0x3d4a2321	0.049349908
15	0x3bd332a9	0.006445248
16	0x3f249c87	0.6430134
17	0xbf0f6211	-0.5600901
18	0xbebf9e93	-0.3742567
19	0x3ddf51ce	0.10904275
20	0x3f398fbd	0.7248495
21	0x3f0b0e87	0.5431904
22	0xbf0810f8	-0.5315089
23	0x3e4c10df	0.19928311
24	0x3d55809d	0.05212461
25	0x3e18db76	0.14927468
26	0x3e5e051c	0.21681637
27	0xbee16bef	-0.4402766
28	0xbe4d529d	-0.20051046
29	0xbdd0f585	-0.10203079
30	0x3e84f1ed	0.25965825
31	0x3de13238	0.109959066
32	0xbec12b91	-0.3772855
33	0xbda6378c	-0.081160635
34	0x3d9e6a7d	0.07735155
35	0xbe1c8e10	-0.15288568
36	0xbf05e2fc	-0.52299476
37	0x3f3c1f3e	0.7348517
38	0xbdf64449	-0.12024743
39	0x3bca3e55	0.0061719813
40	0xbe04960f	-0.12947868
41	0x3f8e5f10	1.1122761
42	0x3ea6ece6	0.32602614
43	0xbe82a496	-0.25516194
44	0x3d05c10f	0.03265482
45	0x3de08a0d	0.10963831
46	0x3f17a6fa	0.5923916
47	0x3f1505b2	0.58211815
48	0xbda125e0	-0.07868552
49	0x3e8f7630	0.28019857
50	0x3d115b1b	0.035487276
51	0xbdbc8816	-0.09205644
52	0xbf786ca7	-0.9704079
53	0xbc6df233	-0.014523077
54	0xbcf9d893	-0.030498778
55	0x3eda0c08	0.42587304
56	0xbee5851f	-0.44828126
57	0xbf0e5064	-0.55591416
58	0xbde52302	-0.11188318
59	0xbb666d26	-0.0035160272
60	0xbee03dac	-0.43797052
61	0x3eea752d	0.45792523
62	0xbefd92f5	-0.49526182
63	0x3e2f3be7	0.17112695
64	0x3b51dd28	0.0032022689
65	0x3d2461ee	0.040132456
66	0x3edb0308	0.4277575
67	0x3f791a7c	0.97306037
68	0xbb63fdff	-0.0034788845
69	0x3e20abb2	0.15690497
70	0x3f02b59c	0.51058364
71	0x3e9acd6c	0.3023485
72	0xbf320a38	-0.6954684
73	0x3de8973a	0.11356969
74	0x3d211d76	0.039334737
75	0xbf2d9351	-0.6780291
76	0x3e2119cd	0.15732498
77	0x3ef4309e	0.47693342
78	0x3e6dd785	0.23226745
79	0xbe20067b	-0.15627472
80	0x3e72a46a	0.23695531
81	0xbe91979e	-0.28435987
82	0xbf6241e7	-0.8838181
83	0xbd651951	-0.055932347
84	0xbdccf995	-0.100085415
85	0xbdb2f9a0	-0.087390184
86	0xbe09c76d	-0.13454981
87	0xbe8b303a	-0.2718523
88	0x3e8e1d46	0.2775671
89	0x3e42c42f	0.1902015
90	0xbfb3d409	-1.4049083
91	0xbe03b8e3	-0.12863497
92	0xbe822da3	-0.25425443
93	0x3d6a8633	0.05725689
94	0x3bb2e041	0.005458862
95	0xbef96949	-0.4871314
96	0x3e342a67	0.175943
97	0x3eae2252	0.3401056
98	0x3d487219	0.048936937
99	0x3c221949	0.009893724
100	0xbe365f14	-0.17809707
101	0xbf09be6d	-0.5380619
102	0xbf45359d	-0.7703493
103	0x3cfa8751	0.030582102
104	0x3ba31271	0.0049765636
105	0x3f142e3f	0.57883066
106	0x3e875a8c	0.2643627
107	0xbec6b1ad	-0.3880743
108	0x3e672d22	0.2257581
109	0x3b245eee	0.0025080997
110	0xbf235d0d	-0.6381386
111	0x3e3febaa	0.18742242
112	0x3d7795c6	0.06044557
113	0xbeefcbf7	-0.468353
114	0xbe1691ba	-0.14704028
115	0x3f21854d	0.63094026
116	0xbe557d9c	-0.20848697
117	0xbe1f6259	-0.1556486
118	0x3d055228	0.032549053
119	0xbbbea322	-0.005817787
120	0x3e981887	0.29706213
121	0xbe1f3d6b	-0.15550773
122	0x3f46828e	0.7754296
123	0x3e74e959	0.2391714
124	0xbe4cc195	-0.1999572
125	0x3ddb0198	0.10693663
126	0xbc3c547a	-0.01149475
127	0x3db9e566	0.090769574
128	0x3d300f5e	0.042983405
129	0x3e7f4913	0.2493022
130	0x3f869830	1.0515194
131	0x3ed1b569	0.40958717
132	0x3c145901	0.009054423
133	0x3dc9331d	0.09824202
134	0xbcfc2e73	-0.030783867
135	0xbfa627ee	-1.2980936
136	0x3efe7e69	0.49705818
137	0x3f43b9b3	0.7645523
138	0x3e326dad	0.1742465
139	0x3c8daf73	0.017295575
140	0xbe9c4e9c	-0.30528724
141	0x3e4954ce	0.19661257
142	0x3ea427ec	0.32061708
143	0x3e9ada06	0.30244464
144	0xbe2ca16c	-0.16858453
145	0x3e9ce8be	0.30646318
146	0xbea8861b	-0.32914814
147	0xbdc51077	-0.09622281
148	0xbdcbd726	-0.09953146
149	0xbd90fbe8	-0.07079297
150	0x3fb8435e	1.4395559
151	0xbd5905d9	-0.052984092
152	0x3e917f13	0.28417262
153	0x3cfdecf9	0.030996786
154	0x3d016b9c	0.031596765
155	0x3faaae63	1.3334469
156	0x3caf23dc	0.021379404
157	0xbe1f901a	-0.15582314
158	0x3ec6badb	0.38814434
159	0xbcc8f5d8	-0.02453129
160	0x3deef6f5	0.11668197
161	0xbede8c15	-0.4346625
162	0x3fa25cfc	1.2684627
163	0x3b07874f	0.0020680015
164	0xbc87fe19	-0.016600655
165	0xbe41bd8a	-0.1891996
166	0x3cd21386	0.025644075
167	0x3d05f737	0.032706466
168	0x3f23027a	0.63675654
169	0xbe878319	-0.26467207
170	0xbf6c4e1e	-0.923067
171	0x3f15128a	0.58231413
172	0xbe6e9733	-0.23299865
173	0x3e56dfac	0.20983762
174	0x3c15d60d	0.009145272
175	0xbeecedcd	-0.46275178
176	0x3f461760	0.7737942
177	0xbe06a7ba	-0.1314992
178	0x3eccc0e2	0.39990908
179	0xbd402ca8	-0.046917588
180	0x3e484ce9	0.19560589
181	0xbe987d97	-0.29783317
182	0xbe230743	-0.15920739
183	0xbe2f89d4	-0.17142421
184	0xbde1fa99	-0.11034126
185	0x3de1817b	0.110110246
186	0xbece9d02	-0.40354162
187	0x3f148e35	0.5802949
188	0x3c91435c	0.017732315
189	0x3e34dfd8	0.17663515
190	0x3e7db3a4	0.24775559
191	0x3f485dfc	0.7826841
192	0x3f3a15b8	0.7268939
193	0x3d1c317d	0.038133133
194	0xbce66fa0	-0.028129399
195	0xbebcb41d	-0.36856166
196	0xbddc2e08	-0.10750967
197	0x3ce9330b	0.028466722
198	0x3ea7d601	0.3278046
199	0xbe6e1744	-0.23251063
200	0xbf48ca9d	-0.78434163
201	0xbd55c48a	-0.052189387
202	0xbdbef25b	-0.093235694
203	0x3f44eeb2	0.7692672
204	0xbcaae326	-0.020860266
205	0xbe3e5550	-0.18587232
206	0xbed9ad2b	-0.4251493
207	0x3f455bab	0.77093
208	0xbd414479	-0.04718444
209	0xbe4fe071	-0.20300461
210	0x3f08eb52	0.5348407
211	0x3f2683e3	0.65044993
212	0xbe588311	-0.21143748
213	0xbee8f81b	-0.4550179
214	0xbe07c72a	-0.13259569
215	0xbedb2236	-0.42799538
216	0xbcf7af80	-0.030235052
217	0xbf1783ac	-0.5918529
218	0x3d1a29f6	0.037637673
219	0xbba55e58	-0.005046647
220	0x3ea1151a	0.31461412
221	0xbf2f5ead	-0.6850384
222	0x3ee67172	0.45008427
223	0xbdd2ea98	-0.102986515
224	0x3d2e31ff	0.04252815
225	0xbd1d9e78	-0.038481206
226	0x3c016934	0.007898618
227	0x3e89f2ec	0.26943147
228	0xbeb79e43	-0.35862932
229	0xbc5a4fff	-0.013324737
230	0xbf3b64ab	-0.7320048
231	0x3e9fda38	0.31221175
232	0x3e868b94	0.26278365
233	0x3db012cb	0.085973345
234	0xbb23b454	-0.002497931
235	0x3f7b019c	0.9804933
236	0x3eacf141	0.33777812
237	0x3f21a50d	0.6314247
238	0xbd68853d	-0.05676769
239	0xbd79c696	-0.060980402
240	0x3f3b5eab	0.73191327
241	0x3c041866	0.008062458
242	0x3d93c35b	0.072149955
243	0x3cb6ba31	0.02230558
244	0x3bae82ee	0.0053256666
245	0xbdff73dc	-0.1247327
246	0x3f65643a	0.8960606
247	0x3ec7cca7	0.39023325
248	0x3e19f289	0.15033926
249	0x3c2f5538	0.01070147
250	0xbf003041	-0.5007363
251	0x3e154c2f	0.14579843
252	0xbd7d10d4	-0.061783627
253	0xbe2b44e6	-0.16725501
254	0xbe54950f	-0.20759986
255	0x3edfa240	0.43678474

fc1.bias f4 [64]
0	0x3e8a9af7	0.27071354
1	0xbf403406	-0.7507938
2	0x3e4c7a9c	0.19968647
3	0xbf76042f	-0.96100134
4	0xbf639258	-0.8889518
5	0xbd2954ff	-0.041340824
6	0x3e9afdb0	0.30271673
7	0x3dd8dba6	0.105887696
8	0xbf45090d	-0.76966935
9	0xbf547b47	-0.83000606
10	0xbec5ad09	-0.38608578
11	0xbc8b6222	-0.017014567
12	0xbc51cd77	-0.012805334
13	0xbd06ad54	-0.032880142
14	0xbece499b	-0.40290532
15	0xbee0ea28	-0.43928647
16	0xbf763ade	-0.96183574
17	0x3f1d7fed	0.61523324
18	0xbf83e49a	-1.0304139
19	0x3f277305	0.6540988
20	0xbf5c70d0	-0.8610964
21	0xbe847090	-0.25867128
22	0xbee669b9	-0.45002535
23	0x3f1601ca	0.5859648
24	0xbf15085b	-0.58215874
25	0x3e9dac87	0.3079569
26	0x3eade712	0.33965355
27	0xbfc4bae6	-1.5369537
28	0x3ec70aaa	0.38875324
29	0x3e23e5d5	0.16005643
30	0xbeb453cb	-0.3522018
31	0xbf94d339	-1.162696
32	0xbf266166	-0.6499237
33	0xbe0730bb	-0.13202183
34	0xbfa6a0df	-1.3017844
35	0xbe1fb5b3	-0.15596657
36	0x3e8df071	0.27722505
37	0xbea56015	-0.32299867
38	0xbf92c6d4	-1.1466928
39	0x3f8f26eb	1.1183752
40	0xbf32b692	-0.6980983
41	0xbc00f000	-0.00786972
42	0xbf025cf5	-0.5092309
43	0x3e7463a3	0.23866133
44	0x3e3f377e	0.18673512
45	0x3ea9cf00	0.3316574
46	0x3e84a46f	0.25906703
47	0xbf4dd5cb	-0.8040435
48	0x3f54310b	0.82887334
49	0x3f616f8e	0.88060844
50	0x3e733881	0.23752023
51	0xbf03c610	-0.51474094
52	0x3e6ac553	0.22926836
53	0x3e890de2	0.26768404
54	0xbf0bb501	-0.54573065
55	0xbeb0f659	-0.34562948
56	0xbf45a283	-0.772011
57	0x3ddd7492	0.1081325
58	0xbf079c13	-0.52972525
59	0xbf609985	-0.8773425
60	0x3d8e0d0e	0.06936084
61	0xbf1417cb	-0.57848805
62	0x3dc0fda9	0.09423382
63	0x3e4cb416	0.19990572

fc2.weight f4 [64, 64]
0	0x3b153a75	0.0022770439
1	0xbe9e66b9	-0.30937746
2	0x3eb00c57	0.34384415
3	0x3e699919	0.22812308
4	0x3c166f82	0.009181859
5	0xbf89864d	-1.074411
6	0x3ec7638a	0.3894313
7	0xbf0c475a	-0.54796374
8	0xbf3a33bb	-0.72735184
9	0x3e9e79f6	0.30952424
10	0xbe81704d	-0.2528099
11	0xbf84c1a0	-1.037159
12	0x3da7ca01	0.08192826
13	0x3c4904a4	0.012269173
14	0xbf5639ef	-0.8368215
15	0xbe00c7ba	-0.1257619
16	0x3cbb44aa	0.02285989
17	0x3ca79f98	0.020461842
18	0x3f5861b1	0.84524065
19	0xbeaaac60	-0.33334637
20	0xbdf2d90f	-0.11857807
21	0xbd076240	-0.033052683
22	0xbe10f381	-0.1415539
23	0xbd02a85e	-0.03189885
24	0x3f0fcfd5	0.561765
25	0x3ea3edba	0.32017308
26	0xbcd7ed88	-0.02635838
27	0x3de39fbf	0.111144535
28	0xbe0d221f	-0.13782547
29	0x3ead935f	0.33901498
30	0xbe6a132f	-0.2285888
31	0x3e2ad3ca	0.16682354
32	0xbe6e986a	-0.23300329
33	0xbd0e903b	-0.034805518
34	0xbf082414	-0.5318005
35	0xbd23a6f0	-0.039954126
36	0x3f07bbc6	0.53020895
37	0xbdc30d1c	-0.09523985
38	0x3e7a84b8	0.2446469
39	0xbe09bfe1	-0.13452102
40	0xbf8a1f12	-1.0790732
41	0xbe0648eb	-0.13113753
42	0x3e8b25a6	0.2717716
43	0x3e422fa9	0.18963493
44	0x3efdbcb3	0.4955803
45	0x3edd8ee7	0.43273088
46	0x3f316b8e	0.6930474
47	0x3ddbeaf2	0.10738172
48	0x3d58497f	0.052804466
49	0x3d875247	0.0660749
50	0xbe19cf79	-0.15020551
51	0x3e839729	0.25701264
52	0x3d7edc1f	0.062221643
53	0xbe90cc43	-0.2828084
54	0xbf38098f	-0.71889585
55	0xbf43c107	-0.7646641
56	0xbdf21b67	-0.11821633
57	0xbd885684	-0.066571265
58	0xbdc95bd1	-0.09831966
59	0xbf1a9410	-0.60382175
60	0xbeac1b5e	-0.3361463
61	0x3ef03f52	0.4692331
62	0xbe6a8098	-0.22900617
63	0xbd0eaefe	-0.034834854
64	0xbe62c87f	-0.22146796
65	0xbeb1701f	-0.34655854
66	0xbe19356c	-0.14961785
67	0x3b774875	0.0037732397
68	0xbd594165	-0.05304088
69	0xbd2825a4	-0.041051522
70	0xbea81adc	-0.32832992
71	0x3d1670dd	0.03672873
72	0x3deedebd	0.11663578
73	0x3c94cc8a	0.018163938
74	0x3eb9d972	0.3629871
75	0x3e93919d	0.28822032
76	0x3f15f6b9	0.58579594
77	0x3caa15d3	0.02076236
78	0xbd827e8c	-0.06371793
79	0x3e425a33	0.18979721
80	0x3edcc134	0.43116152
81	0xbf345fea	-0.70458853
82	0xbf25587f	-0.6458816
83	0x3d368459	0.04455981
84	0xbebb6bbd	-0.36605635
85	0x3e9ae70c	0.302544
86	0x3ed6b0df	0.41931817
87	0x3e7af2d9	0.24506702
88	0x3f06a31c	0.52592635
89	0x3d5ee467	0.05441704
90	0xbbbba9c6	-0.0057270257
91	0x3f20fd2f	0.6288633
92	0xbee62d6e	-0.44956535
93	0x3dd46cab	0.10372289
94	0x3f327819	0.69714504
95	0x3f3ba4f8	0.732986
96	0x3c26c6bb	0.010179217
97	0x3d8c99fd	0.068653084
98	0xbe3f3b0d	-0.1867487
99	0x3f18b30e	0.59648216
100	0xbe8492d4	-0.2589327
101	0xbe9f96e6	-0.31169814
102	0x3ed519e9	0.4162133
103	0xbf548c48	-0.8302655
104	0x3d1d7f4a	0.03845147
105	0xbe2bbefa	-0.1677207
106	0xbe913bad	-0.28365842
107	0xbefa56bc	-0.48894298
108	0x3e6172d3	0.22016458
109	0x3b1fcc9a	0.0024383427
110	0x3edbf066	0.42956847
111	0x3e36af77	0.17840372
112	0xbdfbbabf	-0.12291478
113	0xbe862249	-0.26198032
114	0x3ed3def7	0.41381046
115	0xbb64499d	-0.0034833916
116	0xbe7b6fc1	-0.2455435
117	0xbe9e293a	-0.30890828
118	0x3ea1571f	0.3151178
119	0xbe21b6c6	-0.15792379
120	0x3e318515	0.17335923
121	0xbee8c9cb	-0.45466456
122	0x3da62b4b	0.08113726
123	0xbea843d7	-0.32864258
124	0x3eee9c76	0.46603745
125	0xbe54a906	-0.20767602
126	0x3dff05e4	0.124522954
127	0xbdc06bdf	-0.09395575
128	0xbd7f7492	-0.06236703
129	0xbe696b8a	-0.22794929
130	0xbd924af0	-0.071431994
131	0xbedc5a02	-0.4303742
132	0xbcef7a30	-0.029233068
133	0xbe888806	-0.26666278
134	0x3e3b7a91	0.18308474
135	0x3e736a3e	0.23770997
136	0x3d82ce3c	0.06386992
137	0xbd94676f	-0.07246291
138	0x3e310160	0.17285681
139	0x3cba1f95	0.022720138
140	0x3e242a24	0.160317
141	0xbcc62eba	-0.024192203
142	0xbeafd931	-0.3434539
143	0xbe1007d0	-0.1406548
144	0x3ddcdebb	0.1078467
145	0xbeb5692a	-0.35431796
146	0x3dad0b09	0.084493704
147	0xbdb50ae9	-0.088399716
148	0xbee097ab	-0.43865713
149	0x3eb397ea	0.3507684
150	0x3ddbe924	0.107378274
151	0x3c9ab9fa	0.018887509
152	0xbe071783	-0.13192563
153	0xbec18c2a	-0.3780225
154	0x3d2afaac	0.041742966
155	0xbe1518a9	-0.14560188
156	0xbe590bbb	-0.21195881
157	0x3e88d147	0.26722166
158	0xbec21765	-0.37908474
159	0xbf828300	-1.0196228
160	0xbecf2705	-0.40459457
161	0x3eb9cc6b	0.3628877
162	0x3f0126e9	0.5045
163	0x3eaa83f6	0.33303803
164	0x3edb321b	0.42811665
165	0xbf245410	-0.6419077
166	0xbfd9efc3	-1.7026294
167	0xbeb57fde	-0.35449117
168	0xbf23ff9c	-0.64061904
169	0x3ec60401	0.3867493
170	0xbc31638b	-0.010826956
171	0x3c98e012	0.018661533
172	0x3e7c1a3f	0.24619387
173	0x3e23f99d	0.16013189
174	0x3d754a94	0.059885576
175	0xbf9750c2	-1.182152
176	0x3f16a25d	0.58841497
177	0xbe9c6f9c	-0.305539
178	0xbe15d031	-0.146302
179	0xbeccf267	-0.40028688
180	0x3dd635ed	0.10459504
181	0x3dec1e2d	0.11529193
182	0xbf043b22	-0.5165273
183	0xbef4a7b6	-0.47784203
184	0x3e6b753f	0.22993945
185	0xbe4e9592	-0.20174244
186	0x3f9174dd	1.1363789
187	0xbf0b58e1	-0.54432493
188	0x3e10b684	0.14132124
189	0x3e602240	0.21888065
190	0x3eb0cc13	0.34530696
191	0x3d0ed7c6	0.034873746
192	0x3e4fd7d5	0.20297177
193	0xbe48fdbd	-0.19628043
194	0x3e0913b6	0.13386425
195	0xbdb6290a	-0.08894546
196	0xbe8608e7	-0.26178667
197	0xbe4e2da5	-0.201346
198	0x3ccc35c6	0.024927985
199	0xbe88412f	-0.2661223
200	0xbf5a6a65	-0.85318595
201	0x3ea0aef2	0.31383473
202	0x3db3258f	0.08747398
203	0xbdaeac03	-0.085289024
204	0x3e64fc87	0.22361957
205	0xbeb02a98	-0.34407496
206	0xbe6f7c92	-0.23387364
207	0xbed85d2f	-0.42258593
208	0xbea8aa21	-0.32942298
209	0x3e864667	0.26225588
210	0x3e933d53	0.28757724
211	0xbeafa4ef	-0.34305522
212	0xbef1eade	-0.47249502
213	0xbe088c21	-0.13334705
214	0x3ed5e224	0.41774094
215	0x3e855a0b	0.2604526
216	0x3d7a5695	0.061117727
217	0xbcf59837	-0.029979808
218	0x3dae5700	0.08512688
219	0x3e75dd33	0.24010162
220	0x3c0e20ff	0.008674859
221	0x3bd4f00d	0.006498343
222	0x3e09a513	0.13441877
223	0xbd952e90	-0.07284272
224	0xbe613ecd	-0.21996613
225	0x3b6a4842	0.0035748635
226	0xbed51049	-0.41613987
227	0xbf006c3d	-0.5016516
228	0xbd3d294c	-0.046181962
229	0x3e15cff1	0.14630105
230	0xbfb0370b	-1.3766798
231	0x3d2afc3c	0.041744456
232	0xbecac5bf	-0.39603993
233	0xbec72e73	-0.38902625
234	0xbc83805c	-0.016052417
235	0xbc19b52a	-0.009381572
236	0x3db54777	0.088515215
237	0x3c9f630b	0.019456407
238	0xbda95b66	-0.08269386
239	0xbcb0c10c	-0.021576427
240	0x3ec0a1f5	0.37623563
241	0xbec558ab	-0.3854421
242	0x3e5c32ea	0.21503797
243	0x3e0f3178	0.13983715
244	0x3e2c46bb	0.16823857
245	0x3ecfb887	0.4057047
246	0xbd08b443	-0.033375036
247	0x3ea13788	0.3148768
248	0xbe4a2857	-0.19741951
249	0x3d8d76d4	0.0690743
250	0xbec597cb	-0.3859237
251	0xbe937d7b	-0.28806672
252	0x3e10ec33	0.14152603
253	0x3ec8e673	0.3923832
254	0xbe9f9eb5	-0.3117577
255	0x3d927895	0.071519054

fc2.bias f4 [64]
0	0x3d3fe16c	0.04684584
1	0xbf1e9fa6	-0.61962354
2	0x3e099216	0.13434634
3	0x3e9b7603	0.30363473
4	0x3eb15430	0.34634542
5	0xbf15d67a	-0.5853039
6	0x3e9c6b53	0.30550632
7	0xbbd08793	-0.006363818
8	0x3eba1fac	0.3635229
9	0x3e8d39bd	0.27583113
10	0xbec95ca3	-0.3932849
11	0x3ea9e435	0.3318192
12	0xbda9c27f	-0.0828905
13	0x3d05f773	0.03270669
14	0x3dd4c4a0	0.10389066
15	0xbc190aee	-0.009340985
16	0xba842d04	-0.0010084216
17	0x3d48acf2	0.04899306
18	0xbee8607c	-0.45386112
19	0xbc618e62	-0.013766857
20	0xbe3b3867	-0.18283235
21	0x3ef6239a	0.48074037
22	0x3f0b238c	0.54351115
23	0xb94a434a	-0.00019289288
24	0x3e9b945f	0.30386636
25	0x3ea63b36	0.3246705
26	0xbe003092	-0.12518528
27	0xbc5470b5	-0.012966325
28	0x3ea514e6	0.32242507
29	0x3ea14934	0.31501162
30	0xbe606444	-0.21913248
31	0xbead9eff	-0.33910367
32	0x3e90364f	0.28166434
33	0x3d4f7587	0.050649192
34	0x3c01c0ed	0.007919532
35	0x3e91c8b7	0.28473446
36	0xbee4be0a	-0.44676238
37	0xbe69f7df	-0.22848462
38	0xbdc41cff	-0.09575843
39	0xbf1ff284	-0.62479424
40	0x3e22b61f	0.15889786
41	0xbd3d590c	-0.0462275
42	0x3f154993	0.5831539
43	0xbe36df88	-0.17858708
44	0x3df074ec	0.11741051
45	0x3ec36ec3	0.38170442
46	0x3ea62110	0.324471
47	0xbe0293be	-0.12751672
48	0x3eb93ec9	0.36180714
49	0xbdf330dd	-0.11874554
50	0xbc924051	-0.017852934
51	0x3e80fabe	0.251913
52	0x3decdc43	0.11565449
53	0xbd68aeb6	-0.056807242
54	0x3e87d93a	0.26532918
55	0x3e4f80ff	0.20264052
56	0x3c4198e0	0.011816233
57	0x3ecfa7f7	0.40557835
58	0x3e4dab5d	0.20084901
59	0xbf3df441	-0.74200827
60	0xbc7b44c6	-0.015336221
61	0xbed68b90	-0.41903353
62	0x3cbf87e2	0.023380224
63	0x3e65999a	0.22421876

fc3.weight f4 [2, 64]
0	0xbdaf8443	-0.08570149
1	0xbe234f46	-0.15948209
2	0xbea3b825	-0.3197643
3	0xbe038595	-0.12843926
4	0xbd03b714	-0.03215702
5	0x3ec6983e	0.38788027
6	0x3d8bd8f5	0.06828491
7	0x3d82524d	0.06363354
8	0x3c7bc5be	0.01536697
9	0xbc1a2b4c	-0.009409737
10	0x3a3f544c	0.0007298633
11	0xbe87b255	-0.26503244
12	0xbd698788	-0.05701402
13	0x3c6caf5c	0.014446106
14	0x3d204da6	0.03913655
15	0xbc8c44b3	-0.017122602
16	0xbdedd18f	-0.11612236
17	0x3e393bda	0.18089238
18	0xbfb9bf00	-1.4511414
19	0xbcf0f30c	-0.029412769
20	0x3ea0120a	0.31263763
21	0x3c6fb6c8	0.014630981
22	0xbcb1f503	-0.021723276
23	0xb9a5446b	-0.00031522228
24	0xbe9f812b	-0.31153235
25	0x3da41d39	0.08013386
26	0x3e830300	0.25588226
27	0x3e45b6a8	0.19307959
28	0x3d5e12df	0.054217216
29	0xbd941024	-0.07229641
30	0xbd6509c0	-0.0559175
31	0xbfbe06d2	-1.4845831
32	0x3d67a1d7	0.056550827
33	0x3c99f699	0.018794345
34	0xbdb9bb71	-0.09068955
35	0x3d8bafde	0.068206534
36	0x3e28b465	0.16475065
37	0x3f06e412	0.5269176
38	0xbe471b89	-0.19444098
39	0x3d19b936	0.037530147
40	0x3e2768e3	0.16348605
41	0xbd470cc5	-0.048596162
42	0xbd33f9a5	-0.04393925
43	0x3e4c50ce	0.199527
44	0xbca17f42	-0.019714002
45	0xbd8fe4ad	-0.07026038
46	0xbe0c6811	-0.13711573
47	0x3bcd207f	0.0062599774
48	0x3cae32cf	0.021264462
49	0xbd616d60	-0.05503595
50	0xbcc9dcdf	-0.024641452
51	0xbf255284	-0.64579034
52	0xbe04a865	-0.12954862
53	0x3de530d6	0.11190955
54	0xbc10e555	-0.0088437395
55	0xbe205f4f	-0.15661357
56	0x3f87c7e6	1.0607879
57	0x3d30f9ed	0.043207098
58	0x3edf5f0e	0.43627208
59	0xbd247402	-0.040149696
60	0x3b7c0073	0.0038452416
61	0x3f018782	0.50597394
62	0xbf8b853c	-1.0900035
63	0xbead0e1b	-0.33799824
64	0x3f1e36f4	0.618026
65	0x3f668909	0.9005285
66	0x3f03cfb8	0.5148883
67	0x3e625c2d	0.22105475
68	0xbe94d9a7	-0.29072306
69	0x3c3bf2c6	0.011471456
70	0xbef61604	-0.48063672
71	0xbe847e4e	-0.25877613
72	0xbf42f161	-0.76149565
73	0x3f31d433	0.69464415
74	0xbf5ef30f	-0.8708963
75	0xbea7c73f	-0.327692
76	0x3f3dcc6a	0.74140036
77	0x3f1d3c50	0.61420155
78	0x3eef45de	0.46732992
79	0x3cc5d26f	0.024148194
80	0xbed0f851	-0.4081445
81	0x3c8b975c	0.017039947
82	0x3ec48513	0.38382778
83	0x3aec1db4	0.0018014223
84	0xbda6b492	-0.0813991
85	0xbeea0aaa	-0.4571126
86	0x3f9d7ffd	1.2304684
87	0xb8c6f2a6	-9.4865725e-05
88	0xbccd4efa	-0.025062073
89	0xbf004b5c	-0.5011499
90	0x3ef791f9	0.48353556
91	0xbec5d0a9	-0.38635758
92	0x3ec5eded	0.38658085
93	0xbeb99462	-0.3624602
94	0x3f144d8b	0.5793082
95	0xbf069e2e	-0.52585113
96	0x3ea27c17	0.31735298
97	0x3f23a02d	0.63916284
98	0x3f2bca99	0.67106014
99	0xbf2f9d97	-0.6859984
100	0xbff2e094	-1.8974786
101	0xbd7a88b8	-0.06116554
102	0x3f0714c1	0.5276604
103	0xbfa0dce8	-1.2567415
104	0x3fc59ece	1.5439088
105	0x3e8c34f8	0.27384162
106	0xbee52842	-0.44757277
107	0x3e5ffd42	0.21873954
108	0x3f1abd77	0.6044535
109	0xbeec1d0a	-0.46115905
110	0x3e9c623d	0.305437
111	0xbf104183	-0.5634996
112	0x3ece887c	0.40338504
113	0xbf299580	-0.66243744
114	0x3f00efb1	0.5036574
115	0x3d8e8567	0.06959038
116	0x3e026cfb	0.12736885
117	0x3eb46b51	0.35238126
118	0x3f3ff7cf	0.749875
119	0x3ef18e33	0.47178802
120	0x3efffe32	0.49998623
121	0xbf909d41	-1.129799
122	0x3f2ff80a	0.6873785
123	0x3fb970fc	1.4487605
124	0x3ee26a5a	0.44221765
125	0xbeabbc00	-0.3354187
126	0xbdae1397	-0.0849983
127	0xba80b85d	-0.000982057

fc3.bias f4 [2]
0	0xbdd7435c	-0.10510895
1	0xbb361f42	-0.0027789627
