Model/model_noisy_30_64.pth (torch, 21938 bytes, 7 tensors)

input_weights f4 [6]
0	0x40a00000	5.0
1	0x40a00000	5.0
2	0x40a00000	5.0
3	0x3f800000	1.0
4	0x3f800000	1.0
5	0x3f800000	1.0

fc1.weight f4 [64, 6]
0	0xbdf83303	-0.12119105
1	0x3ca94e98	0.02066736
2	0x3c1de2d5	0.0096366005
3	0x3f7b5f03	0.9819185
4	0xbedaf2c5	-0.42763343
5	0xbb8eb6a9	-0.004355271
6	0xbf52345c	-0.82111144
7	0x3d2d2660	0.042272925
8	0x3d5bd2e4	0.053667918
9	0xbc451161	-0.012028069
10	0x3d1dd899	0.03853664
11	0x3dbec988	0.09315783
12	0x3dddc324	0.10828236
13	0xbddc2d12	-0.10750784
14	0x3cd62d34	0.026144601
15	0x3f00e28b	0.5034568
16	0x3e8842eb	0.26613554
17	0x3f08bd6f	0.5341405
18	0xbd1edbda	-0.038783886
19	0x3df2051a	0.11817379
20	0x3ecc8797	0.39947197
21	0x3c951bcc	0.018201731
22	0x3d9199b3	0.07109394
23	0x3eaaec89	0.33383587
24	0x3c7d63c2	0.015465679
25	0x3dbf0cc2	0.09328605
26	0xbe77946d	-0.24177714
27	0x3e23653c	0.15956587
28	0x3f1cdac0	0.61271286
29	0xbdf26be9	-0.118369885
30	0x3ab33b32	0.0013674258
31	0xbeafc19c	-0.343274
32	0xbe599698	-0.21248853
33	0x3efe8edb	0.49718365
34	0xbc2e66a2	-0.010644587
35	0xbe1c02bd	-0.1523542
36	0xbe06dcf9	-0.13170232
37	0xbd8c77d1	-0.06858791
38	0x3da17b68	0.07884866
39	0x3f8e38e6	1.1111114
40	0x3d917d7d	0.07104013
41	0x3d9be29b	0.07611581
42	0xbe91d611	-0.28483632
43	0xbdacd497	-0.08438986
44	0xbe0b48be	-0.13601968
45	0xbc867e44	-0.01641763
46	0x3d02f6a7	0.031973507
47	0xbe8625b5	-0.26200643
48	0x3eb89901	0.36054233
49	0xbe0fa761	-0.14028694
50	0xbe803140	-0.25037575
51	0xbd42f12d	-0.047593284
52	0x3c94d77b	0.018169155
53	0x3e5f50dd	0.2180819
54	0xbdbececf	-0.09316789
55	0x3e8cffb5	0.2753884
56	0xbed3952c	-0.41324747
57	0xbcc61814	-0.024181403
58	0x3e7712c3	0.24128251
59	0x3e11597e	0.14194295
60	0xbe07d0a7	-0.13263188
61	0xbde6ab1c	-0.11263105
62	0xbd99a196	-0.07501523
63	0xbf4166a6	-0.75547254
64	0xbeb6203f	-0.35571477
65	0xbe7f6871	-0.24942185
66	0x3e5cc789	0.21560492
67	0x3ca17aa2	0.019711796
68	0x3d606f4a	0.054793634
69	0x3dd0f74e	0.102034196
70	0x3def5b3e	0.11687325
71	0x3f83e021	1.0302774
72	0x3e550cfe	0.20805737
73	0xbd3a7f9c	-0.045531854
74	0xbe22c305	-0.15894707
75	0xbea9aac6	-0.33138102
76	0xbe1eb3c4	-0.15498263
77	0x3d843f56	0.06457393
78	0xbdb01fbb	-0.08599802
79	0xbd6e6aee	-0.058207445
80	0x3e6f3b4b	0.23362462
81	0xbe8a1354	-0.2696787
82	0xbdc71fa1	-0.097228296
83	0x3f538dc0	0.8263817
84	0xbe95654a	-0.2917884
85	0x3e6debd6	0.23234496
86	0xbdff49f7	-0.124652795
87	0x3f1da6c7	0.6158261
88	0x3e9448fa	0.28961927
89	0x3e5cef2b	0.2157561
90	0x3f0c2832	0.54748833
91	0x3bcf4348	0.006325159
92	0xbb43569b	-0.002980626
93	0x3f81f3a3	1.0152477
94	0xbe2261c7	-0.15857612
95	0xbe4348de	-0.19070765
96	0xbe59cf9c	-0.21270603
97	0xbe861bc5	-0.2619306
98	0x3de03f20	0.1094954
99	0xbee238e9	-0.44184044
100	0x3e1abbdb	0.15110724
101	0xbd4ff0ca	-0.050766744
102	0xbeac48af	-0.33649203
103	0x3d956faf	0.072966926
104	0x3d085ad5	0.03328975
105	0xbf1b5d68	-0.606894
106	0x3d80360b	0.06260308
107	0x3ddc3eb4	0.10754147
108	0x3dee2e01	0.11629868
109	0xbe3eca90	-0.18631959
110	0x3e423c76	0.18968377
111	0xbdbe523d	-0.092930295
112	0xbe8dc552	-0.27689606
113	0xbe75f32b	-0.24018542
114	0xbd88ed02	-0.06685831
115	0x3e57fd88	0.21092808
116	0xbd0cfd4a	-0.034421243
117	0x3d4e9532	0.050435252
118	0x3d57031a	0.052493192
119	0xbdb7c74f	-0.08973562
120	0x3efbf70c	0.4921192
121	0xbaf8e6cf	-0.0018989685
122	0x3a83e795	0.0010063524
123	0xbd19a76f	-0.037513193
124	0x3de0b5fc	0.10972211
125	0x3d58bef3	0.05291648
126	0xbe8b1f65	-0.2717239
127	0xbd82b228	-0.06381637
128	0xbeb94ab5	-0.3618981
129	0xbe0c2766	-0.13686904
130	0x3c18c07f	0.009323238
131	0x3ecd7148	0.4012549
132	0xbdbb9a7b	-0.09160324
133	0x3e490295	0.19629891
134	0xbe14fe4d	-0.14550133
135	0xbe865a3f	-0.26240727
136	0xbe5d2493	-0.21595983
137	0x3d1a9420	0.03773892
138	0xbeba002b	-0.36328253
139	0xbddbed4e	-0.10738622
140	0x3de3e014	0.11126724
141	0x3efb92af	0.49135348
142	0x3c2e6e79	0.010646456
143	0x3d8ab967	0.06773644
144	0xbd42973f	-0.04750752
145	0xbd0620aa	-0.032745995
146	0xbd99ef21	-0.07516313
147	0xbdad1278	-0.08450788
148	0x3e269b20	0.16270113
149	0x3f90e7ff	1.13208
150	0x3ecbb2c0	0.39784813
151	0x3dc142c3	0.09436562
152	0x3ead52bd	0.33852187
153	0x3e0c119b	0.13678591
154	0x3d992ad1	0.0747887
155	0xbe4df11d	-0.20111509
156	0xbc174a2a	-0.009233991
157	0xbd980545	-0.0742288
158	0x3ec456c9	0.38347462
159	0x3e7aa3b0	0.24476504
160	0xbd6e98e4	-0.058251277
161	0xbf29714f	-0.6618852
162	0x3c5f58e4	0.013632033
163	0x3e4ed08a	0.20196739
164	0xbdf5928e	-0.11990844
165	0xbef66948	-0.48127198
166	0xbee71d2c	-0.45139444
167	0xbd43d674	-0.04781194
168	0xbede9b9e	-0.43478101
169	0x3ca19c3d	0.01972782
170	0x3defb6f1	0.11704815
171	0x3db5e20e	0.08881007
172	0x3c5d131e	0.013493327
173	0x3de39c53	0.11113801
174	0x3bf2799c	0.007399751
175	0xbcb9cebb	-0.022681585
176	0x3efe1f13	0.49633083
177	0xbc4667a3	-0.01210967
178	0x3d5bac67	0.053631213
179	0xbde14a2f	-0.110004775
180	0xbe96f05f	-0.29480264
181	0x3e0742f5	0.13209136
182	0xbe564c7a	-0.20927611
183	0x3f17ee7c	0.59348273
184	0x3df19076	0.11795132
185	0xbf227b20	-0.63469124
186	0xbe1fd694	-0.15609199
187	0xbd47d729	-0.048789177
188	0x3e1da6c4	0.15395647
189	0xbe90e2a6	-0.2829792
190	0xbe4895e9	-0.19588436
191	0xbe9c740f	-0.30557296
192	0xbf0b1f33	-0.5434448
193	0x3e6308ff	0.221714
194	0x3e795841	0.24350072
195	0x3dc13626	0.09434156
196	0x3dcd9c93	0.1003963
197	0x3f0182b9	0.5059009
198	0xbf4030d5	-0.7507451
199	0x3c8f6039	0.017501937
200	0x3d8ac16e	0.06775175
201	0xbd622b63	-0.055217158
202	0xbc70c585	-0.01469553
203	0xbe01e190	-0.12683702
204	0x3d78d6a8	0.060751587
205	0xbe2fbe5c	-0.1716246
206	0x3e1ad3fa	0.15119925
207	0xbe9003fa	-0.28128034
208	0x3e527f51	0.2055638
209	0xbf10a915	-0.56508
210	0xbe3cf3b8	-0.18452346
211	0x3e3edc31	0.18638684
212	0x3ed62057	0.41821548
213	0xbdf66cb7	-0.120324545
214	0xbdf2bfb7	-0.11852973
215	0x3eb181db	0.34669384
216	0xbcd73db8	-0.026274547
217	0xbe06b446	-0.13154706
218	0x3e71dd10	0.23619485
219	0x3dd6f037	0.10495036
220	0x3db46f55	0.088102974
221	0xbf4ca06a	-0.7993227
222	0x3ed78600	0.4209442
223	0x3e06c301	0.13160326
224	0x3ef19ed8	0.471915
225	0xbe18575a	-0.14877072
226	0xba3337aa	-0.00068366027
227	0x3eafc04c	0.34326398
228	0x3e70f1ef	0.2352979
229	0x3e230b69	0.15922321
230	0xbd02d068	-0.031937033
231	0x3e8e86c0	0.2783718
232	0xbe14640b	-0.14491288
233	0xbf4d4988	-0.80190325
234	0x3dcd89b7	0.10036033
235	0xbdaf6f2e	-0.08566128
236	0xbead5a65	-0.33858028
237	0xbdb7ac33	-0.08968391
238	0xbced005e	-0.02893084
239	0xbf0491d2	-0.51785004
240	0xbd291cad	-0.041287113
241	0xba3428f0	-0.0006872555
242	0xbd072f2a	-0.033003964
243	0xbf47bd9a	-0.78023684
244	0x3e61e1dd	0.22058816
245	0x3ef9db52	0.4880014
246	0x3ddd3946	0.1080194
247	0x3e7443d5	0.23854001
248	0x3def033b	0.11670538
249	0xbea5dd74	-0.32395518
250	0x3c316516	0.010827323
251	0xbdb783da	-0.089606956
252	0x3e93a19c	0.28834236
253	0x3c271179	0.010197037
254	0xbe1f87c7	-0.15579139
255	0x3ea001ea	0.3125146

fc1.bias f4 [64]
0	0x3d8010d9	0.062532134
1	0x3c7b56ea	0.015340546
2	0x3f04a063	0.5180723
3	0xbf0901db	-0.53518456
4	0x3fa0d26d	1.2564217
5	0xbf266949	-0.650044
6	0x3e42b245	0.19013317
7	0xbddc30ae	-0.107514724
8	0xbebd6d79	-0.36997584
9	0xbf5f3e15	-0.87204105
10	0xbf14aa92	-0.5807277
11	0xbe1eac25	-0.15495355
12	0x3eedde72	0.46458775
13	0xbf84d90b	-1.0378736
14	0xbef22497	-0.4729354
15	0xbfb9e6d8	-1.4523573
16	0xbf2d3260	-0.6765499
17	0x3fa2cef5	1.2719408
18	0xbe72cac3	-0.2371016
19	0x3f4af8cf	0.792859
20	0xbedf1f38	-0.43578506
21	0xbf556d42	-0.8336984
22	0x3efe9626	0.4972393
23	0x3e4d8852	0.20071533
24	0x3d86382e	0.06553684
25	0xbf244634	-0.6416962
26	0xbfa7df38	-1.3114996
27	0xbec6bb09	-0.38814571
28	0x3e1354cf	0.1438782
29	0x3ef70f28	0.4825375
30	0xbe383f81	-0.17992975
31	0x3ed7c321	0.4214106
32	0xbfbb6d6f	-1.4642771
33	0xbf837182	-1.0269015
34	0xbfc1f29d	-1.5152165
35	0xc004ff04	-2.078065
36	0x3ee211a7	0.44154093
37	0x3eda3716	0.42620152
38	0xbf6af256	-0.91776025
39	0xbf246b0f	-0.6422586
40	0xbdd07962	-0.10179402
41	0x3ec6f03a	0.38855153
42	0xbfd7e989	-1.6868144
43	0x3f1ca625	0.61191016
44	0x3f2660f8	0.6499171
45	0xbf6caf60	-0.924551
46	0xbeaea750	-0.34112024
47	0xbe8d2b9e	-0.2757234
48	0xbfd61da2	-1.6727793
49	0xbe520247	-0.20508681
50	0xbfacfd59	-1.3514816
51	0xbfb97378	-1.4488363
52	0xbf8338a1	-1.0251657
53	0xbf489464	-0.78351426
54	0xbfd3e9b0	-1.6555691
55	0x4002757f	2.0384214
56	0x3e6c0ded	0.23052187
57	0xbf8b1fa0	-1.0869026
58	0x3ed3c72f	0.41362903
59	0xbf65eab7	-0.8981127
60	0xbf2175ed	-0.63070565
61	0x3ee71d64	0.4513961
62	0xbf966870	-1.1750622
63	0x3e98a250	0.29811335

fc2.weight f4 [64, 64]
0	0xbd11fd64	-0.035642043
1	0xc02e459f	-2.7229993
2	0xbdf33da9	-0.11876995
3	0x3caf2bdb	0.021383217
4	0x3e80f768	0.25188756
5	0x3caf6bd2	0.021413717
6	0x3e2501d5	0.1611398
7	0xbe71c34c	-0.23609656
8	0xbf0126dd	-0.50449926
9	0xbc9f23b2	-0.0194262
10	0xbde753c1	-0.11295272
11	0xbb507674	-0.0031808885
12	0x3ebe80e7	0.3720772
13	0x3d4197f6	0.047264062
14	0xbd6e65ed	-0.058202673
15	0xbdd7a936	-0.10530321
16	0xbdc50546	-0.096201465
17	0xbeaaa549	-0.33329228
18	0x3e2dd514	0.16975814
19	0xbdb63aec	-0.08897957
20	0xbf1ec19b	-0.6201417
21	0xbf202afa	-0.6256558
22	0x3e7daba0	0.24772501
23	0xbf2e6319	-0.6811996
24	0x3e1c450d	0.15260716
25	0xbe4bf7af	-0.19918703
26	0xbdffff76	-0.12499897
27	0xbd1a5e42	-0.037687548
28	0x3f467e02	0.7753602
29	0x3dbdd792	0.092696324
30	0xbeda91b9	-0.42689303
31	0xbe88d2b4	-0.26723254
32	0xbdb6448c	-0.08899793
33	0xbdf41aad	-0.119191505
34	0x3e4d9a26	0.20078334
35	0xbebc464e	-0.36772388
36	0x3e5c7c86	0.21531877
37	0x3e0448ef	0.12918447
38	0xbd23e410	-0.04001242
39	0x3e8cb881	0.27484515
40	0x3e0d50e8	0.13800395
41	0x3b8f2459	0.0043683467
42	0x3e230efe	0.15923688
43	0x3d5eedc7	0.05442598
44	0x3eb2263b	0.34794793
45	0xbc34f049	-0.011043617
46	0x3e9ce3b4	0.30642474
47	0x3dd487c0	0.10377455
48	0xbe82f800	-0.25579834
49	0x3b969b71	0.004596167
50	0xbe1ea34c	-0.1549198
51	0x3e75bb77	0.23997293
52	0xbe719e66	-0.2359558
53	0x3ac36001	0.0014905931
54	0xbee02224	-0.43776047
55	0x3dd11765	0.1020954
56	0xbd93ec7d	-0.07222841
57	0xbebc0165	-0.36719814
58	0xbe092bcf	-0.13395618
59	0xbf0633e8	-0.5242295
60	0x3a9bd32e	0.0011888498
61	0x3dce0893	0.10060229
62	0x3d9db48b	0.077004515
63	0xbd054106	-0.032532714
64	0xbecd2cf4	-0.4007336
65	0xbe6f92c1	-0.23395826
66	0xbcb41879	-0.021984326
67	0x3e097859	0.13424815
68	0xbd852824	-0.06501797
69	0x3da2d6ca	0.07951124
70	0x3e5119ec	0.20420045
71	0xbe35bc4d	-0.17747612
72	0x3ee28b87	0.44247076
73	0x3d12e3e2	0.035861857
74	0xbeceb02f	-0.40368792
75	0x3cbd7ce8	0.023130849
76	0xbe756eb1	-0.23968007
77	0xbc07b916	-0.008283874
78	0xbeac66bc	-0.3367213
79	0x3cfe7e6d	0.031066144
80	0xbcbed184	-0.023293264
81	0x3eb14a34	0.34626925
82	0x3e713d35	0.23558505
83	0xbddda7e8	-0.10823041
84	0xbd66ef79	-0.056380723
85	0xb795feb1	-1.7880784e-05
86	0xbcec93dc	-0.028879099
87	0x3d1d24bd	0.038365114
88	0xbe327a1c	-0.17429394
89	0x3d8b6aec	0.06807503
90	0x3e61a24c	0.22034568
91	0x3d625454	0.055256203
92	0x3c84d960	0.016216934
93	0x3e1172fb	0.14204018
94	0xbf3e4d11	-0.74336344
95	0xbadbdfe6	-0.0016775101
96	0x3e515b89	0.20445074
97	0x3d4ebbf0	0.0504722
98	0xbdc6893f	-0.09694146
99	0x3d8b170a	0.06791504
100	0xbcb5ece3	-0.022207683
101	0x3dc6768e	0.09690581
102	0xbc9656f5	-0.018352011
103	0x3cf3f06b	0.029777726
104	0x3e04c94b	0.12967412
105	0x3d1e5157	0.03865179
106	0x3e3fa946	0.18716916
107	0x3da62115	0.08111779
108	0x3d3c9017	0.046035852
109	0x3c2a7b00	0.010405302
110	0xbe237536	-0.15962681
111	0xbd822c66	-0.063561246
112	0x3a4caae4	0.0007807447
113	0xbe25fd52	-0.16209915
114	0x3ef1097a	0.47077543
115	0xbeac1731	-0.33611444
116	0x3d824bb8	0.063620985
117	0x3ceb0f34	0.028693773
118	0xbf4ea61b	-0.80722207
119	0xbd882249	-0.066471644
120	0xbe4eb547	-0.2018634
121	0x3d627f35	0.055297095
122	0xbd465b77	-0.04842707
123	0x3dcc281a	0.09968586
124	0x3e6d33e3	0.23164324
125	0xbe914627	-0.28373834
126	0xbe77270f	-0.24135993
127	0xbe7db521	-0.24776126
128	0x3ddd95d4	0.10819593
129	0xbe8ab0e7	-0.2708809
130	0x3d8f3912	0.06993307
131	0x3eee2147	0.46509764
132	0x3eaa113b	0.3321627
133	0xbce3bf87	-0.027801288
134	0x3d68d3e2	0.056842692
135	0x3d01a587	0.031652
136	0x3d01b814	0.03166969
137	0xbdf5977b	-0.11991783
138	0xbe349c4a	-0.17637745
139	0xbdf8187d	-0.12114046
140	0xbd217555	-0.039418537
141	0xbdea9d52	-0.11455788
142	0xbe6ab28c	-0.22919673
143	0xbeeedb65	-0.4665176
144	0xbd823a06	-0.06358723
145	0x3ecde124	0.4021083
146	0x3e270bed	0.16313143
147	0x3e237434	0.15962297
148	0xbe493aa3	-0.19651274
149	0xbe78f390	-0.24311662
150	0x3e36f880	0.17868233
151	0xbe408860	-0.18802023
152	0x3c8fbddf	0.017546592
153	0xbd5d330a	-0.054003753
154	0xbe86eeb3	-0.26353988
155	0xbc860bb2	-0.016362999
156	0xbd81a705	-0.063306846
157	0x3ecc135c	0.3985852
158	0xbda031bf	-0.07821988
159	0x3f09a766	0.53771055
160	0xbf05284e	-0.52014625
161	0xbef88838	-0.48541427
162	0x3d8f6e34	0.070034415
163	0xbf0f4bd4	-0.5597508
164	0x3dcd6aaa	0.1003011
165	0x3e08e61c	0.1336903
166	0xbdc7e419	-0.09760303
167	0x3d2753ee	0.040851526
168	0x3c90d1b8	0.017678127
169	0xbb18f022	-0.002333649
170	0x3e575113	0.21027021
171	0x3e115c7a	0.14195433
172	0xbd978370	-0.073981166
173	0xbd2ff638	-0.042959422
174	0xbe04bf18	-0.12963521
175	0xbdc903a8	-0.098151505
176	0xbe52ada5	-0.20574053
177	0xbd1f1be4	-0.038844958
178	0xbed7a66c	-0.42119157
179	0xbe531715	-0.20614274
180	0xbecc49a5	-0.39899936
181	0xbd9af6e5	-0.07566623
182	0xbdd27738	-0.102766454
183	0x3f1302c9	0.57426125
184	0xbe216546	-0.15761289
185	0xbe898453	-0.26858768
186	0x3e50eb2d	0.20402212
187	0x3dc2ceda	0.0951211
188	0xbe3d1fe4	-0.18469197
189	0x3e5de82b	0.21670596
190	0xbe41fd71	-0.18944336
191	0x3e53e415	0.20692475
192	0xbdb28ae6	-0.08717899
193	0x3dce4e80	0.100735664
194	0xbd3d5738	-0.046225756
195	0xbd248011	-0.040161196
196	0xbe855517	-0.2604148
197	0x3e2b237e	0.16712758
198	0xbcab70cd	-0.020927811
199	0x3d411165	0.04713573
200	0xbf8fc158	-1.1230879
201	0x3e98f9a4	0.2987796
202	0x3d2ca995	0.042153914
203	0x3e44ded9	0.19225635
204	0x3c9864e7	0.018602801
205	0x3ecba82b	0.3977674
206	0x3e62e298	0.22156751
207	0xba967458	-0.0011478765
208	0xbdd88c57	-0.10573643
209	0xbe591e83	-0.21203046
210	0x3de52818	0.11189288
211	0xbdbe907d	-0.09304903
212	0x3e9699cc	0.29414213
213	0x3d8e13f2	0.06937398
214	0xbdb5cfe8	-0.088775456
215	0x3cf03b12	0.029325042
216	0x3e6c7236	0.23090443
217	0xbe614899	-0.2200035
218	0x3d9ab0db	0.07553264
219	0x3db1a06c	0.08673176
220	0xbdf129fa	-0.117755845
221	0xbe5b2ed1	-0.21404578
222	0xbd759bb8	-0.059962958
223	0xbe54e2d2	-0.2078965
224	0x3cdb4600	0.026766777
225	0x3d8d74be	0.069070324
226	0xbe8c87d1	-0.2744737
227	0x3f3229fa	0.695953
228	0x3e4393ff	0.19099425
229	0xbe798d3c	-0.24370283
230	0xbce91136	-0.02845059
231	0x3dcfc945	0.10145811
232	0xbe22ddd1	-0.15904929
233	0xbd4a8847	-0.04944637
234	0x3f186535	0.5952943
235	0xbe63e71b	-0.22256128
236	0x3f1c9685	0.61167175
237	0x3d526ae6	0.051371478
238	0xbe6f236f	-0.2335336
239	0xbe9009ab	-0.28132376
240	0x3e9397b1	0.2882667
241	0xbdb74321	-0.08948351
242	0x3e918da2	0.2842837
243	0x3ee6cb3f	0.4507694
244	0x3dca009e	0.09863399
245	0xbd2ed10e	-0.04267984
246	0x3e3b63e8	0.1829983
247	0xbe145d53	-0.14488725
248	0xbd5e8ae1	-0.054331664
249	0xbe9dea4f	-0.30842826
250	0xbeae5a9e	-0.3405351
251	0xbc49ce3f	-0.012317239
252	0x3e4eaef1	0.20183922
253	0x3ed075b2	0.40714794
254	0x3ea155c5	0.3151075
255	0x3da5f2fa	0.08102985

fc2.bias f4 [64]
0	0x3efb5cfa	0.49094373
1	0xbebc23e0	-0.3674612
2	0x3f69e2da	0.91361773
3	0xbeff6125	-0.49878803
4	0xbe9ae81f	-0.3025522
5	0x3ed62bb6	0.41830224
6	0x314b9b80	2.962878e-09
7	0xbec8849c	-0.39163673
8	0xbe800696	-0.25005025
9	0xbf852f17	-1.0404996
10	0x3d9ba2d5	0.07599417
11	0xbdb40e08	-0.08791739
12	0xbf3cf404	-0.7380984
13	0xbe7df3a7	-0.24799977
14	0x3e2a3013	0.16619901
15	0x3b0376af	0.0020059755
16	0x3f241bef	0.64105123
17	0x3e9f0bd8	0.31063724
18	0x3e391c4c	0.180772
19	0xb932923c	-0.0001702988
20	0x3c1829a8	0.009287275
21	0xbedf600f	-0.43627974
22	0x3ea48a67	0.32136843
23	0xbf87be60	-1.0604973
24	0x3d348edf	0.044081565
25	0xbda8ff55	-0.08251826
26	0x3e848545	0.25882927
27	0x3e5b8f09	0.21441282
28	0xbf184457	-0.5947928
29	0xbf0a64fd	-0.54060346
30	0x3e179d4a	0.14806095
31	0xbd2cd13e	-0.042191736
32	0xbd88610c	-0.06659135
33	0xbd9e1f11	-0.07720769
34	0x3f49aa9d	0.7877596
35	0xbcd33d0b	-0.025785943
36	0x3da2294b	0.07918032
37	0xbd1a1281	-0.037615303
38	0x33fe6fcc	1.18481324e-07
39	0xbdce07c0	-0.10060072
40	0xbed9cdb9	-0.42539766
41	0x3f0e3feb	0.5556628
42	0xbccd6123	-0.025070732
43	0x3d0c26e0	0.03421676
44	0xbd5444c0	-0.051823378
45	0x3e61e79a	0.22061005
46	0x3f269536	0.6507143
47	0xbf00cb18	-0.50309896
48	0xbe6a60f0	-0.22888541
49	0x3d954dcf	0.072902314
50	0x3d72653b	0.059178572
51	0xbf1640d3	-0.58692664
52	0x3e3bbe83	0.18334393
53	0x3e919ff5	0.2844235
54	0x3bf498bf	0.007464498
55	0x3e3d3208	0.18476117
56	0x3e5a68cf	0.21329044
57	0xbf39c46b	-0.72565335
58	0xbedceb7f	-0.4314842
59	0xbf26e476	-0.65192354
60	0x3ddd8fe8	0.108184636
61	0x3dbc49ee	0.091937885
62	0x3eb21b72	0.34786564
63	0x3eaddc55	0.33957162

fc3.weight f4 [2, 64]
0	0xbd5d644d	-0.054050732
1	0x3d844bc2	0.06459762
2	0x3d962d60	0.07332873
3	0xbd9d3794	-0.07676616
4	0x3d467d43	0.048459303
5	0xbd113c3d	-0.03545784
6	0xb5217714	-6.0150455e-07
7	0x3c93e516	0.018053573
8	0x3ec9070e	0.39263195
9	0xbea64dab	-0.3248113
10	0x3e6705d9	0.22560824
11	0xbd218298	-0.039431185
12	0x3dce1aec	0.10063729
13	0xbc2459d4	-0.010031182
14	0xbe6a1da5	-0.22862871
15	0x3ff0adc6	1.8803031
16	0x3c0fe7ae	0.008783264
17	0xbe449736	-0.19198307
18	0xbddb77f8	-0.107162416
19	0xbe138c65	-0.14409025
20	0xbd856658	-0.06513661
21	0x3e6f1411	0.23347498
22	0x3d4fb4e4	0.05070962
23	0xbce88de3	-0.02838797
24	0x3e05d2a5	0.13068636
25	0x3e82c105	0.25537887
26	0xbccf7dc9	-0.025328534
27	0x3d0bb9b0	0.034112632
28	0x3df7892b	0.120867096
29	0xbddafcea	-0.10692771
30	0xbe83c1a6	-0.2573368
31	0xbe94c5fc	-0.290573
32	0x3ec1abe5	0.37826458
33	0x3e283b38	0.1642884
34	0xbd64c8e2	-0.05585564
35	0xbe28c635	-0.1648186
36	0xbd08c9cc	-0.033395573
37	0x3c997249	0.018731253
38	0x34d5e320	3.9839597e-07
39	0x3e254940	0.16141224
40	0x3d801530	0.06254041
41	0xbcd33061	-0.025779905
42	0x3dfa600c	0.12225351
43	0xbea48d1d	-0.3213891
44	0xbd54bacd	-0.05193596
45	0xbf112134	-0.5669129
46	0xbdbd5bc7	-0.09246021
47	0xbf3e66a1	-0.7437535
48	0x3e0c1ea3	0.13683562
49	0x3cfd380d	0.030910516
50	0x3e866939	0.26252154
51	0xbd9b14df	-0.0757234
52	0xba9597fa	-0.001141309
53	0xbd73bf00	-0.059508324
54	0x3ec00695	0.37505022
55	0x3d9f5558	0.0777995
56	0x3e55e1b1	0.20886876
57	0x3e01f456	0.12690863
58	0xbcd3e5f4	-0.025866486
59	0xbc1b2e08	-0.009471424
60	0x3f1aeb70	0.605155
61	0xbdeada12	-0.11467375
62	0x3c08b4b9	0.008343869
63	0xbd4f707a	-0.050644375
64	0x3f8bb1a4	1.0913587
65	0x3e498973	0.19681339
66	0x3f125692	0.57163346
67	0x3f32b910	0.6981363
68	0xbedae59f	-0.42753312
69	0x3ef97031	0.48718408
70	0x350f14df	5.330202e-07
71	0x3eb5c4e3	0.35501775
72	0x3e859e13	0.26097164
73	0x3f6e13dd	0.9299906
74	0xbd844ba5	-0.064597405
75	0x3e960fec	0.29309022
76	0x3f1a67d3	0.60314673
77	0xbe804287	-0.25050756
78	0x3dc27882	0.09495641
79	0xbcda0b28	-0.026616648
80	0x3e4e7424	0.20161492
81	0x3ddee0d3	0.108827256
82	0xbebbc182	-0.36671072
83	0xbd425dc6	-0.04745271
84	0x3f0371e3	0.5134565
85	0xbc91e0d8	-0.01780741
86	0xbeedaf31	-0.46422723
87	0xbf2b807f	-0.66992944
88	0x3e5719e9	0.21005978
89	0x3cdd70a4	0.02703125
90	0xbea3f968	-0.3202622
91	0x3e877bf4	0.26461756
92	0xbfa0dc62	-1.2567255
93	0xbf0383cf	-0.51373
94	0xbd15e468	-0.03659478
95	0x3b2e49a8	0.0026594196
96	0xbdccb1be	-0.09994839
97	0xbb2b25c0	-0.002611503
98	0xbed02046	-0.40649623
99	0x3e8e7bad	0.27828732
100	0x3e3cc369	0.18433918
101	0xbe985d89	-0.29758862
102	0x34955ea1	2.7822264e-07
103	0xb8d877a2	-0.00010321966
104	0xbf35144f	-0.70734113
105	0x3e7171d5	0.2357858
106	0x3e82f747	0.25579283
107	0xbcab2368	-0.020890906
108	0xbeeeeba1	-0.46664146
109	0xbe040ce2	-0.1289554
110	0x3f44d965	0.7689422
111	0x3b42eb2f	0.002974223
112	0x3ec2bbfc	0.38034046
113	0xbeb549c5	-0.35407844
114	0xbde965d7	-0.113963775
115	0x3ee82067	0.4533722
116	0xbeb0aada	-0.3450535
117	0xbf10213f	-0.5630073
118	0x3d0346f7	0.0320501
119	0xbe5ccf31	-0.21563412
120	0xbc29d65c	-0.010366049
121	0xbf0cdcf2	-0.55024636
122	0x3f8c4e03	1.0961307
123	0xbf1007c5	-0.56261855
124	0x3cc6e83c	0.02428066
125	0xbe9f04e2	-0.31058413
126	0xbe90f44a	-0.28311378
127	0xbedc6d2c	-0.43052042

fc3.bias f4 [2]
0	0xbc8707a1	-0.01648313
1	0xbe2bec71	-0.16789414
