Model/traced_model.pt (torch, 18023 bytes, 7 tensors)

input_weights f4 [6]
000000 00 00 00 3f 00 00 c0 3f 00 00 80 3f 00 00 00 40
       0.5 1.5 1.0 2.0
000010 00 00 c0 3f 9a 99 99 3e
       1.5 0.3

weight f4 [32, 6]
000000 6d ee 34 be c5 81 5e be 22 8b 7b bd 2f 1a e7 bb
       -0.17669077 -0.2172919 -0.061411984 -0.007052682
000010 8f e6 88 3e 6c f1 fe 3e f7 67 80 3e c8 42 0f be
       0.26738402 0.49793565 0.2507932 -0.13990319
000020 ca 7e 2e bf fa 9b 49 3e 86 48 43 be f5 78 5a be
       -0.68162215 0.19688407 -0.19070634 -0.21335204
000030 17 31 09 bf c0 2d bf be bd 8a c2 be 41 12 b5 bc
       -0.5359053 -0.37339592 -0.37996474 -0.02210343
000040 f2 5d 78 3e e5 2c a0 bd 3e 25 45 bf 56 86 33 bd
       0.24254587 -0.07821063 -0.7700995 -0.043829285
000050 61 7f dc be 42 3e ca 3d a7 65 d7 3c 54 34 53 3e
       -0.43065932 0.09875156 0.026293589 0.2062543
000060 c5 ec 49 bf c8 bd 71 3d 67 9d 33 be ac b5 c0 3d
       -0.78876907 0.05901888 -0.17540513 0.09409651
000070 c1 cc 2f bc 1b 22 c6 3e a7 74 43 3e e1 6f 45 be
       -0.0107299695 0.38697895 0.19087468 -0.1928096
000080 ed cc fb be 95 f7 fa 3d ff 9e 73 3e 90 a8 40 3e
       -0.49179783 0.12254254 0.23791121 0.18814301
000090 17 85 19 bc 65 24 d5 3d a3 d4 d4 3d 33 42 ec 3e
       -0.00937011 0.10407332 0.1039212 0.46144256
0000a0 13 f2 7f 3c e5 d0 8a be 1e 94 9c 3d 17 03 b0 be
       0.01562168 -0.271125 0.076454386 -0.34377357
0000b0 76 37 28 be f4 a9 9d be d4 9f 84 be b6 b5 60 3e
       -0.16427407 -0.30793726 -0.2590319 0.21944317
0000c0 db db a5 be 57 1c 69 be 02 38 ca 3e 22 59 b0 bd
       -0.323943 -0.22764717 0.39495856 -0.08610751
0000d0 0c 8c a6 be 03 d1 57 be 7b 17 40 3e 63 1d 53 be
       -0.32528722 -0.21075825 0.18758957 -0.20616679
0000e0 6b 7d 68 3e 7e ed 00 3d ae e6 b1 3e f8 b7 e3 be
       0.22704093 0.03147649 0.34746307 -0.44476295
0000f0 52 84 53 3f ae 85 af 3e cd fc 91 bd 02 dc 98 be
       0.8262378 0.34281677 -0.07128296 -0.29855353
000100 a4 bd c9 3d d0 38 6a be f8 e3 3d bd e8 f2 91 3e
       0.09850624 -0.22873235 -0.046359986 0.28505635
000110 a9 32 ac 3e e2 e4 3f 3e f3 fe 7d bd 1f 71 aa bd
       0.336324 0.18739656 -0.062010717 -0.083223574
000120 a8 36 14 3f 05 b5 01 3f c7 8d ee 3d 51 f2 82 3e
       0.578959 0.5066684 0.11648136 0.25575498
000130 8f 38 0d be 44 55 07 be 47 20 fa bc b7 0a 8a be
       -0.13791107 -0.1321612 -0.03053297 -0.269613
000140 58 30 0d bf 39 a0 95 3e 21 80 a0 3e 82 54 4e 3e
       -0.5515189 0.29223803 0.31347755 0.20149425
000150 a6 d3 2e be ea 68 24 be 5f 79 b4 3e a0 e9 ca 3e
       -0.17072925 -0.16055647 0.3524885 0.39631367
000160 ac 2c b3 be e8 a3 8a 3d ef ab 0b be ec ea 12 3e
       -0.3499502 0.06769544 -0.13639806 0.14347428
000170 e2 7d 87 3d a2 d6 82 be 41 7a f5 be 7b 2a 3f 3d
       0.06615807 -0.25554377 -0.47944835 0.046671372
000180 f3 79 9e be a2 15 5d 3d 73 5c 95 be 9f 65 29 be
       -0.30952415 0.05397571 -0.29172096 -0.16542672
000190 8b be 0d be d3 07 77 3e 01 b7 09 bf d0 60 9d be
       -0.13842218 0.24124078 -0.53794867 -0.30737925
0001a0 05 10 e4 3e 91 90 9d be d4 d3 88 3e 55 46 f0 be
       0.44543472 -0.30774358 0.26724112 -0.4692866
0001b0 e0 3e ab be f0 db 3f 3e 8b 3b 96 3c 56 02 9b be
       -0.33446407 0.18736243 0.01833894 -0.3027522
0001c0 11 74 2d be ba ce ac be 93 52 03 be 02 f1 9d 3e
       -0.16938807 -0.3375147 -0.12824468 0.30847937
0001d0 4c 63 aa be b4 af 3c be a0 f5 c1 3e 39 bd 53 be
       -0.33278883 -0.184264 0.3788271 -0.20677651
0001e0 1e e6 36 3f 46 fb 49 bd 70 83 bb be 82 19 6a be
       0.7144488 -0.0493119 -0.36623716 -0.22861293
0001f0 34 95 42 3e 2b cd d4 3e 10 00 29 be a6 55 dc be
       0.19002229 0.4156278 -0.1650393 -0.43034095
000200 1c d3 b2 bc b8 f3 28 3e 78 ec c5 be 47 cc e4 3e
       -0.02182918 0.16499221 -0.38656974 0.446871
000210 c9 81 fb 3e c2 d2 a6 3e f6 2c 8a be 2d 64 4f 3e
       0.49122456 0.3258267 -0.26987427 0.20253058
000220 2b 9e 9c be 91 67 e7 3d dd a8 d3 3e 65 bc 1d 3e
       -0.30589423 0.112990506 0.4133977 0.15403898
000230 e2 d2 f1 3e 5c b3 1f be 63 e4 8b bc 27 a6 bc be
       0.47231203 -0.15595764 -0.017076677 -0.36845514
000240 2f f4 4e 3f 6b d7 a8 bd 94 a0 3b be f0 2f a5 be
       0.80841345 -0.08244213 -0.18322974 -0.32263136
000250 d1 57 65 bd a7 c7 be 3e 4a a5 48 3e 56 5b b9 bc
       -0.05599195 0.37261698 0.19594303 -0.02262656
000260 3c 04 95 be 98 81 59 be d5 87 2f 3e 89 cb e1 3c
       -0.29104793 -0.21240842 0.1714166 0.027562873
000270 43 7a 75 bf a3 9f 2c 3d a8 fb 09 be e6 ad 3b be
       -0.9588968 0.04214443 -0.13474905 -0.18328056
000280 ff 2a e1 bd eb c1 c6 bc d2 3a cd be 28 4e 69 bd
       -0.10994529 -0.02426239 -0.4008394 -0.0569593
000290 2b 17 9f bc 68 9b 97 be 8e a2 bd 3e bd 43 1e 3e
       -0.019420227 -0.29610753 0.37038082 0.15455528
0002a0 5a a1 06 bf fe b7 ac 3e 35 24 0b 3e 0a 3a 33 3e
       -0.5258995 0.33734125 0.1358803 0.17502609
0002b0 df 89 65 3d 89 9c ab bb 67 71 4f 3e f8 68 2b 3e
       0.056039687 -0.0052371663 0.20258103 0.16739261
0002c0 f4 77 ea 3e 6c 46 c8 3d f5 ab be 3e 32 f8 03 3e
       0.45794642 0.09779057 0.37240568 0.12887648
0002d0 fc 1a bd 3e d4 ee ac 3e a5 b6 6d 3e d3 04 ce 3e
       0.3693465 0.3377596 0.23214205 0.40238056
0002e0 1a b2 ce bc 8d a2 db bd 6d 91 9f be b9 30 ab be
       -0.02523141 -0.107243635 -0.3116564 -0.3343561
0002f0 a9 da 9c 3e ee f8 6d 3e b0 20 c2 bd c6 11 64 3e
       0.30635574 0.2323949 -0.09478891 0.22272405

bias f4 [32]
000000 ef 44 46 3d 4e 67 be 3d 84 dc 5a be e4 65 5e be
       0.048405584 0.092970476 -0.21373183 -0.21718556
000010 eb 96 f5 3d d3 69 04 3f 2a ef b8 3e dd 06 85 be
       0.11991676 0.51723975 0.36119968 -0.259818
000020 9b ce 01 bd 28 bf 88 3e e3 57 13 be a8 e8 4c 3e
       -0.031691175 0.2670834 -0.14388995 0.20010626
000030 1e f7 0a bb 30 a7 94 be 0a 95 9c be 7a 61 1b be
       -0.0021204422 -0.29033804 -0.30582458 -0.15173903
000040 93 2c bb bd 4f 1b 2c 3e a3 0b aa be 2d f4 8d be
       -0.09139361 0.16807292 -0.33212003 -0.27725354
000050 be 9c ea 3d ab 9a 86 3e 2d 78 ce 3c aa 2e 76 bd
       0.114556774 0.26289877 0.025203789 -0.060103096
000060 3b 19 f0 bd f6 f8 26 3e 4d 59 cd 3d 11 1c 5f bd
       -0.11723562 0.16305909 0.100267984 -0.054470126
000070 1e a7 17 be de 00 03 3f 41 3c 9b be 1b 3b 65 be
       -0.14809844 0.511732 -0.30319408 -0.22385828

weight f4 [32, 32]
000000 ab 20 85 3e 3d 19 2b bd 0f aa 2d 3c 64 13 1b be
       0.26001486 -0.041772116 0.010599627 -0.15144116
000010 78 fe 81 be ba e6 59 3d 3d 81 a9 bc 91 b4 56 be
       -0.25389457 0.053198554 -0.020691508 -0.20967318
000020 6c 15 b6 bd a1 ea f2 bc 82 90 0d 3e b6 ff 50 bd
       -0.08890805 -0.029652895 0.13824657 -0.051025115
000030 2a 7d fb ba 1c 39 21 be f6 7d 50 3d 76 de 7e be
       -0.0019187082 -0.15744442 0.050901376 -0.2488955
000040 fe 56 2a 3d ce 67 6d bd 9d 63 cb bc 99 21 93 bd
       0.04158687 -0.057960324 -0.024827773 -0.071841426
000050 41 9d 3b 3e 3e d6 8e be d0 3b 50 3e 63 83 5b 3c
       0.18321706 -0.2789783 0.20335317 0.013398024
000060 9a ba 2b 3e a0 97 be bd da fd 19 bd 3f 33 49 3e
       0.16770402 -0.09306264 -0.037595607 0.19648455
000070 65 0a 7d be a3 c9 df 3b a9 63 bd bd f5 09 4b be
       -0.24710996 0.006829457 -0.09247524 -0.19828017
000080 2a d8 6c bd 65 ab 87 bd 1d 0f a9 bd 3d b0 d5 3d
       -0.057823338 -0.06624488 -0.08254836 0.104340054
000090 27 1d 86 3e d8 0e 8f ba 8c dc 3d 3d 8a fd 61 3d
       0.26194116 -0.0010914458 0.046352908 0.055173434
0000a0 60 50 ca 3d 8b b5 b0 3d 71 f7 d6 bd 8a b0 0d 3e
       0.098786116 0.086283766 -0.104964145 0.13836876
0000b0 d7 8f 8d 3d ad 36 12 be 94 59 fc bd 51 58 1c bd
       0.06912201 -0.1427867 -0.12321773 -0.038170163
0000c0 2c e5 b5 3d 1c a1 30 3c 07 34 b1 3d 27 b4 f0 3d
       0.08881602 0.010780599 0.086525016 0.11753111
0000d0 3a 0c 5f be 13 3e 30 3d 68 0d 34 3d 37 ef 20 be
       -0.21782008 0.04302795 0.043958098 -0.15716253
0000e0 5f 3a 6c be 83 1b 79 bd 10 cd 6d bc 13 53 5b be
       -0.23069142 -0.060817253 -0.014514223 -0.21418409
0000f0 ab d4 e8 3c 72 73 3a 3e 33 aa be 3d 9a c0 f6 bb
       0.02842172 0.18208101 0.09309807 -0.007530284
000100 d0 0f a7 3d 54 e1 fa 3c 45 8a d3 bd bb a5 7d be
       0.08157313 0.030625023 -0.10329107 -0.24770252
000110 87 3c 9c 3d db 00 1f 3e d3 e5 a0 bd d1 ad 05 3e
       0.07628732 0.1552767 -0.078563355 0.13054587
000120 37 3e bf bd d4 0c ca bd 3c ff 64 be 00 d5 09 3e
       -0.093380384 -0.09865728 -0.22362989 0.1346016
000130 f4 f7 00 be 37 27 34 be 2b 03 7e bd 7c bf b5 3d
       -0.12594587 -0.17593084 -0.06201474 0.08874413
000140 8e b7 1e 3d 40 f0 34 3e 13 46 4e 3e 85 60 dc 3d
       0.03874927 0.17669773 0.20143919 0.10760597
000150 49 3c 40 be d6 7d e9 bc 54 9f 20 be e1 5d 72 be
       -0.18772997 -0.028502386 -0.15685779 -0.23668624
000160 94 02 48 bc 8a 55 8f bd 6c a9 17 3e c3 56 20 3d
       -0.012207646 -0.06998737 0.14810723 0.039145242
000170 28 b9 0f 3e 18 f7 14 3d 47 24 9b be 93 eb 1d be
       0.14035475 0.03636846 -0.30301115 -0.15421896
000180 70 9a 25 be f6 26 2f bd 68 7b 82 ba df ca 08 3e
       -0.16172194 -0.042761765 -0.0009954991 0.13358639
000190 0b 47 dd 3d 73 32 7b 3d 56 d7 41 3e e5 82 d4 3c
       0.10804566 0.06132741 0.189298 0.025941322
0001a0 a0 ee a6 3d 6a 38 53 bd 9f 94 80 bd 0a e2 3a 3e
       0.08150983 -0.051567473 -0.06278347 0.1825029
0001b0 ae b5 29 3e 9b 2f 9d 3d a7 fd df 3d 51 45 d9 3d
       0.16573212 0.07675096 0.10937052 0.10608924
0001c0 8d 57 d9 bd cc 29 0d bd 60 43 41 be 58 b5 32 3e
       -0.10612402 -0.03446369 -0.18873358 0.1745199
0001d0 54 b9 af 3d 08 e0 0e 3e 49 57 35 bd 8d 37 1b 3d
       0.085802704 0.13952649 -0.044272695 0.037894774
0001e0 b0 de f6 3d fc f5 4d bd de 77 61 be 5f e7 01 3e
       0.12054193 -0.050283417 -0.22018382 0.12685917
0001f0 6e 30 04 bd a6 89 08 3e 32 aa 16 bd 37 d0 cf bc
       -0.03227275 0.13333759 -0.036783405 -0.02536784
000200 40 a4 c2 bd 24 0a 06 be bd 8f a6 3d dd 57 16 bd
       -0.095039845 -0.13089806 0.08132885 -0.036704887
000210 68 20 97 bd 86 a1 2d 3e df 58 62 3d f0 47 cb 3d
       -0.07379228 0.16956148 0.055260535 0.0992583
000220 fb 50 b6 3d 1b 9e 44 3c 2b 8b 11 be 5b 4f 66 3e
       0.089021645 0.012000586 -0.14213245 0.22491209
000230 6f eb d0 bb 5d d4 49 3d e8 91 31 3c b5 c8 e6 bd
       -0.006375722 0.04927479 0.010838009 -0.112687506
000240 33 83 19 be 98 fb 3a bd 8d 6a 5c bd 16 57 81 3d
       -0.14991455 -0.045650095 -0.053812552 0.063154384
000250 99 7c b1 3c 9c 28 57 3e 5a 57 0e be 1c 4c 9f 3d
       0.021665858 0.21011585 -0.1390051 0.077781886
000260 61 89 7e bc d4 65 11 bd 7a ab 3a be 2a 5b a3 3c
       -0.015535683 -0.0354975 -0.18229476 0.019940931
000270 f0 4a df 3c b4 b9 b6 bd bb 65 23 bd 09 c2 c5 3d
       0.027257413 -0.08922139 -0.03989194 0.0965615
000280 75 02 b3 3d bd da 66 3b 00 75 72 3e d0 2e c3 3e
       0.08740703 0.0035225593 0.23677444 0.38121653
000290 69 51 6d 3e 6e 1f e9 bd 2e 03 bd 3a 0c 71 6d bd
       0.23175587 -0.11382948 0.0014420503 -0.057969138
0002a0 6e 2e 1b 3e 5d f9 40 be bb 31 6a be 96 5a 38 be
       0.1515443 -0.18845125 -0.22870533 -0.18003306
0002b0 0d 86 fd bd 34 95 90 bd 5e 06 c8 3d 63 35 d4 bd
       -0.12379084 -0.07059708 0.097668394 -0.10361745
0002c0 83 66 29 3e a0 25 c0 3c e6 da 28 3e 47 ee 41 3d
       0.16543011 0.023455441 0.16489753 0.04734638
0002d0 b0 85 09 bd d8 2a c9 ba f5 45 17 be 1e 9d e3 bd
       -0.03357476 -0.0015347851 -0.1477278 -0.11113952
0002e0 96 bd 97 be ee 5e 94 3c d4 2e 8d 3e ad 9e 03 3e
       -0.2963683 0.018111672 0.2757479 0.12853499
0002f0 a3 1f 8c bd 18 11 b8 bd 20 8c 38 3d 67 8d 79 bd
       -0.06841972 -0.089876354 0.04505551 -0.060925867
000300 d2 54 13 be 05 4f 20 3e bc e8 b8 bb 56 96 b6 3d
       -0.14387825 0.15655144 -0.0056429785 0.08915393
000310 ff a8 28 be aa 95 8c 3c f2 2e a6 3c e6 8a ff bc
       -0.16470717 0.01716121 0.020286057 -0.031194162
000320 9e 22 d5 3c f4 35 47 3e 2e 9b e0 bd 4b a4 1b 3e
       0.026017483 0.19454175 -0.10967098 0.15199392
000330 26 60 81 bc ee b9 28 3d 68 e0 a3 3e 5b 43 0b bd
       -0.015792917 0.04119294 0.32007146 -0.033999782
000340 a1 dd 81 be b0 5b ff 3d 41 19 be bc 0b 9c 17 be
       -0.25364402 0.1246866 -0.023205401 -0.1480562
000350 7f 78 bb 3d 34 44 64 be 7b fe be bd 55 7d 1e 3e
       0.09153842 -0.22291642 -0.09325882 0.15477498
000360 73 c5 72 bc 72 cc 86 be 7f 42 ce 3d a0 18 9a bc
       -0.014817583 -0.26327854 0.10071277 -0.01881057
000370 85 b6 b4 3e 20 39 0d 3e 0c eb 4c 3e de e4 2b bc
       0.352955 0.13791323 0.20011538 -0.010491578
000380 a1 88 28 3e e6 ba 73 3c e7 69 3c bd 53 0a 34 be
       0.1645837 0.014876103 -0.045999434 -0.17582063
000390 93 aa b6 3d ca b1 c7 3d 92 5b a4 bd 7d 9d f1 3c
       0.08919253 0.097507074 -0.08025278 0.029494042
0003a0 b6 95 b9 bd 83 22 56 be 5d 15 36 be 75 28 24 3d
       -0.09061758 -0.20911603 -0.17781587 0.040077645
0003b0 ae 16 84 be 0a 45 09 be 33 b9 69 be be bc 31 bc
       -0.25798553 -0.13405243 -0.22824554 -0.010848222
0003c0 1e b1 c9 3d 5e de cc 3d 0c ce b9 3c bf 7f eb 3c
       0.098482355 0.10003351 0.022681259 0.028747438
0003d0 be b3 01 be 74 cb f6 3c 20 91 a9 bc 2e 67 fb bd
       -0.12666222 0.03012631 -0.020699084 -0.12275539
0003e0 d5 86 41 be de 38 54 3d dd 9b c1 3e f1 a5 e6 3d
       -0.1889909 0.051812045 0.37814227 0.112621196
0003f0 fe 85 c1 3d 95 2a ac bb 86 90 51 be ac 04 4d be
       0.09449385 -0.0052540996 -0.20465288 -0.20021313

bias f4 [32]
000000 8e 97 09 3e 56 ec 46 bc b6 15 c5 3d 9a 6a 3a 3e
       0.1343672 -0.012141308 0.09623282 0.18204728
000010 49 e6 f9 3d 86 bd 3c be d2 e8 88 be b0 06 26 3e
       0.122021265 -0.18431672 -0.26740128 0.16213489
000020 25 ab 0d 3e da fd 9d 3d 90 e9 58 bd 6c f1 61 3d
       0.13834818 0.07714434 -0.052957118 0.05516188
000030 56 1f 2f be 34 26 59 3e b6 10 9c 3c 5e 74 30 be
       -0.17101797 0.2120598 0.019050937 -0.1723189
000040 7a 93 55 be 76 ad 3b 3d 7c 0d 3d bd 9e 10 d4 3d
       -0.20857039 0.045819722 -0.046155438 0.10354732
000050 c5 46 72 3e 04 87 d2 3d 01 94 cb 3d 7d 53 68 be
       0.23659809 0.102796584 0.09940339 -0.22688098
000060 b0 c0 f7 bd a4 a5 5c be 2d 0a 2e bc 02 41 5d 3e
       -0.12097299 -0.21547562 -0.010622543 0.2160683
000070 70 82 b9 bd 94 2b fc bd 16 52 96 bd 81 c3 3d bd
       -0.09058082 -0.12312999 -0.073398754 -0.046329025

weight f4 [2, 32]
000000 69 44 21 3d f8 73 a1 3d 32 6e c1 bd 2c f0 4e 3d
       0.03937188 0.078834474 -0.09444846 0.050522014
000010 6e fa 46 3a 28 6e 25 3b d3 9e 59 bc 25 43 4a 3d
       0.00075904175 0.002524266 -0.013282496 0.04938044
000020 fb a3 21 3d 8a 2a c3 bd bc 6e cc 3c c7 a5 42 3c
       0.039463025 -0.09529598 0.024955146 0.011880345
000030 78 ad a0 3a a1 9b b2 3d 44 e5 9e 3d 60 eb ec 3c
       0.0012258729 0.0872109 0.07758573 0.02892083
000040 45 44 9c bd 17 a2 bb 3d 62 e0 ae bc ef ec 0e 3d
       -0.07630209 0.091617756 -0.021347228 0.034893926
000050 8a b4 0b 3e bf a1 f4 bc f0 8c a6 3c 45 aa 96 bc
       0.13643089 -0.029862283 0.020330876 -0.018391738
000060 d8 17 3f bd ce a0 0b bc 59 2a 14 3c ec cd 5c 3a
       -0.0466536 -0.008522226 0.0090433 0.0008423019
000070 82 6e f2 3d f5 0c 52 bd 2a 7e f6 3c c5 8b 2d 3c
       0.11837484 -0.051281888 0.030089457 0.010592406
000080 67 33 28 be c5 c6 91 3d d6 ae 91 be 04 f3 d6 3d
       -0.16425858 0.071179904 -0.28453702 0.1049557
000090 b3 38 b3 3d f3 19 08 3f 7d 77 73 be 72 7b aa be
       0.08751049 0.53164595 -0.2377605 -0.33297306
0000a0 8b c9 17 be b3 7c af 3d e8 dd 77 be 21 bb d2 be
       -0.14822976 0.08568706 -0.24205744 -0.41158393
0000b0 66 5f 9c 3e 75 ef 12 3e 76 85 f5 3d 0d 92 96 3e
       0.30541533 0.14349158 0.11988346 0.29408303
0000c0 67 46 d0 3d 33 e9 b0 3c 55 89 e2 bd f4 62 83 be
       0.10169678 0.021595573 -0.1106135 -0.25661433
0000d0 9b 52 23 3c 2d 89 9e 3e d2 f8 b7 be 07 7b 09 be
       0.009968425 0.30964032 -0.35932022 -0.13425837
0000e0 38 b3 bc bd 2b 68 db be 84 34 45 3e 79 6b 5d 3e
       -0.09213871 -0.4285291 0.19258314 0.21623029
0000f0 c1 9b d2 3d 8d 22 6e be bf a7 fe 3c 8c 5f 3a be
       0.10283614 -0.23255368 0.031085847 -0.1820051

bias f4 [2]
000000 49 72 15 3e 23 5c 5b 3e
       0.14594378 0.21421866
