racecar_nn_controller/racecar_nn_controller/models/model_noisy_31_64.pth (torch, 21938 bytes, 7 tensors)

input_weights f4 [6]
00000000: 0000 a040 0000 a040 0000 a040 0000 803f
00000010: 0000 803f 0000 803f
5.0 5.0 5.0 1.0 1.0 1.0

fc1.weight f4 [64, 6]
00000000: 5884 c23d e782 423d c4b4 ba3d a869 d6bd
00000010: b6a2 e13e 2468 493f 9f31 0c3e b856 333e
00000020: 9151 333e 0586 573f 8bbb 33bd 38d9 7e3d
00000030: df52 bebe 80ca 8f3e 460b fa3e 359e 2f3f
00000040: 9116 c9be 52a5 86be 9365 293d 392b 96bc
00000050: 8075 7ebe be77 15be e79e a53d 322f 933e
00000060: 0a17 063f 0cc0 053e a434 af3e ce85 3f3e
00000070: 9ab3 cabe b81d f9be f3fe 62bf aafd 06bd
00000080: 8272 0dbe f4b7 ecbd d004 d9bd 2694 62be
00000090: ed95 493e 0354 d43d 5799 48bd 9045 cebd
000000a0: c450 1c3d b06b 3fbf 14d3 c53e bcfa 543d
000000b0: c300 cf3d 2f5b 08bd f9ea 1dbd 183a 9b3e
000000c0: 4b31 ad3d 0f4c 0dbd a220 5fbe 46f4 e73e
000000d0: ddc3 1fbd a94c 0fbe c501 b1bb 11a0 37be
000000e0: 1ba7 8dbe 0a13 6abe 93ba c83e b8d9 fa3e
000000f0: f898 473e 4002 383e ab2a 283e cdfd 03bf
00000100: a12e fdbd d11f cb3c a298 fcbe adfe 8a3d
00000110: 9154 5a3e dd96 8a3e a934 c1bd 6322 53be
00000120: ff4a aabe bd8a 493c 5661 abbd f3db a5bc
00000130: 9140 b53d c1c7 cf3e 1ab1 653e bf1a e6bb
00000140: 584d ab3b 3075 f43d 97a2 2840 7082 9dbd
00000150: 1df8 4b3e 707b a23c 01a8 613e c553 7b3e
00000160: e1e6 3dbe 1a34 b93e d812 693d 2d44 ec3d
00000170: b311 0fbe d76b 4d3e 25b5 80be 7cde 65bd
00000180: 72b0 3b3d fa64 a1bd e47f 82be 6de2 ecbd
00000190: a26e 86be 38d5 52be 91fb 2b3e 5672 5c3e
000001a0: fe80 a1be ddb9 223e 2083 0ebd be19 9f3d
000001b0: 0ee5 c4be fa39 82bd 1526 86bd d1ec 6dbd
000001c0: 7e30 0abe d90a 56be 8efb 10bf b303 683c
000001d0: b52f b13d 28a9 363a 4dbe 86bd 7b30 70be
000001e0: 3d33 8f3e 5096 b83d 5f3c c93b e21f c13f
000001f0: e2f7 ab3b f216 bdbe 0311 94be 4c6f 8b3a
00000200: 0cc1 cbb9 8af3 6e3f 38c2 a03d e6cc c73d
00000210: b413 60bd bac4 83be 992f af3e b9bc 19bf
00000220: b2e5 93be dc32 c23d b7fb 3ebe 12f2 b7bc
00000230: cb64 8cbe b023 8f3f 9d52 a9bd 34e3 d53d
00000240: 12ec fa3e 6b49 36be 8f45 47bd 6add 13be
00000250: f007 fb3d af34 87be 74f1 b2be a666 2b3e
00000260: 5c37 97be 6099 3e3f 3968 853c e5de 063e
00000270: 5841 c83b 7521 33bd a100 fb3e 215e 243f
00000280: fe49 373d 425e 34bf 481e 843e 8914 f0bd
00000290: bc92 923e 5383 69be 7d81 773e 4566 113f
000002a0: 5f31 a8bd 51dd 51be cb64 213f 3179 f3bc
000002b0: 6529 ea3d 058e b9bc 340b cfbd 2f90 283e
000002c0: cc80 93bd e290 40bf f4af 64bd 63f9 873c
000002d0: ccba 6dbb d2e2 01be e49f 903e 839c acbd
000002e0: f191 353e c3ca de3e 0759 12be f69e 803d
000002f0: 7152 b23d 503a 12bf a837 99be 2d15 fabe
00000300: 8b41 91be 4ee1 4abe 3e80 3bbe 445b 3abc
00000310: 7950 b0bd e21a 8bbe 1dc0 143e 3f2f f73d
00000320: 5e6d d1bd 624d 55bf 36fa 1dbe 5c49 843e
00000330: 19b5 023d 53ba 12be 91e0 c4be ca21 bcbd
00000340: aee2 783c f289 3cbf a7a1 a4bd e4e3 5abd
00000350: f32d 1fbe 8f41 c1be 2bb8 adbd b25c 33be
00000360: 628a 693d 96d3 ecbd 74b6 13bc 2a30 9e3e
00000370: f9e8 793e 41ad 02bf 4860 073f a5ad ec3d
00000380: bd26 4e3e 44d6 22bc 5df7 1c3e 983b aa3f
00000390: 9d3a aa3d ff7c 5f3d f82d 82be f910 d33e
000003a0: aee1 90be 8f37 58bf 1f74 e8bd 1d47 14be
000003b0: 8c66 8e3e 72d2 e9be 2e78 c2be d48b 20bf
000003c0: b400 5e3e d15b 83be 2d0b 9fbd a4dc 253f
000003d0: 268f 7c3d 3062 bc3e f07d b53e ae68 613e
000003e0: c619 43bd f742 763e 80de 06be 8800 8dbe
000003f0: 0e06 503e daf1 4fbc 142c c2bd d64b 353f
0.09497899 0.04748812 0.091165096 -0.10469371 0.4406945 0.7867453 0.13690804 0.1751355
0.17511584 0.8418887 -0.043880027 0.062218875 -0.371726 0.28084183 0.48836726 0.6860078
-0.3927503 -0.26298004 0.041356634 -0.018331157 -0.2484951 -0.1459646 0.08086949 0.28746945
0.52378905 0.13061541 0.3421985 0.18703386 -0.3959015 -0.48655486 -0.8867027 -0.032956757
-0.13813213 -0.11558524 -0.10596621 -0.22126827 0.19686098 0.103675865 -0.04897436 -0.10071862
0.03816296 -0.74773693 0.38637602 0.05199693 0.10107567 -0.033290084 -0.038554166 0.3031776
0.084566675 -0.034496363 -0.21789792 0.45303553 -0.03900515 -0.13994087 -0.0054018223 -0.17932154
-0.27666554 -0.22858825 0.39204845 0.4899423 0.19491947 0.17969608 0.16422527 -0.51559144
-0.123624094 0.024795445 -0.493352 0.06786857 0.21321322 0.27068225 -0.09433872 -0.20618586
-0.33260342 0.012301144 -0.08368175 -0.020246482 0.08850206 0.40582088 0.2243084 -0.0070222314
0.005227726 0.11936414 2.6349237 -0.076908946 0.19918866 0.01983425 0.22036745 0.24543674
-0.18545105 0.36172563 0.056902736 0.11536441 -0.13971595 0.20060669 -0.25138202 -0.05612038
0.04582257 -0.07880588 -0.25488198 -0.11566625 -0.2625628 -0.20589149 0.16795184 0.2152799
-0.31543726 0.15891214 -0.03479302 0.07768582 -0.38456005 -0.063587144 -0.06550232 -0.058087174
-0.13495061 -0.20902576 -0.5663384 0.014161038 0.086516775 0.0006967955 -0.06579266 -0.23455994
0.2796878 0.09013045 0.00614123 1.5087855 0.005248056 -0.36931568 -0.2891923 0.0010638027
-0.00038863008 0.9334036 0.07849544 0.09755878 -0.05470629 -0.25736028 0.34216002 -0.6005359
-0.2888618 0.09482357 -0.18650709 -0.022454295 -0.2742065 1.1182766 -0.0826771 0.10443726
0.49008232 -0.17801444 -0.04865032 -0.14439932 0.12257373 -0.26407382 -0.3494984 0.16738376
-0.29534423 0.7445278 0.016285049 0.13170965 0.006111305 -0.04373308 0.49023917 0.6420613
0.0447483 -0.70456326 0.25804353 -0.11722667 0.28627574 -0.22804002 0.2417049 0.56796676
-0.08212542 -0.20494582 0.6304442 -0.029720875 0.11433677 -0.022650728 -0.10109559 0.16461252
-0.072023004 -0.75221074 -0.055831864 0.016598409 -0.003627467 -0.12684181 0.28246987 -0.0842829
0.17731453 0.4351407 -0.14291774 0.062803194 0.08707131 -0.5712023 -0.29925275 -0.4884428
-0.28370318 -0.1981251 -0.1831064 -0.0113742985 -0.08609099 -0.27168947 0.1452641 0.12069558
-0.10225938 -0.833212 -0.15427479 0.2583722 0.03191099 -0.1432889 -0.3845258 -0.09186132
0.015190763 -0.7364799 -0.08038645 -0.05343999 -0.15544872 -0.3774533 -0.08482393 -0.17515829
0.057016738 -0.11563794 -0.009015668 0.3089612 0.24405278 -0.51045614 0.5288129 0.115565576
0.20131965 -0.00993878 0.15328737 1.3299437 0.08311961 0.054562565 -0.25425696 0.41223887
-0.2829718 -0.84459776 -0.11350273 -0.14480253 0.27812612 -0.4566837 -0.37982315 -0.6271336
0.21679956 -0.25655988 -0.077658035 0.64789796 0.061659954 0.3679366 0.35447645 0.22012588
-0.047632 0.24048983 -0.13170815 -0.27539468 0.2031481 -0.012691939 -0.094810635 0.7081884

fc1.bias f4 [64]
00000000: dcf8 123f c2f1 a4be 5213 e4bf 7323 be3e
00000010: fde3 a1bf 9b9e 10c0 bc65 84bd 845e 173f
00000020: 41ef 1d3f 6201 05bf d4dc 303f 3cf8 96bd
00000030: 42a0 903f d480 b8bf 793a 633e a7ed b3be
00000040: dcfe 3bbd f6af 2dbe 7ed6 983c 2b3f 5bbf
00000050: 2fcf cbbf eb20 593f 4547 a2bf 9ce0 ab3e
00000060: 119c 71bf 2a7c 46bf 3bd2 e4bf d190 12bf
00000070: 122c dbbf 5164 cdbe c97a 32bd 7d4c 6d3e
00000080: 92a0 3cbf 98eb 3cbf 597b b5bf e061 ec3d
00000090: f658 cb3e 7069 88bf a5cd 5cbf 22f5 35bf
000000a0: fd63 62bf 6463 f8be 4722 8e3c 6507 2c3f
000000b0: 87bf 4abe ba1c 5a3d 3b12 43bf 3a2f fbbe
000000c0: 8964 9d3e 39f9 95bf 822b 98bf 04f0 13c0
000000d0: 16e1 9c3e 16ad 5bbe 4bf2 d93e 52e7 1440
000000e0: cfe5 f4bf bfb6 813e 2f96 c0bd 13e4 163f
000000f0: decc 1bbf cbbb cabf 6ae2 693f 0ddf 02c0
0.5741098 -0.32215697 -1.7818396 0.3713642 -1.2647702 -2.2596805 -0.06464717 0.59128594
0.616932 -0.51955235 0.69086957 -0.07371566 1.1298907 -1.4414315 0.22190274 -0.35142252
-0.04589735 -0.16961655 0.018656965 -0.8564326 -1.5922602 0.84815854 -1.2678 0.335698
-0.94378763 -0.7753321 -1.7876657 -0.5725222 -1.7122824 -0.40115598 -0.04357413 0.23173709
-0.7368251 -0.7379699 -1.4178268 0.11542106 0.3971631 -1.0657177 -0.8625129 -0.7107717
-0.8843382 -0.4851333 0.01735033 0.67198783 -0.19799624 0.053250052 -0.7619969 -0.49059469
0.30740765 -1.1716682 -1.1888278 -2.3115244 0.30640477 -0.21452746 0.42567667 2.3266187
-1.9132632 0.25334737 -0.09403645 0.58941764 -0.6085948 -1.583856 0.91361105 -2.044864

fc2.weight f4 [64, 64]
00000000: 3033 9fbe 8f1a 2f3d 2691 893e 05bb 84be
00000010: 90c4 d83e 0bd9 853e 5d89 163d da4d 683e
00000020: 5cf1 42be d030 c3be 2cd4 74be 0f67 ecba
00000030: 86a3 12bd ec12 fa3c c4c4 f3be 99c5 39bf
00000040: ccdb e83d 3716 cfbe 91d9 a5bd db11 23be
00000050: 9c96 5cb5 c0bd df3d b1b3 053f 0e33 e7be
00000060: 2440 04bf 0884 ea3e 0ef2 2ebf 5859 aa3e
00000070: b54e 3bbf 6a35 8f3e 1029 c83e f349 1cbe
00000080: 1621 d7be decd 663e 1da6 1d3e 6453 963b
00000090: 4733 12be f3bc f63b cf46 953e 109d 84be
000000a0: 9e96 14c0 1484 e8bf 3069 e536 b73e f4bd
000000b0: ed4b b8bd 5150 a2bd 696a 023b 5bd9 463e
000000c0: b640 493f f8ea 74bc 624b 25bf b2a9 193d
000000d0: f1e8 cfbd 73d9 cfbe 50bc 483e 9e0f e2bd
000000e0: 0752 39be 4d0f 603d 7496 773b 5296 8dbe
000000f0: 456e e5bd fb5b 72bd 4f39 463d 4515 513e
00000100: 68d1 8cbe 85bd 0137 b262 8ab6 629a 1dbc
00000110: 8595 8db6 ec9d 8f3e 3856 ac3c 289d 7e3d
00000120: f2b1 0ebe df87 493e 65f4 c8bf 5c51 d5be
00000130: abc0 8ebe 31bb 3d3d 46ac 99b6 01c1 943d
00000140: 8794 8039 0846 1ebe 2a18 893c ebe6 94bf
00000150: cd73 ddbc 064b 03bd 6a41 dabe 0e5d 113e
00000160: ede3 54bd d1f3 923e a10c d5b5 2cfe 69ba
00000170: 163b c9b5 79eb 14be c53e 1fb7 9237 733e
00000180: 506b ff3c 085d 753e 5e75 523e 58e7 b2ba
00000190: 7ada 86bd 2030 8dbe 9e25 8cbd 5989 bd3d
000001a0: 51a7 80be ce26 d7bc 432f be3e 372e e9b6
000001b0: 2391 b0be 1dd5 213f 085b 5ab5 ec13 b1be
000001c0: 5da2 f53e efa3 953d 2084 363c eb6b 1537
000001d0: 5cf8 883e 31b7 a0be 28f9 29bd 4d22 32bf
000001e0: fb03 6636 38a2 863e 335f b03e df31 92be
000001f0: 8779 15be 177e 06c0 4cd5 3fbc 0eea 2fbf
00000200: e010 9abe 9f71 47bc f264 3abe bc22 083e
00000210: 6417 213e f61c 45c0 871f b7be 521a a93c
00000220: a8ba 483e 343f 4ebe 1c39 ca3b 3b68 8b3e
00000230: 3a52 a13e 359b b13c e432 e73c dc34 8b3d
00000240: d4f6 46bf b630 b4bc 61fe 563f b496 1bbe
00000250: 629e 083d d691 533d fab5 b0be c0b8 29ba
00000260: ef75 213e 14af 4cbf d1ce 623d 9315 34bb
00000270: 25a1 9f3d 1715 87bd a6ef 183e 3539 043f
00000280: 99bb 7c3d 864f 2fbd 6080 413e 8847 c8be
00000290: d5d2 35be 3adf 6dbe dc46 04be 9243 6d3d
000002a0: 06eb 43be 7a29 8bbe 7652 053d 8e16 693e
000002b0: 2cf4 203e 7afc 72bd 14ef d93d 3f09 8fbe
000002c0: 0f6e 293e 3641 b1bf 406e 3cbf 8c7f babe
000002d0: 5725 c33d 44fe f43c 9218 9cbd ee34 983e
000002e0: 7f8f c33d b8a3 76be ca7e eebd c710 813d
000002f0: 65b3 2a3c 5794 d43c e960 ce3d eeb7 2bbb
00000300: e4cb b0b2 b046 0e33 fcbb 5ab3 abcc 49b3
00000310: c409 9732 ec3c 2e33 4a05 1cb3 b897 7433
00000320: c7d6 6c33 9cd1 beb3 8d7b 3e34 f094 9333
00000330: c010 8933 d0e7 3333 bec4 64b3 9829 cb32
00000340: aef7 11b3 0704 5eb3 0cbe b5b2 0cd1 4e32
00000350: 4c8a 6bb4 0777 1433 0a67 98b2 3499 cdb3
00000360: de41 1b33 4a15 6f33 596a 0c33 871b bab3
00000370: d74f 2933 bb52 6233 6217 8032 8a25 1cb3
00000380: 7e4a 6833 8d6f 8433 cdbc 52b3 c01a 20b3
00000390: 90aa 0a33 6229 e1b3 8c01 7333 5ea3 eb32
000003a0: 88a3 2ab3 e066 5534 4465 f7b3 d8d5 f1b3
000003b0: 5ce1 2832 c45a 1e33 a880 1633 20a1 00b4
000003c0: 5dc5 b1b3 905c f931 57b2 b8b3 d68b b132
000003d0: 4765 7633 c1c3 6633 828b 9bb3 d649 9833
000003e0: 0f35 58b3 30b4 b8b1 f655 05b3 1752 95b3
000003f0: 987e 23b3 af82 44b3 2a97 b933 4068 81b0
-0.3109374 0.042749938 0.26868552 -0.25923935 0.42337465 0.26142153 0.036752094 0.22685948
-0.19037384 -0.38123178 -0.23909062 -0.0018036085 -0.03580048 0.0305266 -0.47611058 -0.72567135
0.11370048 -0.40446636 -0.08098138 -0.1592478 -8.217555e-07 0.10924864 0.5222731 -0.4515614
-0.5166037 0.45803857 -0.68338096 0.3327129 -0.7316697 0.2797044 0.39093828 -0.15262584
-0.4201743 0.2253947 0.15395398 0.0045875777 -0.14277373 0.0075298487 0.29155585 -0.2590108
-2.321693 -1.8165307 6.8369773e-06 -0.119260244 -0.08998857 -0.079254754 0.0019899851 0.19418852
0.78614366 -0.014948599 -0.6456815 0.03751535 -0.10151852 -0.40595588 0.19603086 -0.11038135
-0.18097697 0.054702092 0.0037778886 -0.27653748 -0.11202673 -0.05916975 0.048394497 0.2041827
-0.27503514 7.733125e-06 -4.12421e-06 -0.009619327 -4.219534e-06 0.28050172 0.021037206 0.062161595
-0.13935068 0.19680737 -1.5699583 -0.41663635 -0.2788137 0.046321098 -4.5798106e-06 0.07263375
0.00024524724 -0.15456402 0.016735155 -1.163297 -0.027032757 -0.03205397 -0.42628032 0.14195654
-0.05197518 0.28701642 -1.5873412e-06 -0.0008926119 -1.4992863e-06 -0.1454295 -9.491753e-06 0.23751667
0.0311791 0.2396127 0.20552585 -0.0013649268 -0.0658464 -0.2757578 -0.068431124 0.092547126
-0.25127652 -0.02626362 0.37145433 -6.9493212e-06 -0.3448573 0.6321581 -8.1343796e-07 -0.34585512
0.47975436 0.073066585 0.0111398995 8.906219e-06 0.26751983 -0.31389764 -0.04149738 -0.6958359
3.4274988e-06 0.26295638 0.3444763 -0.28553674 -0.1459714 -2.101446 -0.011708569 -0.68716514
-0.30091 -0.0121730855 -0.1820257 0.132945 0.15731579 -3.0798926 -0.3576624 0.020642433
0.19602454 -0.20141298 0.0061713587 0.2722796 0.31508046 0.021680454 0.028222509 0.067971915
-0.7772038 -0.021995883 0.839819 -0.15194207 0.03335417 0.051652752 -0.34513837 -0.0006474368
0.15767644 -0.7995465 0.055373017 -0.002747868 0.07794408 -0.065958194 0.14935169 0.5164979
0.061702345 -0.04280045 0.18896627 -0.39117074 -0.17756207 -0.23229685 -0.12917656 0.05792577
-0.19132623 -0.27180082 0.032549344 0.2276251 0.15718144 -0.05932281 0.10641304 -0.27936742
0.1654589 -1.3848026 -0.7360573 -0.36425436 0.095286064 0.0299064 -0.07621874 0.29727882
0.09548854 -0.24085891 -0.11645277 0.06302028 0.010418748 0.02594964 0.10077078 -0.002620216
-2.0581815e-08 3.312624e-08 -5.092805e-08 -4.6985104e-08 1.7583154e-08 4.056794e-08 -3.632639e-08 5.6948664e-08
5.514337e-08 -8.885692e-08 1.7740076e-07 6.8723125e-08 6.3826064e-08 4.1887517e-08 -5.3264323e-08 2.3651225e-08
-3.3985707e-08 -5.1692066e-08 -2.1157597e-08 1.203831e-08 -2.1936393e-07 3.456719e-08 -1.7741986e-08 -9.573924e-08
3.6148656e-08 5.5665886e-08 3.2693013e-08 -8.666307e-08 3.9420993e-08 5.269497e-08 1.4911794e-08 -3.6355722e-08
5.408446e-08 6.16702e-08 -4.906615e-08 -3.7277232e-08 3.2285755e-08 -1.04849065e-07 5.6579253e-08 2.7431891e-08
-3.972994e-08 1.9874597e-07 -1.1520254e-07 -1.1261335e-07 9.830128e-09 3.6869793e-08 3.504161e-08 -1.1979546e-07
-8.278105e-08 7.257377e-09 -8.6006075e-08 2.0669102e-08 5.736845e-08 5.3729085e-08 -7.243126e-08 7.091482e-08
-5.0339676e-08 -5.3755898e-09 -3.1044657e-08 -6.953285e-08 -3.806653e-08 -4.5753662e-08 8.6422304e-08 -9.415615e-10

fc2.bias f4 [64]
00000000: 5a23 25be d9bd 70bf 1a04 583f 2a7b 83b3
00000010: 8ac6 583f b164 09be 4614 25be 30bf 523f
00000020: 3a1f 85be bb07 913e 035a 603e a26d c5bf
00000030: f828 5a3f f7c7 283f 9600 acbc 6441 073f
00000040: 0901 c83c 177c 5dbd 6bd9 c93e 4d77 9fbd
00000050: 46d2 2634 f7ce 82bc b5f6 36be 1d74 a43e
00000060: 1fd3 8839 38de b93e 464c 533e 103b ed3d
00000070: 773f ea3d e7d6 4abf 44c3 533f 062e a1be
00000080: 41ff a33e 79f4 03be ae76 a83c 49c7 aebe
00000090: 02eb 973e d72d 493f eb1b 293f 61c7 1d3f
000000a0: f8ad debd 3cfe f1b5 af48 8bbf ae22 ac3d
000000b0: 5492 28be 9e50 983e 38e4 a139 0aff e1be
000000c0: 85f7 e93e 6347 6138 cc8b 2f3f f3af 8cbf
000000d0: d243 c5be ce42 6bbb 9fd1 503f fcb1 26bd
000000e0: fcc9 673e 314f 483f 0625 813e ddeb 693e
000000f0: e0ae 2bbf aeb7 2ebe 17e3 afbe 9e9d cf3d
-0.16126767 -0.94039685 0.8438126 -6.122566e-08 0.84677947 -0.13417317 -0.16121015 0.8232298
-0.26000386 0.2832621 0.21909337 -1.5424082 0.85218763 0.6593012 -0.020996373 0.52834153
0.024414556 -0.05407342 0.3942369 -0.07786427 1.5536452e-07 -0.01596783 -0.17867549 0.32119837
0.0002609724 0.36302352 0.20634565 0.11583531 0.11437886 -0.79234165 0.82719827 -0.31480426
0.3203068 -0.12886228 0.020564403 -0.34136418 0.29671484 0.7858557 0.66058224 0.61632353
-0.10873026 -1.8029891e-06 -1.0881556 0.08405052 -0.1646207 0.29749006 0.0003087835 -0.44139892
0.45696655 5.3710664e-05 0.6857269 -1.0991195 -0.38528305 -0.0035897973 0.81569856 -0.040697083
0.22635645 0.78245836 0.2522356 0.22843881 -0.67063713 -0.17062256 -0.34352943 0.10137485

fc3.weight f4 [2, 64]
00000000: 00f2 8e3e 4c56 82bd 66ba 72bb 50ea deb3
00000010: c187 0fbd 8a75 df3d d3e1 973e 7a4b c03c
00000020: 0561 363e 0b24 d93d dd53 833c 7bd7 3e3d
00000030: 48f8 cbbc e8f7 e43b bbef 6f3f 4123 bb3d
00000040: dbab 533e 879c 70be 9de9 67be 21b0 663e
00000050: 049d a2b2 0b95 f9be edb9 81bf 7252 febc
00000060: 1958 a7bd e4be 913d 05ec a93d f1af 703e
00000070: 9fee 61be bd6b bd3e c709 913c 3828 3a3e
00000080: dab5 b6be 2195 59be ec5b b73d bcfc d03e
00000090: 0b53 9dbd d41b 4b3c a38c 11be 6957 013c
000000a0: f63c 1c3e 4156 15be f499 f43d ddc9 21be
000000b0: 5877 593e ef79 cebe b1ac bebd 4bf3 343e
000000c0: 4e61 403c bfb3 3bbd 75e7 13bd 7e7e 1b3c
000000d0: 883a 5fbe a7c0 0cbd 763e c4bc e80c 883e
000000e0: 93b2 f5bb e329 cdbd feaf 1d3e 90c9 bf3d
000000f0: a721 abbc 67f5 3dbe 678b a03c f423 2f3e
00000100: 6e3e 2cbf 34a1 fdbe 452c b1be cbad f9b2
00000110: d681 773e 05bd 62be 320e c13d 1594 2b3f
00000120: 0690 473b f8ac 183f 60bc 4dbf da6c 003f
00000130: ae1c babe 95a1 913e dbeb 0abe c007 293e
00000140: b293 943e bfc3 ccbd 36e4 163e 8ecd 9fbd
00000150: a4ae 98b1 0c91 8a3d ef5e dcbd 8bc3 823f
00000160: 5840 f0bd d4d2 a9be a99b 8fbe 7472 2f3e
00000170: f8cf 5b3d 91c1 5e3c 1e7c 9f3e e663 913c
00000180: 8714 2ebd 126c 3e3d b100 0bbe 6f5e cebd
00000190: fd96 703e ddae 57be 9534 cabd 07e0 d2be
000001a0: b4cc c2be a14e 953e 4668 d5be ea9d df3c
000001b0: ca19 ec3b db31 fcbc 49ff 2d3e 09ca e83e
000001c0: 8026 173e 3a18 12be e93c 5abf fe69 4bbf
000001d0: 3a0c 9f3e 4ca7 b4be c166 9e3e 6455 993c
000001e0: 6a4e 973e 58b5 203e b99a 18bf 2565 a03e
000001f0: db3a 57be f17b 05bd 98c5 5a3e 9f22 14bd
0.27919006 -0.06364116 -0.0037037372 -1.0380302e-07 -0.035041574 0.10911091 0.29664478 0.02347349
0.17810448 0.10602578 0.0160312 0.046592217 -0.024898663 0.0069875605 0.93725175 0.091375835
0.20671026 -0.2349721 -0.2264771 0.22528125 -1.8930685e-08 -0.48746523 -1.0134865 -0.031045172
-0.081711 0.071164876 0.0829697 0.23504616 -0.22063683 0.3699626 0.017704858 0.18179405
-0.35685617 -0.21248294 0.089530796 0.4081782 -0.07681855 0.012396771 -0.14213805 0.007894375
0.1525763 -0.14583685 0.11943427 -0.15799661 0.21236932 -0.40327403 -0.09310282 0.17670934
0.011741949 -0.045825716 -0.036109407 0.009490607 -0.21799672 -0.034363415 -0.023955565 0.26572347
-0.0074980943 -0.10017755 0.15399167 0.09364617 -0.02089007 -0.18550645 0.019597722 0.17103559
-0.6728276 -0.4953705 -0.34604087 -2.9066447e-08 0.24170622 -0.22142418 0.09426536 0.6702283
0.0030450835 0.5963893 -0.8036556 0.50166094 -0.36350006 0.2844359 -0.13566534 0.16506863
0.29018933 -0.09998273 0.14735493 -0.07802878 -4.4436366e-09 0.06765947 -0.10760295 1.0215925
-0.117310226 -0.33168662 -0.28048447 0.17133504 0.05366513 0.0135959545 0.3114938 0.01774783
-0.042500045 0.046489783 -0.13574483 -0.100766055 0.23495097 -0.21062799 -0.098733105 -0.41186544
-0.380468 0.29161552 -0.41681117 0.027296979 0.0072052227 -0.030785492 0.16991915 0.4546664
0.1476078 -0.14267054 -0.8524919 -0.79458606 0.31064016 -0.35283887 0.3093777 0.018717475
0.29552013 0.15694177 -0.5961109 0.31327167 -0.21018545 -0.032588903 0.21364439 -0.03616583

fc3.bias f4 [2]
00000000: 8902 a93d 8c31 82bd
0.08252437 -0.063571066
