racecar_nn_controller/racecar_nn_controller/models/model_noisy_16_64.pth (torch, 21682 bytes, 7 tensors)

input_weights f4 [5]
00000000: 0000 803f 0000 803f 0000 803f 0000 803f
00000010: 0000 803f
1.0 1.0 1.0 1.0 1.0

fc1.weight f4 [64, 5]
00000000: 7607 9a3f 3223 a53e 7c2b debe 9f4e 8c3e
00000010: 5fca 053d 6d4f 053f c2f7 5a3e b32d 5abf
00000020: 6d27 453e b30b a9bc e8ef 9cbe 61fd 833e
00000030: 09ef f0be d81f ba3e d42c c93e 28c8 14bf
00000040: 62e1 10be 975e 69be a7f8 92bb 38fc 0b3c
00000050: a14c 03bf 9bfb 33be 8e5a b6be 18ae 3a3e
00000060: df47 33be 59ec 533e c272 183f b0b8 323f
00000070: 118b b83e d9f1 9c3d e3c1 6bbe 8dda 2fbf
00000080: 1e32 773e 35c9 583e 4426 f53b 33ae c3be
00000090: 1f25 133f 7ba1 f23e 3f74 1f3e 0d88 1aba
000000a0: 5ed3 913f baca 773e 7d19 003f 6fba 02bc
000000b0: 2ed8 023c 9dbc 56bd 0058 6b3c 4d2d 5c3d
000000c0: 8d10 b7be d239 3e3e 8d36 a23d 1e85 b0bf
000000d0: e35b 21bf 2327 2338 0f0e 0f3d e45e 3e3d
000000e0: ee69 2f3e a17a c9be 96f9 bdbe 517f 00be
000000f0: 10ee 5f3f 7c8d 25bf 3c4a 593d 83c4 1fbe
00000100: 0908 9c3c 23cc 1d3e 963c 293f 0ed8 1fbe
00000110: 92db 00bf 4135 873d 93fe 4abd 9883 5fbe
00000120: de85 1cbf ef78 bdba 08f1 bcbb e44e 19bd
00000130: 66b7 f5bc f6f3 063f 04d4 3d3d 0a0b 893e
00000140: d3fc 533e 3de2 e73d 1aaa 88be 18a0 8b3b
00000150: c39c a33e 303a fcbc 373e 893c e4c8 fe3b
00000160: f6bd 903d 9676 943e 88e4 ff3e aa3e 6cbd
00000170: cf78 bfbd fc5d b23e 4144 c23d 7b1e ecbd
00000180: 7552 8a3f 8613 2cbf 3eb0 7e3e ce25 50bd
00000190: 8142 913d acc0 47be 0171 c53f 49d6 15bc
000001a0: 46d2 5dbb d0af 23ba 7e47 6e3b ca73 a03a
000001b0: 875c 5b3e 7582 04bf bfe0 d9bd 0f5f 0c3f
000001c0: c982 e73e 0dd6 c23c c3c2 fabb 9ccb c4bd
000001d0: 5921 9d3e 0e4b 80bf fae4 3a3d c427 603c
000001e0: 4820 d2b8 91b4 ab3a 68b7 293a 133b ee3e
000001f0: bea0 803e c83b c4be d96d ed3e c2fa 403e
00000200: 32f4 bb3e 2fe8 8d3d 34c5 bdbe 02f1 263e
00000210: daf1 3b3f 2f0b c8bd ac3e 50be 01b8 cb3e
00000220: 3098 82be 41e7 2e3f fbd9 64bd 542f f8bd
00000230: 6174 e9bd 452b 2abf 5316 c1be de9a 0bbe
00000240: fcba 03bd 8fbc 7bbf 82c2 ab3c b5a6 08bf
00000250: 93af 0c3d e0cb c13c fa7c 00bd c81b 453f
00000260: bade 4b3d eaba 87be 2b7c fdbd 0cdd 3ebe
00000270: d655 aabe 230c 87bf 4daf ff3d 244c b3bb
00000280: f1fd 953e 2026 f43c 957e 473f 8f3b 8f3d
00000290: 9f77 a1bd f0f2 f33c 7556 cd3d 8854 b4bd
000002a0: 77bb 3dbf 6367 1fbf 8663 77be 80c6 513f
000002b0: e6fe bc3e 19bb 4bbe 7400 7bbd ca35 45bf
000002c0: e66c e73d 1903 1cbf a020 a43d df73 94bb
000002d0: e0d6 77bf a7c3 8e3c cc9d 023f cee6 64bd
000002e0: bb1f 03bc ba8a 40bd 2337 dfbd 4ef5 e9be
000002f0: c391 87bc 339f 37bc a74c abbf da51 e9bd
00000300: 823e c7be 4ac7 8abc 6113 433c c502 893e
00000310: 5aec 2bbe bb84 9abd 8930 823e f189 12bd
00000320: b3d7 06bf 9d8c 6b3e 5297 10bf 8aaa c83e
00000330: 8ea8 4abd b128 bc3a 97ac 88be 3ae7 9fbf
00000340: bb17 373c b222 923d c32f 80be 9ada 5bbf
00000350: 8e22 8a3e 6fa3 60bd fdbf 98bc cbd3 b53e
00000360: 6595 313d 249f 723c eeb2 babe f44c 44bc
00000370: 8b79 333d cfa8 f63e 08b1 c8be 6bad f6bc
00000380: 2941 2f3d 220c 29bf a1dd 79be 683f 303f
00000390: 6831 cd3e 14f9 243c 9044 053e 76b9 813f
000003a0: 1ec2 693f e53c dabe 04c6 14bd bd08 373f
000003b0: 2f98 3dbe b344 18bd 0b5a e7be b39a 80bc
000003c0: ee99 fabd 23e0 0bbf 59c9 023f 30fe 49be
000003d0: fc7a 203e 56f6 64bd d0ea 6ebd 64dd 69bf
000003e0: ba66 59be 8d49 afbb 5c5f aa3e 750c f33d
000003f0: a9a8 a83e a486 bcbe ac09 debd 2219 26bf
1.2033527 0.32253414 -0.4339255 0.27403733 0.0326637 0.5207432 0.21383575 -0.8522598
0.19253321 -0.020635461 -0.30651784 0.2577925 -0.4705737 0.3635242 0.39292014 -0.58117914
-0.14148477 -0.2278999 -0.004485208 0.00854402 -0.512888 -0.17576449 -0.35615963 0.18230474
-0.17507885 0.20695628 0.59550107 0.6981306 0.360436 0.07663316 -0.2302318 -0.6869286
0.24140212 0.21170504 0.0074813683 -0.3821884 0.5747852 0.47388825 0.15571688 -0.0005894907
1.1392629 0.24198428 0.5003889 -0.00797902 0.007986112 -0.05242597 0.014364243 0.05375414
-0.35754815 0.18576744 0.07920561 -1.3790624 -0.63030833 3.8898677e-05 0.034925517 0.046477214
0.17130253 -0.3935137 -0.3710448 -0.12548567 0.8747263 -0.64669013 0.05304931 -0.15602307
0.0190468 0.15409903 0.6610807 -0.15609762 -0.5033504 0.06601954 -0.049559187 -0.21827543
-0.61141765 -0.0014455597 -0.005766038 -0.03742875 -0.029994678 0.52716005 0.046344772 0.26766235
0.20701914 0.113224484 -0.26692277 0.004261028 0.31955537 -0.030789465 0.0167533 0.007775413
0.07067482 0.28996724 0.49979043 -0.05767695 -0.09349214 0.3483733 0.09485675 -0.11529251
1.0806414 -0.6721729 0.24871919 -0.050817303 0.07092763 -0.19507092 1.5425111 -0.009145328
-0.0033847257 -0.00062441546 0.003635853 0.0012241539 0.21422015 -0.5176156 -0.1063857 0.5483255
0.4521697 0.023783708 -0.007652612 -0.09609148 0.30689505 -1.0022905 0.045628525 0.013681356
-0.00010019593 0.0013100078 0.0006474168 0.46529445 0.25122637 -0.3832686 0.4637287 0.18845657
0.36709744 0.06929051 -0.37064517 0.16302875 0.7341591 -0.09767758 -0.20336407 0.3978882
-0.25506735 0.68321615 -0.055871945 -0.12118402 -0.11399151 -0.66472274 -0.37712345 -0.13633296
-0.032160744 -0.9833459 0.020966772 -0.53379375 0.034347128 0.023656785 -0.031369187 0.76995516
0.049772955 -0.26509792 -0.12377199 -0.1863901 -0.33268613 -1.0550579 0.12484608 -0.005471723
0.29295304 0.029803336 0.77927524 0.06993782 -0.07884144 0.029778928 0.10026256 -0.088051856
-0.74114174 -0.6226713 -0.24159059 0.8194351 0.36913222 -0.19895591 -0.06127973 -0.770352
0.113000676 -0.60942227 0.08014035 -0.0045304145 -0.9681225 0.017427279 0.5102203 -0.055884175
-0.008003171 -0.0470073 -0.10899188 -0.45694965 -0.016548997 -0.01120739 -1.3382767 -0.11392565
-0.38914877 -0.016940732 0.011906476 0.26759925 -0.1678938 -0.075448476 0.25427654 -0.035776082
-0.5267288 0.23002858 -0.56480896 0.3919261 -0.049477153 0.0014355389 -0.26694176 -1.249244
0.011175091 0.07135524 -0.2503644 -0.85880435 0.26979488 -0.054843362 -0.018646235 0.35513148
0.043355364 0.01480845 -0.36464638 -0.011981238 0.043817084 0.48175666 -0.39197564 -0.030111989
0.04278675 -0.6603414 -0.24400951 0.6884675 0.40076756 0.0100691505 0.13014436 1.0134723
0.91311824 -0.42624584 -0.036321655 0.7149771 -0.18515085 -0.03717489 -0.45185885 -0.015698766
-0.12236391 -0.5463888 0.5108848 -0.19725871 0.15671915 -0.055898987 -0.058329403 -0.9135344
-0.21230593 -0.005349344 0.33275878 0.1186761 0.32941177 -0.36821473 -0.108416885 -0.648821

fc1.bias f4 [64]
00000000: 75f7 a5bf a002 e4bd 415c 00bf 1f06 633f
00000010: 8da3 d53d 5c1c f2be 15ee 173f fb80 dd3e
00000020: 1d58 d9be b346 493a 5a3f 93be 4e51 51be
00000030: 1e77 18be b481 46bf 1fa7 223f 81ea 393d
00000040: b388 13be 8b08 6c3e 3b09 ab3e a129 39bf
00000050: 6cbc 2cbf c5bc fb3e c732 b73e bcc0 df3e
00000060: 22de 933f 33e0 abbc 5331 b1be 6da4 00bf
00000070: 0f7c 8e3e 55a1 4fbf 4932 30be 5888 a5bf
00000080: c4ca 7b3d 96ac cebf 0448 9cbd 6f29 433f
00000090: 3bc5 a8be aad6 7e3f da78 e2be 8014 c13e
000000a0: b2cc 87be 6c61 9b3d d506 41be 4622 123f
000000b0: 1951 443e aa4a 043e d69c eabf 60a6 26bf
000000c0: a047 60be ea51 bdbf c55a 92be ac0b 58be
000000d0: 6448 11bf ea29 debe 0d88 5f3f 3d66 513e
000000e0: 13e0 4e3e 4677 533f 87d3 dcbe a545 ddbe
000000f0: 3dc8 58bf ab03 5dbf f712 f3bf 83a8 20bf
-1.2966143 -0.11133313 -0.5014077 0.88681215 0.104315855 -0.4728726 0.5934766 0.43262467
-0.42450038 0.00076780765 -0.2875927 -0.20441172 -0.1488919 -0.7754166 0.63536257 0.045389656
-0.14407615 0.23050134 0.3340548 -0.72329146 -0.6747501 0.49167457 0.35780928 0.43701732
1.1552165 -0.02098093 -0.34607944 -0.50250894 0.27829024 -0.8110555 -0.17206682 -1.2932234
0.06147267 -1.6146419 -0.076309234 0.762351 -0.32962975 0.995463 -0.44232827 0.37710953
-0.26523358 0.07586941 -0.18850262 0.5708355 0.19171561 0.12919107 -1.8329113 -0.6509762
-0.21902323 -1.4790623 -0.28584877 -0.21098202 -0.56751084 -0.43391353 0.8731697 0.20449157
0.20202665 0.8260387 -0.43130133 -0.43217197 -0.8468054 -0.8633372 -1.8990163 -0.6275713

fc2.weight f4 [64, 64]
00000000: babf d33f 4dce afbe e56e 1a3e 7985 493e
00000010: 3496 193f 4538 a2be a066 88bd a16c 0abd
00000020: eb6c f53e 22f1 e73e 419c 02bf 0e52 25bc
00000030: d4c2 a83e b844 593d 69a1 01be d49b 58be
00000040: 62f5 bebe 5e04 76bd ceac 89be a52e 0e3c
00000050: b2ea 5abe 75a7 1ebe 217d 123e e6b4 a4be
00000060: 531b 363d 2913 1d3f 5768 1cbe 606d 273e
00000070: 3ef8 c9bc 76d1 d73c c8cf a53e cb98 023f
00000080: 0dd7 0abe c345 8f3f 7ab2 f43d 61cf f03e
00000090: 3add 2d3d b40e 4bbc 199f 70be 40cb 47be
000000a0: 7195 05bf 8f22 66bf f401 1e3e 7a6b 6bbe
000000b0: ce46 92be 3f57 143f 8340 c5bd fd70 a7be
000000c0: 2a87 aa3e 30ff 103f 68b3 e33d 1e73 163e
000000d0: 8865 c33e 8650 9e3d 0b29 7e3e 74ac 7d3e
000000e0: 7214 a4be 660a cbbe a1b6 bdbd e43b 21be
000000f0: ec7d 613f c990 5fbe 70c3 a53f a11d 11bf
00000100: b8f1 a6bf 73d9 96be c8b8 f4be 99bd fe3d
00000110: 4302 2dbe 53c4 bc3e 4f20 b7bd 827f cabc
00000120: b7d4 3ebf 659c 7dbd 7109 d3be d7bc 85be
00000130: db0b f0bf 36a2 143f 1b99 bc3e 85d0 d13e
00000140: dbaf 8fbe d4e4 95bd d370 d23d e970 493d
00000150: ccc7 cd3e 3cd0 833d 54d7 c4bd 1ebd 7f3e
00000160: 6460 5f3e 71a3 5e3e adea 41be b3f3 103f
00000170: d2cd 5ebe a1be 6abe 2f48 973e ef97 e9be
00000180: c423 8bbc 191d 95be 3946 623e 2106 8c3e
00000190: 4ee3 2fbe 0cc4 4c3d 35d7 e73c ba67 ae3e
000001a0: 8b7e 0fbe d0dd f43e 62dd e23e 05a0 1dbe
000001b0: 343d 7b3e 4b71 f0bd f2d0 993e 6df6 1cbf
000001c0: a579 e4bd 941c adbf 93ff 063d 2c73 8cbe
000001d0: 0c98 60be 624d 873e 5f65 973d fbd9 283e
000001e0: 1358 5d3e ec5b 953e c42f 8ebe 9974 85be
000001f0: 6d34 f8be 27c0 00bf 1910 6c3f c2c0 00bd
00000200: 7e1d 953e 0574 97bd 15c1 d0be 702d adbe
00000210: e268 fbbb 60d1 d0bd bf65 a33e f088 8e3e
00000220: 334c 39bf 42cf e8bd 95e2 a33e bee2 45be
00000230: c1f8 88be 7535 c93e 91aa 35bd df08 a93d
00000240: 86a9 53bd 707b 6a3e ee02 48be c32b b0bd
00000250: 388a 2dbe 452f 013e 5aa6 503f 39ae 443e
00000260: 93b5 c23e 167d a33d 3a59 aebc a44c 16be
00000270: b2df eebd f057 183d 7f8e 5fbe 5ce9 2f3e
00000280: 1606 1c3f 4d1f 3fbf 7b5d 473f bfc4 0e3c
00000290: a6b7 d2be fae3 c83d 52a4 38bf a788 b8be
000002a0: 82c3 21be 7e0b 4ebd a3c2 6dbe 41b9 b93e
000002b0: f18f cabc b301 d5bd ea71 8bbe 1715 2dbe
000002c0: 6ab9 473e 5d8b f13e fa1c 13bf d360 65be
000002d0: 7eb0 0d3d 1600 81be 74a2 863e f96d 97be
000002e0: eecf 473e f360 f23e 6131 8fbe 6857 fe3e
000002f0: e433 423e 0e3b 0fbf b99d 31c0 1c27 253d
00000300: 0a4a 88be 8dc5 5dbf 198a df3c 79e9 863e
00000310: 351f 9b3e 8906 2d3e 602d b43d fe78 d23e
00000320: 542f 473f b89f 0abc 9adb 9abe 961f 033b
00000330: 7f74 f03e cb36 693e 7a3c 9cbe 7788 2bbe
00000340: 0986 c23d b629 95bd 336f bdbe a591 b33e
00000350: 3161 6d3d aad3 81bc 9402 233e 67b0 70bc
00000360: 805d b23d 5e45 9d3d 6678 cb3c 5ac0 09be
00000370: 038d 34bf 4402 113f a6e1 51bd 923b 03be
00000380: d373 9dbe a5fc b73e cbc5 9bbb f11e 043f
00000390: 7f2d 95be 02b8 2f3d 79be 583f a1db a6be
000003a0: 6ac6 c6bd b0cf 36bf 8d44 95be 0445 51be
000003b0: 81d6 b03e 470d 693d ba4e 4d3e 585a 033e
000003c0: 2fb0 45be 40cd 983d 4123 253d e9e2 7c3e
000003d0: 80a0 b93d 5493 0ebf 38f2 963e 9390 c13e
000003e0: bd26 33be 11b4 a9be e171 f33e d48e 94bf
000003f0: 23d9 cdbe 9585 db3a bbb8 e03e 80cb 933c
1.6542885 -0.34337083 0.15081365 0.19679822 0.59994817 -0.31683555 -0.06660199 -0.033795003
0.4793466 0.45301157 -0.51019675 -0.010090364 0.32961142 0.05304405 -0.1265923 -0.21153194
-0.37296587 -0.06006276 -0.26889652 0.008678113 -0.21378592 -0.15493567 0.14305545 -0.32169265
0.044459652 0.6135736 -0.15274177 0.16350317 -0.024654504 0.026344996 0.32385087 0.51014394
-0.13558598 1.1193165 0.11948104 0.47033218 0.042447306 -0.012393642 -0.23498191 -0.19511127
-0.52181154 -0.8989648 0.15430433 -0.22990218 -0.28569645 0.57945627 -0.09631445 -0.3270339
0.33306247 0.56639385 0.111182034 0.14692351 0.381634 0.077302024 0.24820344 0.24772817
-0.3204685 -0.3965637 -0.09263349 -0.15745503 0.88082767 -0.21832575 1.2950268 -0.56685835
-1.3042517 -0.29462776 -0.47797227 0.12438507 -0.16895394 0.36868533 -0.08941709 -0.024719004
-0.7454333 -0.061916728 -0.4121814 -0.26120636 -1.8753618 0.58060014 0.3683556 0.409794
-0.28063855 -0.07319036 0.10275426 0.049179945 0.40191495 0.06436202 -0.09611383 0.24974486
0.21814114 0.21742035 -0.18937178 0.56621855 -0.21758202 -0.22924282 0.2954726 -0.4562373
-0.016984828 -0.29123762 0.220971 0.27348426 -0.17176554 0.049991652 0.02830086 0.34063512
-0.14013116 0.4782548 0.44309527 -0.15393074 0.24535066 -0.11740359 0.30042225 -0.61313516
-0.11156014 -1.3524346 0.03295858 -0.2743162 -0.21933001 0.26426226 0.07392382 0.16489403
0.21615629 0.29171693 -0.27770817 -0.2606552 -0.48477498 -0.502932 0.92212063 -0.03143383
0.29124063 -0.07395176 -0.4077231 -0.3382373 -0.007672415 -0.10196185 0.31913564 0.2783885
-0.72381896 -0.11367656 0.32008806 -0.19324777 -0.26752284 0.39298597 -0.044352118 0.08253645
-0.051675342 0.2289865 -0.19532368 -0.08602097 -0.16947258 0.12615688 0.8150383 0.19207086
0.38029155 0.079828426 -0.02128278 -0.14677674 -0.1166376 0.03719324 -0.21831702 0.17178863
0.60946786 -0.74657136 0.77877015 0.0087139 -0.41155738 0.09809108 -0.7212573 -0.36041757
-0.15797237 -0.05030393 -0.2321878 0.3627415 -0.02472684 -0.10400715 -0.27235347 -0.16902576
0.19504324 0.47176638 -0.5746609 -0.22400217 0.034592144 -0.25195378 0.26295817 -0.2957609
0.19512913 0.4733959 -0.2796736 0.4967606 0.18965107 -0.55949485 -2.7752516 0.0403205
-0.26618987 -0.86629564 0.02728753 0.2635 0.30297247 0.16897024 0.08797717 0.41107935
0.7780659 -0.0084609315 -0.30245668 0.002000784 0.4696388 0.22774808 -0.3051489 -0.16751276
0.094982214 -0.07283346 -0.369989 0.35072055 0.057954017 -0.015848 0.15918952 -0.014690495
0.0870924 0.07679246 0.024837684 -0.13452283 -0.70527667 0.5664408 -0.051240586 -0.12815693
-0.3075243 0.3593494 -0.0047538034 0.5160971 -0.29136273 0.042900093 0.8466564 -0.3258944
-0.09705813 -0.71410656 -0.29153863 -0.20436484 0.34538653 0.056897428 0.20049563 0.12827432
-0.1930549 0.07461023 0.040316824 0.24695934 0.09063816 -0.55693555 0.29481673 0.37805614
-0.17495246 -0.33145192 0.4754782 -1.1606088 -0.40204725 0.0016748185 0.43890938 0.018041372

fc2.bias f4 [64]
00000000: 5965 103d d387 ef3d 86f3 d93e 4bea e83c
00000010: 0d06 a63e 0b68 013f 8a74 013e 709d 2abe
00000020: 22ad 6e3e f03e 67bc a31c 993e ca82 223e
00000030: 25ec a73e d26c 13be a996 9b3e f689 dbbe
00000040: 993c 7d3e 8353 73bd f3d6 133e 3c20 053f
00000050: 8c50 123d 0b27 52be dd7c 3a3e 4c38 523e
00000060: dc05 ad3e e708 133e 8741 55bc a404 9b3d
00000070: 0686 163e 361d eb3d dc28 003f 3e1d 473e
00000080: f86d 893e f796 8c3e 41f2 7cbd 76c5 2d3e
00000090: 6d59 f93e 9498 703c e7c9 1a3e e475 1b3d
000000a0: c0f9 debe 702f 3ebe 5bc4 97be 7951 2b3e
000000b0: 2c67 833e 3e0d 313e c997 e1bd 53a5 003f
000000c0: 7fc8 333e 585e 893e 7100 3e3f cdc9 5939
000000d0: ecb2 4fbd 06d3 83bd 7f9c c03e 4a65 b63d
000000e0: a81d e93e 4b1d 8d3e 212b 85bc 53d5 36bb
000000f0: e7aa adbc 749f 8fba bf25 ffbd f90d 953e
0.035252903 0.11695828 0.42568606 0.028432032 0.3242649 0.5054938 0.12642112 -0.1666162
0.23308232 -0.014114127 0.2990466 0.15870205 0.3279735 -0.1439698 0.30388382 -0.42878693
0.24730147 -0.059405815 0.14437465 0.5200231 0.035721347 -0.20522706 0.18211694 0.20529288
0.33793533 0.14358865 -0.013016111 0.075692445 0.14699563 0.11480181 0.50062346 0.19444749
0.26841712 0.27458927 -0.06175447 0.16969857 0.4870104 0.014684815 0.15116082 0.037954226
-0.4354992 -0.18572783 -0.29641995 0.16730298 0.2566465 0.17290208 -0.11015279 0.50252265
0.17556952 0.2682979 0.74219424 0.0002076991 -0.050707743 -0.06436734 0.37619397 0.08906038
0.45530438 0.2756141 -0.016255917 -0.0027898147 -0.021199657 -0.0010957555 -0.12458371 0.29112223

fc3.weight f4 [2, 64]
00000000: 4698 23bd 2973 803b 81a3 b13b c49d 1e3d
00000010: 4a87 e3be 215c ed3c 07ec 7d3e 9391 5c3d
00000020: 2b85 f8bc b049 60be be4c 70be e5c3 11be
00000030: ca65 d2bc 71db fa3c 644a 98bc 35a5 e53d
00000040: 5081 353d 30cb b3bb 44e5 993d 09ad d5bc
00000050: dbab 8bbe 57a4 633c 207d 3bbe 1d7b b53d
00000060: b901 e53b 3e9d 603d bcea 50be 7bad 0d3d
00000070: 82c0 43bd fc99 9bbf b22f 6c3d ccda 983c
00000080: fddd c7bf 0ea1 93bd 9117 9fbd 968c 8e3e
00000090: 1b72 0ebd 8f0a 2cbb 2d16 613e f6ab 46bd
000000a0: 07c6 bc3c 77e9 abbb 63d4 083f 5336 853c
000000b0: c56f 7abd d0c2 43be 6c76 1dbd 011d babc
000000c0: d065 7f3e 4cd7 19bd e1ba f23a 23f0 893e
000000d0: e2c5 db3d 347d 563b b04a b43c b258 8b3d
000000e0: e0b1 6ebf ebdc e0bd 7856 733c 1271 d8bc
000000f0: f8b8 6d3c f4d4 c13b 19ff ad3d 53a5 853d
00000100: 8960 70bf c118 023f 3e0f 3a3f e223 2cbf
00000110: 6917 c93e 6da4 3bbf ea00 4a3d 78d5 60bf
00000120: cdc9 063f 58e8 c23e 1ef9 0f3e fea4 73be
00000130: bedc a3bf 7aed 0bbf da6e 353f cc97 df3f
00000140: 574f 0ebf 88e1 53bf 51a4 e3be f725 08bf
00000150: 8ab7 cbbe fa4f 1c3f 2d8a 90be 79bb 813f
00000160: d6c2 d2be 76fa 12bf 990c a83e 068b 5d3f
00000170: 87c4 ea3e faa9 8fbf 459a e33e 0d86 cd3e
00000180: b43b 80be fbee cdbe b270 27bf 6b81 b43d
00000190: 6455 3ebf 9d84 133f 7e40 32bf d9e2 af3e
000001a0: 50ba 4cbf 3d55 24bf 9cd9 133d fd31 1d3f
000001b0: 2ea3 25bf 60d1 233e 487d 02bf 722e fd3e
000001c0: 87d3 713e 655d 0bbf 2fbe 2abf 3450 383c
000001d0: cf5e 8bbe 5d0c b5bf 97c5 3b3f b6cd 2cbf
000001e0: 9c04 503d de06 dc3e eae7 07bf e62e 00bf
000001f0: cffc a73f 19bd 02bb 6c1f 5c3e 4871 483f
-0.03994014 0.003919978 0.0054211025 0.038724676 -0.44439155 0.028974595 0.24797069 0.053849768
-0.030336937 -0.2190311 -0.23466775 -0.14234884 -0.025683302 0.030622216 -0.01859016 0.11213151
0.044312775 -0.0054868683 0.07514432 -0.026083486 -0.27279553 0.013894162 -0.1830945 0.088613726
0.0069887307 0.054837458 -0.20402044 0.034589272 -0.04779101 -1.2156367 0.057662673 0.018659018
-1.561462 -0.07208453 -0.07768167 0.27841634 -0.03477679 -0.002625141 0.21981116 -0.04850384
0.023043646 -0.005246337 0.53449076 0.016261255 -0.061141748 -0.19117284 -0.038443014 -0.022718908
0.24941182 -0.03755884 0.0018518829 0.26941022 0.107311025 0.0032728435 0.02200827 0.06804027
-0.93240166 -0.10979637 0.014852159 -0.026421104 0.014509432 0.0059152786 0.08495922 0.06525674
-0.938973 0.5081902 0.7267951 -0.6724225 0.39275673 -0.7329777 0.049317278 -0.8782573
0.52651674 0.3806789 0.14059874 -0.23793408 -1.280174 -0.54659235 0.7087227 1.74682
-0.55589813 -0.8276601 -0.444613 -0.5318293 -0.39788467 0.61059535 -0.2823042 1.0135337
-0.41164273 -0.57413423 0.3282211 0.8654026 0.45853063 -1.1223748 0.44453636 0.40141335
-0.2504555 -0.4022139 -0.65406334 0.08813747 -0.74349046 0.57624227 -0.6962966 0.3435276
-0.7997179 -0.64192563 0.0360962 0.614044 -0.6470212 0.15997839 -0.50972414 0.49449497
0.23615848 -0.54439384 -0.6669645 0.011249591 -0.2722077 -1.4144398 0.73348373 -0.6750139
0.050785646 0.4297399 -0.5308825 -0.5007156 1.3124026 -0.0019949137 0.21496361 0.78297853

fc3.bias f4 [2]
00000000: 71a3 bfbe 24e6 7a3e
-0.37429383 0.24501854
