ros2/racecar_nn_controller/racecar_nn_controller/models/model_noisy_36_64.pth (torch, 22194 bytes, 7 tensors)

input_weights f4 [7]
00000000: 0000 a040 0000 a040 0000 a040 0000 803f
00000010: 0000 803f 0000 803f 0000 803f
5.0 5.0 5.0 1.0 1.0 1.0 1.0

fc1.weight f4 [64, 7]
00000000: 4590 00b9 2c62 3ab8 52cd 86b8 9da8 3436
00000010: 3b7f 8bb5 99e9 813f 7e71 1235 4c42 ceb1
00000020: 145f 11b3 086c c031 facd 3e33 f0cc 9d31
00000030: e36a 12b3 380e b731 b841 ea3a 1e29 8f3c
00000040: f99c 6f3d 97b5 2abd a446 55be 2e13 44be
00000050: df00 da3e 59c9 3f3d 18f9 1abe 360f 8d3e
00000060: 8127 2b36 eb63 e3b6 a7f4 07b7 b90b 05bb
00000070: 0a8d 4633 4405 17b3 86c1 13b3 b6af d9b2
00000080: e544 ceb2 d3c1 79b2 a9b4 b4b2 97d1 03bd
00000090: 8268 1f3d da4b adbb 3a96 653d 2379 cb3e
000000a0: aa04 823c 4b46 00bf 0833 7ab3 90d5 5bb2
000000b0: b97f 9432 6e57 08b3 6287 8731 6cfe 4032
000000c0: 5831 4632 5efb 703d cb40 f93d edb6 70be
000000d0: 4726 0e3e 87ab abb6 cf4b 963c bcb2 9d3d
000000e0: bea1 15b3 7ed3 f5b2 d60e 3733 88aa b132
000000f0: 9996 b0b2 0069 bf2e 2869 fd32 0f28 48be
00000100: e45d 1c3c c672 f63c 7979 1ebc 5c8b f43b
00000110: f7f8 0337 e890 a83b 15c4 2533 5023 8531
00000120: b022 3bb1 e610 b331 c2fe 0232 a660 e332
00000130: 59e8 2132 19a0 8532 080a a7b1 d66d 9431
00000140: da8c 1132 8cee acb2 7d60 8732 d614 3fb3
00000150: 201d 4130 adc2 8232 bf14 39b3 4a82 8232
00000160: 1b4b 12b2 d5f5 2233 915d a5b3 a4cd bf3c
00000170: 7239 89bc 676f 083e 08d8 42bd 37f3 53bc
00000180: d350 b9bc fe4e 4f3e 2946 ae3d 965a 273c
00000190: db52 1d3d f4fc e7b6 4956 67b6 6628 39b7
000001a0: ba74 82be 7ca8 0533 92ab 4c33 0023 b4b1
000001b0: 6a3b b2b2 dcf8 04b3 fa0d 1233 c4f4 35b3
000001c0: a5f6 b53e 5bc6 963c 76e8 1fbe 7ba4 8d36
000001d0: 3a51 97bc e1d1 9337 54af e1bd d9ba 6a3d
000001e0: 375d a2bc f200 18be 95ed c33c aa3d b83b
000001f0: 2e88 95bb 5664 75be f846 5033 8194 e4b2
00000200: dc94 c1b2 42d0 4cb3 cd87 84b3 cce5 a331
00000210: a70d fa32 3c72 0fb3 8430 c8b1 974f 8d32
00000220: 0853 ad33 94a0 5a33 c0b1 0032 e4d1 0833
00000230: f488 a5b1 f578 65b2 b26d 8031 8000 cd31
00000240: 8822 06b2 f09b 0433 d087 4931 e52f 69b3
00000250: c45e 8fb3 bc36 38b2 8120 e930 f406 92b3
00000260: 7345 9932 8af6 dab2 779a 1c3c 358d 25be
00000270: bf11 d3be a3fa 1abe 993a 503d 9ef3 0ab7
00000280: 34cb 3737 4c4c 0837 e1dd 9abd 3781 73be
00000290: 3bda c63e 1c13 e33d a84c 3536 9d92 afbc
000002a0: 547d 7032 d8ec 6130 be62 3533 2664 5632
000002b0: f201 15b2 a35d bbb2 2e32 73b2 cffc 77be
000002c0: 6c3d 93bc 7e1e 88bd 00e9 0dbc 2d7d 3f3d
000002d0: 43e5 7a36 8084 78be 078d ce3d d5ca 9e3c
000002e0: f1a9 1e3d 29d1 0a3d a9ca 093c 30bd c63a
000002f0: 5f0b 063f 0c8d 37b2 ecce eb30 002b 78b0
00000300: 0972 dfb2 b27f 0633 399c 94b3 4d07 0832
00000310: b486 8732 539b 0f33 3c14 c832 b6e4 5133
00000320: 8655 5933 52fe fab2 3f9b 88b3 da7b f0b1
00000330: e097 6832 444f 9732 bc61 f732 4e76 9432
00000340: a04e e330 8384 a032 7c25 22bf 4310 15bd
00000350: 6c28 5cbd 5359 0ebe 6d86 653b 8402 7bb6
00000360: a92b 1b3d d477 dbb1 43e7 9133 222e ce32
00000370: 6a1f c632 6c69 0733 9ef7 0fb1 6e71 60b2
00000380: 2f34 0fbf ac02 3fbd b1eb e5bd 4e5e 82bd
00000390: 4a93 c736 791c 0a37 4739 0b3d 25fa 6a32
000003a0: cc8f d8b3 e229 e7b2 f42a 4731 3bda 1733
000003b0: 976e 00b3 783f 5532 af33 b4be ea9a 3c3d
000003c0: 0bb6 2c3e 00a8 dfbc 0d4d 5ebd e887 93b5
000003d0: f2db 533c 1116 9b3e 6f44 4c3d 76a0 583e
000003e0: 7fdc e038 0678 153c 782b 773c d4ea 963d
000003f0: ce83 62be 6802 c5bd cd82 a8be 0681 0eb6
-0.00012260776 -4.4437285e-05 -6.427862e-05 2.6920236e-06 -1.0393336e-06 1.0149413 5.455439e-07 -6.002926e-09
-3.3846916e-08 5.600217e-09 4.4425157e-08 4.5926e-09 -3.4090487e-08 5.3276175e-09 0.0017872369 0.01747566
0.05849931 -0.041677084 -0.20827729 -0.19147941 0.4257879 0.04682288 -0.15134084 0.27550668
2.550398e-06 -6.776759e-06 -8.10359e-06 -0.0020301177 4.622874e-08 -3.5162216e-08 -3.4402113e-08 -2.5342029e-08
-2.4012886e-08 -1.4537778e-08 -2.1036913e-08 -0.032182302 0.038918026 -0.005288583 0.05605147 0.39740857
0.015871365 -0.5010726 -5.8254074e-08 -1.2796036e-08 1.728755e-08 -3.1744484e-08 3.9444084e-09 1.123372e-08
1.1536336e-08 0.058833472 0.121705614 -0.2350728 0.13881789 -5.1161655e-06 0.018346695 0.077001065
-3.483887e-08 -2.861793e-08 4.26215e-08 2.068306e-08 -2.055758e-08 8.704326e-11 2.9500896e-08 -0.19546531
0.00954387 0.030084025 -0.009672516 0.007462902 7.866175e-06 0.0051442273 3.859539e-08 3.874824e-09
-2.72318e-09 5.211507e-09 7.624921e-09 2.6470229e-08 9.424263e-09 1.5556042e-08 -4.86148e-09 4.319854e-09
8.472137e-09 -2.0131914e-08 1.5759946e-08 -4.4489603e-08 7.025438e-10 1.522252e-08 -4.3092538e-08 1.519324e-08
-8.5153955e-09 3.7942147e-08 -7.700431e-08 0.023413487 -0.016751025 0.13323747 -0.047569305 -0.012936405
-0.022621548 0.20244977 0.08509476 0.010214468 0.038409095 -6.913784e-06 -3.4471907e-06 -1.1036265e-05
-0.2547968 3.111971e-08 4.7653494e-08 -5.2426685e-09 -2.0748946e-08 -3.095998e-08 3.4005986e-08 -4.236496e-08
0.35539737 0.01840513 -0.1561602 4.2212755e-06 -0.018471349 1.7621498e-05 -0.11019769 0.057307098
-0.019819839 -0.1484411 0.023916999 0.0056225853 -0.004563353 -0.23964056 4.849332e-08 -2.6610225e-08
-2.253585e-08 -4.768686e-08 -6.171431e-08 4.7700492e-09 2.9110039e-08 -3.3398678e-08 -5.8262817e-09 1.6450754e-08
8.0710436e-08 5.0903125e-08 7.490996e-09 3.1855862e-08 -4.817702e-09 -1.3357057e-08 3.737761e-09 5.966342e-09
-7.807678e-09 3.087547e-08 2.932655e-09 -5.42931e-08 -6.676194e-08 -1.0722655e-08 1.6962219e-09 -6.7999196e-08
1.7843126e-08 -2.5490653e-08 0.009558312 -0.16167147 -0.41224477 -0.15134673 0.050837133 -8.2821625e-06
1.0954962e-05 8.123996e-06 -0.07561851 -0.2377976 0.38838372 0.11087629 2.7015722e-06 -0.021432215
1.3998335e-08 8.21911e-10 4.2232152e-08 1.24792106e-08 -8.673384e-09 -2.1812246e-08 -1.4155871e-08 -0.24217533
-0.017973624 -0.06646441 -0.008661509 0.046750236 3.738635e-06 -0.24269295 0.100854926 0.019383827
0.038736288 0.033890877 0.008410134 0.0015162583 0.523611 -1.0684072e-08 1.7157311e-09 -9.028298e-10
-2.6012474e-08 3.1315444e-08 -6.920204e-08 7.917902e-09 1.5777324e-08 3.343605e-08 2.3292266e-08 4.8869616e-08
5.0602033e-08 -2.9219482e-08 -6.3612326e-08 -6.9989996e-09 1.353871e-08 1.761476e-08 2.8799029e-08 1.7283266e-08
1.653877e-09 1.868671e-08 -0.63338447 -0.03639246 -0.053749487 -0.13901262 0.003502275 -3.740338e-06
0.037883434 -6.3873618e-09 6.794155e-08 2.4002535e-08 2.306452e-08 3.1528018e-08 -2.0949993e-09 -1.3064307e-08
-0.55939 -0.046633407 -0.11226595 -0.063656434 5.947809e-06 8.23207e-06 0.03399017 1.3677469e-08
-1.008444e-07 -2.6910985e-08 2.8982727e-09 3.5355907e-08 -2.9902903e-08 1.2412663e-08 -0.3519568 0.046046175
0.16866319 -0.027301788 -0.0542727 -1.0991907e-06 0.012930857 0.30290273 0.04986995 0.21154961
0.00010722223 0.009122854 0.015086047 0.07369009 -0.22120592 -0.096195996 -0.32912293 -2.123475e-06

fc1.bias f4 [64]
00000000: 7fb7 3336 6630 09b3 0002 04bc 2804 cfb6
00000010: e781 1333 e759 23be dc9c 2d32 1eca 26b4
00000020: b66f 82b2 eb06 4f3f c437 a132 9858 0232
00000030: cadd 64b3 55f5 1b3f 7c8e 86bc 01ba e4b1
00000040: 6b98 acbd 5fe7 cf3e 485f 5f31 38e8 a433
00000050: 6c5d 5933 026b 8a32 a19f 6fbd 3b6f 9136
00000060: 90d9 ec32 0125 ecbe 9317 b6bd a03e d932
00000070: a8ad a6b1 066a beb3 2ba0 eb36 702d e130
00000080: d937 97bf 00d4 d92d 8369 b6bf 4844 fa3e
00000090: aca9 3bb7 c2aa 26b3 7870 8f31 813d 0337
000000a0: e5b0 cab6 40af e2b2 78d0 e932 9a3f b932
000000b0: 2c46 bbb2 0ab0 5932 b7c9 a33d 58df 4433
000000c0: fb0d a93e 1f68 30b3 7261 0fbf e79c a9b2
000000d0: 6cc6 64be 395b 87b2 c8d5 1133 7753 9cbe
000000e0: b470 2833 91f1 e9b2 2e2d 8932 9bb8 6bbf
000000f0: 908a 1bbf 763e 0db2 2e87 03b2 e080 9c3d
2.6779887e-06 -3.1941816e-08 -0.008057117 -6.1695646e-06 3.434425e-08 -0.15952264 1.0105591e-08 -1.5533485e-07
-1.5184792e-08 0.8086993 1.8768226e-08 7.58714e-09 -5.3287103e-08 0.6092122 -0.016425364 -6.6568195e-09
-0.08427509 0.4060621 3.2504932e-09 7.6790855e-08 5.0609216e-08 1.6113976e-08 -0.058501843 4.3342857e-06
2.7572952e-08 -0.46121982 -0.08891215 2.5290603e-08 -4.8509783e-09 -8.86685e-08 7.0221918e-06 1.6383819e-09
-1.1813918 2.476419e-11 -1.425095 0.4888022 -1.1185573e-05 -3.880519e-08 4.174634e-09 7.8225285e-06
-6.0406624e-06 -2.6389557e-08 2.721957e-08 2.1565757e-08 -2.1801576e-08 1.2671089e-08 0.079974584 4.5837936e-08
0.3301848 -4.107289e-08 -0.56008065 -1.974554e-08 -0.22341317 -1.5757552e-08 3.3954876e-08 -0.3053243
3.921805e-08 -2.7234622e-08 1.5969444e-08 -0.9207856 -0.60758305 -8.221482e-09 -7.65594e-09 0.076417685

fc2.weight f4 [64, 64]
00000000: 80b7 21b3 7a00 cf33 604f 0733 464e 7a32
00000010: 33d7 e032 f2e0 2533 78c6 a431 682b 05b1
00000020: f963 86b2 1486 1232 1034 3fb1 20f0 47b1
00000030: 0852 0cb3 da35 e5b2 d78e 0033 f486 80b3
00000040: 9e54 5433 7afb f4b2 c948 3733 f092 c4b2
00000050: a032 4a32 e29c 14b3 60e9 23b2 1089 d6af
00000060: d346 1f33 a857 c8b2 4efe 5533 2eae adb1
00000070: 606a c333 3d6d c4b3 93c2 7d31 1c46 ac32
00000080: 3476 5eb0 5f39 aeb3 d76e 94b3 7856 22b3
00000090: 131a 3933 3c1c 1db3 0437 38b3 7ec6 4233
000000a0: 4a6d 9b31 86d4 c6b2 05d6 8fb2 eef6 25b3
000000b0: 40b9 1cb2 ce41 da31 807b a030 5651 07b3
000000c0: 08d5 32b1 00d0 d6ae 4206 8eb2 bde9 0733
000000d0: 60f2 e132 69d4 2ab3 c286 2732 9182 f232
000000e0: 9bcf c8b2 a0d2 78b0 999c cf32 90f7 f330
000000f0: 4289 c232 71eb 1f33 039d b433 9e0f 06b4
00000100: 506e 48b1 8090 f4b2 e065 09b2 9d23 ab32
00000110: 548d 4632 03c3 a732 3a05 00b1 486d d7b1
00000120: 7854 18b1 2a30 5232 bc73 3ab2 16b8 c933
00000130: 7cdc 95b1 609c 6632 da8d 1bb3 0c52 a3b2
00000140: 5362 2b33 2d48 a0b2 a9d5 bdb2 f409 8932
00000150: 2447 89b2 a0ae e130 ba7d 8fb2 d0ca 912f
00000160: 151e 2f33 0e66 58b2 8cf6 8133 9a8b 3b32
00000170: a0a4 60b3 3057 4532 5ee3 0333 a8ff d431
00000180: b03a 4b32 d44e 3a33 200f b533 b4ae a833
00000190: 288a 9132 38ad fcb2 d083 aa30 3340 0333
000001a0: 1e49 e2b2 1a23 ee32 2659 be32 da03 0733
000001b0: 378d d8b2 b099 ed31 c838 b631 7069 f631
000001c0: 203f ed30 be11 39b3 ae64 ed32 60e1 7fb3
000001d0: ac3c 8332 8c81 b233 bcc3 ee31 f221 0833
000001e0: 887c 0732 bc30 5f32 9fed 2c33 d4a5 5db3
000001f0: f8ea 18b3 e073 6a31 e0db c1b0 e0ef ce30
00000200: fef6 28b3 54b9 78b2 80a2 3fb1 2e94 ad32
00000210: 4653 ac32 8897 2a32 1b68 d8b2 4565 4633
00000220: 02c7 5b33 dcad 0d33 36c3 4132 7205 1fb3
00000230: 80bb 0330 aa1d 16b1 b9ba b8b2 7c35 b832
00000240: c24e 8233 98f3 04b3 2843 e231 ef7e e332
00000250: 8eda 86b2 54dd 9733 188d e431 2684 a6b2
00000260: c365 20b3 976e fcb2 40ee 2031 8880 a531
00000270: e5bc cb31 305d 1433 c8c3 8331 aad6 89b3
00000280: b13b 2f32 3b11 94b3 f03f d032 0004 2bb3
00000290: bc7d f932 bf37 24b3 e57d 0733 2864 8933
000002a0: 5402 2a32 5677 3db2 b446 4b32 00f2 a22f
000002b0: c0af 97b0 9c6d e5b3 3020 05b2 4cce 11b2
000002c0: c662 23b3 32fc 1832 dc5a 7832 e3f5 2eb2
000002d0: 04c9 3132 5242 8bb1 1ff9 7fb3 cafe 11b3
000002e0: a811 1eb1 b61c 18b3 102b 6831 2001 17b0
000002f0: 727d 4f31 d54b 8632 10ef 8231 6537 8db1
00000300: 757b df32 1453 10b3 0c5a 3333 4709 46b3
00000310: a6c6 82b2 180f 26b3 d9fa 2fb3 b86f 20b3
00000320: cd0a ecb2 48d4 4332 f403 81b2 3f96 2833
00000330: a07e 5730 1479 fdb2 7a6d 7432 423d 07b3
00000340: 3109 ab33 9898 0cb3 4a33 ffb2 5ad3 2732
00000350: 5c9c 1c32 eca9 5932 f25e c8b2 d1c9 9ab2
00000360: 787d 072f f082 5631 e0d2 7b31 f460 fb31
00000370: 498b 4db3 bd31 1533 c3c8 bd32 94b9 eab1
00000380: 8858 23b1 6c90 11b2 96f3 1033 7f0d 35b3
00000390: 269b ce32 298c 3c33 16c2 04b3 96fd 99b3
000003a0: a16f 11b3 007c e1ad 7dfe 52b3 e37f 37b3
000003b0: 8091 7831 1045 8d30 5078 6932 e32a 3933
000003c0: 0068 8930 0a4c 8433 78d2 f6b0 c04e 4032
000003d0: 78c5 8b32 32f9 f5b1 0cbc 2132 d89e 4db1
000003e0: f63c 8eb3 967d e6b2 83da 0333 a800 c8b1
000003f0: 7237 a3b2 0ee8 17b3 cd01 8433 a8f5 ab33
-3.7652626e-08 9.639275e-08 3.1504328e-08 1.45697125e-08 2.6174893e-08 3.8621643e-08 4.7955915e-09 -1.937872e-09
-1.5645115e-08 8.528804e-09 -2.7823752e-09 -2.9094807e-09 -3.2670897e-08 -2.6683598e-08 2.9932234e-08 -5.985012e-08
4.9437055e-08 -2.8519697e-08 4.2674206e-08 -2.2884223e-08 1.1769458e-08 -3.460162e-08 -9.540912e-09 -3.9023762e-10
3.7084487e-08 -2.3322926e-08 4.9824216e-08 -5.0547646e-09 9.0997446e-08 -9.1468316e-08 3.6926948e-09 2.0055317e-08
-8.0931106e-10 -8.112942e-08 -6.911949e-08 -3.7797207e-08 4.3097383e-08 -3.658009e-08 -4.2890875e-08 4.5349672e-08
4.5235184e-09 -2.3146878e-08 -1.6744716e-08 -3.8641637e-08 -9.122516e-09 6.352116e-09 1.1676633e-09 -3.150611e-08
-2.6023503e-09 -9.7685415e-11 -1.6533821e-08 3.164472e-08 2.6303667e-08 -3.9774395e-08 9.75132e-09 2.8231883e-08
-2.3377472e-08 -9.052119e-10 2.4169184e-08 1.7750938e-09 2.264699e-08 3.7234205e-08 8.4104634e-08 -1.2485404e-07
-2.9166536e-09 -2.847105e-08 -7.997613e-09 1.9923215e-08 1.1557251e-08 1.953004e-08 -1.8629422e-09 -6.2697474e-09
-2.2166926e-09 1.223456e-08 -1.085294e-08 9.393277e-08 -4.361537e-09 1.3423318e-08 -3.6217763e-08 -1.9013008e-08
3.9903465e-08 -1.8659273e-08 -2.2099657e-08 1.5953425e-08 -1.598125e-08 1.6420536e-09 -1.6704565e-08 2.6519453e-10
4.0772722e-08 -1.2596059e-08 6.051877e-08 1.0916574e-08 -5.230379e-08 1.1486733e-08 3.0707604e-08 6.199077e-09
1.1829499e-08 4.3378193e-08 8.4312205e-08 7.854888e-08 1.6943048e-08 -2.9415432e-08 1.2406591e-09 3.0559203e-08
-2.6343113e-08 2.7722809e-08 2.2159451e-08 3.143564e-08 -2.5209927e-08 6.91508e-09 5.3033524e-09 7.171529e-09
1.7261961e-09 -4.3089806e-08 2.7636215e-08 -5.957679e-08 1.5277998e-08 8.312335e-08 6.948964e-09 3.169584e-08
7.886349e-09 1.2991389e-08 4.0262986e-08 -5.1606392e-08 -3.560396e-08 3.411735e-09 -1.410509e-09 1.5056649e-09
-3.9340186e-08 -1.4477639e-08 -2.7886529e-09 2.0207235e-08 2.0061304e-08 9.929757e-09 -2.5193051e-08 4.619257e-08
5.1170908e-08 3.2987245e-08 1.1278464e-08 -3.7025025e-08 4.7923976e-10 -2.1844735e-09 -2.150533e-08 2.1444741e-08
6.067923e-08 -3.0955192e-08 6.5851005e-09 2.6484e-08 -1.569904e-08 7.071745e-08 6.651714e-09 -1.9385038e-08
-3.7345455e-08 -2.9386952e-08 2.3418494e-09 4.8167443e-09 5.9295524e-09 3.454369e-08 3.8348595e-09 -6.418607e-08
1.0199913e-08 -6.894921e-08 2.4243462e-08 -3.9817678e-08 2.9044593e-08 -3.8234926e-08 3.1546637e-08 6.397778e-08
9.895832e-09 -1.1028382e-08 1.1832231e-08 2.963958e-10 -1.1036647e-09 -1.0683581e-07 -7.7489375e-09 -8.487017e-09
-3.804123e-08 8.904907e-09 1.4456159e-08 -1.0184041e-08 1.0348462e-08 -4.052972e-09 -5.959839e-08 -3.3992173e-08
-2.3002062e-09 -3.541637e-08 3.3784922e-09 -5.493508e-10 3.0193772e-09 1.5634138e-08 3.810676e-09 -4.1099377e-09
2.6016759e-08 -3.3603172e-08 4.1758582e-08 -4.6108905e-08 -1.5224327e-08 -3.8663615e-08 -4.0973507e-08 -3.735451e-08
-2.7478928e-08 1.1398761e-08 -1.5019374e-08 3.9252196e-08 7.839649e-10 -2.9508136e-08 1.4227561e-08 -3.148785e-08
7.96448e-08 -3.2735073e-08 -2.970923e-08 9.768735e-09 9.115947e-09 1.2669698e-08 -2.332624e-08 -1.8019735e-08
1.2322754e-10 3.1215528e-09 3.6645176e-09 7.3160837e-09 -4.785696e-08 3.4737003e-08 2.2093792e-08 -6.831394e-09
-2.3769946e-09 -8.472949e-09 3.3749153e-08 -4.215462e-08 2.405211e-08 4.3899636e-08 -3.0910165e-08 -7.170745e-08
-3.386197e-08 -2.5634606e-11 -4.912589e-08 -4.272432e-08 3.6171457e-09 1.0278729e-09 1.3589741e-08 4.3112674e-08
9.99762e-10 6.1605604e-08 -1.7958675e-09 1.1193777e-08 1.6271528e-08 -7.1587687e-09 9.41419e-09 -2.9921718e-09
-6.623479e-08 -2.6832634e-08 3.069955e-08 -5.8208407e-09 -1.9000911e-08 -3.536848e-08 6.1470566e-08 8.0074926e-08

fc2.bias f4 [64]
00000000: 082c 0733 1033 8932 8025 2eb3 60e2 dcb2
00000010: e5f3 8f32 51a4 043e 148c 0233 9a03 28b3
00000020: c8f9 dd32 5044 4b32 0fc8 b036 494a ecb2
00000030: 69b0 0933 4224 1cb3 6333 b533 b4cf c1b2
00000040: bf06 033b de7a 9c3f 1032 2230 2a76 99b3
00000050: 0044 f331 fcbc d7b1 9b58 95b2 6039 a7b2
00000060: 8e5b 22b2 5a51 a332 7290 48b1 83bb f032
00000070: 5fd8 71bf 40cb 1533 db6d b7b5 24ed ec32
00000080: cfe7 4e37 c5a7 10b3 809d 91b3 483b 0fb3
00000090: 642f 5eb3 4ca2 1831 0073 a62f 18c4 e33e
000000a0: d363 1db2 80a2 9033 8f48 1e33 42be cd32
000000b0: 26d6 1f33 2b81 893e 7bfe 1c33 96d9 dfb2
000000c0: 544d 9531 368d 21b3 5075 fbbe 8041 8d2e
000000d0: 5ddc 7d3f 5ac0 fa3c 4c77 14b3 a1cb 01be
000000e0: 627c 3ab3 8c1b 11b3 10b3 bcb1 bbe4 3333
000000f0: ced5 8f33 16f5 2fb2 e412 b531 18e6 e73e
3.1472183e-08 1.597212e-08 -4.0546638e-08 -2.5714314e-08 1.6758301e-08 0.12953307 3.0395384e-08 -3.9118824e-08
2.5841373e-08 1.1831688e-08 5.2684986e-06 -2.7507797e-08 3.2058242e-08 -3.6354557e-08 8.4378165e-08 -2.256261e-08
0.0019993035 1.2224996 5.90064e-10 -7.1461116e-08 7.0799615e-09 -6.2788086e-09 -1.7386176e-08 -1.946745e-08
-9.450458e-09 1.9012692e-08 -2.9185938e-09 2.8024948e-08 -0.9447078 3.487662e-08 -1.3666535e-06 2.7581855e-08
1.2332529e-05 -3.3680198e-08 -6.780738e-08 -3.3348698e-08 -5.1731504e-08 2.2211166e-09 3.0276937e-10 0.44485545
-9.1613e-09 6.735081e-08 3.6853233e-08 2.395166e-08 3.721484e-08 0.2685636 3.655303e-08 -2.6059563e-08
4.345262e-09 -3.7614164e-08 -0.4911294 6.423573e-11 0.9916437 0.030609298 -3.4567435e-08 -0.12675335
-4.3419625e-08 -3.3785497e-08 -5.491877e-09 4.1884714e-08 6.697847e-08 -1.0242067e-08 5.269941e-09 0.45292735

fc3.weight f4 [2, 64]
00000000: 74aa 5833 0047 7930 a76f 0033 82c7 95b2
00000010: ee3e b932 9d44 01b7 7719 0b33 0aa9 26b3
00000020: 32a7 35b3 436e 22b3 06b0 40b7 3e87 1233
00000030: cfa5 4633 9ac2 b5b2 90fa 9cb2 a110 d233
00000040: 5ad4 7b3f 7465 26b6 6957 4d33 90c6 6631
00000050: 879c 1f33 484f d831 0078 c130 aa1e 50b2
00000060: 8fa9 9832 d1dc 0733 07ca 16b2 bcb3 fb32
00000070: 222e 89b5 2e76 82b3 5c8d 7ab6 08e6 0f32
00000080: 1eb7 64bf ba9a 20b3 a0df 8133 5a6f 3133
00000090: c34d 0fb3 46a2 1433 441e 92b3 d0ed fa34
000000a0: eecb 0b32 fc24 0fb2 694e d0b2 1884 4e33
000000b0: 4422 4033 f010 9234 d0f9 3ab3 531c 2db2
000000c0: 8e0d 6b31 86ca af31 abc1 49b8 c533 67b3
000000d0: d278 9b35 9dcb 5c35 24e5 22b3 0d7d 43b7
000000e0: 4cde 2332 1a67 ba32 b8c1 08b1 4586 1533
000000f0: daf5 9ab3 0722 eb32 48e1 d933 d59c 76b5
00000100: 3ced f7b2 561f b4b2 c327 5433 4040 eab0
00000110: aa89 8832 2887 5cbf 5539 75b3 7893 5fb1
00000120: 3dd1 8c32 b93b 7b32 57a2 3bbf 9872 ecb2
00000130: 8c9f 0fb3 474c a8b2 9c0b 56b3 9021 55b3
00000140: 8d5f 43b6 6fa9 e83f e8ec 8b33 14bf a5b2
00000150: 53dd 0033 1c97 6532 9eff 8cb3 5f5d bdb2
00000160: 5117 c4b3 7c38 1cb2 83ae c4b2 79c3 eab2
00000170: 68f8 ff3f d14c 7832 daa7 0cbf e01b 2830
00000180: b288 813d aef9 71b2 367e 0db3 2a39 04b2
00000190: 8c99 b9b2 4842 86b3 c8ea fa31 377d 4f40
000001a0: e8da 2bb1 1c5b 2733 ffb8 c4b2 6da7 5a33
000001b0: 3a89 13b3 420e ae3f 5abf bbb2 ffa8 3732
000001c0: 78ce 57b3 9c9a 1e33 8de5 5ebf 3c3b f732
000001d0: bb9f 02c0 d063 52c0 0a5c bb32 fe0a a03f
000001e0: 347a 0bb2 5e11 d432 3cb6 eb33 0d94 95b3
000001f0: b623 2333 588d 01b2 d2b8 7431 e053 26c0
5.0446445e-08 9.068657e-10 2.990387e-08 -1.7436609e-08 2.1565452e-08 -7.704974e-06 3.238662e-08 -3.8803627e-08
-4.229441e-08 -3.7818847e-08 -1.1485075e-05 3.4116276e-08 4.625127e-08 -2.1159668e-08 -1.8274733e-08 9.781912e-08
0.983709 -2.479498e-06 4.780978e-08 3.3582275e-09 3.7162433e-08 6.2954406e-09 1.4076704e-09 -1.2114166e-08
1.7772235e-08 3.163297e-08 -8.777085e-09 2.930198e-08 -1.0220722e-06 -6.0750935e-08 -3.7335185e-06 8.375999e-09
-0.89341915 -3.7393626e-08 6.047708e-08 4.1312298e-08 -3.3365506e-08 3.4606522e-08 -6.80416e-08 4.673916e-07
8.137233e-09 -8.332105e-09 -2.4250044e-08 4.808325e-08 4.4734648e-08 2.7206943e-07 -4.3533703e-08 -1.00763655e-08
3.4204706e-09 5.1161946e-09 -4.81025e-05 -5.3830963e-08 1.1583563e-06 8.2252683e-07 -3.7926966e-08 -1.1652021e-05
9.538393e-09 2.1700135e-08 -1.990072e-09 3.4813883e-08 -7.215904e-08 2.7373074e-08 1.0145828e-07 -9.187036e-07
-2.8862466e-08 -2.0969008e-08 4.939626e-08 -1.7044002e-09 1.5895086e-08 -0.8614373 -5.709565e-08 -3.2534597e-09
1.6393296e-08 1.4623702e-08 -0.73294586 -2.7526127e-08 -3.343989e-08 -1.9592461e-08 -4.9836316e-08 -4.9623452e-08
-2.9112882e-06 1.8176707 6.515785e-08 -1.929542e-08 3.0003616e-08 1.3363913e-08 -6.5657545e-08 -2.2044956e-08
-9.1312025e-08 -9.093238e-09 -2.2896762e-08 -2.7330076e-08 1.9997683 1.4452966e-08 -0.5494362 6.1157657e-10
0.06324901 -1.4084817e-08 -3.294391e-08 -7.696409e-09 -2.160666e-08 -6.251918e-08 7.302649e-09 3.2420175
-2.5008209e-09 3.896558e-08 -2.290153e-08 5.0909353e-08 -3.435091e-08 1.3598101 -2.1856682e-08 1.0690427e-08
-5.024637e-08 3.6927858e-08 -0.87069017 2.8781521e-08 -2.0409992 -3.287342 2.181152e-08 1.2503355
-8.118651e-09 2.4687946e-08 1.09761885e-07 -6.9652835e-08 3.7983874e-08 -7.540926e-09 3.5611731e-09 -2.5988693

fc3.bias f4 [2]
00000000: b8a0 cfb6 9825 c1b6
-6.187791e-06 -5.7562247e-06
