ros2/racecar_nn_controller/racecar_nn_controller/models/model_noisy_14_64.pth (torch, 21682 bytes, 7 tensors)

input_weights f4 [5]
00000000: 0000 803f 0000 803f 0000 803f 0000 803f
00000010: 0000 803f
1.0 1.0 1.0 1.0 1.0

fc1.weight f4 [64, 5]
00000000: 2c5f d73d 01ac d93d fc1f e5be fdc2 2f3e
00000010: 095a 9f3e a1af 4b3e 576c 00bf d64d da3e
00000020: 759c 3dbd 6d9a b23c 9537 4bbe e4e5 673f
00000030: 73a7 a6be dc58 adbd fe5a bbbb a226 823e
00000040: ec79 643d 13ec a93d 032b 673f 7e41 803d
00000050: e471 f0bc ce15 4d3f 437e fb3d 549e 0dbe
00000060: 6372 f93d 9947 80bf de98 cb3d edc2 f13d
00000070: 9802 ba3c a431 3fbc b5cc bebf 51ca 5d3e
00000080: 0b75 363e a79e 963c c39b 5abc b8d5 d33e
00000090: 864d 07bf bd6d 0cbf e2d3 84be cf2a 7bbb
000000a0: f56c 2a3f 708c 8fbf b484 b1be 27f9 01be
000000b0: e1fa 36bc dbf9 b3be 0ac9 efbe 007c f53e
000000c0: cf21 463d 8e29 0f3a 23c3 e13e a5a7 8a3e
000000d0: 6eb1 06bd 5f84 8f3a 5cd8 553d bf70 413e
000000e0: 1f90 903b cb21 933d d2fc b23e 69fa 673e
000000f0: 351e ec3e c17b 52bd 97a3 bc3e 58d2 763e
00000100: b234 6ebd 71c3 89bf fd13 873e ad12 4c3f
00000110: 7681 9f3d a762 533b 2def 18be 7efc 6ebd
00000120: da9e 483f 2249 533e b7a1 23be 65fd 1b3f
00000130: 2082 b4bd b387 ac3e 7a2c 06bf ee92 13bc
00000140: 66da c1be a4c8 193f 126b 0cbe c79b cabe
00000150: 5649 e33c 57e3 aabe c5f3 d23d 69d3 0dbf
00000160: a8fe da3c 2119 25bd 0cd2 06be 2217 51bf
00000170: ba15 493e 4b20 88be 9db9 aa3b c0a0 10bf
00000180: efa4 633d 6fda 673d 913e f5bc 7d1f 2fba
00000190: 42f4 bf3c 1045 2c3f 7bb6 293c 5f1b 83bd
000001a0: 85b9 aebd 35f3 16be b2c8 9d3f 84dc c73d
000001b0: e545 0b3d c5ce 0c3d 72ca 6cbd 9cf8 9d3e
000001c0: e452 173e c6ec 8abe 5374 3dbd c15d 57be
000001d0: 4285 2f3f 7f41 abbe 573a f13e f275 0e3e
000001e0: fe0b b23c f64a bbb8 684a 8c3d 8799 673f
000001f0: e5a2 2fbe aedd 20bf 6c77 6b3f dbf6 133f
00000200: b912 5abc ba2b a1bd 472a 22bf 3101 10be
00000210: 0124 153e 467f 25bd 928d 41bd 6b2d 173e
00000220: d70b a93e bd9e d3bc 39e3 9ebc 3e73 8cbe
00000230: 5da9 8abf 15ba e8bd 1321 39be 551f ec3c
00000240: c3cf 5b3c 93c3 ca3d dac7 e33e 8c98 b5be
00000250: 9c7b 16bf 44be 233d 1b6c 353e 9ac6 19bf
00000260: 4c10 0d3d 7794 99bd 2ac1 0fbe e6f5 2c3f
00000270: 92ba ce3c c34c adbd 6d8e a43c f84c 1a3a
00000280: 25aa 653d 2bfa c6be 1c44 9ebf 97b9 5d3d
00000290: f639 f83b 7869 9dbe 3318 2f3f 10cf 24bf
000002a0: 3b86 2c3e e490 4c3e ac6a d6be c1d3 c2be
000002b0: 50a7 8f3c c313 1d3f 24ee 4ebc d757 953e
000002c0: 7579 723b 6289 193f f495 21bf c6c6 463d
000002d0: 4703 6e3f 7e96 24bd 8727 6cbe 169e 74bb
000002e0: a59e fabc e9b2 283f eaa1 6ebc 8768 41bf
000002f0: 0a9c e13e b242 e2bd 33b6 bdbf 2883 403d
00000300: 08d4 a9bd 7703 14bd b493 31b9 c4a2 adbd
00000310: 68a2 a23e dd43 06bf 1745 3f3d 388e 1b3d
00000320: 9f83 0abd 3f94 0dbf 6efe 1cbe 8555 df3d
00000330: 1ac0 88bb e280 823d 87f3 06bf 1052 713f
00000340: d98d f43c 658d aa3d 99b9 2bbf 1886 f93d
00000350: 00b7 75be 1770 d33d c088 8dbc 4696 72bd
00000360: 1f75 d23d c44b 09bd e2ae 55bf 84f6 edbe
00000370: ccd6 11be 5afd 05be 8696 fbbd 0290 0ebe
00000380: 0860 91bd 0b50 6c3e 524e 563f c1e4 0c3f
00000390: 2438 00bc 35ab e5bc a5bf 46bf 0f11 303e
000003a0: fdb4 ccbe 4c45 b53e 11a2 cdbd c696 18bf
000003b0: c353 d83d 3383 f6be 4bd4 d9be 9322 16be
000003c0: 06b1 8dbc 82f2 54bf 8b4f 30be 1133 e7be
000003d0: 174f 62bd cfa0 a739 929a 773b 7ab5 02bb
000003e0: 1875 3dbe 22a8 453f 199b 98bf b2de 4fbd
000003f0: ae0a 2fbf b5a6 ce3b 5815 2c3d d70e a03d
0.105161995 0.1062851 -0.44750965 0.17164226 0.3112338 0.19891216 -0.50165313 0.4263751
-0.046291787 0.021802152 -0.19845422 0.9058516 -0.3254963 -0.08464214 -0.005717634 0.254201
0.055780336 0.08296981 0.90300006 0.06262492 -0.029351182 0.80111396 0.12279942 -0.13829929
0.12180021 -1.002185 0.099412665 0.11804757 0.022706315 -0.01166955 -1.4906222 0.21659209
0.17818086 0.018386198 -0.013342801 0.41373992 -0.52852666 -0.5485495 -0.25942904 -0.0038325076
0.66572505 -1.1214733 -0.34671557 -0.126927 -0.011168213 -0.35151562 -0.46833068 0.47946167
0.048372086 0.0005461209 0.4409419 0.27081028 -0.032884054 0.0010949484 0.05220829 0.18890665
0.004411712 0.0718418 0.34958512 0.22654118 0.46116796 -0.051387552 0.3684356 0.24103677
-0.058155723 -1.0762769 0.26382437 0.79715997 0.077883646 0.0032254846 -0.14934988 -0.058346264
0.7836739 0.20633367 -0.15979658 0.60933524 -0.08813882 0.3369728 -0.52411616 -0.009007199
-0.37861937 0.6007178 -0.13712719 -0.39571974 0.02774493 -0.33376572 0.103004016 -0.5540071
0.026732758 -0.040307168 -0.13166064 -0.8167592 0.19637194 -0.26587138 0.005210115 -0.56495285
0.055577215 0.0566048 -0.02993706 -0.00066804123 0.0234319 0.6729288 0.010358448 -0.06401705
-0.08531479 -0.14741214 1.2326872 0.09758857 0.034002203 0.03437688 -0.057810254 0.30853736
0.14777714 -0.2713377 -0.046253514 -0.21031858 0.6856271 -0.33448407 0.47114822 0.1391218
0.021734234 -8.9308174e-05 0.06850129 0.9046864 -0.17151983 -0.62838256 0.919791 0.57798547
-0.013310128 -0.07869668 -0.6334576 -0.14062954 0.14564516 -0.04040458 -0.047254153 0.1476342
0.33016846 -0.025832528 -0.019395458 -0.27431673 -1.0832936 -0.11363617 -0.18079023 0.028823534
0.0134162335 0.09900584 0.44488412 -0.35467947 -0.5878236 0.039976373 0.1771702 -0.60068667
0.03443937 -0.074990205 -0.1403853 0.6756271 0.025235448 -0.08461907 0.020087445 0.0005886103
0.056070466 -0.38862738 -1.2364535 0.05413207 0.007575269 -0.3074453 0.683963 -0.6437845
0.1684808 0.19977146 -0.4187826 -0.3805218 0.017535836 0.6135828 -0.012630019 0.2916858
0.0036998664 0.59975255 -0.63119435 0.04852941 0.9297375 -0.040182583 -0.23061953 -0.0037325672
-0.030593226 0.65897995 -0.0145649705 -0.7555012 0.4406436 -0.11047877 -1.4821228 0.04700008
-0.08292395 -0.036136117 -0.00016935059 -0.08478311 0.3176453 -0.524473 0.04669675 0.037977427
-0.03381693 -0.5530433 -0.15331432 0.109049834 -0.004173291 0.06372239 -0.52715343 0.9426584
0.029852794 0.0832775 -0.67080075 0.121837795 -0.2399559 0.10324114 -0.017277122 -0.059225343
0.10276245 -0.03351952 -0.83469975 -0.4647714 -0.14242095 -0.13084927 -0.122845694 -0.13922122
-0.07098395 0.23077409 0.8371326 0.5503655 -0.007825885 -0.02803574 -0.77636176 0.17194007
-0.39981833 0.35404432 -0.10040677 -0.5960506 0.10562851 -0.48146972 -0.4254478 -0.14661627
-0.017296325 -0.8318254 -0.17217843 -0.45156148 -0.055251207 0.00031972534 0.003778134 -0.0019944594
-0.18501699 0.77209675 -1.1922332 -0.05074949 -0.6837567 0.006306494 0.042012542 0.078153305

fc1.bias f4 [64]
00000000: 7e89 b4bd 2c4c 143f 18c3 84be ac13 02bf
00000010: 5c86 323e 9a22 553f fd37 77be 0f9c d1be
00000020: 2d4e 2dbf 76b2 dc3e 10a3 353e 1434 423f
00000030: 5a00 e03e c49c 85bf 479e 45be c521 35bf
00000040: 339a c9be 36cb 0f3f b64f a83e 38b5 993e
00000050: 27ff 0f3e 33fe 10bf 3131 723e 0c03 06be
00000060: 7382 35bf 2f12 81bf df83 423e 5e57 38bd
00000070: d130 4cbf 28dc 91bf f806 5b3e ba46 b43e
00000080: 1aed 66be 0a7e 68bd 2d7d cf3d 5b93 56bf
00000090: 800a 9abf a3b7 78be 97cf 85be 507f 9e3e
000000a0: 4bc0 2c3f 2906 13bf 6a8e 073f 9525 c9bf
000000b0: 1839 373e 2d38 94bf 3ae5 2ebe f02b a3be
000000c0: f3ae cbbe bf24 d0be 942b 32bf 071d 5ebf
000000d0: 7245 b33e a66a 883e d81d 963e 48dc e53d
000000e0: 4e06 5dbf 0dfb 0c3e 0d96 1c3e ff1f 2a3e
000000f0: 6120 25bf ea9d fbbe fd10 93be e1a8 6c3f
-0.08815287 0.5792873 -0.25930095 -0.50811267 0.17434067 0.8325592 -0.24142452 -0.40939376
-0.6769741 0.43104905 0.17737985 0.75860715 0.43750268 -1.0438466 -0.1929866 -0.70754653
-0.39375457 0.5616945 0.32873315 0.3002107 0.14062177 -0.5663788 0.23651578 -0.130871
-0.70902175 -1.0083674 0.18995617 -0.045005195 -0.7976199 -1.1395311 0.21389377 0.3521021
-0.22551385 -0.056760825 0.10131297 -0.83818597 -1.2034454 -0.24288802 -0.2613494 0.30956507
0.67480916 -0.57431275 0.5295168 -1.5714594 0.17892873 -1.1579643 -0.1707963 -0.3186946
-0.39781913 -0.40653035 -0.69597745 -0.8676304 0.3501392 0.26643866 0.29319644 0.11223656
-0.86337745 0.13767643 0.15291615 0.16613768 -0.6450253 -0.49143916 -0.287239 0.9244519

fc2.weight f4 [64, 64]
00000000: 339d 683d e2e5 373e 5515 ae3e 6c96 733c
00000010: 5c50 69be 1a16 da3e 0e2d 17be dc2d 13bf
00000020: abe1 65be 701b cdbc af5b ccbd f69d a6bd
00000030: 9e2d 103e c952 02be ac9f 06be f963 4a3f
00000040: 925a 6abe 7297 893d d9e2 a33e e425 e0bd
00000050: f6f0 dfbd 5b6f 32bf da8e 6f3e cb30 763e
00000060: bcf3 293e 2ca7 b03d fa52 2cbd 63d0 08be
00000070: d133 59bf ecae 58bf 4e35 9fbd 95a8 073e
00000080: 98d8 83be 76cb 4d3e 0780 d43c 9fd0 c0be
00000090: 4c97 7c3f 0a36 99be 2211 fc3d 8c20 123e
000000a0: 35d0 c2bc 90b8 c3be 6eec 6a3e 49f3 ecbd
000000b0: 5e29 8c3e 5779 dbbe d1ae 5a3e 5504 263e
000000c0: 9a90 34bd 91d4 9c3d a33e 46bd 8894 18bf
000000d0: 93f9 56be ea5f b5be a465 843e a935 553e
000000e0: 970c 27be fad5 c43d daab 4abe a794 0fbe
000000f0: 0d6b 88be b337 eabd 2f29 8bbd 8e61 00be
00000100: d381 12be 5421 5f3e 01a3 5dbe ffb1 8fbe
00000110: 3a8f 4c3d 9b96 de3d d3c4 f9bd db1c 8ebe
00000120: 3649 a03d 98d3 043a e6bc 843c a64c 3f3b
00000130: 5f54 8c3e 47a0 8bbc 26cf 9cbe 9711 adbe
00000140: a16e 18be 1483 883d 8194 febd 4abd c8bb
00000150: 16e2 cd3e 653c cdbe ce53 643e f03a 4abe
00000160: a214 3e3e 4d34 98be 363e 4bbd 1bc9 813e
00000170: 6203 12be eacb 2cbf 9223 d33e 90b8 bd3d
00000180: 0d28 21bd 9bbe 133d 7ae4 f0be acd1 1ebd
00000190: 58e5 bb3c 606e 4f3d c48a 82be e707 d9bd
000001a0: bfc2 e33c c67c a8bd 719a 2c3e 3b60 eebe
000001b0: 8b4d c13e 084f 993c 1e0d cb3d 932c e03e
000001c0: be08 8fbe 254a 193f c197 3abd d7bc 343b
000001d0: fff6 1fbe 3a1d 8e3e fc1a 003e 455e 51be
000001e0: 5d71 91be c610 953d 40dc 38be 3a8b 593e
000001f0: 2279 b23e 8ff7 9cbf bbb7 e03e 27f5 d23d
00000200: 3964 943b d0c0 21be 4c7a dfbe 9b38 423e
00000210: ba22 a3be 9a36 90be 0716 b7be 62ec 5e3e
00000220: 72ba 37bf fa52 f9bd 1e99 bb3d 7332 833d
00000230: e325 783d de8f fabc dc3c b3bd 6b5c 05bc
00000240: c7ec 263e 7eb6 a3bd 2468 dfbd dc2f a33e
00000250: 4efd 4cbe 736d 283f 7f2a 4e3e d214 55be
00000260: 01ce d3bd 2aa3 e83d 2e79 d6bd d457 51be
00000270: 8d40 3cc0 e6fb 1dbf ad99 9a3d cd2b 5c3d
00000280: 5251 833d 15a1 e0be df18 943e 3036 583e
00000290: 8131 d43e 7a14 89bd 44d4 e0be 9ebb 7c3b
000002a0: f2ce 3cbe a9af d9bd 5c37 b9bd 5f95 25bf
000002b0: dc6d 98bd f6f2 f7be 8563 2abe 31ce a43d
000002c0: 0651 be3e 5ac8 ba3c 6df6 e1bf bc3a dd3d
000002d0: 3cc7 0cbf 7522 903e 7032 59be b96a 203e
000002e0: 1df8 b13d d369 d2bd 451b 143f b667 c3bd
000002f0: 58d5 86bd e955 353e 2764 00be 8ddd 663f
00000300: 5ac8 fb3d c922 15be 6713 76be faf5 cf3e
00000310: 8d77 47bd e2a8 57be 305c 8dbe 8945 813e
00000320: 579f 20be 6d73 98bd 7588 143e 143f 8d3d
00000330: 5ebe 373e dc24 cc3d 48c5 0d3d 98de 01be
00000340: 82b6 283f 87af 0dbe 4184 33bd d8d0 91be
00000350: 8980 37bd 2ed0 253e d775 803e 496f 573e
00000360: 9258 ad3d 8511 573d 60b6 74be 294e 3cbe
00000370: a774 883e 1dcc 633f 130b 2cbe 30f1 4e3e
00000380: 0ab2 6cbe af09 24bf 0a99 9d3c dc77 6e3e
00000390: 47b3 1a3e 1d81 113e 11ac a3be 4516 f4bd
000003a0: a404 9f3e a7c6 2e3e 5312 8d3d 8ffe aebf
000003b0: 3218 0cbe 9969 973e 133d f33c 95a2 3fbf
000003c0: 028d 06bc bfc3 f4bc 7489 bdbc f302 74be
000003d0: 376f 0bbe 5aeb e13e 0592 223e c24f b43e
000003e0: c9ea c33e 3ec4 d3bb 8500 c53e 82e6 a0bc
000003f0: b839 e2bd 3ae1 3f3c ee47 69be b2a9 78be
0.05679054 0.17958787 0.3400065 0.014867406 -0.22784561 0.42594987 -0.14763281 -0.5749185
-0.22449367 -0.025037497 -0.09978425 -0.081355974 0.14079902 -0.12726893 -0.13146847 0.79058796
-0.22886112 0.06718339 0.3200901 -0.10944727 -0.109346315 -0.69701165 0.23394337 0.2404205
0.16596884 0.086256355 -0.04207132 -0.13360743 -0.8484469 -0.8464191 -0.07773839 0.13247903
-0.25751185 0.20097145 0.025939954 -0.37659165 0.9866836 -0.2992404 0.12307955 0.14270228
-0.023780921 -0.38226748 0.22941753 -0.115698405 0.2737531 -0.42866012 0.2135575 0.1621259
-0.044083215 0.07657731 -0.04839958 -0.5960164 -0.20993643 -0.3542474 0.25858796 0.20821251
-0.16313396 0.09611125 -0.19792119 -0.1402155 -0.26644173 -0.11436405 -0.067949645 -0.12537214
-0.14307337 0.21790057 -0.21644212 -0.28065488 0.04994128 0.108685695 -0.12195744 -0.2775639
0.07826464 0.00050669303 0.016203355 0.0029189973 0.2740812 -0.0170442 -0.30626792 -0.33802482
-0.14885952 0.06665626 -0.124306686 -0.0061260806 0.40211552 -0.4008514 0.22297594 -0.19749045
0.18562558 -0.29727402 -0.049619876 0.25348744 -0.14259103 -0.6749865 0.41238075 0.09263718
-0.039344836 0.036070447 -0.47049314 -0.038774177 0.022936508 0.05064237 -0.25496495 -0.105972104
0.027802823 -0.08226924 0.1685579 -0.46557793 0.37754473 0.018714443 0.09914611 0.43784007
-0.27936357 0.5987876 -0.04555488 0.0027578378 -0.15621565 0.27756673 0.12510294 -0.20446117
-0.28406802 0.0727859 -0.18052769 0.21244517 0.34858042 -1.2263049 0.43890175 0.10300665
0.004528549 -0.15796208 -0.43647993 0.18966906 -0.31862432 -0.28166658 -0.35758993 0.2176986
-0.7176887 -0.1217403 0.09160064 0.06406107 0.060583007 -0.03058618 -0.087518424 -0.00813971
0.16301261 -0.07993792 -0.10908535 0.3187245 -0.20018503 0.65792006 0.20133398 -0.20808724
-0.103420265 0.11359246 -0.10472332 -0.2044366 -2.9414399 -0.6171249 0.075488426 0.05375271
0.06411995 -0.43872896 0.28925225 0.21114421 0.41444018 -0.06693359 -0.43911946 0.0038563977
-0.18438318 -0.10629208 -0.09043762 -0.6468105 -0.07442829 -0.48427552 -0.16639526 0.080471404
0.3717119 0.022800613 -1.7653328 0.10802218 -0.5499151 0.2815129 -0.21210647 0.15665711
0.08689902 -0.102740906 0.5785411 -0.09541266 -0.06583661 0.17708553 -0.12538205 0.9018181
0.122940734 -0.1456405 -0.24030839 0.40617353 -0.048697997 -0.21060517 -0.27609396 0.25248364
-0.15685783 -0.07443891 0.14505179 0.06896797 0.17943713 0.09967968 0.03461197 -0.12682569
0.65903485 -0.1383649 -0.0438273 -0.28479648 -0.044800315 0.16192695 0.25089905 0.21038546
0.08464159 0.052506942 -0.23897696 -0.1838919 0.266515 0.8898333 -0.168011 0.20209193
-0.23114792 -0.64077276 0.019238014 0.2328791 0.15107451 0.14209409 -0.31967214 -0.1191831
0.31058228 0.17067967 0.06888261 -1.3671435 -0.13681105 0.29572752 0.029692208 -0.74857455
-0.00821233 -0.029878495 -0.023136832 -0.2382925 -0.13616644 0.44124871 0.15876015 0.352171
0.38265064 -0.006462603 0.3847696 -0.019641165 -0.11046165 0.011711413 -0.22781345 -0.24283484

fc2.bias f4 [64]
00000000: 8f66 ab3e 6646 9f3e 5387 103e 9198 92bd
00000010: ca9c 803d 5eda 263d cae4 283e a75e 09bd
00000020: ffe8 243d 9450 923e 76ab 3b3e 1c14 c4be
00000030: ecdf 843d bd67 83be 81e5 5bbd 6c3e 133e
00000040: d1cf 7c3e 3c8b d53d 4fff 8e3e a2e6 513e
00000050: 4e90 c33e 137c f6be f4b3 a0be f7dd 843e
00000060: 509e c6be 3cec 0fbe 9cb9 c0bd 4c28 853e
00000070: 5e89 efbd 8dfa cebe 4e5d a93e dca5 bb3e
00000080: 5a8b 3bbe 2570 273e 2c25 de3d 3b82 6e3e
00000090: bb8d 863e 5e2b b43e 5438 31bc 479c 89be
000000a0: 9d66 113e 943b 95be 8ca3 453d a578 71be
000000b0: 1011 72be 882a 9d3d 1bf8 a83e caf9 8a3e
000000c0: 2613 793e ebd5 7abe 8129 1ebc 163e 02bd
000000d0: 632a 4e3e 20e5 573d 80a2 a53e 296e 66be
000000e0: 4491 0c3f b208 0f3e 4838 233e bcb9 8ebe
000000f0: b194 f63d 4e06 d2be de72 90bc 391c c53d
0.33476683 0.31108397 0.14114122 -0.07158006 0.06279905 0.040735595 0.16493526 -0.033537533
0.040261265 0.285771 0.18327126 -0.38296592 0.06488022 -0.25665084 -0.05368567 0.14379281
0.2468865 0.104269475 0.2792916 0.20498136 0.38196033 -0.48141536 -0.31387293 0.25950596
-0.38792658 -0.1405496 -0.09410402 0.26007307 -0.116961226 -0.4042553 0.33078998 0.36649978
-0.18314877 0.16351373 0.10846934 0.23291866 0.26280007 0.35189337 -0.010816652 -0.26877043
0.141993 -0.29147017 0.048251674 -0.23581178 -0.23639321 0.07674128 0.3300179 0.271437
0.24323711 -0.24495666 -0.00965345 -0.03179749 0.20133357 0.052708745 0.3235054 -0.2250296
0.5490916 0.13968161 0.15939438 -0.2787608 0.120400794 -0.41020435 -0.017632898 0.09624524

fc3.weight f4 [2, 64]
00000000: 2aa3 96bd 49e1 7d3e 61ad 48bd e49b 853e
00000010: 8eae 52bd 2dff 303d d59b 83be b25f 933c
00000020: f454 5dbe 3434 3a3d 4873 d1bd 0c5c 45bf
00000030: 2a0f 8ebd 8b41 0fbd 8b34 cd3d 1894 c43c
00000040: 6bd5 3f3b a1f7 3f3e d319 553d cb35 e5bd
00000050: 487f aa3a 3c5f 86bf a0da 7fbc 4327 8bbd
00000060: f950 a139 6776 ad3e c13c fbba 072a f83d
00000070: a338 b03e 3ec9 7ebf 47d8 22bb 2389 6c3b
00000080: 3bc8 fabd b8bf babd 281f a7be e571 72be
00000090: 2261 ad3e 327a 19bc d9d9 34be ce41 28bc
000000a0: 502d 723d 99ae 973c c0d8 473e db06 1e40
000000b0: 6e86 d1bd 4208 fd3d e06e 14bd 51a9 823d
000000c0: faac f0be b808 43bc 8f7c ad3c bd8a d43d
000000d0: 1630 37bd 5a09 1b3d b1ad ddbc d19b 723d
000000e0: e339 b73b 1077 483d 08db ddbe e195 383e
000000f0: 725b 21bd e5c2 5d3c b6da 35be 83e3 033e
00000100: 4db3 b33e d066 a5bc cfed 5cbf dbe7 aa3e
00000110: 10c7 a2be befb 143f b54b 7f3f f474 143f
00000120: 74f4 39be 081c 1fbf e50a 3e3f 1d70 eebd
00000130: 2a7f edbe 5abe 193f ce62 8d3f c26c 93be
00000140: d7bc 02bf 4c9e 743f 53dd 0ebf 395b cf3e
00000150: 0396 0bbf dbb5 953d b9f5 083f 3e73 66be
00000160: e1c6 42bf 6cae d23e c50f 80be 140a dabe
00000170: 0cdc 70bd afc8 3cbe 6c04 be3e 7d4c ca3e
00000180: 539e 893e 8630 aabe 7ad5 18bf 5433 4ebf
00000190: 8b58 323f 5901 8bbf 45fa 633f f9a8 1fbf
000001a0: 5e44 133f 55e5 9fbf 1968 c4bd e932 193e
000001b0: 7256 573f 3c70 6cbf 982a e6be 0bd1 5ebf
000001c0: ea2d 623e 9f1c 06c0 976d ce3e f0d6 bdbe
000001d0: 83ca f23e ade5 0e3f 2f57 283f 5712 4ebf
000001e0: 6f2d 3f3f 718f a83f 8d6e 1ebd f056 893e
000001f0: d460 47bf 17dc b73f 8439 003e 8860 17be
-0.0735534 0.2479297 -0.048993472 0.26095498 -0.051436 0.043212105 -0.25704828 0.017989967
-0.21614438 0.04545994 -0.10227066 -0.7709358 -0.06936486 -0.034974616 0.100197874 0.023996398
0.0029271494 0.18746807 0.05202658 -0.11191901 0.0013007903 -1.0497813 -0.015616089 -0.06794598
0.00030768642 0.33879396 -0.0019167886 0.12117391 0.3441821 -0.9952582 -0.002484815 0.0036092482
-0.12245222 -0.09118599 -0.32640958 -0.2367626 0.3386317 -0.009367513 -0.17661227 -0.010269595
0.059125245 0.018515872 0.19516277 2.4691684 -0.102307186 0.12355091 -0.03623855 0.06379951
-0.4700697 -0.011903934 0.021177558 0.10378025 -0.044723593 0.037850715 -0.027060362 0.05923063
0.0055916174 0.04894167 -0.4333117 0.18025924 -0.03939385 0.013535236 -0.17759213 0.12879758
0.35097733 -0.020190626 -0.8630037 0.33380017 -0.31792498 0.5819663 0.99724895 0.57990956
-0.18159658 -0.6215215 0.74235374 -0.11642478 -0.4638608 0.6005608 1.1045778 -0.28793913
-0.51069397 0.9555404 -0.55806464 0.40499285 -0.54525775 0.07310077 0.53499943 -0.22504899
-0.76084715 0.41148698 -0.2501203 -0.42585814 -0.058803603 -0.1843593 0.3711275 0.3951148
0.26878604 -0.33240145 -0.5970074 -0.8054707 0.69666356 -1.0859786 0.89053756 -0.62367207
0.57526195 -1.2491862 -0.095901676 0.14960827 0.8411628 -0.92358756 -0.4495437 -0.87037724
0.22087827 -2.095497 0.40317985 -0.37078047 0.4742013 0.5581921 0.6575803 -0.80496734
0.746787 1.3168775 -0.03867965 0.2682414 -0.77882123 1.4364041 0.1252194 -0.14782917

fc3.bias f4 [2]
00000000: 1d2a c8bd f3f1 32be
-0.097736575 -0.17475109
