ros2/racecar_nn_controller/racecar_nn_controller/models/model_noisy_34_64.pth (torch, 22194 bytes, 7 tensors)

input_weights f4 [7]
0	0x40a00000	5.0
1	0x40a00000	5.0
2	0x40a00000	5.0
3	0x3f800000	1.0
4	0x3f800000	1.0
5	0x3f800000	1.0
6	0x3f800000	1.0

fc1.weight f4 [64, 7]
0	0xb403c7c9	-1.2273007e-07
1	0xb3681bb6	-5.4041912e-08
2	0x33f0fe1a	1.1222092e-07
3	0x341b8366	1.4483302e-07
4	0xb42ed920	-1.6284002e-07
5	0xb3c7a50a	-9.29668e-08
6	0xb38a2b3d	-6.433991e-08
7	0xb44fb9c8	-1.9345964e-07
8	0x3403e5df	1.2283952e-07
9	0x345bd403	2.0473094e-07
10	0xb3bf7752	-8.915835e-08
11	0xb2587ef0	-1.2601717e-08
12	0x33ba6cdc	8.681101e-08
13	0x33296f10	3.944939e-08
14	0x33d102ac	9.732807e-08
15	0xb40c5f7f	-1.3073257e-07
16	0xb420d92e	-1.498017e-07
17	0x3452f39c	1.9646399e-07
18	0xb30420d4	-3.0763502e-08
19	0xb2a7be96	-1.9528027e-08
20	0xb3b878e0	-8.590155e-08
21	0x3ac0bc99	0.0014704644
22	0xbd57235b	-0.052523952
23	0xbe2619a5	-0.1622072
24	0xbb86f81e	-0.0041189333
25	0xbd3b2681	-0.045691017
26	0x3837dea5	4.3837954e-05
27	0xb6520217	-3.1293655e-06
28	0x3cca7098	0.024711892
29	0x3e253842	0.16134742
30	0xbe954d19	-0.29160383
31	0x3e6a5662	0.22884515
32	0xb71d934b	-9.392224e-06
33	0xbc0e6ff7	-0.008693687
34	0x3ea389db	0.31941113
35	0xb430557c	-1.6422376e-07
36	0xb3ba5b31	-8.6778876e-08
37	0xb415bb87	-1.3944928e-07
38	0xb48ce6fe	-2.62451e-07
39	0x33411ef2	4.496446e-08
40	0x33e50c90	1.06659286e-07
41	0x3351fa40	4.8889206e-08
42	0xbe2d3665	-0.16915281
43	0x3df9a09c	0.12188837
44	0xbe57d022	-0.2107549
45	0xb6a38702	-4.8734955e-06
46	0xbd4ddee6	-0.0502614
47	0xb7cc8ad7	-2.4383347e-05
48	0xb71fb85a	-9.520061e-06
49	0x3efaf3a2	0.49014002
50	0x3d90523a	0.070469335
51	0xbe315fc6	-0.17321691
52	0xb77303a9	-1.4484781e-05
53	0xb80a1663	-3.2922613e-05
54	0xbb3faaf7	-0.002924619
55	0x3d4e394c	0.05034761
56	0xbb3154d3	-0.0027058616
57	0x3b73ff4a	0.0037231022
58	0xbba9765a	-0.0051715793
59	0x3c7ee139	0.015556627
60	0x3b71a62d	0.003687273
61	0xb7848a67	-1.5800075e-05
62	0xbf0eb299	-0.5574127
63	0xbf29d4fc	-0.66340613
64	0xbd5e0048	-0.054199487
65	0xbb8f91f5	-0.004381413
66	0xbba4d741	-0.005030543
67	0xb887a9ac	-6.4689055e-05
68	0x38376b0e	4.3730302e-05
69	0xb7da37c7	-2.6013598e-05
70	0xb3c9b516	-9.392731e-08
71	0xb30327dc	-3.0537066e-08
72	0xb400b866	-1.1988013e-07
73	0x346eab48	2.2227789e-07
74	0x344ab038	1.8876824e-07
75	0x347e7f14	2.3701824e-07
76	0xb31d1a74	-3.657847e-08
77	0xb491c610	-2.7152464e-07
78	0x318b5b8c	4.05584e-09
79	0xb3c8a57a	-9.343326e-08
80	0x333d83bc	4.4124803e-08
81	0xad73b000	-1.3852031e-11
82	0xb391452f	-6.764673e-08
83	0x32d8ba60	2.5230463e-08
84	0x348a82ad	2.5799582e-07
85	0x33fa6ae5	1.1660976e-07
86	0x3397dc24	7.071529e-08
87	0xb3ce0f0a	-9.595358e-08
88	0x3419bb40	1.4317357e-07
89	0xb3adc332	-8.091446e-08
90	0x339d1734	7.315103e-08
91	0x39c33c0a	0.0003723803
92	0xb8e160c5	-0.00010746861
93	0xb8d747fb	-0.00010265406
94	0xbbbfc79c	-0.0058526527
95	0x36992c78	4.564932e-06
96	0xbf8ca246	-1.0987022
97	0x392f8430	0.00016738544
98	0x34396236	1.7265197e-07
99	0xb3df92d8	-1.04109574e-07
100	0x34002f77	1.1938197e-07
101	0x346339d5	2.1162062e-07
102	0xb3bd2fc9	-8.8096904e-08
103	0xb1f2cde0	-7.0665322e-09
104	0x32a71fe0	1.9455854e-08
105	0x3399a090	7.153824e-08
106	0xb377eb8d	-5.77234e-08
107	0x3416e8c7	1.4054523e-07
108	0xb38a0c94	-6.428414e-08
109	0x3363701a	5.2954512e-08
110	0xb39e492e	-7.37076e-08
111	0x33c3fcee	9.126403e-08
112	0xb30cee94	-3.2813276e-08
113	0x33f24d5e	1.1283076e-07
114	0xb11e98a0	-2.3078783e-09
115	0xb415d750	-1.3955037e-07
116	0xb4e9f998	-4.3581235e-07
117	0xb3179870	-3.529607e-08
118	0x336b5caa	5.479948e-08
119	0xbde0b49e	-0.1097195
120	0x3deaa66f	0.11457526
121	0x3e2eef31	0.17083432
122	0x362168bb	2.405183e-06
123	0xbda33866	-0.079697415
124	0x34e9b548	4.3531531e-07
125	0x3c17361b	0.009229208
126	0x3e9a8b76	0.30184525
127	0xbde34374	-0.1109685
128	0xbe55a94a	-0.2086536
129	0xb83b4142	-4.464505e-05
130	0x372c7f18	1.028159e-05
131	0xbdcaf937	-0.09910815
132	0x344686ee	1.8489274e-07
133	0x3da9944d	0.08280239
134	0xbd990ff9	-0.0747375
135	0xbe3d3eba	-0.1848096
136	0xbbdcb62a	-0.006735583
137	0x3e3d095e	0.18460605
138	0x3727e99b	1.0008366e-05
139	0xbf362d9f	-0.7116336
140	0x33740af4	5.682064e-08
141	0xb4061e9e	-1.2490861e-07
142	0x3438ff1e	1.7229146e-07
143	0xb3487fa2	-4.668221e-08
144	0xb3b95f85	-8.632109e-08
145	0xb3c1592c	-9.003483e-08
146	0xb41d1fe4	-1.4633366e-07
147	0x350707b4	5.030263e-07
148	0x3472f50a	2.2627151e-07
149	0xb39ea8e6	-7.388171e-08
150	0x339b2e69	7.226192e-08
151	0xb40467cc	-1.2331219e-07
152	0xb16e9fa0	-3.4724295e-09
153	0xb3222536	-3.7752407e-08
154	0x3ca7fe4a	0.020506997
155	0xbceddc8f	-0.029035835
156	0x3dcd7afc	0.10033223
157	0xbe92c561	-0.28666213
158	0x371328d7	8.771392e-06
159	0x37356a64	1.0813212e-05
160	0xb6ae6524	-5.1973784e-06
161	0x3e1cc7bd	0.15310569
162	0xbb403b42	-0.0029332195
163	0xbdfae078	-0.12249845
164	0xb8615f0d	-5.3732703e-05
165	0xbcf0890d	-0.029362226
166	0xb8970bd1	-7.202442e-05
167	0xb71e6c07	-9.442686e-06
168	0x3e2172f1	0.15766503
169	0xbdf173d2	-0.11789669
170	0x3e4cc517	0.19997059
171	0x3d5ef2b7	0.05443069
172	0x3d4102a4	0.04712166
173	0x39fcf8fa	0.00048250688
174	0x377296a7	1.44594005e-05
175	0xbd066e0f	-0.032819804
176	0xbdad25e1	-0.084544905
177	0xb7ec7053	-2.8185697e-05
178	0x36cf61c6	6.180463e-06
179	0xbdc2268a	-0.09480007
180	0xbdce75e9	-0.10081083
181	0x3f34dc29	0.7064844
182	0x3cf11a34	0.02943144
183	0xbccf763f	-0.025324939
184	0x3e1ef652	0.15523651
185	0x3da1fe63	0.079098485
186	0xbc241f29	-0.010017195
187	0x37fdb787	3.0245412e-05
188	0x3e4af7e6	0.19821128
189	0x34197937	1.4293333e-07
190	0xb1fb6420	-7.3164443e-09
191	0x341d9fa2	1.4679839e-07
192	0x3473d3c4	2.2708178e-07
193	0xb2b94504	-2.156822e-08
194	0x33ca4ce8	9.420347e-08
195	0xb4081617	-1.2674023e-07
196	0x3f356514	0.7085736
197	0xbcd936f8	-0.026515469
198	0xbd952c37	-0.07283824
199	0x3cc7c1ef	0.024384467
200	0x3bb58e53	0.005540648
201	0xbd4ec7bc	-0.05048345
202	0xbad14993	-0.0015967361
203	0x3aa80f82	0.0012822005
204	0xbb2df69b	-0.0026544693
205	0x3d38a5d0	0.045080006
206	0xbd6c403f	-0.057678457
207	0xbd54fb50	-0.051997483
208	0xb844c15d	-4.6910125e-05
209	0x37d7d618	2.5729692e-05
210	0xbf04f95d	-0.51943
211	0xbdbafd9d	-0.09130404
212	0xbe8bd367	-0.27309725
213	0xbcee2751	-0.029071482
214	0x3cb5d99d	0.022198493
215	0xbd25116f	-0.04029983
216	0xbb053f0c	-0.0020331768
217	0xb417eb50	-1.4148577e-07
218	0xb3a954f4	-7.8851286e-08
219	0xb41f14ec	-1.481564e-07
220	0x3299f8fd	1.7924771e-08
221	0xb4849118	-2.4692486e-07
222	0xb43e49ed	-1.7722023e-07
223	0xb3a5e773	-7.7255116e-08
224	0x34250a68	1.5370608e-07
225	0xb397a18f	-7.060873e-08
226	0xb34f5e64	-4.828179e-08
227	0xb46b6a47	-2.1924744e-07
228	0xb233c970	-1.0464973e-08
229	0xb3c87fad	-9.33645e-08
230	0xb415b47a	-1.3942363e-07
231	0xb42ed8c2	-1.6283869e-07
232	0x34161c8e	1.3980227e-07
233	0xb4b78eeb	-3.4190393e-07
234	0xb2a8e6a0	-1.966265e-08
235	0x34061f6f	1.2491158e-07
236	0x345f9d19	2.0825645e-07
237	0xb2101888	-8.387481e-09
238	0x3bdf52fe	0.0068153134
239	0xbd8c3872	-0.068467036
240	0xbdb607c0	-0.08888197
241	0xbd641c55	-0.055691082
242	0xb6b5ff8f	-5.4239713e-06
243	0x37a8dda4	2.013037e-05
244	0xb6cf6816	-6.181198e-06
245	0xb328e0bc	-3.9319943e-08
246	0x336bfd74	5.4945716e-08
247	0xb3b6f772	-8.5200455e-08
248	0x33414591	4.4999585e-08
249	0x314cbff0	2.979501e-09
250	0xb30b5cfc	-3.244803e-08
251	0x348f53d8	2.669683e-07
252	0xbc31ad1a	-0.010844493
253	0x3df373ec	0.11887345
254	0x3e809a26	0.25117606
255	0xb58a6609	-1.0311497e-06

fc1.bias f4 [64]
0	0x349bcd49	2.9020364e-07
1	0x32a6ea3e	1.9431464e-08
2	0xb469df45	-2.1781041e-07
3	0xbeb3e6df	-0.35137078
4	0x3e1b061f	0.15139054
5	0xb4811078	-2.4040105e-07
6	0x3c5df169	0.013546326
7	0xbeadaff4	-0.33923304
8	0x3f1280a4	0.5722754
9	0xbf88e2dc	-1.0694232
10	0x30fc3678	1.8350894e-09
11	0x34cbd0c1	3.7963585e-07
12	0x33b205dd	8.2898374e-08
13	0x374d8c14	1.2251567e-05
14	0x337d438c	5.8967586e-08
15	0xb433aa58	-1.6732645e-07
16	0x340e85f1	1.3273508e-07
17	0x3c93b42d	0.01803025
18	0xb66c2db7	-3.519335e-06
19	0xbd184a08	-0.037179977
20	0x3329f104	3.956758e-08
21	0x3334f69c	4.2133806e-08
22	0xbe706f3a	-0.2347993
23	0x3ed30cc8	0.4122069
24	0xb70a5a98	-8.246534e-06
25	0x3d2e94da	0.042622425
26	0xbf47168a	-0.77768767
27	0xb4131d55	-1.3701113e-07
28	0x3eb340aa	0.35010272
29	0x4001e29d	2.0294564
30	0xbed19b44	-0.4093877
31	0xb1b88840	-5.3705946e-09
32	0x34c5018c	3.6695235e-07
33	0xb36d5be4	-5.5264437e-08
34	0x344ed322	1.9262055e-07
35	0x333d6606	4.409778e-08
36	0xbface4ef	-1.3507365
37	0xbe407f27	-0.18798505
38	0xb19f3e40	-4.634586e-09
39	0x3f3ad8a7	0.72986835
40	0xb4870738	-2.5150962e-07
41	0x3f1152fc	0.5676725
42	0xb38aa266	-6.455666e-08
43	0xb28f20ce	-1.6662309e-08
44	0xb458f210	-2.020463e-07
45	0xbfc1b08f	-1.5132006
46	0x382707bf	3.9823117e-05
47	0x34471808	1.8542062e-07
48	0x3dda465d	0.10657952
49	0x37690bfa	1.3890671e-05
50	0xb41a61b4	-1.4377912e-07
51	0x33d46e16	9.892044e-08
52	0xb2492770	-1.1708707e-08
53	0xba418895	-0.0007382718
54	0xb2f416a8	-2.8415641e-08
55	0xb3b9509a	-8.629395e-08
56	0xb42a0cc2	-1.5837125e-07
57	0x3de54e21	0.111965425
58	0x32285bf0	9.799791e-09
59	0x378bf8dc	1.6685975e-05
60	0x33c56102	9.191173e-08
61	0xbf81a46c	-1.0128303
62	0xb4182227	-1.4168528e-07
63	0x3d616d11	0.055035654

fc2.weight f4 [64, 64]
0	0x33b109b7	8.243972e-08
1	0xb2335cc3	-1.0440263e-08
2	0xb43030b1	-1.6408991e-07
3	0x33c8e3e7	9.354681e-08
4	0x33e670dd	1.0730739e-07
5	0xb4141d3a	-1.3794207e-07
6	0x3215cfc0	8.720178e-09
7	0x3410aeda	1.3474656e-07
8	0xb347e080	-4.653748e-08
9	0xb3bf0397	-8.8947836e-08
10	0x33f05da2	1.11929026e-07
11	0x3383814a	6.1236804e-08
12	0x339a9732	7.198686e-08
13	0x34903e0d	2.6867238e-07
14	0xb3e83dbe	-1.0814573e-07
15	0xb48efb70	-2.6632506e-07
16	0x3334f2fc	4.213051e-08
17	0xb327ecd6	-3.909812e-08
18	0x332cca2c	4.0230745e-08
19	0xb23f7bd4	-1.11458185e-08
20	0x32934a6d	1.7146897e-08
21	0x3343bc74	4.5573373e-08
22	0xb2d4edc8	-2.4788179e-08
23	0x328089d0	1.4963831e-08
24	0xb31f8a76	-3.7146002e-08
25	0x323d0a20	1.100355e-08
26	0xb42c7609	-1.6061689e-07
27	0x33cc3914	9.509873e-08
28	0xb2dd3f30	-2.575652e-08
29	0x332d8a42	4.0405446e-08
30	0xb3750bba	-5.7054173e-08
31	0x34d5464d	3.9725492e-07
32	0x3400397f	1.1941846e-07
33	0xb2d001d8	-2.4215225e-08
34	0xb431852f	-1.6532861e-07
35	0x348dc523	2.6406732e-07
36	0x3460c1d0	2.0932134e-07
37	0x33811991	6.011681e-08
38	0x341c281f	1.4543228e-07
39	0xb4d4a726	-3.9609694e-07
40	0x33e2d475	1.0562591e-07
41	0x31782020	3.610701e-09
42	0xb281a566	-1.5092791e-08
43	0xb4366306	-1.6986095e-07
44	0xb42d70d2	-1.6152924e-07
45	0xb4d2252a	-3.9142589e-07
46	0x3407ba42	1.2640615e-07
47	0xb4c78ac8	-3.7167615e-07
48	0x331999c4	3.5762938e-08
49	0xb47a31be	-2.330116e-07
50	0x3400fae1	1.2012198e-07
51	0xb308c37c	-3.184276e-08
52	0x344e2a89	1.9200719e-07
53	0x33d868d8	1.0077355e-07
54	0xb34c0efc	-4.751108e-08
55	0xb482875a	-2.4312868e-07
56	0x32bdf8b8	2.21156e-08
57	0xb40d668e	-1.3168957e-07
58	0x3430d339	1.646812e-07
59	0xb45f18fd	-2.0777584e-07
60	0x329752c4	1.7616351e-08
61	0x33249a33	3.832447e-08
62	0x3298f864	1.7808084e-08
63	0xb3d27db2	-9.801751e-08
64	0x31d04800	6.061782e-09
65	0xb3b8a589	-8.5982784e-08
66	0x33ea7df9	1.09193884e-07
67	0xb3e04996	-1.0444198e-07
68	0x341d03a6	1.4623092e-07
69	0x33c6dab7	9.2598775e-08
70	0x34267d08	1.5505441e-07
71	0x3283837a	1.5310196e-08
72	0xb0fb7f80	-1.8298891e-09
73	0x3264f404	1.3326829e-08
74	0x333170dd	4.1313672e-08
75	0xb313ab04	-3.4381642e-08
76	0xb1dbdb00	-6.3986363e-09
77	0xb44e8ef0	-1.9237245e-07
78	0x33a07a62	7.472842e-08
79	0xb457aa7f	-2.0085461e-07
80	0x341ad8ef	1.4421288e-07
81	0xb427762d	-1.5596079e-07
82	0x34746db2	2.2764178e-07
83	0xb42d0d7e	-1.6116789e-07
84	0x339e65e1	7.37598e-08
85	0x3465e8c7	2.1411971e-07
86	0xb440fb9f	-1.7972933e-07
87	0x338edfa4	6.65307e-08
88	0x33e45b5c	1.06336955e-07
89	0x33f6ec67	1.1498269e-07
90	0x340df62e	1.3221208e-07
91	0x34e868f0	4.328972e-07
92	0xb47882b7	-2.3144354e-07
93	0x34289607	1.5700799e-07
94	0xb160dba8	-3.272115e-09
95	0xb366a4ba	-5.3700866e-08
96	0xb40b05da	-1.2947513e-07
97	0x336b2b00	5.475431e-08
98	0x332b9b36	3.9955204e-08
99	0x344302fc	1.8161876e-07
100	0x346a65bc	2.1829959e-07
101	0xb221cfb8	-9.418663e-09
102	0xb3b18e64	-8.2681055e-08
103	0x34912663	2.7036285e-07
104	0xb40b6816	-1.298325e-07
105	0x33e7c8b1	1.0793281e-07
106	0x337f6080	5.945958e-08
107	0x341ace8c	1.4417509e-07
108	0x33e59a88	1.06917525e-07
109	0x333d2ed0	4.4047567e-08
110	0x3405d0c3	1.2462537e-07
111	0xb44b965b	-1.8960547e-07
112	0x3413171a	1.3698846e-07
113	0x34cd495d	3.8237604e-07
114	0x3427877c	1.5602376e-07
115	0xb419e120	-1.4331135e-07
116	0x320b23f0	8.099036e-09
117	0x34df17a2	4.1554182e-07
118	0x339943e0	7.136964e-08
119	0xb281ccd4	-1.5110722e-08
120	0x340a111e	1.2858479e-07
121	0xb1cfa690	-6.043429e-09
122	0xb4069583	-1.2534115e-07
123	0xb3fd0ade	-1.1783207e-07
124	0xb38487ec	-6.171453e-08
125	0x33d120a8	9.738261e-08
126	0x33ac31d0	8.018435e-08
127	0x328b3f70	1.6210578e-08
128	0xb48ad7c3	-2.586149e-07
129	0xb0c96798	-1.4654118e-09
130	0x32490e80	1.1703037e-08
131	0xb40daa92	-1.3193701e-07
132	0x3405d19a	1.2462843e-07
133	0x3251cd78	1.2212119e-08
134	0xb3187675	-3.5497994e-08
135	0xb3fe52e9	-1.1842878e-07
136	0xb417e350	-1.4145667e-07
137	0x33eb33b0	1.0952442e-07
138	0x329ce331	1.8264105e-08
139	0x33e1e5da	1.0519189e-07
140	0xb478de8a	-2.3177759e-07
141	0xb48152fd	-2.4088504e-07
142	0x320d812c	8.2366505e-09
143	0xb4071b68	-1.2582825e-07
144	0x3399bcf0	7.158985e-08
145	0xb40c0033	-1.3038589e-07
146	0xb3758568	-5.716484e-08
147	0x310e2a00	2.0687594e-09
148	0x341511f8	1.3883243e-07
149	0xb342fe6d	-4.5400544e-08
150	0xb3e81408	-1.08069855e-07
151	0xb3bc054a	-8.755394e-08
152	0xb30510ea	-3.098186e-08
153	0x30cc4a60	1.4864092e-09
154	0x33903968	6.715965e-08
155	0x33bf8388	8.918056e-08
156	0xb4840f52	-2.4598063e-07
157	0xb29cde70	-1.8261943e-08
158	0xb3b8584a	-8.5842274e-08
159	0xb29b9520	-1.8112189e-08
160	0xb34f93dd	-4.8330424e-08
161	0x33c96017	9.3772705e-08
162	0x34e45a58	4.2534043e-07
163	0xb3e3f9db	-1.061596e-07
164	0xb3a2acda	-7.5751544e-08
165	0x3421fb45	1.5085705e-07
166	0xb1e18b80	-6.564221e-09
167	0x34993432	2.8536448e-07
168	0xb3646d05	-5.318454e-08
169	0x33c612c0	9.223504e-08
170	0xb3438280	-4.5520665e-08
171	0xb338319f	-4.288597e-08
172	0xb4394720	-1.7255343e-07
173	0x340c058c	1.3040534e-07
174	0x340b441a	1.2970159e-07
175	0x2ffe1580	4.6217608e-10
176	0xb479f794	-2.328e-07
177	0xb3d12665	-9.739305e-08
178	0x33868882	6.264692e-08
179	0xb32f1cf4	-4.0771695e-08
180	0x347bd389	2.3453153e-07
181	0xb3c13b84	-8.998089e-08
182	0x33f10b73	1.12245196e-07
183	0x3151ed10	3.0548257e-09
184	0xb28cc890	-1.638935e-08
185	0x33490f6f	4.6812996e-08
186	0x340517a0	1.2395185e-07
187	0x30a7bac0	1.2203927e-09
188	0x33ad8d44	8.081636e-08
189	0x336628e0	5.3588224e-08
190	0x3327f232	3.9102993e-08
191	0x34a40fb1	3.0558797e-07
192	0xb3016a10	-3.0131616e-08
193	0xb2b5cca6	-2.1164237e-08
194	0x346a6a19	2.1831546e-07
195	0xb3ad8688	-8.0804114e-08
196	0xb35552d8	-4.9668273e-08
197	0x33857df6	6.216207e-08
198	0xb3ced739	-9.631771e-08
199	0xb109c8e0	-2.0050308e-09
200	0xb3f972da	-1.16158574e-07
201	0x32514540	1.2181147e-08
202	0x33176118	3.5245733e-08
203	0xb132edb8	-2.6037537e-09
204	0x33d9ac5f	1.0136204e-07
205	0x32d9d65c	2.5359604e-08
206	0x32dcda0c	2.5710527e-08
207	0x33c1cf69	9.0249905e-08
208	0x32d70978	2.50336e-08
209	0xb302e1a9	-3.047322e-08
210	0xb3492a68	-4.6837528e-08
211	0x32a5da12	1.9307695e-08
212	0x34972bdc	2.8157854e-07
213	0x34533919	1.9671678e-07
214	0xb3b32362	-8.341773e-08
215	0x3401262e	1.2027951e-07
216	0x34298618	1.5788135e-07
217	0xb3d86b49	-1.0077799e-07
218	0xb377ec24	-5.7723938e-08
219	0x30dff780	1.6295729e-09
220	0xb28c3aaa	-1.6324822e-08
221	0x33beff18	8.893966e-08
222	0xb34fbb00	-4.836602e-08
223	0xb44d7c8d	-1.9137424e-07
224	0xb1e0dbd0	-6.544248e-09
225	0xb3630896	-5.2860365e-08
226	0x340151a4	1.2043762e-07
227	0x34ae86fd	3.2508242e-07
228	0xb36b8a57	-5.484102e-08
229	0x33a2720a	7.5644564e-08
230	0xb3c097a9	-8.9682835e-08
231	0x332887dc	3.923911e-08
232	0xb2bd56a4	-2.2041895e-08
233	0xb47fa258	-2.3807786e-07
234	0xb4829c1b	-2.432797e-07
235	0x34918834	2.7107455e-07
236	0xb1fb9e60	-7.3230666e-09
237	0x345cf12b	2.0576833e-07
238	0x33002b08	2.984146e-08
239	0x3435faa2	1.6948118e-07
240	0xb48a291c	-2.5734414e-07
241	0xb4550d0a	-1.9841914e-07
242	0xb353b3e7	-4.9290886e-08
243	0xb395fa94	-6.983933e-08
244	0xb3ddf00c	-1.0334779e-07
245	0x339636af	6.994866e-08
246	0x33f4249b	1.1368794e-07
247	0x338c4d2e	6.533297e-08
248	0x341445a6	1.3808912e-07
249	0xb3f6be1e	-1.148985e-07
250	0xb45657f2	-1.9962297e-07
251	0x329616b0	1.7472615e-08
252	0xb382454a	-6.0662e-08
253	0xb384471f	-6.159666e-08
254	0xb382afa2	-6.085544e-08
255	0x31d0118c	6.0555916e-09

fc2.bias f4 [64]
0	0x32346810	1.050104e-08
1	0x328143fe	1.5048496e-08
2	0x33486f43	4.666732e-08
3	0xb4a47035	-3.0629022e-07
4	0xbe91030a	-0.2832263
5	0x33a11e7d	7.5026925e-08
6	0xb4642df8	-2.1250878e-07
7	0xb1b94c40	-5.3928773e-09
8	0x32465470	1.1544316e-08
9	0xb3bd7e86	-8.824013e-08
10	0x3e58ad21	0.21159793
11	0x3422add9	1.5150671e-07
12	0xb2b5d332	-2.1167214e-08
13	0x33f8ab3b	1.15795466e-07
14	0xb34cd490	-4.7690776e-08
15	0xb36b44b9	-5.4777704e-08
16	0x36be00d8	5.6625395e-06
17	0x343b8e59	1.7467518e-07
18	0xb429567c	-1.5770814e-07
19	0x340b2945	1.2960398e-07
20	0x3ebdaf0e	0.3704762
21	0x32a4d093	1.9186961e-08
22	0xb3ab41b1	-7.974757e-08
23	0xb3087ac0	-3.1776608e-08
24	0x373068ec	1.05148465e-05
25	0x33abc9c9	7.9995125e-08
26	0xb3d75b92	-1.0028374e-07
27	0x37c533fe	2.350844e-05
28	0x33ec0d97	1.09920784e-07
29	0x329d9d7d	1.8348823e-08
30	0x357f8144	9.518301e-07
31	0xb402b76f	-1.2173926e-07
32	0x3471eb14	2.2530395e-07
33	0xafe44400	-4.1521275e-10
34	0x34135456	1.3721123e-07
35	0xb2b27c70	-2.0778515e-08
36	0x33df8bb8	1.04096614e-07
37	0xbea80034	-0.32812655
38	0x33d0084c	9.687264e-08
39	0x347c3f9d	2.3492471e-07
40	0xb3b0fc06	-8.2414815e-08
41	0x37cef0f2	2.4669313e-05
42	0x341c3a51	1.4549848e-07
43	0x33e66c06	1.0729859e-07
44	0x337c6738	5.87672e-08
45	0xb41e7470	-1.4757256e-07
46	0x3d973ef9	0.07385058
47	0xb28e0970	-1.6535267e-08
48	0x3ee9d44a	0.45669776
49	0xb4a22310	-3.0200363e-07
50	0xb3a55fd2	-7.700841e-08
51	0x331238ec	3.4045044e-08
52	0xb40a6902	-1.2890453e-07
53	0x3494c3b5	2.7709544e-07
54	0x33c45b8d	9.143614e-08
55	0xb140e410	-2.8069316e-09
56	0x344080c4	1.7928238e-07
57	0x3251d460	1.221369e-08
58	0xb41e478c	-1.4740925e-07
59	0xbf10014c	-0.5625198
60	0x37d27550	2.5088579e-05
61	0xb42e891a	-1.625489e-07
62	0x3e8694b1	0.26285318
63	0x345b1bcc	2.0406077e-07

fc3.weight f4 [2, 64]
0	0xb288f088	-1.5941865e-08
1	0xb3d67e0e	-9.988081e-08
2	0x3428926c	1.5699487e-07
3	0x32a5aeb8	1.9287981e-08
4	0xb53b95b0	-6.988075e-07
5	0x33cd70c4	9.566568e-08
6	0x33185248	3.5465092e-08
7	0x34171ce0	1.4073476e-07
8	0x34a948ea	3.1531755e-07
9	0x34f3a8e5	4.5385164e-07
10	0xb66cfd3d	-3.5314144e-06
11	0x33821e2e	6.0590864e-08
12	0xb3ae971e	-8.1299945e-08
13	0xb4017fab	-1.2060507e-07
14	0x32580640	1.2574276e-08
15	0x3406fd9e	1.2571988e-07
16	0xb6898989	-4.0989294e-06
17	0xb41c0679	-1.4530987e-07
18	0xb387656f	-6.304878e-08
19	0xb3a4035c	-7.637456e-08
20	0xb594bd69	-1.1081985e-06
21	0x3262ca88	1.3200982e-08
22	0x34635310	2.117124e-07
23	0xb3ab76f1	-7.984443e-08
24	0xbf72fa86	-0.9491352
25	0xb4952e0d	-2.778692e-07
26	0xb4441eba	-1.8265101e-07
27	0x350293be	4.8643767e-07
28	0xb0c40680	-1.4262724e-09
29	0xb2a5e380	-1.9311983e-08
30	0x3f71ae64	0.94406724
31	0x328495f4	1.5435013e-08
32	0x34823626	2.4253785e-07
33	0x3403c57b	1.2272169e-07
34	0x340f4927	1.3344525e-07
35	0xb38a0806	-6.427585e-08
36	0x33fb768c	1.1709662e-07
37	0xb561f8c0	-8.418101e-07
38	0xb2dc699e	-2.56594e-08
39	0x3235012c	1.0535853e-08
40	0xb2741f58	-1.4209796e-08
41	0xb68ea8dd	-4.251588e-06
42	0xb402f138	-1.2194948e-07
43	0x338a4594	6.438782e-08
44	0x338d1192	6.56902e-08
45	0x345723c4	2.0036447e-07
46	0xb3544cf4	-4.9430085e-08
47	0xb0c02ec0	-1.3983126e-09
48	0x3691e600	4.3481123e-06
49	0x33d17a73	9.754594e-08
50	0x34931b38	2.7400688e-07
51	0x304f2b00	7.536727e-10
52	0x348d5505	2.6325156e-07
53	0xb428a9a0	-1.5707928e-07
54	0x326505b0	1.33308475e-08
55	0xb3edf1bc	-1.1080144e-07
56	0x32282488	9.787193e-09
57	0xb3457b4f	-4.5979785e-08
58	0x34a8809e	3.138602e-07
59	0xb73fcc7b	-1.14320965e-05
60	0xb72b80f4	-1.02224185e-05
61	0xb5065a70	-5.0050494e-07
62	0x35779752	9.223487e-07
63	0x33b66163	8.49275e-08
64	0x3367f944	5.4010584e-08
65	0xb425ebfc	-1.5452673e-07
66	0xb42ab096	-1.5896725e-07
67	0x33e50d5d	1.0666074e-07
68	0x3fd2e078	1.6474752
69	0xb3a50b3e	-7.685456e-08
70	0x34c487a6	3.6606542e-07
71	0x3266ee44	1.3441937e-08
72	0x3409369a	1.2778983e-07
73	0xb41bdbb4	-1.4515427e-07
74	0xbf67a9cc	-0.90493464
75	0x339d86ea	7.335423e-08
76	0xb408686c	-1.2703975e-07
77	0x345274c3	1.9600252e-07
78	0x33c4b9f1	9.160784e-08
79	0x341a0ab8	1.4346267e-07
80	0x3f808999	1.0041991
81	0x3429aee0	1.580297e-07
82	0x3413661c	1.3727589e-07
83	0x32d45720	2.4719668e-08
84	0x3fb4143c	1.4068675
85	0xb3e0e9a1	-1.047331e-07
86	0x3453327a	1.966927e-07
87	0x33d48f84	9.8981246e-08
88	0xbce5aa39	-0.02803527
89	0xb39cd8ee	-7.3037754e-08
90	0x340117cc	1.2022718e-07
91	0x3f51bd98	0.8192992
92	0xb40d9613	-1.3186245e-07
93	0x3401c7ad	1.2086703e-07
94	0xbc598426	-0.013276136
95	0xb40403d5	-1.2294852e-07
96	0x341734c6	1.408217e-07
97	0x33cb9f18	9.481863e-08
98	0x34170a9f	1.4066835e-07
99	0xb436c931	-1.7023264e-07
100	0x33dcf190	1.0288488e-07
101	0x401703f9	2.3596175
102	0x337dc08a	5.9081266e-08
103	0x330c97e4	3.2734434e-08
104	0x33fdf562	1.18258654e-07
105	0xbf28e613	-0.65976065
106	0x34035cbc	1.2234062e-07
107	0x32c68760	2.3111795e-08
108	0x333aadfb	4.3464734e-08
109	0xb245c8d0	-1.1512569e-08
110	0xc07b9605	-3.9310315
111	0x332efe56	4.074385e-08
112	0x4084bae5	4.1478143
113	0xb3e75a7b	-1.0773234e-07
114	0x33f31376	1.1319109e-07
115	0x342ea457	1.6264799e-07
116	0x34239530	1.5234832e-07
117	0xb3df8cfd	-1.0409892e-07
118	0xb4d21fe8	-3.9138763e-07
119	0x33402015	4.4732662e-08
120	0xb1509740	-3.035396e-09
121	0x343c75a6	1.7551665e-07
122	0xb37d2614	-5.8940785e-08
123	0xbff52050	-1.9150486
124	0xbf8898bf	-1.0671614
125	0x342c9c86	1.6075691e-07
126	0xc063935e	-3.5558696
127	0x34149d3a	1.3840773e-07

fc3.bias f4 [2]
0	0xb70b1531	-8.28998e-06
1	0xb751e164	-1.2509849e-05
