ros2/racecar_nn_controller/racecar_nn_controller/models/model_noisy_40_64.pth (torch, 21682 bytes, 7 tensors)

input_weights f4 [5]
00000000: 0000 803f 0000 803f 0000 803f 0000 803f
00000010: 0000 803f
1.0 1.0 1.0 1.0 1.0

fc1.weight f4 [64, 5]
00000000: fe1c 6034 0a9e d5b3 a781 7ab4 ca5c ab34
00000010: fec8 50b3 e8f7 3c3d e77d 913e 8291 24bd
00000020: b6c2 88bd c1b6 95bc 10f0 98b4 1d6a 6234
00000030: 9ab1 84b4 4262 ac34 ea33 09b4 ecdb 82be
00000040: 6209 8bbe 4838 49be f887 753a b402 133e
00000050: 4e9f edb3 2dc6 6534 bc96 7535 1a3b 0434
00000060: cdda 12b4 75aa 723d be30 4cbe 0723 5dbf
00000070: 15f3 9cbd 63c5 10bc 70bc 9a32 7b18 5c34
00000080: d8b9 5ab3 9e42 9f34 9ef3 afb4 06eb 05b5
00000090: 924d 1ab4 8429 c0b4 f40c 5bb3 af53 eb34
000000a0: e61e 1eb4 243c 8734 52d8 a6b3 4343 9134
000000b0: 2954 0235 048e 08b4 70f1 26b5 34c8 8eb4
000000c0: 66a3 4634 a615 cd34 8aaa 473f db72 273d
000000d0: 43b7 373d 2e1f 243c f5a6 80bc 5bf2 2b3e
000000e0: cbfe a7bc 9997 9bbc ce3d e8be 8f76 eebc
000000f0: d37a cc3e 9661 ab3d 7c5c 643e 5e13 083d
00000100: eab2 59be 214a e334 e628 7d34 7c66 1034
00000110: fcd3 ffb3 6e64 b1b3 5fce 3a3e e43d aa37
00000120: eb58 17ba 8046 f9be bcc4 833c 7532 cb3c
00000130: de53 12be 4358 06bf 703e c0bc c90b 5f3d
00000140: da56 cd34 08be bf32 5cbb 8634 a7e5 4c34
00000150: 607c e7b2 d7d7 e9b7 de11 243e 94c1 e43d
00000160: 0fa5 f43c 1582 eabd 07e9 423d 8b69 ecbe
00000170: 21e6 e6be 49a7 04be 716c 87bd 92e6 6f33
00000180: 9ff0 8e33 9034 9634 97b0 21b4 acd9 5734
00000190: d05a ee33 c616 c434 f25b a4b4 6a09 a2b4
000001a0: 4bb9 1835 6826 c9b4 de4d 2332 4793 ac34
000001b0: 98c7 3334 db25 0834 b65d 0635 7699 afb4
000001c0: 38b2 7034 c15b 53b5 9616 91b4 bd3b 8934
000001d0: 2d20 8834 90f7 36b2 17f1 8833 9cba 89b4
000001e0: 275d e3bd f853 ad3e b648 5eb8 a4bc e0bc
000001f0: 78a5 02bc 58c4 f4be 7350 973c 11e2 8b3c
00000200: f30b 52bd 003b 8c3e 498f b2be 4a36 943c
00000210: a300 0e3d 2ea1 5a3d 53f2 e637 4ac9 da34
00000220: 6d91 3bb4 babe 82b4 22aa 1735 1e0f a3b4
00000230: 4e1a 1434 f223 70b4 928e e5b3 1a9c c633
00000240: 48d5 c4b4 f6c0 db34 263c 9333 9824 abb4
00000250: bed1 36b4 c0f4 35b5 5740 d3be 910f fabb
00000260: 956e ce3b a6e2 8e37 fff9 73be 0817 2234
00000270: c003 0131 c200 0e35 c80b 8534 7959 beb3
00000280: a8b8 acbb ff88 45bd ee0e 23be e667 ec3b
00000290: dbf4 243e f418 97b4 46f5 47b5 e957 5733
000002a0: 18f1 a532 5028 05b4 729f 93b4 f828 21b4
000002b0: 2ea7 0034 5294 d4b4 454c 8234 f225 7238
000002c0: 904e 423e 7e33 ce3e 20be 273c 71db 79bc
000002d0: 0e45 2ebd ee33 e7bd b42b 363e 4443 823c
000002e0: ed1e 063e d328 afb4 d4a6 8e33 b328 03b5
000002f0: c04c 8bb1 b84a b5b4 66fa 85b3 dc2f 0e34
00000300: dcc7 9fb3 3b11 9433 ff4c 03b5 1e5d a03d
00000310: c68c 413d bff0 1b3d 514c ca3c 9165 083e
00000320: c6e5 8ab3 a2b2 b1b4 387c ae34 e286 ba34
00000330: ef56 ca33 1c13 eb3d d892 483a 0c77 e7bc
00000340: b351 433f 9e2f d73d f850 05ba 06bd ea3d
00000350: eca5 b4be 645f 9b3c e474 3fbd fc06 68b4
00000360: d2d6 9fb3 ca2b 5234 b6a1 01b4 500d 8f32
00000370: 74e8 87b4 38d8 f5b4 0047 6534 d6da 86b4
00000380: a844 1b33 55cb c133 12d7 0235 f6cf 0d35
00000390: 17a2 1fb4 d8ff 04b4 ff04 19be 4f7a 27bc
000003a0: 5d70 1538 f7a4 07bb 6ca8 0dbe c8ef 5eb3
000003b0: 11ee a834 0cb5 2434 2450 3633 0c2d 95b4
000003c0: d0a5 e3b2 def6 d5b3 008e 9732 c198 03b5
000003d0: b24b 62b4 b87a 08b5 ea77 7db4 8ab9 a234
000003e0: c03c 9734 575e 83b4 7c8d a833 d793 1635
000003f0: 463c c233 883f b833 56ac 5eb4 f16a f83d
2.0872173e-07 -9.9473326e-08 -2.3330232e-07 3.1918745e-07 -4.8611575e-08 0.04613486 0.28416368 -0.04017783
-0.06677763 -0.01827562 -2.8486875e-07 2.1086494e-07 -2.4716138e-07 3.2108989e-07 -1.2778005e-07 -0.25558412
-0.27155596 -0.19650376 0.0009366269 0.143565 -1.106515e-07 2.1399383e-07 9.148896e-07 1.2314959e-07
-1.3676909e-07 0.05924459 -0.19940469 -0.8638157 -0.07663552 -0.008836123 1.8013651e-08 2.0498003e-07
-5.0926104e-08 2.9664528e-07 -3.2773545e-07 -4.9888365e-07 -1.4370588e-07 -3.5792993e-07 -5.100169e-08 4.383305e-07
-1.4726137e-07 2.5189468e-07 -7.769326e-08 2.7057294e-07 4.8551243e-07 -1.2717652e-07 -6.2191157e-07 -2.6595228e-07
1.8499631e-07 3.8199977e-07 0.77994597 0.04088102 0.044852506 0.010017199 -0.015704611 0.1679167
-0.020507237 -0.018993186 -0.45359653 -0.029109268 0.39937457 0.083682224 0.22300905 0.033221595
-0.21259657 4.233598e-07 2.357734e-07 1.3448329e-07 -1.19129226e-07 -8.260473e-08 0.18242787 2.02944e-05
-0.00057734427 -0.486866 0.016085021 0.024804333 -0.14289805 -0.52478427 -0.023467273 0.0544546
3.8247418e-07 2.2321743e-08 2.5095767e-07 1.9082528e-07 -2.6948499e-08 -2.7876273e-05 0.16022441 0.111697346
0.029863862 -0.114505924 0.047585513 -0.46174273 -0.4509745 -0.12954439 -0.066124804 5.5856226e-08
6.656159e-08 2.7977921e-07 -1.5058536e-07 2.0102624e-07 1.1099257e-07 3.6524415e-07 -3.061428e-07 -3.01817e-07
5.689405e-07 -3.7467112e-07 9.505554e-09 3.2144655e-07 1.6743286e-07 1.2679759e-07 5.005526e-07 -3.2707948e-07
2.2416577e-07 -7.8737145e-07 -2.7024788e-07 2.5561704e-07 2.5355385e-07 -1.06500835e-08 6.3768475e-08 -2.5654015e-07
-0.11101752 0.33853126 -5.2996642e-05 -0.0274337 -0.007974021 -0.47806048 0.018470978 0.01707557
-0.051280927 0.27388763 -0.34874943 0.018092293 0.034668576 0.05337637 2.7530978e-05 4.075212e-07
-1.7468638e-07 -2.435316e-07 5.649946e-07 -3.0372115e-07 1.3793144e-07 -2.2364819e-07 -1.0689577e-07 9.248488e-08
-3.6663027e-07 4.0932326e-07 6.856162e-08 -3.1877858e-07 -1.7026375e-07 -6.778391e-07 -0.41260025 -0.00763125
0.0062998035 1.703326e-05 -0.23825835 1.5095804e-07 1.8774102e-09 5.2900225e-07 2.4781752e-07 -8.8638394e-08
-0.005271036 -0.048226353 -0.15923664 0.007214534 0.1610903 -2.8144098e-07 -7.4490197e-07 5.0138542e-08
1.9318165e-08 -1.2401256e-07 -2.7496895e-07 -1.5009198e-07 1.1981749e-07 -3.9595994e-07 2.426988e-07 5.7732635e-05
0.18975282 0.4027366 0.0102382 -0.015250073 -0.042546324 -0.11289202 0.17790109 0.015901215
0.13097735 -3.2625994e-07 6.642736e-08 -4.886053e-07 -4.054158e-09 -3.3768242e-07 -6.238842e-08 1.3242192e-07
-7.440369e-08 6.894921e-08 -4.8913347e-07 0.07830261 0.047253393 0.03807139 0.024694594 0.13319995
-6.467921e-08 -3.3098792e-07 3.2500407e-07 3.474334e-07 9.422171e-08 0.11478254 0.0007651276 -0.028255008
0.7629654 0.10507129 -0.00050856126 0.114618346 -0.35282838 0.018966384 -0.046742335 -2.1609225e-07
-7.44309e-08 1.9573704e-07 -1.2072891e-07 1.6653445e-08 -2.5314841e-07 -4.5792126e-07 2.1353117e-07 -2.511867e-07
3.6151192e-08 9.024249e-08 4.874174e-07 5.2829216e-07 -1.4866997e-07 -1.2386533e-07 -0.14943312 -0.010222032
3.5629015e-05 -0.0020697692 -0.13833779 -5.1906483e-08 3.1465655e-07 1.5339555e-07 4.2448065e-08 -2.778619e-07
-2.650168e-08 -9.96349e-08 1.7643288e-08 -4.902359e-07 -2.1075428e-07 -5.084253e-07 -2.3606086e-07 3.030985e-07
2.8170143e-07 -2.4469293e-07 7.8488455e-08 5.609449e-07 9.044793e-08 8.579724e-08 -2.0738057e-07 0.121297725

fc1.bias f4 [64]
00000000: 087c 9c34 7f65 4e3c 0edf 5eb4 75b1 c7ba
00000010: ce86 d2b4 5e2a dfbd e77f 11b5 bab5 d4b4
00000020: 3e7f 91b3 4114 08b5 fc86 353f 50a4 e63d
00000030: 6f3f 33be a65e e333 5e4b d5bd 5830 5cbf
00000040: 5b9a 8533 850d 9537 394f 99be 429e b9b4
00000050: c55d bfb4 0fb0 1db4 06f0 5c34 c107 f734
00000060: 6806 77be 1434 33bd 785a 893e a23a 0e35
00000070: 2095 2935 f9cc 3db4 4950 acbe b5ac edb3
00000080: 202a 703e 1e4e 18b5 228d c134 d91b 72bf
00000090: 332b 0abd 6793 1935 cdab f333 7e28 7e3e
000000a0: 9e79 8334 a644 56be 744c d93d 6f73 65b4
000000b0: ebc9 a9b4 148d af33 178e 213e bcc0 48b4
000000c0: e85b 1f33 5ee6 6034 3935 be34 3d3c f0bc
000000d0: 2c33 bcb4 5c22 403e d084 5d34 6a4f d8be
000000e0: 6a2f 8233 9835 8bb4 262a 1135 eae0 a23e
000000f0: f0fb b631 73f8 9db3 5457 9a34 3a5f 5bbd
2.914751e-07 0.012597441 -2.0756508e-07 -0.0015235381 -3.9213631e-07 -0.10896753 -5.420283e-07 -3.96203e-07
-6.775234e-08 -5.069342e-07 0.70909095 0.11261809 -0.17504667 1.0587728e-07 -0.10414766 -0.86011267
6.221372e-08 1.776848e-05 -0.29943255 -3.4574083e-07 -3.564475e-07 -1.4685814e-07 2.0576417e-07 4.6012977e-07
-0.24123538 -0.043750837 0.26826835 5.2984444e-07 6.317441e-07 -1.7676565e-07 -0.33655003 -1.1067588e-07
0.2345357 -5.673809e-07 3.605174e-07 -0.9457374 -0.033732604 5.721144e-07 1.134682e-07 0.24820134
2.448914e-07 -0.20924625 0.106102854 -2.1369281e-07 -3.1625618e-07 8.1747345e-08 0.15776859 -1.8696568e-07
3.710366e-08 2.0945433e-07 3.5428982e-07 -0.029325599 -3.505496e-07 0.18763107 2.0630546e-07 -0.42248088
6.062221e-08 -2.5929762e-07 5.4078043e-07 0.3181222 5.325539e-09 -7.356075e-08 2.8748275e-07 -0.053557612

fc2.weight f4 [64, 64]
00000000: 5a6c 7bb5 4775 4233 f575 10b5 bc43 f132
00000010: cee4 2934 c896 67b4 cef1 18b5 54f4 8934
00000020: 387f a6b3 5071 99b1 6026 b2b1 c027 14b3
00000030: 3939 89b3 7c41 bf32 cdd2 37b3 f035 6bb5
00000040: 7ad7 02b4 747b 9f33 0173 aeb4 1794 9234
00000050: cfb5 b7b4 5fc5 c7b4 1ed6 9b34 a053 9534
00000060: 44d8 b633 0020 38b0 ba12 86b3 c8a5 5d33
00000070: 50d0 ea34 8c9d b333 dedb 70b4 cc13 9d33
00000080: 9e86 36b3 9dc6 c7b4 2a43 1e34 6b25 a034
00000090: 488f 3fb2 b518 1034 b8be 33b2 276a ecb4
000000a0: 55ab 68b4 a6e2 1634 ccd4 c633 e299 d434
000000b0: 18ee beb4 e85d 3132 af81 5a34 8557 1ab4
000000c0: 4514 2834 febd adb4 3c29 d434 b4c2 02b5
000000d0: 08de 9bb4 084c 8d32 928e 8734 3cdf 9eb4
000000e0: 09cf 0e35 3ca8 9134 246e 9832 3c83 8734
000000f0: 6b8f 5034 327b a434 2a69 feb3 c802 c1b4
00000100: 6098 d633 2763 9eb3 401d f933 5a03 5db4
00000110: fb55 a9b4 642f d0b2 ca22 adb4 4ab3 d2b4
00000120: 7c5d 0033 e050 4830 b255 46b4 edea d734
00000130: 3a6f 2a34 68e6 ccb2 b4c4 0334 92c6 8f34
00000140: 60b3 60b2 1308 a034 fcb8 a3b4 7673 95b4
00000150: 9e42 87b5 6a78 f734 f81b 82b3 5404 9033
00000160: d768 e9b3 f7d6 b834 fc71 fa33 daa1 5e34
00000170: a47d adb4 5074 fcb2 2dbd 3bb4 b99b db34
00000180: 248e 9e33 5a61 4e34 0568 86b4 e020 0535
00000190: 4309 08b4 9e8d deb2 5896 69b3 02a3 4334
000001a0: eafd 8c34 9020 2434 34d0 3eb5 0aff 33b4
000001b0: 243b aa34 1778 5534 c83a dfb3 f72b 0035
000001c0: 16f5 a0b3 2443 9cb4 d81d 97b3 e01e 18b4
000001d0: d034 afb4 280f 99b3 1899 f831 8aa7 8d34
000001e0: e467 93b4 5553 0435 7291 bd34 8b73 fc33
000001f0: 5419 4234 5c9c 0db4 6bd0 a534 406d 1233
00000200: 301d 5eb3 d0c3 9f33 e694 2734 f0c4 b034
00000210: 4cef 2634 f543 90b4 96c8 acb4 f8cb 0635
00000220: 9c29 8433 c833 2db3 e27b 1c34 6047 1132
00000230: 3700 c933 062b e1b4 6832 ac34 c69f 3ab5
00000240: 50fe 5632 8c0b a4b3 f0a2 2e32 97b4 a3b4
00000250: 941b bdb4 f41c 0ab4 5e81 1fb4 4c24 06b4
00000260: d600 a034 e8ee 03b4 a991 02b5 bc5a f6b4
00000270: 5268 b332 50a8 4634 845e 23b2 41f8 6fb4
00000280: 583e ef32 0076 a8b2 489a 92b2 2645 08b4
00000290: 0247 97b4 626e b8b4 4a1c deb2 76c6 3d34
000002a0: 767f 4635 80da 7bb0 534f e5b4 c0d8 9a34
000002b0: 0075 4bb1 463e 39b5 d087 8e34 0f44 beb3
000002c0: b6f4 0635 54a6 ba33 bc6d cb31 40c3 e4b1
000002d0: e5bd fab4 7c04 6e35 ab6f d1b3 88a8 2833
000002e0: 4719 0234 6ef6 0134 0055 b32f 8228 b1b4
000002f0: e1a3 92b3 2644 2234 ce19 2834 8019 f330
00000300: f4db ed33 b068 6034 d34d e3b4 897f f234
00000310: d074 46b4 46ea 8934 88b0 91b4 60bb ea31
00000320: 90f4 c9b2 906c b6b2 e39c 8534 4802 cbb4
00000330: 519a 2db4 a85d 5635 8475 9034 99c7 9a34
00000340: c05b c332 205b bcb2 e7b1 4a34 9271 58b2
00000350: 46b3 7cb4 364d e233 2ca2 7233 3c45 0933
00000360: d6e3 6034 b269 fb34 05c9 b6b3 0eb7 f1b4
00000370: cd6c 01b4 b49d e9b3 605d 06b2 73c1 2434
00000380: d14e 82b3 def4 9c34 80e6 be30 fa9d da33
00000390: 3ebc 88b4 0cc3 87b3 5870 1733 6b26 1735
000003a0: a0e7 e533 b0db 21b2 c943 31b4 2099 99b4
000003b0: dc85 c233 d6ba 5cb4 57e6 50b4 d37a 8634
000003c0: a9d6 d934 74e2 2934 303a 3fb4 0c27 8634
000003d0: f091 8cb3 42a7 0eb3 be61 66b4 f7dd 9eb4
000003e0: 2024 2b33 6448 ea34 5b7f d534 e836 ad34
000003f0: 56db 2e34 407c 46b4 4190 4933 1e99 c534
-9.366246e-07 4.5275808e-08 -5.381583e-07 2.8086895e-08 1.582259e-07 -2.1568405e-07 -5.6976285e-07 2.569601e-07
-7.753118e-08 -4.465768e-09 -5.1848446e-09 -3.4495088e-08 -6.3899684e-08 2.2265105e-08 -4.279973e-08 -8.762281e-07
-1.2185583e-07 7.4264705e-08 -3.2493702e-07 2.730237e-07 -3.421869e-07 -3.7210245e-07 2.902679e-07 2.7814258e-07
8.514374e-08 -6.6984285e-10 -6.2432676e-08 5.160635e-08 4.3737464e-07 8.363995e-08 -2.2431729e-07 7.314483e-08
-4.249761e-08 -3.721115e-07 1.4739331e-07 2.9829548e-07 -1.1150242e-08 1.3420033e-07 -1.0462536e-08 -4.4035662e-07
-2.1669014e-07 1.4052293e-07 9.258801e-08 3.9600042e-07 -3.5563494e-07 1.0324108e-08 2.0350011e-07 -1.4374207e-07
1.5653593e-07 -3.2362e-07 3.951808e-07 -4.8712104e-07 -2.903255e-07 1.6449135e-08 2.5249443e-07 -2.9592218e-07
5.32004e-07 2.713076e-07 1.7745215e-08 2.5241195e-07 1.9423685e-07 3.0637017e-07 -1.1846926e-07 -3.5951075e-07
9.9928684e-08 -7.375484e-08 1.16002866e-07 -2.0583448e-07 -3.1541262e-07 -2.4235938e-08 -3.2249073e-07 -3.9245998e-07
2.9887346e-08 7.2874506e-10 -1.8471363e-07 4.0217802e-07 1.5872948e-07 -2.3853502e-08 1.2271886e-07 2.6780305e-07
-1.3079301e-08 2.9808197e-07 -3.049571e-07 -2.7837422e-07 -1.0077672e-06 4.6094948e-07 -6.058684e-08 6.70631e-08
-1.0868978e-07 3.4429078e-07 1.1662266e-07 2.0734242e-07 -3.2315177e-07 -2.9389554e-08 -1.7484554e-07 4.0905232e-07
7.3833036e-08 1.9220661e-07 -2.503513e-07 4.95942e-07 -1.2669356e-07 -2.5908601e-08 -5.4386277e-08 1.8220092e-07
2.626178e-07 1.5285536e-07 -7.108349e-07 -1.6763457e-07 3.1707998e-07 1.9880859e-07 -1.0394939e-07 4.7747693e-07
-7.4951615e-08 -2.9106116e-07 -7.036914e-08 -1.4167335e-07 -3.2634716e-07 -7.1273746e-08 7.2351547e-09 2.6385197e-07
-2.7456474e-07 4.9295096e-07 3.530982e-07 1.17556816e-07 1.8076872e-07 -1.3188532e-07 3.088529e-07 3.4092636e-08
-5.171495e-08 7.4396326e-08 1.5607256e-07 3.2925846e-07 1.554701e-07 -2.6871535e-07 -3.2183442e-07 5.0215704e-07
6.154298e-08 -4.0326796e-08 1.45737e-07 8.45634e-09 9.359831e-08 -4.194082e-07 3.2074172e-07 -6.95229e-07
1.2514263e-08 -7.6389455e-08 1.0165181e-08 -3.0492512e-07 -3.522406e-07 -1.2862785e-07 -1.4855092e-07 -1.2492927e-07
2.980293e-07 -1.228724e-07 -4.864074e-07 -4.588709e-07 2.0885782e-08 1.8501419e-07 -9.509339e-09 -2.2348924e-07
2.7851613e-08 -1.9611434e-08 -1.7066796e-08 -1.2691143e-07 -2.8177607e-07 -3.4352985e-07 -2.5857066e-08 1.7674196e-07
7.394623e-07 -9.1623775e-10 -4.271229e-07 2.8842442e-07 -2.9606895e-09 -6.900849e-07 2.6548378e-07 -8.859944e-08
5.027499e-07 8.691555e-08 5.920553e-09 -6.6578707e-09 -4.6704295e-07 8.8668435e-07 -9.752633e-08 3.9268826e-08
1.211639e-07 1.2103712e-07 3.2620306e-10 -3.2998292e-07 -6.828464e-08 1.5112218e-07 1.5655607e-07 1.7687825e-09
1.1076182e-07 2.0899711e-07 -4.233867e-07 4.5168807e-07 -1.8482683e-07 2.5688695e-07 -2.7136798e-07 6.8315984e-09
-2.3510694e-08 -2.1236957e-08 2.488733e-07 -3.7813356e-07 -1.616802e-07 7.98575e-07 2.6907594e-07 2.8829962e-07
2.274271e-08 -2.192752e-08 1.8877437e-07 -1.2598678e-08 -2.3534548e-07 1.053799e-07 5.649251e-08 3.1960766e-08
2.0944512e-07 4.6829297e-07 -8.511601e-08 -4.5022938e-07 -1.2053643e-07 -1.0878594e-07 -7.821058e-09 1.5344067e-07
-6.0679334e-08 2.923543e-07 1.3889832e-09 1.0180152e-07 -2.5468938e-07 -6.321906e-08 3.5259603e-08 5.630779e-07
1.0705776e-07 -9.421385e-09 -1.650907e-07 -2.8609884e-07 9.058178e-08 -2.0557067e-07 -1.9455307e-07 2.504881e-07
4.0575586e-07 1.5821735e-07 -1.780943e-07 2.4987855e-07 -6.545804e-08 -3.321407e-08 -2.1455978e-07 -2.9591294e-07
3.9846896e-08 4.3638568e-07 3.9767005e-07 3.226371e-07 1.6284807e-07 -1.8485389e-07 4.6930158e-08 3.6805517e-07

fc2.bias f4 [64]
00000000: 809d b3b1 30b5 fab4 b4d2 0234 01e6 a334
00000010: 737f 8e34 8f97 f233 add0 a9b4 ec5a 8234
00000020: cf70 3734 9035 41b2 72a5 0d35 7203 8034
00000030: 7d96 aebd db53 8834 3a88 9fb4 aaba c334
00000040: 4644 5234 0e61 aa33 c25a e9b2 96be 0eb4
00000050: a836 3337 314b 2fb4 bc2f b0b4 aa8d 97b4
00000060: 44e6 36b3 96df 3db4 a010 0eb2 373d 26b4
00000070: cdcb 69b4 ac3e c034 0a50 be33 4a16 a532
00000080: 568d 8434 fffc b33e 7d39 2a34 d433 5333
00000090: d00a 6632 50be 5a35 261c 243e 97ce 96b4
000000a0: b4c3 a633 db62 4a34 1bba 00bd fb70 d634
000000b0: 1eca 2b34 ed21 3934 3681 9234 be2a 1935
000000c0: 1012 b834 66cd a334 c2f3 a23e 64e0 0c33
000000d0: b2c6 3f3e c0d2 d032 1cac c5b3 0cf5 81b3
000000e0: f898 e232 f0d9 ccb4 de58 9eb4 607c 9b38
000000f0: ac87 8f34 fccc 28b4 5cbe 1ab4 c92a 5d3e
-5.2274913e-09 -4.669796e-07 1.2183847e-07 3.0528466e-07 2.6542293e-07 1.12965715e-07 -3.1630535e-07 2.428054e-07
1.7084243e-07 -1.1246257e-08 5.276735e-07 2.3844365e-07 -0.08524797 2.5392987e-07 -2.9715176e-07 3.6457396e-07
1.9582612e-07 7.933896e-08 -2.7166042e-08 -1.3294115e-07 1.0681957e-05 -1.63255e-07 -3.2817286e-07 -2.8229016e-07
-4.2584603e-08 -1.7683337e-07 -8.269268e-09 -1.5482225e-07 -2.1773958e-07 3.5808387e-07 8.8621235e-08 1.9218664e-08
2.468975e-07 0.35153958 1.5853398e-07 4.9174403e-08 1.33902205e-08 8.148827e-07 0.16026363 -2.808999e-07
7.7655756e-08 1.884868e-07 -0.031427484 3.994281e-07 1.5999146e-07 1.724181e-07 2.7288633e-07 5.705914e-07
3.4285813e-07 3.0510563e-07 0.31826597 3.2800372e-08 0.1872814 2.4310225e-08 -9.204834e-08 -6.0516044e-08
2.6379425e-08 -3.8156531e-07 -2.9494453e-07 7.4141426e-05 2.673454e-07 -1.5720792e-07 -1.441162e-07 0.21598352

fc3.weight f4 [2, 64]
00000000: 5698 ef34 b53b 25b3 0610 26b5 efde 57b4
00000010: 565f 4935 2091 ea31 3a92 f6b3 ae1d ac34
00000020: bf8a 9333 0e8e 85b4 9a9c 87b3 e8ee 3133
00000030: 8063 3f31 20c9 13b1 2bff 00b5 56bf c4b4
00000040: e8ed 35b3 910c d934 2239 34b4 acf9 a6b4
00000050: 1c4f 43b4 94a2 d6b3 9cf7 3b33 e01b 7ab4
00000060: c7ae 22b4 eeaa 9ab4 fa72 9333 c2b2 cb34
00000070: 389d 4033 dfaf 0935 d03f f6b2 2cf6 3334
00000080: 795f 2235 c2af 07b4 5499 0db4 9990 34b4
00000090: dc63 8f33 5e37 8bb4 ba56 1034 22a2 ccb4
000000a0: 3c5d 3033 eb70 6135 43ed 2a34 206e 3234
000000b0: 7e6d ca33 780a e7b2 20c5 04b3 2a00 12b5
000000c0: 8e40 2b34 550e 9bb4 1d97 e333 5c7b f1b2
000000d0: 5a8b 3cb4 44f9 8a33 065e 7ab4 0b16 b4b4
000000e0: e052 d8b4 0048 bc31 fcfa 0bb4 abc5 0634
000000f0: a882 21b4 60b2 91b0 cc02 9d33 3c17 3a34
00000100: 0eb9 1b34 0860 7d32 507a 3034 3a75 8234
00000110: 448e a1b4 8e0f 02b4 0a71 bbb3 0b44 0cb5
00000120: ac8b 9d34 3c90 b2b3 7048 85b4 eb9c 2034
00000130: 574f 28bf d5b0 ca33 20fa 9332 d0c6 b934
00000140: b037 98b3 a0f6 5fb2 d8f8 9f31 4023 ac34
00000150: 2f54 66c0 260f f2b3 ed5c 5d34 0ee0 9c33
00000160: 7cc2 3833 16ec 59b5 c867 d333 e654 ab34
00000170: c040 0434 3bce 4c34 b9a4 1ab5 03b3 eeb4
00000180: ac5e f0b3 882a db3f c580 3034 94d0 2cb4
00000190: 903f e133 a7d9 ffb4 4e72 16c0 c850 7a33
000001a0: f85f adb3 0869 f934 41d1 ae3f 2332 9834
000001b0: b51c 25b4 08c4 be34 73a1 5ab4 ee22 af34
000001c0: 9f6a 9433 c250 9934 a59a fe3f b9a9 08b4
000001d0: 49cd b13f 387f 0335 5c79 e8b4 0410 b3b4
000001e0: 3a0a cfb4 6046 19b2 8215 9f34 b65c 97be
000001f0: 0511 bbb4 4fd8 b834 e026 46b4 f707 34c0
4.4628058e-07 -3.847136e-08 -6.1863136e-07 -2.0104538e-07 7.5017067e-07 6.826795e-09 -1.1481866e-07 3.205909e-07
6.870459e-08 -2.487654e-07 -6.314913e-08 4.1428308e-08 2.7850717e-09 -2.1505642e-09 -4.8055034e-07 -3.664706e-07
-4.235872e-08 4.0428543e-07 -1.6784591e-07 -3.110157e-07 -1.818957e-07 -9.994724e-08 4.376453e-08 -2.3293205e-07
-1.515101e-07 -2.8809103e-07 6.866135e-08 3.794176e-07 4.4846473e-08 5.1292403e-07 -2.8667188e-08 1.6760231e-07
6.0488634e-07 -1.2636795e-07 -1.3187429e-07 -1.681641e-07 6.677121e-08 -2.5931053e-07 1.3442596e-07 -3.8115928e-07
4.106299e-08 8.398335e-07 1.5918799e-07 1.6617605e-07 9.4262745e-08 -2.68967e-08 -3.091293e-08 -5.4389477e-07
1.5949101e-07 -2.8881428e-07 1.05979986e-07 -2.811219e-08 -1.755956e-07 6.471467e-08 -2.331727e-07 -3.354365e-07
-4.0293435e-07 5.4797056e-09 -1.3036691e-07 1.2551634e-07 -1.5041826e-07 -1.0600836e-09 7.311391e-08 1.7331053e-07
1.4502822e-07 1.4748373e-08 1.6435774e-07 2.429968e-07 -3.00921e-07 -1.2112852e-07 -8.728428e-08 -5.225308e-07
2.9345154e-07 -8.315007e-08 -2.4825886e-07 1.4958248e-07 -0.65746063 9.4385236e-08 1.7226796e-08 3.460359e-07
-7.088181e-08 -1.3036384e-08 4.6557993e-09 3.2063144e-07 -3.5988882 -1.12717586e-07 2.0616035e-07 7.3050714e-08
4.301772e-08 -8.118235e-07 9.844331e-08 3.1913004e-07 1.2317014e-07 1.9074007e-07 -5.7609174e-07 -4.4461203e-07
-1.11930916e-07 1.7122355 1.6438123e-07 -1.6094629e-07 1.0488941e-07 -4.7655814e-07 -2.3507266 5.828113e-08
-8.073397e-08 4.6456285e-07 1.3657609 2.8348686e-07 -1.5377266e-07 3.553289e-07 -2.0361567e-07 3.2621705e-07
6.911181e-08 2.855723e-07 1.9890944 -1.2727732e-07 1.3890773 4.898643e-07 -4.3301668e-07 -3.3353e-07
-3.8564195e-07 -8.9217735e-09 2.9631707e-07 -0.2956292 -3.4843848e-07 3.4430056e-07 -1.845433e-07 -2.8129861

fc3.bias f4 [2]
00000000: c0dd d634 a1a7 94be
4.002195e-07 -0.2903414
