ros2/racecar_nn_controller/racecar_nn_controller/models/model_noisy_23_64.pth (torch, 21938 bytes, 7 tensors)

input_weights f4 [6]
00000000: 0000 803f 0000 803f 0000 803f 0000 803f
00000010: 0000 803f 0000 803f
1.0 1.0 1.0 1.0 1.0 1.0

fc1.weight f4 [64, 6]
00000000: 2627 5f3e a9ee c33d cbfe 963e 0de0 d73d
00000010: e77b 48bd 8d8a 203e ecff 01be 5ecc 9d3d
00000020: 7575 b63e 1cc8 633e 7d30 1c3c a5ad 34bc
00000030: bf3e d9be c2c9 6f3d b3f7 613f 2bd5 19bd
00000040: 7f06 a13c 8bda da3e 8703 c03d 14ce 66bf
00000050: 9f56 28bf 95ca 81bd 7fbd 253d 5816 0b3d
00000060: b73b f93e 16ce 043f 56e7 473f 6f6b cb3e
00000070: 6abd a4bb ce47 a83d 2822 e8bd e80f 3d3e
00000080: bfa5 9a3e 903b 45bd 3cba c2bd bafb 89be
00000090: d2c2 653b 3bad 2b3a 9f00 7c3a c173 043e
000000a0: cb0b 53bf 536c 063b 55ba 55bd 5209 bebe
000000b0: c51e fe3e f2b3 95bd 31eb 99bd 600f 92be
000000c0: 41aa 073f 42a0 913c ff7f 25bb d8ef 453c
000000d0: 9fa8 323c 57d8 07bc edb6 4e3d 9570 dcbd
000000e0: 8cd7 743e 0d61 eabb a6f9 503d 80e5 803e
000000f0: c7c3 753e 9d7d e4bd 6e9a 973e a693 21be
00000100: 972d 8a3d 7b5a 273e 09d5 96be e9ad 5dbe
00000110: 6b1a 7a3e 0a78 0bbf 5dba aebe 75a1 913b
00000120: 10b4 2ebe b96b 193f 0d5a 5d3e c134 13be
00000130: c3a1 febd a2a1 2a3d 26a8 193f 4a66 3dbe
00000140: 2f58 1a3f 1b0d 87be cbb5 e23a d907 873d
00000150: 911e 0dbe 1b79 57bf d75c 763e 2d26 b8bc
00000160: bfa7 a63d ecec 843d ccf6 a1bd cb80 8d3e
00000170: a629 51bf 4541 09bc d651 0fbc 640d ccbe
00000180: ec91 93bc e31c febd 2e41 56be 3733 b03c
00000190: 136a 19be 0638 4fbe fbfd 7cbe b5ee bfbc
000001a0: 32d9 e5be abf8 aebe 0dd7 94be 7417 2bbe
000001b0: e312 a3be 7258 4d3f d711 813f 2674 903d
000001c0: cbb6 04bd 70f8 9ebd 16f8 edba 3b9e 07ba
000001d0: da68 2f3a 2765 a43e 64ba 533e 1350 5f3a
000001e0: a621 00bf ad7e 1e3f ebb9 6fbf d1cb bc3d
000001f0: 7512 48bd 0143 033e b3e1 ee3e b3d6 a03c
00000200: c2c4 f9bc fa0b 01be 00a9 c9bd 2ffc b7be
00000210: b7af 993d fa88 acbe 04b4 2cbe 3037 e93c
00000220: cce1 103e 39d0 123e a68c fcbd c77f 0dbf
00000230: d5f6 003e 0506 2c3e 15f3 8e3d 210b 20be
00000240: e1ba 45bf f665 10be 730e 07be 6427 ac3d
00000250: 341f 083d a6a2 623c 62ec a2bc 61b0 8d3e
00000260: 86b6 423d f837 16bc 28d1 3f3e d622 26be
00000270: 20ac d8be d967 dc3e 1e1e 623e 5eba 693e
00000280: da5f 5c3d 40c5 a03e 4f61 893e f08d 9d3e
00000290: 757b 18bf 7123 e6bd 03a1 6fbd 2dc4 6d3d
000002a0: 8735 b0bf 2369 d23e f6ea dd3e 60f5 2cbd
000002b0: faa9 e0bc b871 f33c 2cd9 1ebd 9990 bcb9
000002c0: d6bc 953b 0579 b4be ffc6 023e fdcf 003d
000002d0: 9ab2 fa3d 3826 fabc 8f62 dabd a25b aabe
000002e0: 30f2 1ebd 1db5 adbd 8644 c3bd e106 363e
000002f0: 40e3 11be 541b c3bc 24f5 923d 8c73 bd3e
00000300: 3a1c 73be 0682 eebe 563b 6fbd 41e2 803c
00000310: 8161 193d 2de0 413e cb99 2c3c 0699 323e
00000320: e55b 213f 9378 49be 0038 273d 35ae c4bd
00000330: 94dd 98bf bf4b 6a3e 9587 b9be da84 d8bc
00000340: 8670 193c 52cc 223e 7f98 4dbe 62da 823f
00000350: cbb3 ebbd 4e0d 55be 69f8 e8bd 469f ecbd
00000360: 5d7c 15be 66fd dc3e 2c46 e1be cf45 a4bc
00000370: 67c7 2a3c b1a5 613e 3021 dbbc 75ab f4bc
00000380: da94 d03c 19aa e3be 3e6f f33e 3556 cb3b
00000390: bf1a af3e ae89 933f 793a 8e3e 853b bcbe
000003a0: 99a5 2cbd 189e 25bd ffd1 c03d 8c44 97be
000003b0: 5451 963f 1dce 493d 7d2a 503d 45bb 3abd
000003c0: c435 6e3e 8063 5ebf fd70 0ebe 4225 3ebe
000003d0: 83d1 c33d a32d 95be 925b 01c0 045b 393e
000003e0: fabf 3e3e 7fc6 90bc fc78 9abb 6974 4fbc
000003f0: edf7 e53d 68ba 193a e6e2 98ba 16a4 b7be
0.21792278 0.09567005 0.29491267 0.10540781 -0.048946287 0.15677853 -0.12695283 0.077049956
0.35636488 0.22244304 0.009533045 -0.011027728 -0.42430684 0.05854202 0.88268584 -0.03755681
0.019656418 0.4274486 0.09375673 -0.901582 -0.65757173 -0.063374676 0.04046392 0.033956856
0.4867837 0.5187696 0.78087366 0.39730403 -0.0050274627 0.08216821 -0.1133464 0.18463099
0.3020458 -0.048152506 -0.09508178 -0.26949865 0.003505875 0.00065489457 0.00096131297 0.12934782
-0.8243987 0.0020511344 -0.052179653 -0.37116486 0.4963285 -0.073097125 -0.07515562 -0.28527355
0.5299416 0.017776612 -0.0025253294 0.012081109 0.01090446 -0.0082913255 0.05046742 -0.10763661
0.2391035 -0.0071526826 0.051019333 0.25175095 0.24000464 -0.11156771 0.29610008 -0.1577898
0.06746977 0.1634311 -0.29459408 -0.21648373 0.2442414 -0.5448004 -0.3412656 0.004444296
-0.17060876 0.59929997 0.21616383 -0.14375593 -0.12433197 0.04165805 0.600222 -0.18496051
0.6029081 -0.26377186 0.001729661 0.06593294 -0.13781191 -0.8416917 0.24058853 -0.022479141
0.08137464 0.06490502 -0.07908401 0.27637324 -0.81704175 -0.008377378 -0.008747539 -0.39853966
-0.018013917 -0.124078535 -0.20923302 0.021508796 -0.1498187 -0.20236215 -0.24706261 -0.023429254
-0.4489227 -0.34174094 -0.2907032 -0.16708165 -0.31850347 0.8021308 1.0083569 0.070534036
-0.032400887 -0.077622294 -0.00181556 -0.00051734195 0.00066913443 0.32108423 0.20676571 0.0008518707
-0.50051343 0.6191204 -0.93643063 0.092185624 -0.048845727 0.12818529 0.4665657 0.019633627
-0.03048933 -0.12602225 -0.09846687 -0.35934588 0.07504218 -0.33698255 -0.16865546 0.028468698
0.14148635 0.14337243 -0.12331514 -0.552731 0.12594159 0.16799171 0.06979958 -0.15629245
-0.7723828 -0.14101395 -0.13189106 0.08405951 0.033232883 0.013832724 -0.019888107 0.2767363
0.04753735 -0.009168617 0.1873213 -0.16224226 -0.4231882 0.4304798 0.22081801 0.22825
0.05380235 0.3140049 0.26832053 0.30772352 -0.5956338 -0.11237229 -0.058503162 0.058048416
-1.3766335 0.41095838 0.43343323 -0.042226195 -0.027424801 0.029717311 -0.03878133 -0.00035965888
0.00456963 -0.3524858 0.12771223 0.031448353 0.12241097 -0.030535802 -0.1066333 -0.33273035
-0.038805187 -0.0848181 -0.09534554 0.17776062 -0.14246845 -0.023816742 0.07175663 0.37002218
-0.23741236 -0.46583575 -0.058406197 0.015732886 0.037446503 0.18933173 0.010534714 0.17441186
0.63030845 -0.19674902 0.04082489 -0.0960354 -1.194262 0.22880457 -0.36236253 -0.026430536
0.009365207 0.15898255 -0.20077704 1.0222895 -0.11508902 -0.20805857 -0.113755055 -0.115538165
-0.14598222 0.43162078 -0.4399885 -0.020052819 0.010423518 0.22035863 -0.026749223 -0.029866913
0.025461603 -0.44465712 0.4754581 0.006205345 0.34200093 1.1526392 0.27778986 -0.3676416
-0.042150114 -0.040433973 0.094150536 -0.29544485 1.1743569 0.04926883 0.05082177 -0.04558875
0.23262697 -0.86870575 -0.13910289 -0.185689 0.095614456 -0.2913638 -2.021214 0.18101126
0.18627921 -0.017672775 -0.0047141295 -0.012662032 0.11228929 0.00058642635 -0.0011664301 -0.35867375

fc1.bias f4 [64]
00000000: b223 da3e 6ded 833e 5bc8 32bf 94ce 83bf
00000010: f8dc 56bf 4bca 6d3e 3a98 cb3e ff5e 7dbd
00000020: 4cf1 f83e 9066 393e bae2 493d a47f 7dbf
00000030: 012c 453d f1f7 36bf 723a 12be 33a1 2abf
00000040: 712e 1f3e 549c 83bf 4b8d 55bf d90e 8a3f
00000050: fc02 cfbe acce 9cbe a741 c53d 8f23 093f
00000060: e8d1 203f e31a 923d 8121 34be f0eb 2f3c
00000070: e3a7 91bf f9ba c43b 3220 9d3e e8bb 25bc
00000080: f517 463e b3b6 863e 8784 afbf e126 0dbf
00000090: 1743 1d3e 157c 1cbf 8164 a4bf 98ac 34bf
000000a0: 5949 2bbf c488 c3be 08e2 a8bf 3e5d 8dbe
000000b0: 80ce e1be d4ae aebe bb56 423f 1cc1 f0be
000000c0: 5061 dabe 30fc 473e 54ee acbf 00cc 503e
000000d0: f76e 29bf fab3 813e 4c9a 0ebf d1b7 433e
000000e0: 3aa2 8dbf 32e6 ccbe 0fc3 093f 2c0a 913e
000000f0: 58cf a53d 1408 f13b b645 943e 3cce 35bf
0.42605358 0.2576708 -0.6983697 -1.0297418 -0.8393092 0.232217 0.39764577 -0.061858173
0.48621595 0.1810553 0.04928849 -0.9902289 0.04813767 -0.7147208 -0.14280108 -0.6665222
0.1554506 -1.0282083 -0.8341872 1.0785781 -0.40431964 -0.30626428 0.09631663 0.53569883
0.6282029 0.071340345 -0.17590906 0.010737404 -1.137936 0.006003734 0.30688626 -0.010115601
0.19345076 0.26311263 -1.3712319 -0.5513745 0.15357624 -0.61126834 -1.2843171 -0.7057586
-0.66908795 -0.3819028 -1.3193979 -0.276102 -0.4410286 -0.34117758 0.7591359 -0.4702233
-0.4265237 0.19529796 -1.3510232 0.2039032 -0.66184944 0.25332624 -0.5570419 0.19113089
-1.1065133 -0.40019375 0.5381326 0.28328073 0.08096188 0.0073556993 0.28959435 -0.71017814

fc2.weight f4 [64, 64]
00000000: cc83 363c ac76 81bf 69be c7be 2bf4 053e
00000010: f47e f7bc 54f0 933e 880f b5bd ca9c 983d
00000020: 346c 1bbd 32c9 0b3e edab b8bc 3b51 d43d
00000030: dd72 483c 7d65 173f 3cff ebbe 2996 11bf
00000040: b5d0 853e 7810 fd3e d8c9 d73e 09a8 adbe
00000050: e598 f5bd c11e cdbe bb93 f73e c419 e2be
00000060: 69fa fcbe 7cfe 8dbf c0c9 29bf 0011 34be
00000070: 5b6a 5d3e 5087 df3d 2ee8 9dbd 6ca5 e9bd
00000080: dcfe 14be 2439 66bf ce2b 8d3f bca8 9c3e
00000090: 80f4 3cbf f050 a73a 316d 11bf 22bf 41bf
000000a0: 72a3 df3d 9e30 c83e 22a7 83bf ac60 b63e
000000b0: 0ba3 4abe b483 233f 78cd b7be 1d88 363f
000000c0: 9b54 87be bc8c 333e 16db 7a3e a856 f5bd
000000d0: d297 55bc fec3 0a3e 490a 003c 2d34 41be
000000e0: fa76 bc3d 200d c0bd d40b 6f3d 811b b33d
000000f0: ab94 0c3f 84c5 993a ed66 b23d cc0a 603e
00000100: a745 ba3c 8606 2bbd 16e7 ffbe 8905 0ebf
00000110: f5d8 54bf 4353 5dbd 5533 7abc 34a4 93be
00000120: a137 c03c 9522 b43c 9822 223f 3aa6 253f
00000130: 5d5e 0c3d 81b3 77bf 21ea e8be b536 79bf
00000140: 66d4 d33e 2165 0dbf 4a2b 00be 643a 953e
00000150: d04d 60be 9ead cebe a4f7 46be 1b3c 98bd
00000160: 5196 f53c 7277 183e 4900 07bf 8c76 60be
00000170: 5bae 42bf f694 afbe 3b1e 5e3e dc29 28be
00000180: 2e8d afbe 1581 423e 6340 59bf 3267 acbe
00000190: ee79 81bc 57be 88be bae3 183f 82e9 7fbe
000001a0: 6a03 2ebe f890 193e 7dfd f83d 3f5b 0f3e
000001b0: b2ab cfbe d545 a53e 8b9c 5f3e c150 2dbd
000001c0: b6d9 ebbd c89c 7e3e 83d8 65be d8a3 bd3d
000001d0: 3d46 93bf 3dd0 6d3d ceda 27bf a57a fe3d
000001e0: 2940 26bf 271d 123e 89a3 bb3e 8b13 83bd
000001f0: 406b a23e 32b9 e2bb 2d5b 99bd 930b 74bf
00000200: 3958 8e3e b6d6 273e a7a6 a1be 0cbd 86bd
00000210: 0a41 d0bd 913d 073e 9c13 45bd 115d 3abe
00000220: 3d6c 06bf b1e3 d2bc ecf2 02bd 5d2d 94be
00000230: 3239 9dbb 0846 e4bf b9a2 6c3e b18a 28bf
00000240: d43e e93d cdbc 54bd fba1 1dbe 9c77 ba3e
00000250: 2e97 24bf ed43 fd3e c159 ebbe f976 573d
00000260: 937c 43bf 28c9 5cbc f503 c7be 432a 983c
00000270: d4f5 9e3e 7e94 353e 4db8 37bd 2abe 063f
00000280: e610 b6be f54e e6bd 8158 8ebf 1754 81bd
00000290: b013 263e 3d65 1a3d e809 a5be cf0c f6bf
000002a0: ea95 16bf 48df 0bbe c340 2bbd 6bd9 9b3e
000002b0: 48ad cdbe 7140 16bf fba0 403e b304 bd3d
000002c0: db10 783e 98c1 b4bb 2dbc 8bbf c6cb ad3e
000002d0: 989c 10bf 7256 8b3f 051b babd 7c8f 123e
000002e0: 5d84 44bf 3814 4d3c debf 6dbe 1e3c 99bf
000002f0: bd48 b53d 2282 d8bd aac9 cabd eca1 593e
00000300: aaf5 813e 544b e13e db45 62bf 0441 89bd
00000310: a532 b4bd 7343 9fbd 159b 843d e7af 3dbf
00000320: 99ca 363e 392a 7dbc 370d 163e 51cd aabe
00000330: a603 103e 5e6a d0be ccb5 01bf 8cbb 01be
00000340: a0f0 82be 6ec3 b63d b1ef 19bf 7cad 4a3e
00000350: febe 1bbe 383a e2bd 210f b33d 9bd2 2d3d
00000360: bb94 e13e 07b0 2abd 0d21 043c 3c86 fdba
00000370: ec88 143f c969 4c3e 9743 03bd c1ed 0fbd
00000380: af61 9dbd 7fe9 ab3e 33f6 48bf fa65 883e
00000390: 48bd 3d3b 823e 00be 7fc9 f33d 8602 95bf
000003a0: 56a5 abbe b556 16bf a470 9cbd 978c d4bc
000003b0: dd73 3bbf 4393 c33e c7f3 993e 38b4 3bbe
000003c0: f2f5 5ebd 0ccd ffbe 2a83 a1bd f9c9 2f3e
000003d0: 605b 923e 870d 92be bb29 6f3e 5cc8 e33e
000003e0: 167e df3d c265 32bd 7701 f3be 9a52 8dbe
000003f0: b5f5 10be 611f 803e 3337 4abe c939 cb3c
0.011139821 -1.0114341 -0.3901246 0.13081424 -0.030211903 0.28894293 -0.08840853 0.0745178
-0.037944987 0.13650969 -0.022542918 0.10367056 0.012234417 0.59139234 -0.46093166 -0.5686975
0.26135793 0.49426627 0.42146182 -0.33917263 -0.11992053 -0.40062526 0.48354897 -0.44160283
-0.49409798 -1.1093287 -0.6632347 -0.1758461 0.21622603 0.10914481 -0.077103004 -0.11408505
-0.14550346 -0.8993094 1.1028993 0.30597484 -0.7381058 0.001276521 -0.5680724 -0.7568227
0.109198466 0.39099592 -1.028538 0.3562063 -0.19788758 0.6387284 -0.35898948 0.7130144
-0.26431736 0.17534155 0.24497637 -0.11979419 -0.013036685 0.13551328 0.007814952 -0.1886756
0.092023805 -0.093775034 0.05836089 0.0874548 0.5491435 0.0011731838 0.08711038 0.21879119
0.022738291 -0.041754268 -0.49980992 -0.55477196 -0.8314355 -0.054034483 -0.015271028 -0.28836215
0.023464026 0.021989146 0.63334036 0.64706767 0.03426968 -0.96758276 -0.45491126 -0.973491
0.41372985 -0.55232435 -0.12516513 0.2914611 -0.21904683 -0.40366834 -0.19430405 -0.07433339
0.029978903 0.14889315 -0.5273481 -0.21920222 -0.76047295 -0.34293336 0.2169122 -0.16422218
-0.342874 0.18994553 -0.8486387 -0.33672482 -0.01580521 -0.26707718 0.59722483 -0.2499142
-0.1699349 0.14996707 0.12157724 0.13999651 -0.4056068 0.3227984 0.2183706 -0.04231334
-0.115161344 0.24864495 -0.22445874 0.09259766 -1.150581 0.05805992 -0.65568244 0.12425736
-0.6494165 0.14268933 0.36648205 -0.06400212 0.3172245 -0.0069190497 -0.074880935 -0.9533016
0.27801684 0.163905 -0.31572458 -0.065790266 -0.10168655 0.1320708 -0.048114404 -0.18199565
-0.5250891 -0.025743337 -0.03196995 -0.2894086 -0.004798078 -1.7833872 0.23108949 -0.65836626
0.11388937 -0.051937867 -0.15393822 0.3641938 -0.6429318 0.49465886 -0.45966914 0.052603696
-0.7636196 -0.013475694 -0.38870206 0.01857484 0.31046927 0.17732427 -0.044853497 0.5263392
-0.35559767 -0.112455286 -1.1120759 -0.06314867 0.16218448 0.037694205 -0.3223412 -1.9222659
-0.588225 -0.13659394 -0.04180981 0.30439314 -0.40171266 -0.5869208 0.18811409 0.09229412
0.2422518 -0.0055162422 -1.0916802 0.3394453 -0.56488943 1.0885756 -0.09087185 0.14312547
-0.7676447 0.012517028 -0.23217723 -1.1971471 0.08851764 -0.10571696 -0.099017456 0.21253175
0.2538274 0.44002783 -0.8838784 -0.06701854 -0.08798722 -0.07776537 0.06474892 -0.7409653
0.17850722 -0.015451961 0.14653479 -0.3335977 0.14063892 -0.40706152 -0.50668025 -0.126692
-0.25574207 0.08923994 -0.60131365 0.19792742 -0.15209576 -0.110462606 0.0874312 0.042437177
0.44058785 -0.04167178 0.008064521 -0.0019342373 0.58021426 0.19962229 -0.03204688 -0.03513885
-0.07684647 0.3357658 -0.7850067 0.26640302 0.0028951932 -0.12523845 0.11903667 -1.1641395
-0.3352458 -0.58726054 -0.07638672 -0.025945945 -0.7322367 0.3819829 0.300688 -0.18330467
-0.05443377 -0.49961126 -0.07886346 0.1716689 0.2858534 -0.28525946 0.23355763 0.444888
0.10912721 -0.043554075 -0.47462055 -0.27602082 -0.1415623 0.2502394 -0.1974762 0.024807828

fc2.bias f4 [64]
00000000: 525e 8dbe 65f9 983e 78b2 cf3e e138 a53e
00000010: 17b3 af3e 8a51 383e e6d3 883e 03cb ca3d
00000020: 3dac 9bbe 4708 28bf 2014 cc3e 16d4 be3e
00000030: 3dd0 8e3e e184 983e 5cfe 1cbe fe41 0dbf
00000040: 2808 57bd c825 f63e 914d d03d 3e10 efbd
00000050: 6599 5e3c d58c f03e 2a8c 1fbf ba48 b33d
00000060: a764 5a3d b317 803e 486c dcbd a1a7 983e
00000070: 230b 2bbd a29e 413f 1701 b9be b013 703e
00000080: 9ed2 efbd c18c 133f 72c5 61bd a5b6 f53d
00000090: cb0e 08bf c4cc 8f3e a82f f83d 1693 943d
000000a0: 5a5a 953e 14b3 08be 84ac 15be f610 e33d
000000b0: bfdf ae3e 7fd0 d2bc a96f 9fbe 2a23 d33d
000000c0: e98f 1dbe 1ed3 d6be 478c a23d 9ace 10bf
000000d0: 38a4 b33e 8f49 77bd 7ba2 b63e e163 2abf
000000e0: f9d0 ccbd e1af 863e 258a ee3d 5e48 ae3e
000000f0: f1b0 a3bc 84ef 643e b645 4ebf cd69 323e
-0.27611023 0.29877773 0.40565848 0.32269958 0.34316322 0.17999855 0.26724166 0.09902003
-0.30404845 -0.6563763 0.39859104 0.37271184 0.27893248 0.2978888 -0.15331405 -0.5517882
-0.052498013 0.480757 0.101710446 -0.1167302 0.013586377 0.46982446 -0.6232325 0.08754106
0.053318646 0.2501808 -0.107628405 0.2981539 -0.041758668 0.7563268 -0.36133644 0.2344501
-0.11710094 0.5763665 -0.05511994 0.11997727 -0.5314757 0.2808591 0.12118465 0.07254617
0.29170495 -0.13349563 -0.1461659 0.110872194 0.3415508 -0.025734184 -0.31139877 0.103094414
-0.15386929 -0.41957945 0.07936912 -0.5656525 0.35086226 -0.060372885 0.35670838 -0.66558653
-0.10000796 0.2630606 0.11647443 0.34039587 -0.019981833 0.22356993 -0.8057512 0.17423172

fc3.weight f4 [2, 64]
00000000: 65f8 24bf bdae a7bc 828f 873e 68fd 65bd
00000010: 830b 683d abfc d23d 67eb 2a3e 448a 193b
00000020: 7201 01bd 9904 9ebf b237 6f3e f952 2c3e
00000030: ef0b dbbe 37a5 243e 19b8 a7bd 55c2 0d3e
00000040: 008d 1a3e 03d9 fabc 3d70 173e 8858 b0be
00000050: 8875 6ebe b511 ddbd 077b b3bf 37a4 cd3d
00000060: 4b6d 84be 939b 84be 91d5 bb3e e44a ba3d
00000070: 8e6f 743e fe1d 38bd 37cd cabe 55a5 86bc
00000080: c664 81bd ee82 53bd a56f a1be 5527 bfbe
00000090: aa70 7ebe 4314 a03e b971 efbc 34df 793e
000000a0: b663 1c3e 1a5e bbbd ff46 d53e 8954 91be
000000b0: 4dfa 69be 7a14 e8bd 6262 74bc ec83 84bd
000000c0: 4dc3 0c3f fa32 2a3f e6fe 9abd e5f3 e83d
000000d0: 7b35 a53e 257c 363e 8699 9dbe cdcf 70bd
000000e0: 4d69 0940 0154 b03c d832 1f3c d639 33bd
000000f0: 51ce 9abf 5940 d7bd cfae a13d ef10 f63c
00000100: 35b3 3dbe 7937 06bf 4936 1040 1656 093f
00000110: eebe 56bf 38ba 683f b3ac c83e 29d7 b13e
00000120: ee11 d83e 691f c53e 099f 6a3e 89d4 c13e
00000130: 3b9f f33e 9df4 eabe b353 933f ab18 71bf
00000140: b0d7 be3e 8c78 34bf ae5a 5abf 3361 79be
00000150: 6189 e2bd 6427 3f3e 0a57 0abf d056 aebe
00000160: 0e14 8a3d 7bcf 95bd 50a8 00bd 6dd6 a1bf
00000170: 7be7 8fbd 5def 333f f683 553d 8f1f 20bf
00000180: c005 ec3e 912e 7ebf d764 b03e d9b0 edbd
00000190: c4d4 af3f e43b c43f ce51 0ebf 80fc 03bc
000001a0: bdd2 8b3e 80c6 9f3e 4a0f 2cbd 9a93 f0bd
000001b0: 5bdc b73d d12b 97be 68ca 34bf 2535 0fbf
000001c0: b253 ec3d b4c5 703c 5ea6 133f a121 dbbf
000001d0: 303c 0bbf d0b4 a53e 9c0f d8be 3d1d 2f3f
000001e0: 9be7 8ebd f838 903e 2532 e6be 4a01 ac3e
000001f0: 9e6e 48be 571b 013f 75a8 ae3f a703 52bf
-0.6444152 -0.020469064 0.26476675 -0.05614987 0.056651603 0.10302099 0.16691361 0.002342836
-0.03149552 -1.2345153 0.2336109 0.16828527 -0.42782542 0.1607865 -0.08189411 0.13843663
0.1509285 -0.030621057 0.1478891 -0.34442544 -0.23287022 -0.10794393 -1.402192 0.10041087
-0.25864634 -0.25899944 0.36686376 0.090963155 0.2387068 -0.044950478 -0.39609692 -0.016436258
-0.06318049 -0.051638536 -0.3153049 -0.37334695 -0.24847665 0.31265458 -0.029229032 0.24401551
0.15272412 -0.09148808 0.41655728 -0.28384808 -0.22849388 -0.113320306 -0.014916034 -0.064704746
0.54985505 0.66484034 -0.07568149 0.11374644 0.32267365 0.17820795 -0.30781192 -0.058791924
2.147052 0.021524431 0.009716712 -0.04375633 -1.2094213 -0.1051032 0.0789467 0.030037371
-0.18525393 -0.52428395 2.2533133 0.5364698 -0.83885086 0.9090915 0.3919426 0.34734467
0.4220118 0.38500527 0.2291223 0.37857464 0.4758242 -0.4588975 1.1509918 -0.94178265
0.37273932 -0.7049644 -0.85294616 -0.24353485 -0.11061359 0.1866737 -0.5403906 -0.34050608
0.067421064 -0.073149644 -0.031410515 -1.2643563 -0.07026573 0.70287114 0.0521278 -0.62548155
0.46098137 -0.99289805 0.34451935 -0.11605997 1.3736806 1.5330777 -0.55593574 -0.008055806
0.27309218 0.3120613 -0.04200677 -0.11746903 0.08977576 -0.29525617 -0.7062135 -0.5594047
0.11539401 0.014695574 0.5767573 -1.7119638 -0.54388714 0.3236451 -0.4219941 0.6840399
-0.06977769 0.28168464 -0.44960132 0.33594733 -0.19573447 0.5043234 1.3645159 -0.82036823

fc3.bias f4 [2]
00000000: c349 87be 3cb0 08be
-0.26423463 -0.13348478
