model_config/model_noisy_37_64.pth (torch, 22194 bytes, 7 tensors)

input_weights f4 [7]
00000000: 0000 a040 0000 a040 0000 a040 0000 803f
00000010: 0000 803f 0000 803f 0000 803f
5.0 5.0 5.0 1.0 1.0 1.0 1.0

fc1.weight f4 [64, 7]
00000000: dd25 6fbd a277 01be 3bbc e6bd 3aa0 2f3e
00000010: 537e 3337 b7a0 f03c 6b33 a134 5528 83bb
00000020: 1265 d33c ec73 d13d d0d0 763b cc34 95bd
00000030: 50a0 a03c 10be a33e a93f 34bf e70f 44bd
00000040: b08a 81bd 95d0 61b6 4151 0037 09e3 9cbc
00000050: ca6c 90b6 caf1 29b3 d145 e732 3016 01b3
00000060: fa0c 4833 7993 2db3 ec18 21b3 d0eb dfb2
00000070: 52fe b7b2 a1ac 1933 4889 46b1 20b5 d730
00000080: 4d8b eab1 6fd3 3732 602d 8a31 e818 753e
00000090: 799e 86bc 609c 1fbd 8cda aa3c c49f 8b3d
000000a0: f710 39bb 36b4 ceb6 6235 9032 125a 3cb1
000000b0: e45a b332 eb41 5f33 688a e531 d8d7 3bb2
000000c0: 95a0 78b1 44ec 9a3e 0b8a d43c 58ae 1e3e
000000d0: 957d 883c 73e5 b13d 54ef 973c 253b 183e
000000e0: e2fe 903e 9910 d13b 26e1 603c 136b a2bb
000000f0: e072 58bc 7f02 263c d928 ab3c 195b 063f
00000100: b7c3 99bc 090f 55bd 95d5 28bc e350 853c
00000110: 01f0 1abc 023a 6b3c 402b c0b0 fa5b aeb3
00000120: abe6 32b3 44fb ddb2 2eb8 27b3 506a 4bb2
00000130: b6d8 e0b2 f37e b2bd e677 273b 005c f2bd
00000140: f4ae da35 107e 703c 0694 9a36 75ef df36
00000150: 5648 f932 d280 96b3 c49d 3b32 04ef 8731
00000160: 80d1 81b0 e5c7 51b2 9483 3b32 008c b230
00000170: 6620 2db2 3403 cf31 8229 1032 46e6 d432
00000180: 2448 3bb3 60ea 4630 afd9 e831 70e6 e230
00000190: c476 d431 4762 5533 9d7c b533 963c 9bb2
000001a0: db4f 4ab2 c026 3a3e d08c 003d ca5d 333e
000001b0: 879a 3fbd 91d3 3635 e5d1 4238 987a a63e
000001c0: 0dd8 8d32 1c7c 94b2 f623 c1b2 e4c7 7bb3
000001d0: 0400 edb3 40a7 ff32 5278 b332 a76d 81bd
000001e0: ca9c 50be 1ffc 873e 6374 59bd 26ff c1b6
000001f0: cdab 96bd 91ff 38b6 8577 b9bb 1e63 333c
00000200: 1a70 2fbc d2f0 f03c 0ae4 b43e b833 e93c
00000210: 4924 e5be 5b8f 173e 5616 e9bb 9b16 89bd
00000220: 93cb 0a3d 826b c63d f8b0 6e3b df46 1fbe
00000230: 9682 213e 2caf ce3c 03a8 c33d bc61 d23c
00000240: 7b4e e33d 29c3 a03c eca9 d7bd b08e 5db0
00000250: 23e0 ca32 a112 7932 0aad aeb2 4edb dab1
00000260: 1064 1333 3c08 59b2 8e5e 82bd e88e 8dbd
00000270: 98d6 e3bd 3527 bcbd 0aa0 1736 a5e5 b7b6
00000280: a735 adb5 f7ab 26be 3ad0 013c 23d6 55bd
00000290: 3409 9ebc ccfd c5ba dd41 8db6 899b ce3e
000002a0: 1798 2133 c6d0 7a33 969a 0d33 237a 62b3
000002b0: b6ac 5f33 5c3e cdb2 18dc 1a33 40af 47b0
000002c0: 7235 e2b2 bfd0 7133 d96a ac32 0a1c 2233
000002d0: f524 0db3 3852 8133 a63d e1b2 42ef cfb2
000002e0: c859 2a33 8057 2430 f835 3ab1 43ef e0b2
000002f0: b087 f533 49be efb2 539f 8833 58d5 ad31
00000300: 0806 0633 19e9 2332 3c2f 24b3 8c54 58b2
00000310: 2f7a 1abd 72ca 123e 3536 a3be 052c 793d
00000320: 1319 fa3c b5f6 3b3c 33e3 e73d 6209 2cbe
00000330: 04b8 df3d f7d2 fe3d 3892 c4bd dafe f4bb
00000340: c983 18b5 6b61 65bc c450 67bd c0ef 7ebc
00000350: b2da 68bc e531 66bd 3033 4dbe e0fb 49bc
00000360: eb05 1f38 043d 623e cbb9 52bd 3ef9 13be
00000370: 305e 2736 9508 43b7 d874 d5bc f578 7dbd
00000380: 86f2 d63e dac3 eb3b 9ab4 0cbc b9e6 273d
00000390: 8143 d9b9 2e27 5c37 2875 1e3c b0ad 3131
000003a0: e1d1 b132 ae89 67b3 6fcd f232 7233 aeb2
000003b0: 90d2 ff30 efed 8532 8446 8832 8073 58b1
000003c0: f659 89b2 b83b 67b2 5a3a 1db2 0841 8033
000003d0: b7bd 4db3 841b 0cb3 10b5 efb2 7e85 41b2
000003e0: fe19 0fb2 e109 0db3 d209 bdb3 1d53 0033
000003f0: a382 0bb3 9ce6 c7b3 45bc d032 db8e 4533
-0.05838572 -0.12643293 -0.11266371 0.17150965 1.0698644e-05 0.02937351 3.0025998e-07 -0.0040026107
0.02580503 0.102271885 0.0037661083 -0.07285461 0.019607693 0.31980944 -0.7040964 -0.04786673
-0.06325281 -3.3649023e-06 7.648313e-06 -0.019151228 -4.304199e-06 -3.9568285e-08 2.6923688e-08 -3.0055332e-08
4.657793e-08 -4.0413827e-08 -3.75084e-08 -2.6067852e-08 -2.1419655e-08 3.5780094e-08 -2.8890828e-09 1.5694788e-09
-6.826133e-09 1.0700076e-08 4.021487e-09 0.23935282 -0.016432988 -0.03896749 0.020856164 0.06817582
-0.0028238872 -6.1602577e-06 1.6788082e-08 -2.74088e-09 2.0879675e-08 5.1981186e-08 6.680512e-09 -1.093391e-08
-3.618003e-09 0.3025838 0.02594473 0.15496194 0.016661445 0.08686342 0.018546738 0.14866312
0.2831946 0.0063801524 0.013725555 -0.004956612 -0.013210982 0.010132431 0.020893501 0.52482754
-0.018770082 -0.05201629 -0.010304828 0.016273921 -0.009456635 0.014357092 -1.3982131e-09 -8.119237e-08
-4.1653646e-08 -2.5842049e-08 -3.9050228e-08 -1.1840328e-08 -2.617558e-08 -0.0871562 0.0025553643 -0.11833954
1.6293184e-06 0.014678493 4.60679e-06 6.6737944e-06 2.902031e-08 -7.0083516e-08 1.0920704e-08 3.95619e-09
-9.445529e-10 -1.2210852e-08 1.091475e-08 1.2990995e-09 -1.0077292e-08 6.024857e-09 8.391341e-09 2.4784764e-08
-4.3604942e-08 7.236505e-10 6.7768364e-09 1.6509158e-09 6.183514e-09 4.968231e-08 8.451136e-08 -1.8071926e-08
-1.17761045e-08 0.18178844 0.03138429 0.17516246 -0.046778228 6.8108153e-07 4.6448684e-05 0.32515407
1.6512809e-08 -1.7285906e-08 -2.248451e-08 -5.862229e-08 -1.1036175e-07 2.9761964e-08 2.0893058e-08 -0.06319743
-0.2037231 0.2655954 -0.05308951 -5.7815514e-06 -0.07356987 -2.7566896e-06 -0.00566 0.010948924
-0.010707879 0.029411707 0.3533023 0.028467044 -0.44754246 0.1480078 -0.0071132584 -0.06693765
0.03388555 0.09688474 0.00364214 -0.15554379 0.15772471 0.025230013 0.0955353 0.025681369
0.11098953 0.01962431 -0.10530457 -8.06021e-10 2.361782e-08 1.4497943e-08 -2.0334955e-08 -6.369567e-09
3.431711e-08 -1.2632935e-08 -0.06365691 -0.06912023 -0.11124915 -0.09187166 2.2593908e-06 -5.480559e-06
-1.2905119e-06 -0.16276537 0.00792318 -0.05220617 -0.019291498 -0.0015105545 -4.209795e-06 0.4035304
3.762406e-08 5.839754e-08 3.2969716e-08 -5.2730808e-08 5.2078313e-08 -2.3893499e-08 3.6056093e-08 -7.2644823e-10
-2.6334167e-08 5.630204e-08 2.0072024e-08 3.7744066e-08 -3.2862733e-08 6.021986e-08 -2.6221482e-08 -2.4206773e-08
3.9662865e-08 5.97872e-10 -2.709724e-09 -2.6185836e-08 1.1433383e-07 -2.7909794e-08 6.3619744e-08 5.059217e-09
3.120479e-08 9.540849e-09 -3.8227185e-08 -1.25920785e-08 -0.03771418 0.1433504 -0.31877294 0.060832996
0.030529534 0.011472394 0.11322632 -0.16800454 0.1092377 0.12442582 -0.095982015 -0.0074766697
-5.6816185e-07 -0.014000277 -0.05647351 -0.015560091 -0.014212297 -0.056199927 -0.20039058 -0.012328118
3.7914066e-05 0.22093588 -0.051446717 -0.14450547 2.4939764e-06 -1.1624904e-05 -0.026056692 -0.06188293
0.41981906 0.007194978 -0.008587981 0.04099152 -0.0004143976 1.3122144e-05 0.009671487 2.585562e-09
2.0700954e-08 -5.3909098e-08 2.8265928e-08 -2.027966e-08 1.8613537e-09 1.5591437e-08 1.586455e-08 -3.149779e-09
-1.5989809e-08 -1.3459548e-08 -9.15187e-09 5.9722936e-08 -4.7902827e-08 -3.2621315e-08 -2.79056e-08 -1.1264431e-08
-8.3296054e-09 -3.2838106e-08 -8.8027846e-08 2.9877913e-08 -3.2482273e-08 -9.308607e-08 2.4300002e-08 4.5997563e-08

fc1.bias f4 [64]
00000000: 921e b035 c499 863e e73d 45b7 10cb 8c33
00000010: 4813 6333 ba2f 1d3f 9b7f 6733 7fd2 84bd
00000020: 620a 193f 013b c83e b45e e8b2 7b88 4e3f
00000030: e0de fdb0 4678 0d32 90fa fb32 f863 a33e
00000040: 60da 07b2 8e5f 22b5 5867 ecbd 75c5 8e3e
00000050: a6e5 5e3e 35b7 b2b3 20cc 09bf ea88 143e
00000060: 1a8c e832 9137 ac33 ce95 0e33 2e87 5fb3
00000070: 9fe6 17b6 0ce6 27bf 6d00 bfbd f7b6 43be
00000080: f62a 9bbf 9dbf 14b3 c0e5 3531 6425 aa32
00000090: a3ac adb2 67e4 5333 ec1b 0333 94f0 9f36
000000a0: fce1 34b2 501b 08bf 6c84 fe32 6eff f6be
000000b0: ab5a c33e 4de9 38bd b5bb 2ab3 9f53 7ab2
000000c0: cef3 75bf c124 2db3 0595 a4bf 1975 61bf
000000d0: 7829 86b1 2066 c6b0 0ccc 8935 2194 2fbf
000000e0: 301b 1f32 342e 4733 edf2 b3bd 00c1 1fb3
000000f0: 06b7 a731 838a 02bc 584f ec32 9b7b 3c3b
1.3121919e-06 0.2628919 -1.1756528e-05 6.556195e-08 5.2870092e-08 0.6140095 5.3899935e-08 -0.064854614
0.5978147 0.39107516 -2.705142e-08 0.80677 -1.8471518e-09 8.234627e-09 2.9334188e-08 0.31912208
-7.907687e-09 -6.0488753e-07 -0.11543149 0.27885023 0.21767291 -8.322096e-08 -0.53827095 0.14505354
2.7072065e-08 8.0194816e-08 3.3198198e-08 -5.204418e-08 -2.2634993e-06 -0.655854 -0.09326253 -0.19112764
-1.2122486 -3.4633207e-08 2.6469564e-09 1.9807608e-08 -2.0218357e-08 4.9334997e-08 3.052621e-08 4.7665762e-06
-1.0528762e-08 -0.53166676 2.962971e-08 -0.48241752 0.38155112 -0.045144368 -3.9751928e-08 -1.45709285e-08
-0.9607514 -4.031313e-08 -1.2857977 -0.880693 -3.9046277e-09 -1.4435422e-09 1.0266681e-06 -0.685854
9.2612e-09 4.637532e-08 -0.08786569 -3.7195605e-08 4.881147e-09 -0.007967594 2.7510097e-08 0.0028760198

fc2.weight f4 [64, 64]
00000000: 3af1 0fb3 643c a3b2 1f28 a033 1cfc 90b2
00000010: ae9a cdb2 d60f 29b3 78aa 0932 95be 9db2
00000020: 58ef 2232 30b6 0933 8ce0 03b3 e841 19b3
00000030: 90bf 8532 9096 0d30 ff6c 9533 24f4 4933
00000040: fa13 5c32 b444 6ab2 5a3c 0633 8781 c532
00000050: 1cec 1732 42ff 45b3 08f9 3832 f2dd d8b3
00000060: 5180 b632 52a4 fe32 3830 9a31 b098 4e31
00000070: 9290 81b2 f533 4fb3 5f7f d4b2 2891 5d32
00000080: 4e14 2033 72cc 1033 8853 f232 0492 01b3
00000090: 4f75 8d33 00a7 2931 75d2 8ab2 1c16 8532
000000a0: 073e d833 1b49 99b2 ac82 c432 56d3 17b3
000000b0: 3469 5fb2 729b 4732 7421 9c32 5ee6 5032
000000c0: 3ec6 1cb2 4e88 4932 c392 2533 2cc2 3f33
000000d0: ae21 2032 7017 28b1 c93b 6eb3 30de 86b3
000000e0: 18a1 fbb2 4b97 bb32 db9c f032 bdab a8b2
000000f0: 7a59 a732 eec6 0a33 5076 7cb3 0017 8e2f
00000100: 3e7c 2932 fdf6 8eb3 feea 9732 fe91 3c33
00000110: 949b 7732 b0bb 92b1 36be 4e31 5c09 1933
00000120: 70e0 3cb3 1341 94b3 982a 99b2 bbb1 9b33
00000130: 230a 8a32 2eab 12b3 4c67 cab1 88d5 f1b2
00000140: 983e 0031 4e18 4533 aad3 1033 e033 e6af
00000150: 6327 b2b3 2f6a 6933 6a16 30b3 3db4 8a32
00000160: 66aa d532 a697 da32 7ad4 bb32 6e77 1e33
00000170: 66e7 5db3 d11d e6b2 2aa0 adb2 7f36 aab2
00000180: 1a82 f733 62f2 f2b2 a078 7832 102e aa30
00000190: 0496 2632 de5e 8b32 f778 8733 785d 9432
000001a0: 62d6 9d32 78ee 0032 2a8e a0b1 b0c3 9231
000001b0: 6ef9 90b2 434d 88b2 0046 b531 ddac 98b2
000001c0: 6f82 21b3 4098 23b1 7a50 aa32 761d 7cb3
000001d0: d313 2233 56f8 4bb3 121b be33 4363 9a32
000001e0: 507c 52b2 8d73 0fb3 1c0e 6d32 6cdc bab2
000001f0: 34c4 2fb3 1bf3 e532 30f6 66b2 2c24 55b2
00000200: 4982 7ab3 300b edb1 b9c8 0632 80d0 41af
00000210: 909d 4533 5ada 0b33 45fd 2a33 6b59 a4b2
00000220: 6d60 3a33 b13a cf32 d2e5 3ab3 7498 8731
00000230: 7456 4133 fd22 e5b2 7d15 55b2 285d e7b1
00000240: 19e3 99b2 2451 c8b1 8f5a 0a33 f55b 6033
00000250: 0a08 5233 dbe5 5032 6002 5ab1 5f7f 4c33
00000260: 11fa a431 479c 2233 b4b7 6832 f414 4eb3
00000270: d070 12b3 ac41 7e33 455d 32b3 7de1 93b3
00000280: 2089 9bb2 a67c 27b3 ae37 38b3 5534 1933
00000290: 2050 3e31 3552 88b2 e2f8 9cb2 3a29 a8b2
000002a0: 606a 77b2 cd9b a232 5628 f732 86ee 1fb3
000002b0: ac78 70b2 0c10 9fb1 9297 01b3 461b 44b3
000002c0: 28b1 3f32 88dc 4032 808e 97b2 7b58 cf32
000002d0: acc0 d4b2 9ca5 4db2 b263 4632 0471 53b3
000002e0: 50b2 9331 a093 9233 e650 55b3 9065 9933
000002f0: 8a13 f5b2 e634 77b2 10b3 e531 3eaf a5b2
00000300: b09b 4d32 665c 0a33 e020 fe30 cfb9 3f33
00000310: d146 1033 e426 0f32 09f4 9533 7a05 c533
00000320: 0351 3fb3 95df 15b3 09b6 bdb2 ac8f 0633
00000330: 7021 ac32 779f 1f33 6096 9a30 4564 0433
00000340: e2ca 9e32 a662 54b3 aa92 08b3 444f dc32
00000350: bdbc 8333 5d13 1fb2 ee36 cb32 0de0 0bb3
00000360: 6015 bf30 0011 1ab0 5e89 cbb2 dcc4 9fb0
00000370: 4cae 4932 7806 6a31 ec94 fab2 8e8d 81b1
00000380: 8e83 c6b2 74d4 4db2 7666 fbb1 7fb9 42b3
00000390: 5a60 a433 4690 1eb2 38ba 60b1 d22d 8632
000003a0: b4fc 63b2 5ed1 0cb2 325d 3c32 01c0 6e31
000003b0: 4ca5 5cb3 005f 0a2d 8ddb 3b32 04ed af32
000003c0: f241 30b3 f8ba beb2 789b 2533 3396 b8b2
000003d0: a0db 47b2 d8a9 aeb3 965c f432 f0f1 0fb2
000003e0: 5ac3 b1b3 775d 96b2 5011 2233 e02e 4cb2
000003f0: 7ebd b631 68d0 44b2 207e 3233 ef86 8db3
-3.3514176e-08 -1.900316e-08 7.4578786e-08 -1.6878452e-08 -2.3935481e-08 -3.936278e-08 8.01321e-09 -1.8363872e-08
9.4840615e-09 3.2063497e-08 -3.070504e-08 -3.568303e-08 1.557035e-08 5.1509463e-10 6.9581795e-08 4.7021004e-08
1.28102275e-08 -1.3636214e-08 3.1254196e-08 2.299272e-08 8.843042e-09 -4.6099792e-08 1.0766833e-08 -1.00986554e-07
2.124594e-08 2.9644216e-08 4.4874717e-09 3.0063738e-09 -1.508332e-08 -4.8243198e-08 -2.473797e-08 1.2896898e-08
3.727137e-08 3.3713555e-08 2.8210493e-08 -3.0167953e-08 6.5871625e-08 2.4687665e-09 -1.616102e-08 1.5493292e-08
1.00695665e-07 -1.7844789e-08 2.2876826e-08 -3.5349636e-08 -1.3004229e-08 1.1618669e-08 1.8176003e-08 1.2159573e-08
-9.12547e-09 1.1730732e-08 3.8550535e-08 4.464725e-08 9.320884e-09 -2.446054e-09 -5.5468067e-08 -6.280277e-08
-2.9293503e-08 2.1838465e-08 2.8011007e-08 -1.9635872e-08 1.9482048e-08 3.2311554e-08 -5.8780927e-08 2.5845992e-10
9.865344e-09 -6.657317e-08 1.7685576e-08 4.390494e-08 1.4412667e-08 -4.270497e-09 3.0085068e-09 3.56316e-08
-4.3976286e-08 -6.903624e-08 -1.7830914e-08 7.250079e-08 1.6069924e-08 -3.414896e-08 -5.8907172e-09 -2.8153195e-08
1.8662032e-09 4.5889742e-08 3.372012e-08 -4.1873616e-10 -8.295935e-08 5.4346113e-08 -4.099858e-08 1.6147277e-08
2.4873952e-08 2.5447502e-08 2.1866288e-08 3.6895862e-08 -5.1666028e-08 -2.6789083e-08 -2.0212685e-08 -1.9815387e-08
1.1525499e-07 -2.828273e-08 1.4462927e-08 1.238222e-09 9.696581e-09 1.622487e-08 6.308431e-08 1.7271972e-08
1.8374696e-08 7.504802e-09 -4.672775e-09 4.2714063e-09 -1.6877234e-08 -1.5867618e-08 5.2757514e-09 -1.7773738e-08
-3.7604362e-08 -2.3806166e-09 1.9827201e-08 -5.8700117e-08 3.7736594e-08 -4.749048e-08 8.8524885e-08 1.7973099e-08
-1.2251874e-08 -3.3399875e-08 1.3798424e-08 -2.1753486e-08 -4.092381e-08 2.676966e-08 -1.3443739e-08 -1.2406456e-08
-5.8326155e-08 -6.8988797e-09 7.845466e-09 -1.7627322e-10 4.601094e-08 3.256205e-08 3.9811557e-08 -1.9132775e-08
4.33942e-08 2.4124661e-08 -4.351552e-08 3.946349e-09 4.5014943e-08 -2.667502e-08 -1.2403118e-08 -6.7335755e-09
-1.7914816e-08 -5.8299907e-09 3.221299e-08 5.22377e-08 4.8901747e-08 1.21594566e-08 -3.1724525e-09 4.7613295e-08
4.8014575e-09 3.7860698e-08 1.3545947e-08 -4.798217e-08 -3.4095876e-08 5.919871e-08 -4.1528683e-08 -6.886237e-08
-1.8106732e-08 -3.8996085e-08 -4.289148e-08 3.5670684e-08 2.7694185e-09 -1.5869867e-08 -1.8273969e-08 -1.9576522e-08
-1.4401479e-08 1.8930132e-08 2.8772927e-08 -3.7237008e-08 -1.3997276e-08 -4.6293334e-09 -3.0173005e-08 -4.565961e-08
1.1157944e-08 1.1226014e-08 -1.7643515e-08 2.4138208e-08 -2.4767665e-08 -1.1970226e-08 1.1547785e-08 -4.9230053e-08
4.298535e-09 6.8255076e-08 -4.9666504e-08 7.143092e-08 -2.853064e-08 -1.438932e-08 6.6851342e-09 -1.9288219e-08
1.196797e-08 3.2214665e-08 1.8490276e-09 4.4639645e-08 3.359202e-08 8.332538e-09 6.982743e-08 9.1745235e-08
-4.4544333e-08 -3.4895113e-08 -2.2085276e-08 3.1329975e-08 2.0038641e-08 3.7165105e-08 1.1247714e-09 3.082484e-08
1.8485881e-08 -4.9449817e-08 -3.1798358e-08 2.5647417e-08 6.134494e-08 -9.259421e-09 2.365729e-08 -3.2567232e-08
1.3903154e-09 -5.604903e-10 -2.3694778e-08 -1.1624723e-09 1.173937e-08 3.4055159e-09 -2.9171552e-08 -3.770487e-09
-2.3110058e-08 -1.1980877e-08 -7.31671e-09 -4.5337853e-08 7.6543714e-08 -9.229614e-09 -3.2702143e-09 1.562049e-08
-1.3270597e-08 -8.196677e-09 1.096423e-08 3.47427e-09 -5.137308e-08 7.865486e-12 1.0934753e-08 2.0480464e-08
-4.103817e-08 -2.2203935e-08 3.8558454e-08 -2.1488722e-08 -1.16332615e-08 -8.133401e-08 2.8447442e-08 -8.378706e-09
-8.277739e-08 -1.7504801e-08 3.773431e-08 -1.1885021e-08 5.31844e-09 -1.1456088e-08 4.1558565e-08 -6.5903684e-08

fc2.bias f4 [64]
00000000: a8c6 98b2 2f0e fab2 bcca 84b2 18c4 73b1
00000010: ddd8 d632 390d 50b3 9824 afb1 e9cf 34b2
00000020: 9754 b13a 42e0 f63e 1f7a 5eb2 c0c7 2333
00000030: a62d 74b2 c480 4b31 888e 22b2 721c 8f32
00000040: a2e9 0833 0c3c 2c3f bb58 8fb2 4de8 5f3d
00000050: a41a 4bb3 58b7 1ab2 8c4a 1abf dba1 fbb2
00000060: 1b20 8a36 6c5a 0db2 323a 2db3 086e adb2
00000070: 7892 6e31 76bf 28b3 c34b 69bf ab22 2ab3
00000080: d50b 35bd 4f8e fe32 ac18 f232 df05 103d
00000090: d2fc 98b1 beb9 14b2 e2b7 a13e fd03 96b2
000000a0: e067 5a30 f02a 8fb3 6a75 a2b0 1aba 4732
000000b0: 5ce0 b9b2 1edf 2833 3123 2433 80c5 d836
000000c0: 5be5 09b3 547d a43e be9c f4bd 900c 25b1
000000d0: 9732 e832 40f2 083f 0faa 98b2 8ceb 4132
000000e0: 2a34 e3b3 9c9b 0232 818a 3cb3 702c 9033
000000f0: 77a4 d23e e424 7eb2 639a 77b2 90a0 0ab1
-1.7785467e-08 -2.911028e-08 -1.5459015e-08 -3.547262e-09 2.5011497e-08 -4.84408e-08 -5.0973306e-09 -1.0524652e-08
0.0013529238 0.4821797 -1.2949868e-08 3.8133066e-08 -1.42130485e-08 2.9613583e-09 -9.462049e-09 1.6660326e-08
3.1877455e-08 0.67279124 -1.6687741e-08 0.0546649 -4.728885e-08 -9.005667e-09 -0.6027 -2.929385e-08
4.116458e-06 -8.22784e-09 -4.033263e-08 -2.0189887e-08 3.4716816e-09 -3.928968e-08 -0.9113123 -3.961274e-08
-0.044200737 2.9634206e-08 2.8183727e-08 0.03516185 -4.4525246e-09 -8.656967e-09 0.31585604 -1.7464112e-08
7.9455553e-10 -6.666767e-08 -1.1820422e-09 1.1625639e-08 -2.1638861e-08 3.9318472e-08 3.8216232e-08 6.4602937e-06
-3.2106396e-08 0.32126868 -0.11943959 -2.40178e-09 2.703136e-08 0.53494644 -1.7772463e-08 1.1287636e-08
-1.058e-07 7.602377e-09 -4.389813e-08 6.713606e-08 0.41141102 -1.4793134e-08 -1.4412396e-08 -2.0172912e-09

fc3.weight f4 [2, 64]
00000000: b0e5 1cb0 c02b 38af 36d9 0db3 849c 2433
00000010: c0b5 b4b1 dc95 3a33 6d68 0034 7192 a632
00000020: d1dd 743f b64e 0035 6eb3 7eb2 6ef1 73b2
00000030: dc2b 5e33 88da 4bb1 5c87 14b2 3ae8 8133
00000040: 8025 e831 d893 8934 1fb0 51b2 a06e 8c33
00000050: 80ff f92f 3869 4533 f054 7a34 4c8f beb1
00000060: 3a17 70bf 149d 4130 8248 8d32 802a b930
00000070: 5db4 a1b2 a605 d4b1 3313 3d35 6069 a431
00000080: 6852 43b6 41c9 0b33 40ec 1831 79cc b934
00000090: 89c6 ed32 cedd f0b1 cae4 b7b2 5043 5432
000000a0: da4e d531 4a15 2133 e3c9 82b3 34d6 be32
000000b0: 4ab2 5d33 1c07 ffb2 ecc0 bdb3 16f7 9ab5
000000c0: 6e09 7fb3 066b f2b5 79c2 37b5 102e ffb0
000000d0: 3849 dc33 af48 0e35 2278 aeb3 7665 9c32
000000e0: d8e3 6db1 e4da 2f33 e9ca d633 805e 5d30
000000f0: 5af4 1b36 c0c5 fab0 8b16 35b3 d4f7 3931
00000100: e3bd 3fb3 d855 0bb2 8ea8 5ab3 9c5c ab32
00000110: 2301 5333 606e d6b2 23dc 7ab3 6860 1cb3
00000120: c6f2 aa3c 0400 2ac0 bc87 93b3 5f59 9e32
00000130: 7597 81b3 5bcc cbb2 378c 3033 7a90 3eb3
00000140: a23d 91b3 4b5d c93f 60a7 4733 c360 a33f
00000150: 9401 c0b2 21e4 8fb2 2730 1d40 60cf b232
00000160: bd42 70bd 6ea7 0433 eea0 1833 3419 5ab3
00000170: 683d 0133 76c1 8232 5eb9 fdbf e03e 3f30
00000180: 2b8a f6be b216 a9b1 a83e 8c32 a33b 3f40
00000190: 7e2f 6232 02cb 4732 f182 b4bf d8c2 a232
000001a0: 3a2f 1eb2 ffb6 c933 3cea 0fb3 ffd1 ca32
000001b0: 8064 76b0 3cc1 56b3 e339 62b1 5bc8 963f
000001c0: 083b 3d33 eb09 30c0 3f5b 47bf a17c c032
000001d0: 6aa1 1fb3 b04d 8d3f 0e5a 2333 3a6f 8c33
000001e0: bc42 2032 0de7 4733 1020 ecb1 5a03 74b3
000001f0: 0208 a3bf 88c7 a0b1 da42 4c33 bf90 8b33
-5.7078875e-10 -1.6750246e-10 -3.3026673e-08 3.8326576e-08 -5.259352e-09 4.3442796e-08 1.1958919e-07 1.9391537e-08
0.95650965 4.7798255e-07 -1.48255435e-08 -1.4199356e-08 5.1728293e-08 -2.9664609e-09 -8.645511e-09 6.0492724e-08
6.756352e-09 2.562581e-07 -1.2205446e-08 6.5393806e-08 4.547438e-10 4.5963333e-08 2.3313964e-07 -5.5460188e-09
-0.9378544 7.043621e-10 1.6447533e-08 1.3472601e-09 -1.8824887e-08 -6.170654e-09 7.0435925e-07 4.785008e-09
-2.910523e-06 3.25465e-08 2.2253204e-09 3.460771e-07 2.7680715e-08 -7.0101356e-09 -2.1408045e-08 1.2355329e-08
6.2080803e-09 3.7505096e-08 -6.09032e-08 2.221632e-08 5.1617725e-08 -2.968914e-08 -8.8360906e-08 -1.1545806e-06
-5.938039e-08 -1.8061553e-06 -6.845581e-07 -1.8566784e-09 1.0257867e-07 5.300489e-07 -8.1243584e-08 1.820693e-08
-3.4617553e-09 4.0944443e-08 1.0002061e-07 8.0533624e-10 2.3239031e-06 -1.8246098e-09 -4.216285e-08 2.7061917e-09
-4.4643354e-08 -8.1103835e-09 -5.091038e-08 1.9949134e-08 4.91283e-08 -2.4963072e-08 -5.8407874e-08 -3.640926e-08
0.020867717 -2.656251 -6.869911e-08 1.8434262e-08 -6.0345805e-08 -2.372524e-08 4.1105718e-08 -4.4369223e-08
-6.7632996e-08 1.5731596 4.6485525e-08 1.2763904 -2.235246e-08 -1.6751132e-08 2.456064 2.081623e-08
-0.058657397 3.088592e-08 3.5536623e-08 -5.0780002e-08 3.0091e-08 1.5221968e-08 -1.9822195 6.9574746e-10
-0.4815229 -4.9211275e-09 1.6326638e-08 2.988015 1.316573e-08 1.1629483e-08 -1.410246 1.8947887e-08
-9.2075485e-09 9.393079e-08 -3.3507817e-08 2.361139e-08 -8.96371e-10 -5.0001503e-08 -3.2920233e-09 1.1779894
4.405868e-08 -2.7506053 -0.77873605 2.2408416e-08 -3.7166878e-08 1.1039333 3.80333e-08 6.53949e-08
9.328399e-09 4.6543438e-08 -6.872149e-09 -5.6813725e-08 -1.2736819 -4.679297e-09 4.7558252e-08 6.499021e-08

fc3.bias f4 [2]
00000000: e6a4 91b5 8242 9c35
-1.0851334e-06 1.1642262e-06
