model_config/model_2.pth (torch, 7812 bytes, 7 tensors)

input_weights f4 [5]
00000000: 0000 803f 0000 803f 0000 803f 0000 803f
00000010: 0000 803f
1.0 1.0 1.0 1.0 1.0

fc1.weight f4 [32, 5]
00000000: b2f6 683c ea18 e4be 0ec6 ce3e e84f f2be
00000010: 5c32 d7be 81b1 dcbe 9d20 34bc 4e6b 273e
00000020: 50e0 3e3d 51f7 e83e 6d0f bb3f 0f0b 133d
00000030: c9d3 6cbe ab81 363f b517 083d 9c3f 91be
00000040: 4722 74be f188 303f 645b b03e 38d5 d9bd
00000050: 0087 86bf 191b 86be 7b95 ea3c e9cd 423e
00000060: a591 83bc a5fb 193f ee6c 00bc f213 843e
00000070: 1809 7d3f ac4b 08bd 9deb bb3b ae9f 0fbd
00000080: 3c08 bcbe d09d f43e 5976 673e b5b8 903f
00000090: 8186 2d3d 7c62 d93d 1726 cbbc 2a9c a3bd
000000a0: 2ddf dabd b84a 6abe a014 32bf 549e 45bd
000000b0: c57a 36be 0faf 133e aaee 72bc a47d 6dbc
000000c0: 5d45 30bf 2d43 14be be8c 30bf dfd6 8c3e
000000d0: 161b 03be b4c1 09bf 87e5 11bd ab39 4b3f
000000e0: 6ebf 183f 430a 843c 3264 79bf 8727 a0be
000000f0: 125b 2e3f c4bb 25bf 1209 053e 6462 85bf
00000100: 62d5 fdbb c17a fa3f 9e99 4dbd 5a87 d5bd
00000110: 87a8 20bd 9f76 a03c fa35 2a3f e940 bbbd
00000120: 77c6 9bbe d250 6c3e 6f70 3abe 7304 a5bf
00000130: 2b2f aa3d 918b cf3c 5a48 0d3d f6bd 353c
00000140: 6442 133f 3639 b73c d3eb bdbd 2799 cabe
00000150: 9865 283e 3091 48bf de5d 983d ba9f eabe
00000160: d857 48be 5046 b53d 9866 8cbd 6b82 bdbc
00000170: 8acc b3bc 9dfb aebe 6f01 c23e a9e3 d73d
00000180: 2e47 9f3e 31a8 6f3e 06ce 193e 404a 473e
00000190: 730a 85bf 0dbb 263d b29e 8dbd 79ff 013e
000001a0: 00f7 fabb 90aa d73f 4317 af3c 67c5 3c3e
000001b0: 0bca 5c3e c5d6 2fbd a50f 4abf b1af 4d3e
000001c0: fedd 36bd 8935 0c3f 7d4f 463e 83d0 9f3f
000001d0: e416 dd3d fc92 d53e ef2d 293e 0054 973e
000001e0: 7328 ad3c 8caf 033e 3ed5 48be 0fd3 4bbe
000001f0: 7ca8 95be ddeb fb3e edae 023f 5791 68bf
00000200: 106c 4e3e 0d0b d73d fc26 c43a 5976 913e
00000210: 8fbe 02bf c762 083f dd2d 57ba fabf 25bf
00000220: a8b8 9cbc 777c 39bd d282 f4bc 3b29 aeba
00000230: 403e 1cbf 94d8 3a3d 0e7a b53d 6f94 86be
00000240: 653d d7bb f22a 72be 9aa2 053d 6560 253c
00000250: e6e8 763f 5ad2 03be f2dd 25bf 3a77 3ebd
00000260: f6aa 8bbc 136f 833d c321 3abd e47d b83e
00000270: 998e 79be 5e09 883f 07cb 23bf 9b0e 0abf
0.014218973 -0.44550258 0.4038548 -0.4732659 -0.4203061 -0.43104175 -0.010994104 0.16349527
0.04660064 0.45501187 1.4614083 0.03589922 -0.23127665 0.7129161 0.033225734 -0.28368843
-0.23841201 0.68958956 0.34444726 -0.106363714 -1.0509949 -0.2619255 0.028635731 0.19023861
-0.01606066 0.60149604 -0.007838471 0.25796467 0.98842 -0.03327529 0.0057348744 -0.03506439
-0.36725032 0.4777665 0.2260374 1.1306368 0.0423646 0.106144875 -0.024798436 -0.0798877
-0.10687099 -0.22880065 -0.6956272 -0.048246697 -0.1782027 0.14422248 -0.01482741 -0.014495287
-0.6885584 -0.1447875 -0.68964756 0.27507684 -0.12803301 -0.5381119 -0.035619285 0.7938487
0.596671 0.016118174 -0.9741851 -0.31280157 0.6810771 -0.6473963 0.12991741 -1.0420651
-0.0077463845 1.9568712 -0.05019533 -0.10426207 -0.03922322 0.019587813 0.6648861 -0.0914324
-0.30424854 0.23077706 -0.18206953 -1.2891983 0.08309778 0.025335105 0.034492828 0.0110926535
0.5752318 0.022366147 -0.092734955 -0.3956997 0.16445005 -0.7834654 0.07439779 -0.45824987
-0.1956476 0.08851302 -0.06855506 -0.023133477 -0.021948118 -0.3417634 0.3789172 0.105414696
0.31108993 0.23404004 0.15019998 0.19461918 -1.0393814 0.04070573 -0.06915034 0.12695111
-0.007658839 1.6848927 0.021373397 0.18434678 0.21561448 -0.04292943 -0.7893012 0.20086552
-0.044645302 0.5476919 0.1936626 1.2485508 0.10795382 0.41713703 0.16521429 0.29556274
0.021137452 0.12859935 -0.19612595 -0.19904731 -0.29230106 0.49203387 0.51048166 -0.9084677
0.2015841 0.10500155 0.0014965232 0.28410605 -0.5107202 0.5327572 -0.0008208433 -0.6474606
-0.01913102 -0.045284715 -0.029847536 -0.0013287434 -0.61032486 0.0456167 0.08861171 -0.2628512
-0.006568598 -0.23649195 0.032625772 0.010093783 0.96449125 -0.12873212 -0.64791787 -0.046500422
-0.017049294 0.0641767 -0.045442354 0.36033547 -0.24370803 1.0627859 -0.6398167 -0.53928536

fc1.bias f4 [32]
00000000: 991d 773d 9086 04be 62d5 d0be a2e2 04be
00000010: 7fa9 d0be 64e9 ddbe d011 1b3f 9c1d 4f3f
00000020: ba04 febd 3be7 4b3e 7731 fcbd e3b7 ddbf
00000030: 6ae3 dbbf a631 e33e 7010 9e3e f872 9dbf
00000040: 41a3 013d eca4 13bf 6ab0 973e d796 353f
00000050: 550f 9c3f c0b3 e1be dea3 083f a730 bbbe
00000060: 48d5 3a3e 4672 6ebf 7ca3 513c 0b9b 613f
00000070: fee8 cf3e 6713 6a3e e9b8 7e3f 3589 a6bf
0.06033096 -0.12941957 -0.40787798 -0.12977079 -0.40754315 -0.43342125 0.60574055 0.80904555
-0.12403245 0.19912426 -0.12314122 -1.7321743 -1.7178776 0.44373816 0.30871916 -1.2300711
0.03164983 -0.57673526 0.2962678 0.7093329 1.2192179 -0.4408245 0.5337504 -0.36560556
0.18245423 -0.9314312 0.012795325 0.881272 0.40607446 0.22858964 0.995009 -1.3010622

fc2.weight f4 [32, 32]
00000000: 5a2c 8fbd 17c6 eb3d 1ed4 b9be a524 aabd
00000010: beb1 ba3e 15d0 0ebf 9e91 a53d c096 423f
00000020: 6ce8 23bf 93f7 5b3e 4daa 28bf b959 a8be
00000030: b2ff 23bf 0787 ffbf d3ac d0be 6a0e babe
00000040: c58b fe3e e95c d7be a5cb 443d 337b 4e3e
00000050: 02ac a53d 4081 47c0 5055 5c3e 8160 94bf
00000060: 9651 023f d194 623e 820b 23bd 1f98 4a3c
00000070: 2f55 4c3d 5047 0e3f a993 563e 3cef 903e
00000080: ed8d 483c b9ba 8ebe baad 9ebe c93b 8e3c
00000090: c8b7 493f e705 a63b 1253 20bd 136d ff3d
000000a0: 21c7 8a3d 91ad 1c3e b35f 9bbd dbde 82be
000000b0: ebdb 9dbe 8e4b 853d f524 23bc cecb 4240
000000c0: ff41 1a3e b6ff 82be 6810 04be 0860 bcbe
000000d0: 69ec 0ebf 1321 0ebd c401 69be ed03 0b3f
000000e0: 2489 c9b9 c909 de3b 956f ce3e 8a86 e3be
000000f0: fe74 3c3e d00e 94be 84be 863d 63d7 fdbe
00000100: 2611 4f3e 1c45 303e 0c49 3dc0 1179 9d3e
00000110: 5a0f a8bd 4e96 823e d826 32bf 00c9 c5bf
00000120: 10ae bf3d fccb acbd 45d1 e63c 2821 d83f
00000130: a96d 323f c918 843e d809 9dbd bdab 943c
00000140: 90e5 c2be 1831 11be d227 0cbf ef7b 893d
00000150: 93c1 953e 1876 da3d 87e1 4a3f cd50 b2bf
00000160: afd4 353f 53b9 c0bd 88a3 d33d 312b da3d
00000170: e0ff 00bf 68c9 033f 7559 013e 711a b23e
00000180: e8a3 1dbe 5049 40be 2a95 043e 59d1 993e
00000190: 4b91 a7bd 563a 0abf 61e4 c13e 9b8c c5bd
000001a0: c539 11be 7ac1 2cbf bdcf a8be 4757 2d3e
000001b0: 8e9c d23e 3a9c c9bc 5091 673d ad9c 55c0
000001c0: 015a 863e a976 ad3d 90e9 bfbe 1e32 d63e
000001d0: b805 8bbe 33f6 b8be 802f 953e 124b b9be
000001e0: f25d ba3d d821 ce3b 6bda 00bf 7140 19bf
000001f0: f420 d83e 91e5 023f d36c 033f c654 4a3e
00000200: 8cf3 593e ccd8 fe3e f504 593e 890a a23e
00000210: dbd9 273f 7025 153f e416 93be 6e33 5d3e
00000220: 0d13 2ebf f3a1 d7bc 760c 263f 282e 2abe
00000230: 3752 13bf a834 7d3e a419 5f3e 1935 243f
00000240: eefa 9d3e 5c3d a3bf 626e 60bf ef18 f8bd
00000250: 8849 d43d c33e 0d3f 6938 73bf 6ed9 103f
00000260: 6385 883d 2322 a73d f8f3 263e 80e8 903f
00000270: 64bf 113f 5802 e5be 6b3d 9ebf c586 b3be
00000280: 1d2e 90be 0167 283e 5284 463e 114d 28bd
00000290: 1fe2 b3be 41b7 c53a 996f 8abe c083 103e
000002a0: c029 8fbe a32f 1e3f 588f afbf 78ce eabe
000002b0: 996d 16c0 c4b3 2a3e 5f14 313e 9da2 b0be
000002c0: e1c0 fbbd 5d59 163c dbc3 893d 7d54 77be
000002d0: c4a7 a23f 835c 183e d349 e53e b6a3 6dbe
000002e0: d4b8 73be 17b6 d83c 5089 04be 1334 fe3e
000002f0: 3da2 23bf 85c0 9a3d 23d8 b7bf cfe7 44be
00000300: bfe5 7abc 5c30 e4be 7a12 debd 34e7 92bd
00000310: f384 ab3e 1e35 263f 74f4 ffbe 64bc 823c
00000320: 371a 693d 25d4 d7be 3941 043d 7320 663f
00000330: 23ec 03be 30eb 5fc0 c01b 41be 4cd8 c43d
00000340: 106d 15bf 1dbd 48be 3b7c 35be 2884 48be
00000350: dd18 4c3e 060b 22c0 acf7 153e 88e9 823e
00000360: 503b a5be d72f c5bb 4aaa f23d 3748 5e3e
00000370: 409a b63e cb3f ec3e 1ae2 bd3e 75ca 6a3e
00000380: 19f2 0dbe 4c31 5b3e 22af d03c 7c67 c7bd
00000390: 2f76 8c3e 4fac 82be b68f aebe 254c 60bf
000003a0: 1f90 b83e 55a8 f1be 1ab9 583d e2ff 8cbe
000003b0: 9678 37be 5e54 813f df00 34bf d208 35c0
000003c0: 0754 593d b98c 533e d99e e13d 11b0 c13c
000003d0: 139d 183e 5ddd a93d 3871 dc3e a4f3 17be
000003e0: 1427 ba3d 5420 33be 9187 2cbe 86c6 293e
000003f0: 475c 833e 1590 4abe d0be feba 5aab 4abb
-0.06990881 0.11512392 -0.36294645 -0.08307771 0.36463732 -0.5578626 0.08084415 0.76011276
-0.6402652 0.21481161 -0.6588486 -0.32880953 -0.64062035 -1.9963082 -0.40756854 -0.36339122
0.4971601 -0.42063072 0.048045773 0.20164184 0.080894485 -3.1172638 0.21516919 -1.1591951
0.5090574 0.22127081 -0.039805897 0.01236537 0.049885925 0.55577564 0.20954765 0.2830752
0.012240869 -0.27876833 -0.30991918 0.017362492 0.7879605 0.0050666216 -0.039141722 0.12471976
0.06776262 0.15300585 -0.075866126 -0.2556065 -0.30831847 0.065085515 -0.009957542 3.0436893
0.15064238 -0.25585717 -0.12896883 -0.36792016 -0.55829483 -0.03469951 -0.2275458 0.54302865
-0.00038439885 0.006776069 0.40319505 -0.44438583 0.18404004 -0.2891755 0.06579307 -0.4957839
0.20221385 0.17213863 -2.9575834 0.3075643 -0.08206053 0.25505298 -0.6959052 -1.5451965
0.09359372 -0.084373444 0.02817596 1.6885118 0.6969858 0.2580016 -0.07667893 0.018148297
-0.38065767 -0.14178884 -0.5474826 0.067130916 0.29249248 0.10667056 0.7925038 -1.3930908
0.71027654 -0.09410348 0.103339255 0.10652769 -0.50390434 0.51479197 0.12631781 0.34785798
-0.15394557 -0.18777966 0.12947527 0.30042532 -0.08182009 -0.53995264 0.37869552 -0.09645959
-0.14182194 -0.6748272 -0.32970992 0.16927825 0.41135067 -0.024610627 0.056535065 -3.3376877
0.26240543 0.08469898 -0.37482882 0.4183511 -0.271528 -0.36125335 0.29137802 -0.36190087
0.0909995 0.0062906556 -0.5033328 -0.59863955 0.4221264 0.5113154 0.5133793 0.19758901
0.21284312 0.49774778 0.21193297 0.31648663 0.65566796 0.5826025 -0.28728402 0.2160165
-0.6799782 -0.02632234 0.64862764 -0.1661917 -0.57547325 0.24727118 0.21787125 0.6414352
0.30855507 -1.27531 -0.8766843 -0.12114131 0.103655875 0.5517389 -0.9500795 0.5658177
0.066660665 0.08160808 0.16304004 1.1320953 0.56932664 -0.4472835 -1.2362493 -0.35063758
-0.28160182 0.16445543 0.19386414 -0.04108912 -0.35133454 0.0015084521 -0.27038267 0.14112759
-0.2796154 0.6179144 -1.371562 -0.45860648 -2.3504393 0.16670138 0.17292927 -0.34499064
-0.12292648 0.009176579 0.067268096 -0.24153323 1.2707448 0.1487904 0.44782886 -0.23206982
-0.23800975 0.026454015 -0.12943006 0.49649104 -0.6391943 0.075562514 -1.4362835 -0.19229053
-0.015313565 -0.44568145 -0.10843368 -0.07173005 0.3349987 0.649248 -0.4999119 0.015958972
0.056909766 -0.4215404 0.032288764 0.89893264 -0.12883048 -3.4987297 -0.18858242 0.09611568
-0.5836954 -0.19603391 -0.17723171 -0.19581664 0.1993136 -2.5319228 0.1464526 0.25568795
-0.32271814 -0.006017666 0.11848886 0.21707235 0.35664558 0.4614242 0.37086564 0.22928794
-0.13861884 0.21405524 0.025474135 -0.09736535 0.27433917 -0.25522086 -0.34094018 -0.8761619
0.36047456 -0.4719874 0.0529109 -0.27538973 -0.17917094 1.0103872 -0.7031383 -2.8286633
0.05305865 0.2065915 0.11016626 0.023643525 0.14903669 0.08294175 0.4305513 -0.14839035
0.09089485 -0.17492801 -0.1684859 0.16579637 0.2565634 -0.19781525 -0.0019435529 -0.0030924887

fc2.bias f4 [32]
00000000: d778 e53d 84fd a33e b5eb 9abe 826b 5c3f
00000010: 712f 3bbf fd1a 2ebf e95d 90bc 2d7e d03d
00000020: 4265 0a3e 31cb 6cbd 2efd 263e 833f 313e
00000030: 535c 6cbe 42c3 0cbf cbfe b43e dcd3 2e3f
00000040: 9c1d adbe c270 903e b845 aebd 891d 7b3e
00000050: d956 073d 595f 4f3d 3519 a8be b154 a63c
00000060: 2858 11be 1364 97be 8eaf 923f 4bd0 303e
00000070: 49ed b03e eeec 8cbe 46d0 213f 7c5b 093f
0.11204689 0.32029355 -0.30257955 0.86101544 -0.73119265 -0.6800993 -0.017622905 0.10180316
0.1351519 -0.057810966 0.16307518 0.17309384 -0.23082094 -0.5498544 0.35350642 0.6829202
-0.33811653 0.28211027 -0.085093915 0.24522986 0.03304181 0.05062804 -0.3283173 0.020304056
-0.14193785 -0.29568538 1.1459825 0.17266957 0.34556034 -0.27524513 0.63208425 0.5365522

fc3.weight f4 [2, 32]
00000000: 41e9 ebbd 8fb5 a83d be11 073f 25f6 f9bd
00000010: 6344 483c b06a e4be 3692 d3be c2bb 9a3e
00000020: b5dc 10bf 051b 03be 65ec eb3e da75 6fbe
00000030: 0615 d7bd 4193 0abf 2ad9 48bd c749 063f
00000040: fb3a 08bf 51a2 553f 5fed 40bf ec18 133f
00000050: 65e8 583e 65e9 e63e 7a0b cebd 7d2c 4ebf
00000060: 5435 17c0 6573 c1be 09d1 c2be e8c8 163d
00000070: 852f 0b3e c031 883f cd28 e2be 775a 9b3e
00000080: 9c59 5abf e54e 913f 43aa 553f 08c0 5b3f
00000090: 36d1 68bf 1ac3 8dbf 772c 57bf 9c10 823f
000000a0: 880b a73d 9037 d9be 92da 7abe 565a 66bc
000000b0: f5aa 0e3f 0671 54be 2260 513f 9244 863e
000000c0: 977a 23be 05af a9be 8359 8c3e b014 d4bc
000000d0: d596 eebe a0e4 873d 47de 0ebf 3912 30bf
000000e0: e6bf 57bf d4f9 033e 9087 913f 07de 973f
000000f0: f1a3 66bf 4837 9cbe 633b fa3e 3068 6abf
-0.11519099 0.082377546 0.5276145 -0.122051515 0.012223336 -0.44612646 -0.41322488 0.30221373
-0.5658677 -0.12803276 0.46078792 -0.233848 -0.10502057 -0.5413094 -0.04903523 0.52456325
-0.53215 0.834508 -0.753622 0.574599 0.21182401 0.4509994 -0.10060783 -0.80536634
-2.36263 -0.37783352 -0.38050106 0.036812693 0.13592346 1.0640182 -0.44171754 0.30342457
-0.85292983 1.1352202 0.83462924 0.8583989 -0.9094423 -1.1075165 -0.8405222 1.0161319
0.08156496 -0.42425203 -0.2449744 -0.014059624 0.5572961 -0.2074624 0.8178731 0.2622419
-0.15964733 -0.33141342 0.27412042 -0.02588877 -0.4659945 0.06635404 -0.5580792 -0.68777806
-0.8427719 0.1288827 1.1369495 1.1864632 -0.90093905 -0.30510926 0.48873433 -0.9156523

fc3.bias f4 [2]
00000000: edc6 aebe 9501 923e
-0.34136143 0.28516832
