model_config/model_noisy_11_64.pth (torch, 21682 bytes, 7 tensors)

input_weights f4 [5]
00000000: 0000 803f 0000 803f 0000 803f 0000 803f
00000010: 0000 803f
1.0 1.0 1.0 1.0 1.0

fc1.weight f4 [64, 5]
00000000: 0176 ea3e 7bc5 d8bd 05ec 6c3e 97fd 6a3a
00000010: d285 8abd e676 fcbe 44f6 723f 5909 d8bd
00000020: b14e 203e 7126 3bbd 2193 8fbf d6e9 a33e
00000030: 6045 b8be ab0f 493f ad90 d7bd e93d 4ebe
00000040: a736 b03d 04ac 1b3f 599a cebe 54ca f2be
00000050: 8739 a43f a098 043c 9ac0 0dbe fe3f 9f3e
00000060: 3140 b9be c828 b5bc df86 92be 5da9 0c3f
00000070: af24 22be fc8a 07bc 8cb6 8cbc a19f 38bf
00000080: f9a5 0c3f b5a9 c13e f502 ad3d 18e7 2ebe
00000090: 2b26 3d3e 7e2e 083e a481 14bf 6c03 b4be
000000a0: a4d4 d83e 9bed 623d d433 ce3e 0edf 2bbf
000000b0: 7de9 a5be 1ceb 4dbe 0baf 503f bcd7 793e
000000c0: 6451 d23e d8a1 e5bc 08d9 023f 70f3 d23d
000000d0: 4b59 a93e b2c6 083e 2318 88bd dd05 883e
000000e0: eafd 0abf 0912 503f ebf3 d0be 3060 5bbd
000000f0: 86c1 50bf 0e67 e8be b126 52be 9148 adbb
00000100: 7e7c 593e d683 863f 165d 723d 6f7d fe3d
00000110: 38e6 bfbc 226f 62bc 28a6 41be e304 afbe
00000120: 1f2b 0fbf 5877 563f 0bd2 d93d f471 6a3f
00000130: 5705 913e 2ffc 60be 737f 973d 3a79 1bbb
00000140: 66d1 fe3e 0716 0cbf e767 fc3d dcc4 233f
00000150: 4c49 b5be 6a6e 883e a741 e7bb 6f34 6cbc
00000160: 925e 86be 789e 9cbb d683 27bf bbcf 03be
00000170: 762d 0d3f 248f 9c3e 1cdb 00be 991d 463f
00000180: 549f 923e 8a68 07bf adf7 4a3e 6052 383e
00000190: 52f1 6d3f 213d 23be e186 47be 16a9 5dbd
000001a0: c9f3 94bc ae94 8a3e 3697 043f d544 36bf
000001b0: 9fc5 313f 87fb 5cbe f5f3 a43f 3ab1 633e
000001c0: 06c2 c93d df66 083e f818 ebbc 7a7a 1ebf
000001d0: 8c4f 09bd 1ca4 603e 1636 b7be 1ca3 c0be
000001e0: 1a8b 61bf 5f64 ef3c df66 72b9 d269 053e
000001f0: f6c2 203d 7840 053e 57fd 3d3f 4e88 673e
00000200: 5786 843e 5ac0 74bd 145f 593e 8512 503d
00000210: 9620 113d fe9e 12bd 89bf 9bbe 34c2 1d3f
00000220: 9b89 583e 6ddf 83be 1207 b93e a8f6 22be
00000230: cc58 453e bee6 c5be 38fb 1ebc b311 2a3f
00000240: 81c4 0e3f da14 c8bd d851 8dbe 80f3 4dbf
00000250: a06c a83e 70e0 c03d 3090 bbbf 095c a23d
00000260: ef58 15bd a7cf c63d fa45 f3bc 8b38 913d
00000270: 93e2 2abe cafb f0bd 1eca 573c 233b c13c
00000280: 1676 763f a033 a23e 50c9 b13e 8e41 78be
00000290: f472 903e 4317 613f 5ddd a23d c23e f3be
000002a0: d012 95bd 8172 c3bd 04e5 42bd 8d01 98be
000002b0: a37e 923e 3e47 f1be b824 edbe 7c61 12bf
000002c0: d33f 45be 5011 7c3e 8fa3 0dbf 8fa1 a0bd
000002d0: 42f5 47bd bf79 6cbf 4aa0 6cbe d013 e4bc
000002e0: 911b f53e 3278 e33e 37c2 c0bd f6ec 77bd
000002f0: f0e6 613c 183c 50be 5fa6 05be d56a e03e
00000300: feae 333e e37e b03e 9e9e b13d 4966 81bf
00000310: 7bfc 993d 3bd9 6f3c f461 273c 3e52 33bd
00000320: f30e 5c3e e8dc d73c 329d afbe a815 b83d
00000330: a95e c9be 92de 70bc bd13 e03e db9a a03d
00000340: 1dd6 f43e 2649 b53c 26fc 163d e25d 873e
00000350: 6735 c5bb 11aa 86bd 2423 f4be afe4 3d3c
00000360: b4df 8f3b 7c7c 4dbe e4cd fc3d a391 9c3e
00000370: c681 5dbf 7589 26bf 5706 7fbe 9389 0a3e
00000380: b3ab f4be 06d7 ee3e 7257 803d 3aab f3be
00000390: 24f1 d43e 5864 3a3e c3fd 4ebf 3f97 c8be
000003a0: aaa6 c5be 1cc9 963d 7b07 ea3e d6b8 c8be
000003b0: a34c 94bd dd08 42bf 82d5 dcbe 7bb6 473d
000003c0: bb65 913f af90 edbe e012 693f d57a d73d
000003d0: 3da4 383e fd89 883b f559 b23e ca1f d3be
000003e0: cbb3 cf3d a723 a63e ffb4 e1be 6305 ef3e
000003f0: 0ea0 0a3f 86bf 0b3f 4955 29be 181f 70bf
0.45793155 -0.105845414 0.2313691 0.00089641794 -0.067638054 -0.49309462 0.9490702 -0.10548658
0.15655018 -0.045690957 -1.1216775 0.3201434 -0.3599043 0.7853953 -0.105256416 -0.20140804
0.08604174 0.6080935 -0.40352133 -0.4741999 1.2830056 0.008093029 -0.13843003 0.3110351
-0.36181787 -0.022114173 -0.28618523 0.5494593 -0.15834306 -0.008272883 -0.017176889 -0.72118574
0.54940754 0.3782479 0.0844783 -0.17080343 0.18471591 0.13298985 -0.58010316 -0.3515886
0.42349732 0.05540238 0.40273917 -0.6713723 -0.324047 -0.20109218 0.81517094 0.24398702
0.4107772 -0.028031275 0.51112413 0.10300338 0.33075938 0.13357046 -0.06645229 0.26566973
-0.5429369 0.8127752 -0.40811095 -0.05355853 -0.81545293 -0.45391124 -0.20522572 -0.0052881916
0.21238896 1.0508983 0.059170805 0.12426268 -0.023425207 -0.013820441 -0.1891104 -0.34183416
-0.5592517 0.83775854 0.10635766 0.9158013 0.28324386 -0.219712 0.07397356 -0.002372338
0.49769133 -0.5472111 0.12324505 0.6397226 -0.35407484 0.2664674 -0.007057387 -0.014416798
-0.26244026 -0.004779633 -0.6543554 -0.12872212 0.5514749 0.30577958 -0.12583584 0.7738891
0.28637183 -0.5289389 0.19821043 0.18000174 0.9294635 -0.15941288 -0.19485046 -0.05411633
-0.018182652 0.2706656 0.5179323 -0.7119878 0.6944217 -0.21580325 1.288695 0.22235575
0.0985146 0.13320492 -0.02869843 -0.61905634 -0.033523127 0.21937603 -0.35783452 -0.37624443
-0.8810288 0.029222665 -0.00023117241 0.13028648 0.03924843 0.13012874 0.7421469 0.2261059
0.25883743 -0.059753753 0.21227676 0.05079891 0.035431467 -0.035796158 -0.30419567 0.61624455
0.21146242 -0.25756398 0.36138207 -0.15914404 0.19272155 -0.38652605 -0.00970345 0.66433257
0.5576859 -0.09769602 -0.27601504 -0.80449677 0.32895374 0.09417808 -1.4653378 0.079277106
-0.036461767 0.09707575 -0.029696453 0.07090863 -0.16687994 -0.11766775 0.013170747 0.023587769
0.96273935 0.31680012 0.34723902 -0.24243757 0.28212702 0.8792612 0.07952378 -0.47508818
-0.07278979 -0.09543324 -0.047581688 -0.29688683 0.2861224 -0.47124666 -0.46317077 -0.5718
-0.19262628 0.24615979 -0.55327696 -0.07843315 -0.04881788 -0.9237327 -0.2310802 -0.027841479
0.47872594 0.4442764 -0.094120435 -0.060528718 0.01378797 -0.20335424 -0.13051747 0.43831506
0.17547223 0.34471807 0.08672832 -1.010934 0.0751886 0.014639194 0.010216225 -0.043779604
0.21490078 0.026350453 -0.34299618 0.089885056 -0.39330032 -0.014701502 0.4376506 0.07842036
0.47819605 0.022129606 0.03686156 0.26438814 -0.006018329 -0.06575406 -0.4768306 0.011590167
0.004390681 -0.20067018 0.12343958 0.30579862 -0.86526144 -0.6505349 -0.24904762 0.13529043
-0.47787246 0.46648425 0.06266679 -0.47591573 0.41590226 0.1820234 -0.8085596 -0.39177892
-0.38603717 0.07362577 0.45708832 -0.3920352 -0.0724118 -0.75794774 -0.43131644 0.04875801
1.1359171 -0.46399447 0.91044426 0.10521475 0.18031402 0.00416684 0.34834257 -0.4123519
0.10141715 0.32449076 -0.44083402 0.46683797 0.54150474 0.54589117 -0.1653644 -0.93797445

fc1.bias f4 [64]
00000000: 8f16 a93e 2cca fabe 39c0 9bbe de90 ebbe
00000010: 2bb6 aebf cb93 423e 077d 67be 1ea8 32bf
00000020: 4e66 5ebe 87fe a3bf fef7 b53e 6296 dcbe
00000030: 4e44 6fbd 32b6 433f 9a02 bbbe 120d 64bf
00000040: 39fe fbbe df15 a43e 5dcc 8bbd 3c4d 4abe
00000050: 4f2e 04bf 9469 ecbe e7d4 3bbf a7d8 0cbe
00000060: b632 833f 397d 60be 60bf 903d 98af 843e
00000070: 0a83 413f 65c8 aebe 001e 5d3d 86c7 873e
00000080: b13b c8be 1e82 dabe 0c60 adbe 12a7 a6be
00000090: 356f 1ebf 8150 833c a528 c63e fdc2 96bf
000000a0: 181e 743e ed3b 0b3e 8ca6 063f b208 363e
000000b0: 6af5 44bf 8dc0 ac3d 780e d63d 95d2 73bf
000000c0: 5f5c e4be d919 833d 873c 97be f683 7dbf
000000d0: 6dc3 5a3d e0c2 243d 2b9c ee3e 7fd6 a0bf
000000e0: 5c13 7bbf 36e2 4cbf f5b2 55be 98c9 11bf
000000f0: b220 a1bf 22ce d3be 1f8e c9bd fc3b 6d3e
0.33025023 -0.4898237 -0.30420092 -0.46008962 -1.3649343 0.19001691 -0.22606288 -0.69787776
-0.21718714 -1.281205 0.35540766 -0.43083483 -0.05841475 0.76449883 -0.36525422 -0.89082444
-0.49217394 0.32047936 -0.068260886 -0.19756025 -0.5163316 -0.461743 -0.7337174 -0.13754521
1.0249851 -0.21922769 0.07067752 0.25915217 0.75590575 -0.34137264 0.05398369 0.26519412
-0.3910804 -0.42677397 -0.3386234 -0.3254934 -0.6188844 0.016029598 0.38702884 -1.1778256
0.23839605 0.13597079 0.5259788 0.17776754 -0.7693697 0.08435164 0.104519784 -0.952432
-0.44601724 0.064014144 -0.29538366 -0.9902948 0.05340903 0.04022491 0.46603522 -1.2565459
-0.98076415 -0.8003267 -0.20869048 -0.5694823 -1.2588103 -0.41368204 -0.098415606 0.23167413

fc2.weight f4 [64, 64]
00000000: e9ff 9a3d d0c9 fd3e 26fd 383f 5d0e babd
00000010: 5554 233f 7db6 5dbe 56b4 223e 682e cfbf
00000020: 401a 8dbd dd4f c03e 26ff 39be 4cb8 ed3e
00000030: 4594 4b3e 23f8 1dbe 2eb5 913e b71d 483f
00000040: f7fa e63b 0d8b b43d ee14 083f e14b 403e
00000050: 83d6 053f 3c06 0bbe 8603 c93d 32ce eebd
00000060: d576 883d 28c6 1bbe 8aa9 8cbd 08c1 03be
00000070: f32f a5bd d010 09be 2329 13be faf3 cebd
00000080: 8e20 7a3e c4ca f23e a551 033d ec06 df3e
00000090: 1ea8 a03e bfd8 a8bd 1cc1 a4be aa08 c5be
000000a0: 651e 39bd 9f3c 9c3c 3764 7dbe a1b2 473d
000000b0: 7227 c33e 676f b1bd c181 713d 3c6f 803e
000000c0: 2095 55bd 762a 613e 324f 153f 8da4 0b3e
000000d0: 9ab7 03be 4400 4bbe d39b b6be e5a2 88be
000000e0: 199f 163f 43cd 5f3d eab1 7bbe 76cd 193e
000000f0: cd37 6dbe 0832 58be 6869 53be 7acd 23bf
00000100: 536e 8b3e 965a 10bf 5a9f 07bf 4fdb 15be
00000110: 4ddb a0be 50ce 863e 9ae3 31bf 38fe ab3d
00000120: d88d 003f 306d 81be e42a 09bd e57b 50be
00000130: a569 883e 6012 823e 6893 a93e 7f91 05bf
00000140: 5493 81bf d71a 1e3e a372 803e d369 773c
00000150: 44f7 83be f600 02be b76a 07bd 5608 e3bc
00000160: 8937 a93e 003b 16bc f548 5a3e fb45 54be
00000170: ad2b a93d 07fb 2dbe e095 c73e 40e5 2c3d
00000180: 04be 793e cef8 58bb ac23 743e 64eb afbd
00000190: 12ef d3be c47c 28be c48a b23e f1a9 ce3c
000001a0: fc09 c83d 01da b43e d3b4 343e 8c16 50bd
000001b0: 2456 e3be 81e4 67be 6b38 84bd 45a2 ef3c
000001c0: 9b19 f1be 70ee 85be 0744 90be 6214 68be
000001d0: 3c59 00be 0dcd 683e 7c47 2f3d 5715 21be
000001e0: c14e 213e f2b1 07be e825 d53d 5f5f 8a3c
000001f0: 491f 9e3e 56d3 71be d3d3 1fbe 6d63 813e
00000200: 7375 2fbd b061 91be 4744 93bf 5f01 9ebd
00000210: 412b 64be 1475 b3bd 44d5 153e 2b99 3cbb
00000220: 6f49 d8be 33e5 44bf 27d9 0b3f 65ea b4be
00000230: 6dbd 11be 0408 58bd 86bd 7e3e 6b2a 263c
00000240: 59f4 8d3e 1938 d13a 14ed e7bd a019 b4bd
00000250: 3da5 30be 7103 a13e 912e 62be 6de3 87be
00000260: 7d84 9a3e 7bec d23e 0ccb 3c3e 4261 653e
00000270: e67d db3e f456 c6be e38b ffbc 3a2f 61be
00000280: 26ca 073e 66dc d7be ec4f 5cbd d199 b13c
00000290: e435 34be 868a b03d 74b3 8f3e 8518 24bf
000002a0: 14a4 2a3e 1e6d 33bd 498e 813e 0be8 4e3d
000002b0: a074 2dbe 8858 7a3e 1b4b 7ebe 597e cf3e
000002c0: 2031 b4bd f5af 9a3e fb3a 94be 9307 47bf
000002d0: 916b 3a3f 0db1 87be 479b ecbd 09cd 7dbd
000002e0: a7e4 e3bd c468 c0be 164e 2fbe 9a51 883e
000002f0: 5f24 fabe bccf 0bbf 6f44 7b3e 3ebd e6bc
00000300: 8e1a 84be 387d 243d bad6 aa3e 8171 8e3e
00000310: 34df dcbf ef5e b53e 11b4 003e 854a 0f3d
00000320: c23a d23d 693c de3e aea8 9b3e feab 17bf
00000330: f92f acbd 9417 bb3e fa40 dbbc a54c 41bf
00000340: 8cd9 0cbf 93bc 343b 6bd3 983e d0ef e8be
00000350: d0da 083e 732b b53e ca1d 82be a99f f33c
00000360: 850b dcbd 2dbb 5abd 9216 173e ee2e 3fbf
00000370: d4db 07bc bf4c 4d3f 5561 09be 9426 13bf
00000380: b21b fcbd 298b 8b3e 5bdd da3d b250 0a3e
00000390: cf74 6dbf 97d6 a43d a5e4 20be fa7b 243f
000003a0: 7805 cbbc 8eec 973d ab20 d93d 5867 99bf
000003b0: fd6a 1a3f 2ae0 5bbd cf43 4dbf 70a1 0f3f
000003c0: 0ef5 5b3e 8c49 abbf 7abb 13bf 08b9 adbd
000003d0: 2da8 3b3e 2a10 e7be f2c1 84bf 3eeb 5bbd
000003e0: 24e6 43be b792 1c3e aa9a 7c3d 18b3 0cbe
000003f0: 328a d23e 5cec c23d 539b 8ebd cec1 a1bd
0.07568342 0.49568033 0.72261274 -0.09084771 0.63800555 -0.21651645 0.15889105 -1.6186037
-0.068897724 0.3756093 -0.18163738 0.4642967 0.19880779 -0.15426688 0.28458542 0.7817034
0.0070489603 0.08815584 0.53156936 0.18778946 0.52280444 -0.13576597 0.09815125 -0.116604224
0.066632904 -0.1521231 -0.068682745 -0.12866604 -0.08065786 -0.1338532 -0.14371161 -0.101051286
0.24426481 0.47420323 0.032060284 0.43559968 0.31378263 -0.08244466 -0.3217858 -0.38483173
-0.045195002 0.019071875 -0.2474526 0.04875434 0.38116032 -0.086638264 0.058961634 0.25084865
-0.05214417 0.21988854 0.5832397 0.1363699 -0.12863007 -0.1982432 -0.3566576 -0.2668678
0.58836514 0.054639112 -0.24579588 0.15019783 -0.23165818 -0.21112835 -0.20645678 -0.6398541
0.27232608 -0.56388223 -0.52977526 -0.14634441 -0.31417313 0.2632928 -0.6948792 0.08398098
0.50216436 -0.25278616 -0.03348817 -0.20359762 0.266431 0.25404644 0.33120275 -0.52175134
-1.0123086 0.15439926 0.2508746 0.015100914 -0.25774586 -0.12695679 -0.033060756 -0.027713936
0.33050182 -0.00916934 0.21316893 -0.2072982 0.082602836 -0.1699029 0.38981533 0.042210817
0.24388891 -0.0033107284 0.23841733 -0.08589819 -0.41393334 -0.16453844 0.34871495 0.025227519
0.09767529 0.35322574 0.17647104 -0.050802752 -0.44401658 -0.22645761 -0.064560734 0.02925218
-0.47089848 -0.26158476 -0.281769 -0.22664025 -0.1253404 0.2273447 0.042792782 -0.15730797
0.15752698 -0.13251474 0.10407621 0.01689118 0.30883244 -0.23615775 -0.15608148 0.25271168
-0.042836618 -0.28394842 -1.1505212 -0.07715105 -0.22282125 -0.08762565 0.14632136 -0.0028777819
-0.42243525 -0.7691223 0.54628223 -0.3533508 -0.14232416 -0.05274202 0.24876985 0.010141949
0.27725485 0.0015962153 -0.11324516 -0.0879395 -0.17250533 0.31447938 -0.22088076 -0.265407
0.30179206 0.41196045 0.18436831 0.22400382 0.4286949 -0.38738215 -0.031194633 -0.21990672
0.13260707 -0.42160338 -0.053787157 0.02167979 -0.17598683 0.08620171 0.280666 -0.64099914
0.16664153 -0.043805234 0.25303867 0.050514262 -0.1693902 0.24447834 -0.24833338 0.40526083
-0.08798432 0.3021237 -0.2895125 -0.7774593 0.72820383 -0.26502267 -0.11553054 -0.061963115
-0.11127596 -0.3757993 -0.17119631 0.26624757 -0.48855874 -0.5461385 0.24537824 -0.02816641
-0.2580151 0.04015848 0.33366948 0.27820972 -1.7255616 0.3542399 0.1256869 0.034983177
0.102651134 0.43405464 0.3040213 -0.59246814 -0.084075876 0.36541426 -0.026764382 -0.75507575
-0.5501945 0.002757822 0.298488 -0.45495462 0.1336472 0.35384712 -0.25413352 0.029739218
-0.10744385 -0.05340116 0.14754704 -0.74680984 -0.008292157 0.8019523 -0.13416035 -0.5748074
-0.1230997 0.27254608 0.106867515 0.13507345 -0.9275636 0.08048742 -0.15712221 0.64251673
-0.024782881 0.07418166 0.10601934 -1.1984663 0.603195 -0.053680576 -0.8018159 0.5610571
0.214802 -1.338182 -0.5770794 -0.084825575 0.18325873 -0.4512952 -1.0371687 -0.05369114
-0.1913076 0.15290342 0.061670937 -0.13740194 0.4112106 0.09517738 -0.069632195 -0.078982934

fc2.bias f4 [64]
00000000: fdff 15bf 7425 523e a54e 5d3e 4e58 cbbb
00000010: 5f70 ba3e 2f33 513c cd0d 13be 71ed 003f
00000020: e0b3 903e f401 4f3e 1132 da3d c3d0 703e
00000030: bca1 343e 10b2 33bd 4af7 dc3e 47f2 0a3d
00000040: a243 a2be 6c78 9d3d 0126 bd3d 8df4 fb3d
00000050: 59cf d8be 6aeb 71bc 307b 183e 4987 e43e
00000060: f837 ff3c 839a 4c3e 6c0f babe af01 cfbd
00000070: e69b 013f 3c26 6f3d 9eec b5bc 8e4f 303d
00000080: 147e 593b 309f 0f3e 81cf ce3c 63f4 06bf
00000090: 5966 37bd 54a0 9aba 74fa 09bd 74e7 02be
000000a0: ddba 9b3d 09a0 ea3d d7aa 87bc 04a4 f73e
000000b0: ea50 abbe 8fac cb3e 5748 d33d 6931 aebd
000000c0: 6754 183d 6c8d 613e 71f6 6fbd f7c2 0bbb
000000d0: a5d8 ae3d ec4e e63d 4aac 0abf 3aec c93d
000000e0: 3f75 af3d dae7 f43d 3095 81be 1e84 263e
000000f0: 2686 cc3d f245 a03e a7cf 443e a9ab ff3d
-0.5859373 0.205221 0.21612032 -0.006205595 0.36413857 0.012768551 -0.14360733 0.50362307
0.28262234 0.20215589 0.10654081 0.23517136 0.17639822 -0.043870986 0.43157417 0.03392246
-0.31692225 0.07688984 0.09235764 0.12302504 -0.42345694 -0.0147656 0.14890742 0.44634464
0.031154618 0.19980817 -0.3633989 -0.10107743 0.5062851 0.058386073 -0.022207554 0.04304462
0.003318672 0.14025569 0.02524543 -0.52716655 -0.04477534 -0.0011797049 -0.033686116 -0.12783605
0.07604001 0.114563055 -0.016560955 0.48367321 -0.3346017 0.3978009 0.10316532 -0.08505518
0.037189867 0.22026604 -0.058584634 -0.0021325925 0.085374154 0.11245522 -0.5416914 0.0985951
0.08567285 0.11958285 -0.25309134 0.16261336 0.09986524 0.31303364 0.19219838 0.124839135

fc3.weight f4 [2, 64]
00000000: 46b6 90be 68c9 88be 5f65 02bd 2bb1 85bf
00000010: 8a3c 3cbd c048 133f c56f a2bd 73d2 8738
00000020: 1a97 8f3c e9e1 a73e 5c7f e53d addd 83be
00000030: 2ed1 903c 9324 8c3c 7c8d 0bbe e88f a9bd
00000040: b542 23be f3e6 083f ce48 9b3e 0d21 20be
00000050: 21eb 09be 9436 b9be ecab a73e 8394 e93c
00000060: 94f1 3cbe ad6d a7bc 8a6c c3bc 8b8b 97be
00000070: 4e4f 123e 9634 853d d582 0b3e bca4 b7be
00000080: 64ea 6f3c a25b 123e 6933 ae3e 504d 193e
00000090: d35a a6be 7e50 c13e d698 45be 4855 253f
000000a0: d03b 08be d600 ce3d 9181 733e d478 853d
000000b0: dae1 ccbf ddc8 0d3e 144e 3dbe 5d2f 1bbf
000000c0: 0023 023d 5c3b 853d 35f5 e33d 382e 713e
000000d0: c9d9 f63d f0be 87be a702 2540 a9ee 42be
000000e0: 92b7 babd 8579 3b3d 143b 95be 5266 a73d
000000f0: 0d1f 09be 5c4e bebc 0a90 7a3d f712 95bc
00000100: 7e47 39bf 0f82 5cbe 5584 08bf baf3 63bf
00000110: 2fe8 103f 2f22 0d3c 75bf e33e f64b a23f
00000120: 342f 1cbf 3730 1a3f 3d07 7bbf d6a0 e23e
00000130: 0aae 05bf b060 71be d923 393f d171 0dbe
00000140: 4167 193f be97 993d 8cc4 61be 1ebb 863e
00000150: d09b e7be d318 6a3d 3ebe 9bbe b5c7 2c3f
00000160: 0d4f 5ebe d28b 373f 2076 4a3f a021 a3bf
00000170: 7f1c 583f 3e16 6d3f ebdd d93d 7938 93bd
00000180: b28e 433c 4220 f5be 45e7 86be b9c0 47bf
00000190: a160 5cbe 80e1 5f3e c3ee cfbd 7fb6 81bd
000001a0: 663f 683f 360f 243f 5c28 acbe 9f97 013f
000001b0: e937 dcbc 14b1 0c3f 0100 c03e ae01 c2be
000001c0: e298 ff3e c982 b73e 24c6 40be 653a 72be
000001d0: e69d e7be c115 863d 508e 023f d0e8 0ebf
000001e0: 0536 6abe a18c 99be c126 573f 3805 99be
000001f0: 2ae0 f0be 87c2 86be 3792 97be 2a25 563f
-0.28264064 -0.2671616 -0.031834956 -1.0444692 -0.045956172 0.5753288 -0.079314746 6.476501e-05
0.017528106 0.32789543 0.112059325 -0.25755063 0.01767787 0.017107284 -0.13628191 -0.08279401
-0.15943415 0.534774 0.30328983 -0.15637608 -0.13468601 -0.36174452 0.32748353 0.028513199
-0.1845153 -0.02043804 -0.023855466 -0.2959865 0.14288065 0.065041706 0.13624127 -0.3586787
0.014643285 0.14292768 0.34023598 0.14970899 -0.32491168 0.37756723 -0.19296584 0.64583254
-0.13304067 0.10058753 0.23779894 0.06517187 -1.6006424 0.13846155 -0.18486816 -0.60619146
0.03177166 0.065054625 0.11130754 0.23552787 0.12053258 -0.2651286 2.578287 -0.19036354
-0.091170445 0.045770187 -0.29146636 0.08173813 -0.13390751 -0.023230724 0.061172523 -0.01819752
-0.72374713 -0.21533988 -0.5332692 -0.8904377 0.56604284 0.008614107 0.44482008 1.2679431
-0.61009526 0.6022982 -0.9805792 0.44263333 -0.5221869 -0.2357204 0.72320324 -0.13812949
0.5992318 0.07499646 -0.22047633 0.26314634 -0.45236063 0.05715258 -0.3041858 0.6749223
-0.21709843 0.71697724 0.79086494 -1.2744637 0.8441848 0.92612064 0.106380306 -0.07188506
0.011935877 -0.47876173 -0.2634832 -0.78028446 -0.21521236 0.21863365 -0.10152962 -0.063336365
0.9072174 0.6408571 -0.33624542 0.5062198 -0.026882129 0.549577 0.37500003 -0.37891906
0.49921328 0.3584197 -0.18825585 -0.23655088 -0.45237654 0.06547118 0.509984 -0.55823994
-0.2287217 -0.29990104 0.8404351 -0.29886794 -0.47046024 -0.26320288 -0.2960374 0.8365046

fc3.bias f4 [2]
00000000: 9aac d33d d023 98be
0.103356555 -0.29714823
