model_config/model_noisy_13_64.pth (torch, 21682 bytes, 7 tensors)

input_weights f4 [5]
0	0x3f800000	1.0
1	0x3f800000	1.0
2	0x3f800000	1.0
3	0x3f800000	1.0
4	0x3f800000	1.0

fc1.weight f4 [64, 5]
0	0x3dcf6046	0.101257846
1	0xb94b9cb5	-0.00019417967
2	0x3e9de835	0.30841222
3	0xbe36dd86	-0.17857942
4	0xbeb78bb7	-0.3584878
5	0xbe9c5961	-0.3053694
6	0xbed15e54	-0.4089228
7	0x3cfea2bb	0.031083455
8	0xbdf6bf7b	-0.12048241
9	0x3ec5166d	0.38493672
10	0xbf182675	-0.5943368
11	0x3f47d285	0.780556
12	0xbf08aece	-0.5339173
13	0x3e98a6c6	0.29814738
14	0xbe9647dc	-0.293517
15	0xbf613579	-0.8797222
16	0xbec12b6e	-0.37728447
17	0xbc8b6882	-0.017017607
18	0xbf141304	-0.57841516
19	0xbe856d7d	-0.26060095
20	0x3e228cbb	0.15873997
21	0xbf9ac882	-1.209244
22	0xbdce8f9f	-0.10085987
23	0x3e90237a	0.28152066
24	0x3e819e0b	0.2531589
25	0x3ead2af6	0.3382184
26	0xbf0bd888	-0.54627275
27	0xbf448c62	-0.7677671
28	0xbd54d8da	-0.05196462
29	0xbddefc21	-0.108879335
30	0xbf123b43	-0.57121676
31	0x3ece506a	0.40295726
32	0xbf2276a8	-0.63462305
33	0xbefff3ad	-0.49990597
34	0xbf096775	-0.5367349
35	0x3f58cb02	0.84684765
36	0x3e51d12a	0.20489946
37	0xbe92641e	-0.28592008
38	0xbe6b4128	-0.22974074
39	0xbd34da91	-0.044153754
40	0x3ee96611	0.45585683
41	0xbf668772	-0.90050423
42	0x3e28cb96	0.16483912
43	0xbeac5579	-0.3365896
44	0xbc118407	-0.008881575
45	0xbefdd415	-0.49575868
46	0x3d0dca23	0.0346166
47	0xbe9a3d87	-0.30125067
48	0x3e8d8c07	0.27645895
49	0x3f00727f	0.5017471
50	0x3fc5b3f3	1.5445541
51	0x3c3b04d6	0.011414727
52	0x3e64da47	0.22348891
53	0xbe2bb71e	-0.16769072
54	0x3d391e4b	0.045194905
55	0x3d564177	0.052308526
56	0x3e9c7d17	0.30564186
57	0x3e1c8d1c	0.15288204
58	0x3f67e46f	0.90582937
59	0x3ec1d740	0.37859535
60	0xbeeaca8d	-0.4585766
61	0x3e109960	0.14121008
62	0xbd4d554a	-0.050130166
63	0x3dad30b2	0.084565535
64	0xbeb7efea	-0.35925227
65	0xbdc54b6f	-0.096335284
66	0x3ea8e81e	0.3298959
67	0xbd4157ee	-0.047202997
68	0xbe38fb54	-0.18064624
69	0xbdf0aa2a	-0.11751206
70	0xbd864717	-0.06556528
71	0x3d01bb8c	0.031673
72	0x3ec91920	0.3927698
73	0xbcc6b180	-0.02425456
74	0x3e9b4145	0.30323234
75	0x3e5a042a	0.21290651
76	0x3e3da789	0.18520941
77	0xbf7b92ca	-0.9827086
78	0x3efe8b51	0.49715665
79	0x3f169c8c	0.5883262
80	0x3f8e7757	1.113017
81	0x3ddd31b2	0.10800494
82	0xbef8d42e	-0.4859938
83	0x3f15f341	0.585743
84	0x3d622496	0.055210672
85	0x3d90be7b	0.07067581
86	0xbd7540ab	-0.059876125
87	0x3e47368d	0.19454403
88	0xbf347c1f	-0.70501894
89	0x3f0a34e2	0.5398694
90	0xbaaa605e	-0.001299869
91	0x3d87f127	0.06637793
92	0x3ecb9bab	0.39767203
93	0x3e8b61f9	0.27223185
94	0xbc3bf47d	-0.011471865
95	0xbdf6675c	-0.12031433
96	0x3efd41d8	0.49464297
97	0x3e0e2434	0.13880998
98	0x3efefef5	0.49803892
99	0xbe47cd34	-0.19511873
100	0x3e9db30a	0.30800658
101	0xbdadd634	-0.08488122
102	0xbe87d204	-0.26527417
103	0x3e4c6987	0.1996213
104	0xbd281416	-0.04103478
105	0xbebcac01	-0.3684998
106	0x3e03ad43	0.12859063
107	0x3f0c26e6	0.54746854
108	0xbebcc95b	-0.36872372
109	0xbed5b4ea	-0.4173959
110	0xbf68dc4b	-0.9096114
111	0xbca7eb68	-0.020497993
112	0x3d0be4ae	0.034153633
113	0x3daf2af5	0.08553115
114	0x3ce866cc	0.02836933
115	0x3e0e502f	0.13897775
116	0xbe22756e	-0.15865108
117	0x3e580cc7	0.21098624
118	0x3d82c090	0.06384385
119	0x3ec95967	0.3932602
120	0x3d881846	0.06645255
121	0xbdc204cc	-0.09473571
122	0x3ce2101d	0.027595574
123	0x3e3833ca	0.17988506
124	0x3f1a2128	0.6020684
125	0xbe5d5451	-0.21614195
126	0xbec923ed	-0.39285222
127	0x3f6c19b6	0.9222673
128	0xbed858a7	-0.42255136
129	0x3d730488	0.059330493
130	0xbe81cdfa	-0.2535246
131	0xbe058a47	-0.1304103
132	0x3f02c135	0.5107606
133	0x3f4ac3e9	0.79205185
134	0xbe39bba5	-0.18137987
135	0x3ecb70f0	0.39734602
136	0xbe81fe41	-0.25389293
137	0xbe5a3c28	-0.2131201
138	0x3ee6c49f	0.45071885
139	0xbe250b19	-0.16117515
140	0x3cb69ab7	0.02229057
141	0xbf0df3d9	-0.55450207
142	0x3f3dc2ac	0.7412517
143	0xbf06e8b4	-0.52698827
144	0xbe5b5f97	-0.21423183
145	0x3dd2049c	0.102547854
146	0x3f228987	0.634911
147	0xbe7a0f5e	-0.24419925
148	0xbed8d0f4	-0.4234692
149	0xbe9e241d	-0.30886927
150	0xbf64719d	-0.8923586
151	0xbd05782d	-0.03258531
152	0xbf1cb25c	-0.61209655
153	0xbc77e35f	-0.015129893
154	0x3e1d2970	0.15347838
155	0xbdff5c42	-0.12468769
156	0xbe29f9dc	-0.1659922
157	0xbe63235e	-0.2218146
158	0x3d5ed2d9	0.0544003
159	0xbd53fb9c	-0.051753625
160	0xbe153828	-0.14572203
161	0x3e3a7f77	0.18212686
162	0xbcea1f9f	-0.028579531
163	0xbecb0486	-0.3965189
164	0x3e459932	0.1929672
165	0xbe9a379e	-0.30120558
166	0xbe12e2d2	-0.14344338
167	0xbe462cd0	-0.19353032
168	0x3e8029db	0.25031933
169	0xbeddb96c	-0.43305528
170	0x3ea9a501	0.331337
171	0x3e2e434c	0.17017859
172	0x3ee91756	0.45525616
173	0xbf2d635f	-0.67729753
174	0xbe8431aa	-0.2581914
175	0xbf18e58c	-0.5972526
176	0xbf0a2c7c	-0.5397413
177	0x3ef0a383	0.4699975
178	0xbdbbf33f	-0.09177255
179	0xbe27de19	-0.16393317
180	0x3ec5f9b2	0.38667065
181	0xbf1e8b22	-0.6193105
182	0x3f6caff3	0.9245598
183	0x3e897322	0.26845652
184	0x3e1abc13	0.15110807
185	0xbfa4e6b6	-1.2882907
186	0x3e4dbc59	0.2009138
187	0x3ebbf5c8	0.36710954
188	0x3ca56b3b	0.020192733
189	0xbdcfcba1	-0.10146261
190	0xbf9953c0	-1.1978683
191	0x3cfc1b26	0.030774664
192	0xbe36188b	-0.177828
193	0xbdde57b8	-0.10856575
194	0x3c6a6123	0.014305386
195	0x3f0637f2	0.52429116
196	0x3cfbfa53	0.030759012
197	0xbea1f50d	-0.3163227
198	0xbecbb86d	-0.39789143
199	0xbe2a1953	-0.16611223
200	0x3f0e194b	0.55507344
201	0xbef75e6d	-0.4831423
202	0x3d79e2d2	0.06100733
203	0x3e7cbe2e	0.24681923
204	0xbe05ee26	-0.13079128
205	0x3e8625f2	0.26200825
206	0x3e03f2fa	0.12885657
207	0x3eabf0ea	0.3358224
208	0x3eb92ea8	0.36168408
209	0xbd695cc3	-0.05697323
210	0x3ef65b82	0.4811669
211	0xbecc4c65	-0.39902034
212	0x3f0f6fda	0.56030047
213	0xbf074e47	-0.52853817
214	0xbe49e569	-0.1971642
215	0xbe2ffdde	-0.17186686
216	0xbe9580fe	-0.29199976
217	0xbf3cf09e	-0.7380465
218	0x3f33304f	0.6999559
219	0x3c45c915	0.0120718675
220	0xbed009cc	-0.40632474
221	0x3eed60dd	0.46362963
222	0x3e7be9b8	0.24600875
223	0x3f20408d	0.62598497
224	0x3e015ec3	0.12633805
225	0x3bce47de	0.0062951883
226	0xbd3dd6aa	-0.046347298
227	0xbf1d2223	-0.61380213
228	0x3e324779	0.17410077
229	0x3dacf869	0.08445818
230	0x3e576c66	0.21037444
231	0x3e894201	0.2680817
232	0xbe87e2f0	-0.26540327
233	0xbda355aa	-0.079753235
234	0x3e06c7bb	0.13162129
235	0xbfd8555f	-1.6901053
236	0x3d4dacd7	0.05021366
237	0x3e08e75c	0.13369507
238	0x3ddbb50c	0.10727891
239	0xbd2e5df8	-0.042570084
240	0x3d04a936	0.032387935
241	0x3eae7255	0.34071603
242	0xbf0350e0	-0.5129528
243	0x3eeb4000	0.45947266
244	0x3dc7de4d	0.097591974
245	0xbe303ba2	-0.17210248
246	0x3f1d0ee4	0.61350846
247	0x3efe5b6d	0.49679127
248	0xbf239ac4	-0.6390803
249	0x3cef9a4d	0.029248381
250	0xbd8f4006	-0.069946334
251	0x3d4ce80d	0.05002599
252	0x3d3c1e26	0.04592719
253	0xbf498533	-0.7871887
254	0xbea5f746	-0.32415217
255	0x3eb0baa3	0.34517393

fc1.bias f4 [64]
0	0x3ebe2a02	0.37141424
1	0xbe2c6258	-0.1683439
2	0xbea1a196	-0.31568593
3	0xbed5b6c2	-0.41740996
4	0xbf48c8c7	-0.7843136
5	0xbf617c50	-0.8808031
6	0xbf1857e3	-0.59509104
7	0xbf27d914	-0.6556561
8	0xbf2775e0	-0.6541424
9	0x3e4e8bf8	0.20170581
10	0x3e87dbde	0.26534933
11	0xbedb0299	-0.4277542
12	0xbdb6b93c	-0.089220494
13	0x3f4472ea	0.76737845
14	0x3e8d5084	0.2760049
15	0xbeb6a41a	-0.35672075
16	0xbe8c2793	-0.27373943
17	0xbf8cda18	-1.1004057
18	0x3efe1960	0.49628735
19	0xbe089b36	-0.13340458
20	0x3e02bdf5	0.12767775
21	0xbecd612b	-0.40113196
22	0x3f41ca05	0.7569888
23	0x3e2dd78a	0.16976753
24	0x3f2127e7	0.6295151
25	0x3e42399e	0.18967292
26	0xbf006ce5	-0.5016616
27	0x3d226ecd	0.03965645
28	0xbeca7902	-0.39545447
29	0xbe682edd	-0.22674127
30	0xbeef5b57	-0.46749374
31	0x3f445533	0.76692504
32	0x3e8d428a	0.27589828
33	0x3eb2d7b2	0.34930187
34	0xbf3acd4a	-0.72969496
35	0xbe188f05	-0.14898308
36	0xbf4f0210	-0.8086252
37	0xbfd37bde	-1.6522176
38	0xbf817cc7	-1.0116204
39	0xbdbbfa2e	-0.09178577
40	0x3da29ff5	0.07940666
41	0x3e782d2c	0.24235982
42	0xbe72e942	-0.23721793
43	0xbefa1683	-0.488453
44	0xbf2cc2fa	-0.6748501
45	0x3ea69c78	0.3254125
46	0x3de7fd21	0.113275774
47	0xbed5c64e	-0.41752857
48	0x3f34b031	0.70581347
49	0xbde6c1db	-0.11267444
50	0xbf16e268	-0.5893922
51	0xbf16556b	-0.5872409
52	0x3f4a1cbc	0.78950095
53	0xbe1d6c89	-0.15373434
54	0x3e46aa03	0.19400792
55	0xbe756f79	-0.23968305
56	0x3f6aaa21	0.91665846
57	0xbe0c0e52	-0.13677338
58	0xbe81e8f1	-0.25373033
59	0x3e0fc788	0.14040959
60	0xbc9dd457	-0.01926629
61	0xbf689c79	-0.9086376
62	0xbf340e56	-0.70334375
63	0x3f651852	0.89490235

fc2.weight f4 [64, 64]
0	0x3d5d421e	0.054018132
1	0xbddf29f8	-0.10896677
2	0x3db788c2	0.08961631
3	0xbedbe37b	-0.4294699
4	0xbda9eb02	-0.08296777
5	0x3c1b873d	0.009492693
6	0xbd986993	-0.07442012
7	0x3e64090f	0.2226908
8	0x3dcab5f6	0.098979875
9	0xbf045616	-0.51693857
10	0x3dacbc13	0.0843431
11	0xbebb0dbe	-0.36533922
12	0x3e51abc1	0.20475675
13	0x3db721a0	0.0894196
14	0xbe2f47a7	-0.17117177
15	0x3ccb631f	0.024827538
16	0xbed03920	-0.40668583
17	0x3d8a3983	0.06749251
18	0x3ec3b116	0.38221043
19	0x3f14dfd3	0.5815403
20	0x3e014e7a	0.12627593
21	0xbf1414df	-0.57844347
22	0xbdcc8236	-0.09985773
23	0xbe9db318	-0.308007
24	0x3e3c3db1	0.18382908
25	0xbdcd2872	-0.1001748
26	0x3e060358	0.13087213
27	0x3e86a4fa	0.26297742
28	0x3c7a0943	0.015260997
29	0xbe07ec04	-0.13273627
30	0xbf446f5c	-0.7673242
31	0x3dcc2eb4	0.099698454
32	0xbd60e375	-0.05490442
33	0xbc94cf18	-0.018165156
34	0x3e0c7287	0.13715564
35	0xbec84b22	-0.39119822
36	0xbe19fc7c	-0.15037721
37	0xbe9e64eb	-0.3093637
38	0x3eaf53a5	0.34243503
39	0x3e55c5e6	0.20876274
40	0x3e13db8c	0.14439219
41	0x3df4f08f	0.119599454
42	0xbe8ba2af	-0.27272555
43	0x3cc2e927	0.023792816
44	0x3dc904b3	0.098153494
45	0x3eb8b125	0.3607265
46	0x3df3c47d	0.119027115
47	0xbfdbd38a	-1.7173932
48	0x3e5013d4	0.20320064
49	0xbdf44805	-0.11927799
50	0xbe9d8a9b	-0.3076981
51	0x3ec959af	0.39326236
52	0x3e954d7a	0.29160672
53	0xbe34e974	-0.1766718
54	0x3e90c5bd	0.28275862
55	0xbef4ba9c	-0.47798622
56	0xbe7b2068	-0.24524081
57	0x3dcd9016	0.10037248
58	0xbd0ca593	-0.03433759
59	0x3d7846b2	0.060614295
60	0x3e278096	0.16357645
61	0xbe79f581	-0.24410059
62	0xbf1c6642	-0.61093533
63	0x3e6e979a	0.23300019
64	0xbc999289	-0.018746631
65	0xbe5d15d9	-0.21590365
66	0xbe499a87	-0.19687854
67	0xbdbd447b	-0.09241577
68	0xbe089974	-0.13339788
69	0xbeacfa4c	-0.3378471
70	0x3c084a23	0.008318457
71	0xbf8ed0f9	-1.1157523
72	0xbf2d7cee	-0.6776875
73	0xbd55b420	-0.052173734
74	0x3e2b2b62	0.16715768
75	0xbe2f446e	-0.17115948
76	0x3ea30499	0.31839445
77	0x3d6fb1e0	0.058519244
78	0x3e8c4b83	0.2740136
79	0xbe26d858	-0.16293466
80	0x3e143dab	0.1447665
81	0x3dd841e1	0.105594404
82	0x3e0ac2d4	0.13550884
83	0x3e143bb9	0.14475907
84	0x3bc6c5da	0.006066066
85	0x3e39defd	0.1815147
86	0x3d482f1d	0.048873056
87	0xbe1e675c	-0.15469116
88	0xbec4cd48	-0.38437867
89	0xbe0033fd	-0.12519832
90	0xbedcebd4	-0.43148673
91	0x3ba1c3de	0.0049366793
92	0x3ef91e6e	0.48656029
93	0x3dc4886d	0.09596334
94	0x3ece41e9	0.4028466
95	0x3d24fbca	0.040279187
96	0x3bf23758	0.0073918514
97	0xbc7723cd	-0.015084219
98	0x3f2d609f	0.6772556
99	0xbccb81e7	-0.024842216
100	0xbedeed82	-0.4354058
101	0xbe5403e8	-0.20704615
102	0xbf027eb2	-0.5097457
103	0xbe2399bc	-0.15976614
104	0xbe8ca4f2	-0.27469593
105	0xbe188cca	-0.14897457
106	0xbf43b009	-0.76440483
107	0xbee22019	-0.44165114
108	0xbe713d61	-0.2355857
109	0x3dc1b735	0.09458772
110	0x3cf69e69	0.030104833
111	0x3cbf8f6d	0.02338382
112	0x3e4b07db	0.19827215
113	0xbedac74a	-0.4273017
114	0xbd95bffb	-0.07312008
115	0xbed47ec9	-0.4150298
116	0xbe41c588	-0.18923008
117	0xbe01c2bc	-0.12671942
118	0xbee1f838	-0.44134688
119	0x3e074685	0.13210495
120	0x3d177e88	0.036985904
121	0x3eba8f5b	0.36437497
122	0x3f25dfe6	0.64794767
123	0x3e61132e	0.21979973
124	0x3e9166af	0.28398654
125	0x3eaccefe	0.33751673
126	0xbecba2f6	-0.39772767
127	0x3c6ec428	0.0145731345
128	0xbeba8b3c	-0.36434352
129	0x3de9aebd	0.11410282
130	0x3eb47919	0.3524864
131	0x3f0334d1	0.51252466
132	0xbdd9dead	-0.10638175
133	0xbe918e33	-0.28428802
134	0xbdb14b94	-0.086569935
135	0x3f09f555	0.5388997
136	0xbe8d33ba	-0.27578527
137	0x3c95ac0d	0.018270517
138	0xbd5a0f5d	-0.053237308
139	0x3dd8aced	0.10579858
140	0xbe6d3a5b	-0.23166792
141	0xbd9b31a3	-0.07577827
142	0x3dcf8939	0.10133595
143	0xbdd840e5	-0.10559253
144	0xbf4eb6ef	-0.80747885
145	0x3d485efb	0.048918705
146	0xbed5d05a	-0.41760522
147	0x3f735bdb	0.95062035
148	0xbfa398d8	-1.2781019
149	0xbeb2ecb9	-0.3494623
150	0x3da914da	0.0825593
151	0xbbf1a749	-0.0073746783
152	0xbdcb9abb	-0.09941622
153	0x3e776ee6	0.24163398
154	0x3d460bd2	0.048351116
155	0x3e89f56b	0.26945052
156	0x3f0743b5	0.5283769
157	0xbe325802	-0.17416385
158	0x3defc35f	0.11707186
159	0xbc09939e	-0.008397011
160	0x3ea9ba08	0.33149743
161	0x3d17abda	0.037029125
162	0xbe61c458	-0.22047555
163	0x3e340c96	0.17582926
164	0x3e6f7132	0.23383024
165	0xbe136810	-0.14395165
166	0xbe90af1b	-0.28258595
167	0x3e427d59	0.18993129
168	0xbdb09486	-0.086220786
169	0xbe949404	-0.29019177
170	0xbe5f1807	-0.2178651
171	0xbe82a0e9	-0.2551339
172	0x3d09593c	0.033532366
173	0x3e71aee9	0.23601879
174	0x3db64f0c	0.08901796
175	0x3e091cf0	0.13389945
176	0xbf2107aa	-0.6290232
177	0xbee5eae7	-0.4490578
178	0x3ef24ea2	0.47325617
179	0xbc137156	-0.008999189
180	0x3ca74417	0.02041821
181	0x3f721ad8	0.9457221
182	0xbeb640d1	-0.35596326
183	0xbf225e64	-0.6342528
184	0xbd02a3c7	-0.03189447
185	0xbe94a066	-0.29028624
186	0x3e89ef56	0.2694041
187	0xbe09dfa3	-0.13464217
188	0x3ed747f1	0.42047074
189	0x3ea64829	0.3247693
190	0x3e8935f8	0.26798987
191	0x3cbebf17	0.023284478
192	0x3e3637bd	0.177947
193	0xbc48c3b6	-0.012253692
194	0xbda3e9a8	-0.08003551
195	0xbe2e4886	-0.17019853
196	0xbdf5e40f	-0.12006389
197	0x3ececaae	0.40389007
198	0x3dd54732	0.1041397
199	0xbf12d751	-0.57359797
200	0xbe5d7740	-0.21627522
201	0xbd6566d2	-0.05600626
202	0xbeca9a6d	-0.39570943
203	0xbdbc188f	-0.09184372
204	0xbd88e4a9	-0.066842385
205	0x3eac377e	0.33636087
206	0xbdb20d05	-0.086938895
207	0xbda5a015	-0.08087174
208	0xbe66a8ab	-0.22525279
209	0x3d2b9342	0.041888483
210	0x3dde0386	0.10840516
211	0xbebb3c37	-0.36569378
212	0xbdf93091	-0.121674664
213	0xbe80864a	-0.25102454
214	0x3de9d034	0.11416665
215	0x3ba03f67	0.0048903706
216	0xbc7cec75	-0.015437235
217	0xbd2eaf2a	-0.04264752
218	0xbeaf06fc	-0.34185016
219	0x3eec32e1	0.46132568
220	0xbec26e56	-0.37974805
221	0x3d83d92f	0.06437909
222	0xbe996399	-0.299588
223	0x3e2fbef6	0.1716269
224	0x3d945252	0.07242264
225	0x3e484d7e	0.19560811
226	0x3ee18b34	0.44051516
227	0xbd42822e	-0.04748743
228	0x3e88fb58	0.2675426
229	0x3bd78ed0	0.006578304
230	0x3e3bfc35	0.18357928
231	0xbe87c3be	-0.26516527
232	0xbe96e130	-0.2946868
233	0xbdea05d2	-0.114268914
234	0xbeb67899	-0.35638884
235	0x3d0fe93b	0.035134535
236	0xbf340823	-0.70324916
237	0x3e5b9ddc	0.21446937
238	0x3e47db10	0.1951716
239	0xbe6ecbb9	-0.23319902
240	0x3edb376b	0.42815718
241	0x3f2828c0	0.6568718
242	0xbe903d9c	-0.28172004
243	0xbdf9d4cc	-0.12198791
244	0x3eaa32bd	0.33241835
245	0xbd037193	-0.032090735
246	0x3d60b03a	0.054855563
247	0x3edf991b	0.43671498
248	0xbe3f298f	-0.18668197
249	0x3e281d68	0.16417468
250	0x3e335b33	0.17515258
251	0xbcd721d0	-0.02626124
252	0x3d90aaea	0.07063849
253	0xbdfe6c37	-0.12422984
254	0x3e77c260	0.24195242
255	0x3e65d809	0.22445692

fc2.bias f4 [64]
0	0x3e739248	0.2378627
1	0xbdba7d04	-0.09105876
2	0xbcead38c	-0.028665327
3	0x3e40f276	0.18842492
4	0x3e56838e	0.20948622
5	0x3c780a7d	0.015139219
6	0x3dd8ea5c	0.105915755
7	0x3e1a57fb	0.15072624
8	0x3e43ddaa	0.19127527
9	0xbe069c59	-0.1314558
10	0x3e554356	0.20826468
11	0x3e98f3f2	0.29873616
12	0x3db4ba2f	0.08824574
13	0xbd302dab	-0.043012302
14	0xbdcce584	-0.10004714
15	0xbea2c15f	-0.31788155
16	0xbdfe628c	-0.1242114
17	0xbe0592d7	-0.13044296
18	0xbf042fd1	-0.5163546
19	0x3f022f29	0.5085321
20	0x3edf8c19	0.43661574
21	0x3e906cfc	0.28208148
22	0xbe955893	-0.2916914
23	0x3ea03314	0.3128897
24	0x3ebb77f7	0.36614963
25	0x3f01a175	0.5063699
26	0x3de2af3a	0.11068578
27	0xbcc32c10	-0.023824722
28	0x3bb08d43	0.0053879335
29	0xbee94eee	-0.4556803
30	0x3d892e65	0.06698302
31	0xbd9f2daf	-0.07772385
32	0x3dd2db03	0.102956794
33	0x3c812dbc	0.015768878
34	0xbc22eb25	-0.009943758
35	0xbe25cce4	-0.16191441
36	0xbe795ab0	-0.24351001
37	0xbed765bc	-0.42069805
38	0xbdfa401c	-0.12219259
39	0xbcd0e22b	-0.02549847
40	0x3d109ea0	0.035307527
41	0xb99f5acb	-0.0003039449
42	0xbe6569c4	-0.22403628
43	0x3d5b2940	0.053506136
44	0x3e258020	0.16162157
45	0x3ed430a5	0.41443363
46	0x3e4e3da1	0.20140697
47	0xbdf50016	-0.11962907
48	0xbe92d53e	-0.28678316
49	0xbd308168	-0.04309216
50	0x3d5be0c3	0.053681146
51	0x3e7dee30	0.24797893
52	0x3e1a6b62	0.15080026
53	0x3e26263d	0.16225524
54	0x3bfcbf96	0.0077132685
55	0xbdc3c13e	-0.095583424
56	0xbf2d56f9	-0.67710835
57	0x3ee1d0bf	0.44104573
58	0x3d0216e2	0.031760104
59	0xbd86e604	-0.06586841
60	0xbd606975	-0.05478807
61	0xbe067df6	-0.13133988
62	0xbc89f72c	-0.016841494
63	0xbe5ce073	-0.21569996

fc3.weight f4 [2, 64]
0	0xbdac19f5	-0.084033884
1	0x3ef7cbbb	0.48397622
2	0xbed9b37c	-0.42519748
3	0x3e351177	0.17682444
4	0xbe66eda6	-0.22551593
5	0xbdfff0db	-0.124971114
6	0xbea587ec	-0.32330263
7	0xbc7be42c	-0.015374225
8	0xbe82675f	-0.2546949
9	0x3e978f4d	0.29601517
10	0xbcdfc200	-0.027314186
11	0x3e3f049c	0.18654102
12	0x3f322f57	0.69603485
13	0xbe093788	-0.1340009
14	0xbe0c1290	-0.13678956
15	0xbdca9d59	-0.09893293
16	0xbec4e307	-0.38454458
17	0x3e998035	0.29980627
18	0x401c27a8	2.4399204
19	0xbac660e9	-0.0015135083
20	0x3cefef3b	0.029288879
21	0xbdbe2443	-0.0928426
22	0xbf0276b9	-0.50962406
23	0xbdc4f949	-0.0961786
24	0x3d44da00	0.048059464
25	0xbe3ce8d6	-0.18448195
26	0xbe12c2cd	-0.14332123
27	0x3d4a263c	0.04935287
28	0xbe809b4a	-0.25118476
29	0xbf3ff24c	-0.7497909
30	0x3e3a8556	0.18214926
31	0x3bc5374b	0.0060185543
32	0xbde174a7	-0.11008578
33	0xbb46a3bf	-0.0030310003
34	0x3e11ae4d	0.14226647
35	0xbe315cc7	-0.17320548
36	0xbdbce3f7	-0.09223168
37	0xbdd9c0ec	-0.106325
38	0xbe06aaef	-0.13151143
39	0x3db0e2aa	0.08636983
40	0x3de861f5	0.11346809
41	0xba7b2ad3	-0.00095812714
42	0x3ea4495a	0.32087213
43	0xbb8432a9	-0.0040343595
44	0xbe502e77	-0.20330225
45	0x3e862e15	0.26207033
46	0x3e0b72eb	0.13618056
47	0xbedec856	-0.4351222
48	0xbce2c7e3	-0.027683204
49	0x3da99713	0.08280768
50	0xbf195328	-0.5989251
51	0xbd3bacc2	-0.04581905
52	0xbe66cc94	-0.22538978
53	0x3ca5238f	0.020158557
54	0xbc371faa	-0.011176983
55	0x3f5b5515	0.856767
56	0xbe2b267d	-0.16713901
57	0xbde2956b	-0.110636555
58	0xbcc47d71	-0.023985596
59	0x3e948a48	0.2901175
60	0xbff101be	-1.8828657
61	0x3e491254	0.19635898
62	0x3e7668b6	0.24063382
63	0x3e216135	0.15759738
64	0xbea256f7	-0.31706974
65	0xbd66f531	-0.056386176
66	0x3df96199	0.121768184
67	0xbe223350	-0.15839887
68	0x3ec93f21	0.39305976
69	0x3f31cc36	0.69452226
70	0x3dd228fb	0.10261723
71	0xbf1ae070	-0.60498714
72	0x3e3dfa65	0.18552549
73	0x3d563f54	0.05230649
74	0xbf03a19d	-0.5141848
75	0x3e9a9c0b	0.30197176
76	0x3f0afed3	0.5429508
77	0x3f03bf1a	0.5146347
78	0xbe16137d	-0.14655872
79	0x3f1ed244	0.6203959
80	0xbc9842f5	-0.018586615
81	0x3d96819d	0.073489405
82	0x3f34c0e6	0.7060684
83	0x3edde08f	0.43335387
84	0xbf7eebb7	-0.9957842
85	0xbf2d3d8a	-0.67672026
86	0xbe1feef2	-0.15618494
87	0x3ee1d6ee	0.4410929
88	0xbf737d59	-0.9511314
89	0xbf10dc15	-0.5658582
90	0x3f6cf02e	0.92553985
91	0xbf3917fe	-0.72302234
92	0x3ea9ee4a	0.33189613
93	0xbe6710de	-0.22565028
94	0x3e9e13d0	0.3087449
95	0xbf0ee044	-0.5581095
96	0xbf0afc47	-0.54291195
97	0x3f09f800	0.5389404
98	0xbf0da2ff	-0.5532684
99	0xbf26acdb	-0.65107507
100	0xbe7ac90a	-0.24490753
101	0x3f3e8b96	0.7443174
102	0xbe6cfcbf	-0.2314329
103	0xbeed436e	-0.46340507
104	0x3ebe37cc	0.37151945
105	0x394ed425	0.00019724721
106	0x3a5d9ac1	0.0008453541
107	0xbfbad348	-1.4595728
108	0xbf93136d	-1.1490303
109	0x3f2924a5	0.6607154
110	0xbf338062	-0.7011777
111	0x3e2f64f8	0.1712836
112	0xbe803f39	-0.25048235
113	0x3f404002	0.7509767
114	0xbeed4fbc	-0.46349895
115	0x3f17eb13	0.5934307
116	0xbd8b93b1	-0.06815279
117	0x3f15a9d3	0.58462256
118	0xbec3345c	-0.38125885
119	0x3ce1650b	0.027514001
120	0x3f10f3bc	0.5662191
121	0x3f140198	0.5781493
122	0xbe8f51b0	-0.2799201
123	0x3e1f3b27	0.15549909
124	0xbf15967c	-0.58432746
125	0xbe990384	-0.29885495
126	0xbe182a04	-0.14859778
127	0xbe80c3fc	-0.25149524

fc3.bias f4 [2]
0	0x3cd92c23	0.026510304
1	0xbdcd3216	-0.10019319
