model_config/model_noisy_27_64.pth (torch, 21938 bytes, 7 tensors)

input_weights f4 [6]
0	0x3f800000	1.0
1	0x3f800000	1.0
2	0x3f800000	1.0
3	0x3f800000	1.0
4	0x3f800000	1.0
5	0x3f800000	1.0

fc1.weight f4 [64, 6]
0	0x3e622b55	0.22086842
1	0xbd798ad9	-0.06092343
2	0x3c81fa4d	0.015866423
3	0x3e132051	0.14367796
4	0xbe22a1df	-0.15882061
5	0x3b87480f	0.004128463
6	0x3b700567	0.0036624314
7	0xbb6a7e65	-0.0035780903
8	0x3c0ec1ac	0.008713167
9	0x3c060771	0.008180485
10	0xba418294	-0.00073818234
11	0x3a0605d5	0.00051125634
12	0x3eab7317	0.33486244
13	0x3bf7c93e	0.0075618317
14	0x3ec0f5fe	0.37687677
15	0xbcbfb231	-0.023400398
16	0x3c479f0a	0.012183914
17	0x3d7e3751	0.062064473
18	0xbe2ace38	-0.16680229
19	0x3db39c9e	0.08770107
20	0x3c8d88f6	0.017277222
21	0x3ed82b64	0.42220604
22	0xbdbb8590	-0.091563344
23	0x3b13eaa4	0.0022570277
24	0x3e4dd205	0.20099647
25	0x3d703f99	0.0586544
26	0xbe983177	-0.2972524
27	0xbc2b9d39	-0.0104744965
28	0x3cf892b3	0.03034339
29	0xb9fb595b	-0.00047941026
30	0x3db7c570	0.08973205
31	0x3cedb84d	0.029018546
32	0x3d94e15d	0.07269547
33	0xbddeafc8	-0.10873371
34	0xbd1ec768	-0.038764387
35	0x3c8b973e	0.017039891
36	0x39e1b143	0.00043047415
37	0x39c7b606	0.00038091856
38	0x3af41749	0.0018622662
39	0x3a8b253d	0.0010615956
40	0xba94f20d	-0.0011363641
41	0xbab5ee93	-0.0013880305
42	0x390e76dd	0.00013586455
43	0xb8162adb	-3.58027e-05
44	0xb8f02bdf	-0.000114522634
45	0x3d43138c	0.047626063
46	0x3eb9c116	0.36280125
47	0x3a5e4989	0.00084795855
48	0xbe20c87d	-0.1570148
49	0x3e18307d	0.14862247
50	0x3c99f0c1	0.018791558
51	0x3cc678a1	0.024227442
52	0x3d44da0c	0.04805951
53	0x3de21a8d	0.110402204
54	0x3daa8324	0.08325794
55	0xbdb45e84	-0.0880709
56	0x3d08f3f8	0.03343579
57	0x3da55226	0.08072309
58	0x3d52e4d0	0.051487744
59	0x3dd2e3cc	0.10297355
60	0xbd95fe5b	-0.07323905
61	0x3d880236	0.06641047
62	0xbe150d13	-0.14555769
63	0x3dd87076	0.10568325
64	0x3a829efe	0.0009965596
65	0xbe336770	-0.17519927
66	0x3dabe890	0.08393967
67	0xbde23b46	-0.11046462
68	0xbdae344c	-0.085060686
69	0xbe3060ba	-0.17224398
70	0xbc1835dc	-0.009290185
71	0x3d874b93	0.066062115
72	0x3d207142	0.03917051
73	0xbdde08dc	-0.108415335
74	0xbbe5d252	-0.0070135975
75	0xbe4eeb0c	-0.20206851
76	0xbdd9fbd0	-0.106437325
77	0xbd144b09	-0.03620437
78	0xbe772abf	-0.241374
79	0x3c804d6c	0.015661918
80	0x3ee16580	0.4402275
81	0x3d360503	0.044438373
82	0xbcab7c36	-0.020933252
83	0x3e043628	0.12911284
84	0xbf05e3af	-0.5230054
85	0x3d4ca6a5	0.049963612
86	0x3d7c43ea	0.061588205
87	0xbbe48e4f	-0.0069749723
88	0xbc3d7ac5	-0.011564915
89	0xbc1d1a76	-0.009588828
90	0xbdbe76ed	-0.09300027
91	0x3cdc440b	0.026887914
92	0x3c5dd880	0.013540387
93	0xbf076f57	-0.52904266
94	0x3d64a090	0.055817187
95	0xbce05fd8	-0.027389452
96	0x3d55558d	0.05208354
97	0x3ea6c7cf	0.32574317
98	0x3edb801b	0.42871174
99	0xbd16d75c	-0.036826476
100	0xbc57f11e	-0.013180045
101	0xbccbc2ad	-0.024873102
102	0x3d1e89b8	0.038705558
103	0x3d91cafa	0.07118793
104	0xbc3bc760	-0.011461109
105	0xbe70b5f3	-0.23506908
106	0x3d0edb06	0.034876846
107	0x3e07de3f	0.13268374
108	0xbca35707	-0.019938959
109	0x3bc07e26	0.005874413
110	0x3c09cdab	0.0084108515
111	0x3e5354c6	0.20637807
112	0xbdeea9fd	-0.116535164
113	0xbcadface	-0.021237757
114	0x3c8b5abb	0.017011037
115	0x3e3adf75	0.18249305
116	0xbec65381	-0.38735583
117	0xbd424aa1	-0.047434453
118	0x3cb92738	0.022601709
119	0x3e5a5bec	0.21324128
120	0x3f360d33	0.7111389
121	0x3dd3b285	0.10336784
122	0x3e28fb70	0.16502166
123	0x3c75de84	0.015006665
124	0xbc17c82b	-0.009264032
125	0xbc292bd3	-0.01032539
126	0xbca41f12	-0.020034347
127	0x3e857299	0.26063994
128	0xbe323758	-0.17403924
129	0x3c9ba59b	0.018999865
130	0x3acc59e6	0.0015590757
131	0x3df6aa03	0.12044146
132	0xbf82d4d3	-1.0221199
133	0xbd723c50	-0.05913955
134	0xbe7f1510	-0.24910378
135	0xbbf8476d	-0.007576874
136	0x3bfb8f24	0.007676976
137	0x3ca1e2be	0.01976144
138	0x3cb9912c	0.022652231
139	0xbe2c73a2	-0.16840985
140	0xbef7e3ef	-0.48416087
141	0xbcca990a	-0.024731178
142	0xbadcf551	-0.0016857778
143	0xbe210ab6	-0.15726742
144	0xbd11f53c	-0.035634264
145	0x3c4438c4	0.011976425
146	0xbe15cc1f	-0.14628647
147	0x3d4ce62f	0.050024208
148	0xbd4694d0	-0.048481762
149	0xbe97bdcb	-0.29636988
150	0x3e2b9a6f	0.1675813
151	0x3e148b38	0.14506233
152	0x3e0532d4	0.1300767
153	0xbd191f24	-0.037383214
154	0x3d581b43	0.052760374
155	0xbc96bde7	-0.0184011
156	0xb9ee67d3	-0.00045472253
157	0xbae3cdd3	-0.0017380066
158	0x3c0877c7	0.008329338
159	0xba059e63	-0.0005097149
160	0xb956c1b8	-0.00020480796
161	0x3c0c0763	0.008546683
162	0x3d26dd1a	0.040738203
163	0xbe236987	-0.15958224
164	0x3f48bead	0.7841595
165	0x3d877a51	0.06615127
166	0x3cd7e5cd	0.026354695
167	0xbc556d98	-0.0130266175
168	0xbdc42399	-0.09577102
169	0xbd219fd0	-0.03945905
170	0xbebde921	-0.37091926
171	0x3ce18b20	0.02753216
172	0xbd89492f	-0.06703412
173	0x3db38246	0.08765082
174	0xbdf21bc6	-0.118217036
175	0x3ebfaa84	0.3743478
176	0x3eab6603	0.33476266
177	0xbde536fa	-0.111921266
178	0xbbd679c2	-0.0065452764
179	0x3d21e947	0.03952911
180	0x3c6f2fff	0.0145988455
181	0xbe7b60e2	-0.24548677
182	0xbeb436bc	-0.3519801
183	0xbdf8e2d3	-0.12152638
184	0x3d92f0fe	0.07174872
185	0x3c85963b	0.016306987
186	0xbc97924c	-0.018502377
187	0xbe6d04f5	-0.23146422
188	0xbed8d76c	-0.42351854
189	0x3d50f9b1	0.051019374
190	0xbc1e9663	-0.00967941
191	0xbbbe9d60	-0.0058171004
192	0xbd85900e	-0.06521617
193	0xbcea5a61	-0.02860755
194	0xbb9acc4e	-0.004724062
195	0xbec301ea	-0.38087398
196	0x3e41a7f3	0.18911724
197	0x3d28161a	0.041036703
198	0x3e4ba5df	0.19887494
199	0xbd1065d5	-0.035253365
200	0x3a3e4682	0.0007258431
201	0xbea9e0ab	-0.3317922
202	0xbe07e794	-0.13271934
203	0xbc5be8bd	-0.013422188
204	0x3d312aba	0.043253638
205	0xbef278a4	-0.47357666
206	0xbec93e66	-0.3930542
207	0xbc9842e7	-0.018586589
208	0x3d3f6c92	0.0467344
209	0x3c9a75c3	0.018854981
210	0xbf014846	-0.50500906
211	0x3dca8c4a	0.09890039
212	0x3dd60b6f	0.104513995
213	0x3c419f1e	0.011817722
214	0xbd29d822	-0.041465886
215	0xbc3f545d	-0.011677829
216	0x3c7e019d	0.015503314
217	0x3e2550f2	0.1614416
218	0x3d45818a	0.04821924
219	0x3b5dbbbb	0.003383382
220	0x3e1532dc	0.14570183
221	0xbe29b17d	-0.16571613
222	0x3bfda681	0.007740796
223	0xbc0e834f	-0.008698299
224	0x3c45ce11	0.012073056
225	0x3d8a5b8a	0.06755741
226	0x3cd3ddc6	0.025862586
227	0xbe9635b1	-0.29337838
228	0xbc31b086	-0.010845309
229	0xbef6d5fb	-0.4821013
230	0x3d496f63	0.049178492
231	0x3d4604dc	0.048344478
232	0x3c9ec665	0.019381711
233	0x3a9827ba	0.0011608519
234	0xbd49e99e	-0.04929506
235	0x3e4d04a6	0.20021304
236	0xbe8f5511	-0.27994588
237	0x3d330983	0.043710243
238	0x3d813b52	0.063101426
239	0x3ddb2f31	0.107023604
240	0x3b285647	0.002568619
241	0xbb2412ea	-0.0025035688
242	0x3bc81ab1	0.0061066975
243	0x3bbbfcda	0.0057369294
244	0xba071b03	-0.00051538664
245	0x39ba015d	0.000354777
246	0x3d17ba6c	0.03704302
247	0x3cf6acb2	0.030111644
248	0xbb585d35	-0.003301454
249	0xbe94ca06	-0.29060382
250	0xbde3ec69	-0.11129076
251	0x3ce011f3	0.027352309
252	0xbdc0e43b	-0.094185315
253	0x3da7842b	0.08179506
254	0x3dab0850	0.08351195
255	0x3d654d57	0.05598196

fc1.bias f4 [64]
0	0x3ddf63b7	0.10907691
1	0xbc150eb4	-0.009097744
2	0xbe516ad7	-0.20450912
3	0xbdd5db96	-0.10442273
4	0xbe1d3993	-0.15353994
5	0xbe0d9e53	-0.13829927
6	0xbadb0aed	-0.001671163
7	0x3e33af3f	0.1754732
8	0x3d83f495	0.06443135
9	0xbdf16371	-0.11786545
10	0x3df35559	0.11881513
11	0xbd688493	-0.056767058
12	0x3eb15e50	0.34642267
13	0xbd5a39ef	-0.053277906
14	0x3ed7d0e2	0.42151552
15	0xbd8cef6d	-0.06881604
16	0xbf47fff4	-0.7812493
17	0xbdf526c3	-0.11970284
18	0xbe533e5a	-0.20629254
19	0xbcee51b9	-0.029091703
20	0x3f078952	0.5294391
21	0x3e2ca451	0.16859557
22	0x3e966a5b	0.29378018
23	0xbe09b0b1	-0.13446309
24	0xbd8a2861	-0.06745983
25	0xbe0a8352	-0.13526657
26	0xbc02d760	-0.00798592
27	0xbea6bb01	-0.32564548
28	0xbd8b057a	-0.06788154
29	0xbe24fefa	-0.16112891
30	0x3c4f0bb4	0.012637068
31	0xbeecb775	-0.46233717
32	0xbd056ed2	-0.03257639
33	0xbeb0045b	-0.34378323
34	0xbecf0331	-0.40432122
35	0xbf108634	-0.5645478
36	0x3d3871aa	0.045030273
37	0x3e603de8	0.21898615
38	0xbd9c6e13	-0.076381825
39	0x3e240b3b	0.16019909
40	0xbbd0fe5f	-0.0063779796
41	0xbe3fe20e	-0.18738577
42	0xbddd0940	-0.1079278
43	0xbd5cba33	-0.05388851
44	0x3c999f61	0.018752756
45	0xbe0e2ad1	-0.1388352
46	0xbe4996ed	-0.1968648
47	0xbe6da209	-0.23206343
48	0xbc7b9e1d	-0.015357521
49	0xbf02ae2f	-0.51047033
50	0x3e7be65f	0.24599598
51	0x3eac89fe	0.3369903
52	0xbe23b6a1	-0.15987636
53	0x3f376724	0.71641755
54	0xbe755052	-0.23956421
55	0xbe93cb76	-0.28866166
56	0xbd917c4c	-0.07103786
57	0xbea97d78	-0.33103538
58	0xbcce9d10	-0.025221378
59	0xbe5c0eb7	-0.21489988
60	0x3a456b58	0.0007530949
61	0xbdde049c	-0.10840723
62	0xbe83be6a	-0.25731212
63	0xbe3ab12b	-0.18231647

fc2.weight f4 [64, 64]
0	0x034521bc	5.793182e-37
1	0x8169b760	-4.2926906e-38
2	0x029c8675	2.2999314e-37
3	0x031a67e8	4.537581e-37
4	0x81ace7ec	-6.3515613e-38
5	0x827c7c81	-1.8549767e-37
6	0x827d4bee	-1.8609295e-37
7	0x8354621d	-6.241383e-37
8	0x83971113	-8.878902e-37
9	0x82f2b567	-3.5662824e-37
10	0x02da4950	3.20743e-37
11	0x015655fc	3.9367283e-38
12	0x826558e0	-1.6849769e-37
13	0x83d1e557	-1.233657e-36
14	0x83c8017b	-1.1755283e-36
15	0x831fb840	-4.693741e-37
16	0x0186d97a	4.953589e-38
17	0x81f06c80	-8.8317766e-38
18	0x01128744	2.6913013e-38
19	0x027afd2b	1.8439755e-37
20	0x8355f539	-6.2876576e-37
21	0x83556414	-6.270996e-37
22	0x8304d4b2	-3.9035476e-37
23	0x801879e8	-2.247784e-39
24	0x02029a22	9.595126e-38
25	0x82eaa972	-3.4480467e-37
26	0x021d6584	1.1563672e-37
27	0x836d0a56	-6.9659905e-37
28	0x033a36f0	5.4723552e-37
29	0x83dc0603	-1.2931818e-36
30	0x8283e298	-1.9378778e-37
31	0x023037b7	1.2946427e-37
32	0x826d9a73	-1.7456335e-37
33	0x8158e9a8	-3.9840574e-38
34	0x01cb7b0c	7.4746986e-38
35	0x8323ce54	-4.813825e-37
36	0x83859b4b	-7.852691e-37
37	0x02ebe62a	3.4662254e-37
38	0x0321aee4	4.751441e-37
39	0x0109a270	2.527947e-38
40	0x023a9ca8	1.371008e-37
41	0x0200231f	9.414034e-38
42	0x8158a438	-3.9790756e-38
43	0x02aee7f0	2.5700128e-37
44	0x006d98a8	1.0064832e-38
45	0x82048b54	-9.737814e-38
46	0x0385e392	7.869285e-37
47	0x80442958	-6.259645e-39
48	0x03a25148	9.5401655e-37
49	0x8176c500	-4.5324405e-38
50	0x80bc7ab0	-1.7309085e-38
51	0x83bb4c58	-1.10084e-36
52	0x02404275	1.4125004e-37
53	0x83acae62	-1.0149288e-36
54	0x0268bc97	1.7098791e-37
55	0x03404be0	5.651083e-37
56	0x833a42f7	-5.473736e-37
57	0x83d8c7c7	-1.2741206e-36
58	0x02d41daa	3.1167627e-37
59	0x02ae1ba8	2.5582876e-37
60	0x823da556	-1.3932976e-37
61	0x828c840e	-2.0646947e-37
62	0x82db52ba	-3.222664e-37
63	0x8385dfd8	-7.868429e-37
64	0x3ad616b6	0.0016333673
65	0x3a8c6d93	0.0010713808
66	0x3cfb3fe8	0.030670121
67	0xbcefbc78	-0.029264674
68	0xbdacc9e6	-0.084369466
69	0x3b57de38	0.003293885
70	0x378439f0	1.5762605e-05
71	0x3d2482b8	0.040163726
72	0xbd646af8	-0.055766076
73	0x3d41ee29	0.047346268
74	0xbdb357bc	-0.087569684
75	0x3ce02698	0.027362153
76	0x3d24a7be	0.040199034
77	0xbdfcb923	-0.123399995
78	0x3e2a233d	0.16615005
79	0xbbe76e9e	-0.007062747
80	0xb9f94b5d	-0.0004754913
81	0x3c6fda81	0.014639498
82	0xbc0d6c0e	-0.008631719
83	0xbe4612a2	-0.19343045
84	0xbe4da4e5	-0.20082434
85	0x3d220e6e	0.039564542
86	0xbe19600c	-0.14978045
87	0x3d383839	0.044975493
88	0x3ca5dd56	0.020247143
89	0xbd244cae	-0.04011219
90	0xbb94fe8e	-0.004546947
91	0xbe8d6e02	-0.27622992
92	0x3d42fd01	0.047604565
93	0xbded99bc	-0.11601588
94	0x3d98ca2c	0.07460436
95	0xbe04ffa9	-0.12988152
96	0xbc2da7c3	-0.01059908
97	0xbb90fa35	-0.0044243583
98	0xbe0f6213	-0.14002256
99	0xbe4a5399	-0.19758452
100	0x3cda1b17	0.026624246
101	0xbdea7cb9	-0.1144957
102	0x3e02d6db	0.12777273
103	0x3ce1ba5d	0.027554685
104	0x3a43f42f	0.0007475046
105	0xbcef5cf4	-0.029219128
106	0xbd90a95c	-0.07063553
107	0xbdcee292	-0.101018086
108	0x3c95f9c0	0.018307567
109	0x3d282547	0.041051175
110	0xbde937ac	-0.11387572
111	0xbe040a95	-0.12894662
112	0x3bf31e97	0.007419418
113	0xbe400cdd	-0.18754907
114	0x3da9a72d	0.082838394
115	0x3e131452	0.1436322
116	0xbdd9a91c	-0.10627958
117	0x3e785dae	0.24254486
118	0x3e355afe	0.17710492
119	0xbb819251	-0.00395421
120	0x3cd4f6b1	0.025996538
121	0x3e026f7c	0.1273784
122	0xbceee9ac	-0.029164158
123	0x3d5d2eae	0.053999595
124	0xba83708d	-0.001002805
125	0xbd1f0953	-0.03882725
126	0xbdf3ec9e	-0.119103655
127	0xbcaa02ca	-0.020753283
128	0xbd3ceb6a	-0.046122946
129	0x3a4ccd1f	0.0007812548
130	0x3d1919bb	0.037378054
131	0xbc5f7e45	-0.013640945
132	0xbda007c9	-0.07813985
133	0xbc4249ea	-0.011858443
134	0xb922c591	-0.00015523123
135	0x3c976968	0.018482879
136	0xbcdde93f	-0.02708876
137	0x3bcf5392	0.006327101
138	0xbdbff7dc	-0.09373447
139	0x3c4a3875	0.012342562
140	0x3d3c9c20	0.04604733
141	0xbe006b6a	-0.12540975
142	0x3e24647a	0.16053954
143	0xbc566581	-0.013085724
144	0xbb4b397a	-0.00310096
145	0x3c89726a	0.01677819
146	0xbc1bfecd	-0.009521198
147	0xbe04c74a	-0.12966648
148	0xbe583fbf	-0.21118067
149	0x3e160865	0.1465164
150	0xbe3004c3	-0.17189316
151	0x3ddf7749	0.10911424
152	0x3db6ea0c	0.0893136
153	0xbd646c6d	-0.055767465
154	0xbba8ab5e	-0.0051473817
155	0xbe857624	-0.26066697
156	0x3d2947ee	0.041328363
157	0xbde57011	-0.112030156
158	0xbae9d253	-0.0017839171
159	0xbe44bb1b	-0.19212
160	0xbccee424	-0.02525527
161	0xbc6024b5	-0.013680627
162	0xbe6defdb	-0.23236029
163	0xbe4d0db1	-0.20024754
164	0x3d329376	0.04359766
165	0xbdf74400	-0.12073517
166	0xbd138872	-0.036018796
167	0x3db938e2	0.09044053
168	0x3a0f50f0	0.0005467078
169	0xbd1ee039	-0.038788054
170	0xbd96508b	-0.07339581
171	0xbdd846ae	-0.10560356
172	0x3d6f259a	0.05838547
173	0x3d429f52	0.04751522
174	0xbdac2b9c	-0.08406755
175	0xbe04eda5	-0.12981279
176	0x3c9936f1	0.018702956
177	0xbe57fad9	-0.21091785
178	0xbd70f50a	-0.058827437
179	0x3d1639a2	0.036676057
180	0xbe2102b3	-0.15723686
181	0x3e8598f2	0.2609325
182	0x3e3d2cda	0.18474141
183	0xbc7fbb28	-0.015608586
184	0x3cb8805c	0.022522144
185	0x3e2823b0	0.16419864
186	0xbe12b283	-0.1432591
187	0x3dede081	0.11615086
188	0xb9dc5c28	-0.00042030332
189	0xbdea726b	-0.11447605
190	0xbe008db3	-0.12554054
191	0xbd0d1a63	-0.034448992
192	0x3e24ff72	0.1611307
193	0xba4c850d	-0.00078018085
194	0xbcd82fca	-0.026389975
195	0x3e5ce708	0.21572506
196	0x3c4af54c	0.012387585
197	0xbd29d92e	-0.041466884
198	0x3a28f3ef	0.00064450403
199	0x3da1e57b	0.07905098
200	0xbca12348	-0.019670144
201	0xbc86e6ae	-0.016467419
202	0xbbea39ce	-0.007148004
203	0xbcbb1996	-0.022839349
204	0x3d02246c	0.031773016
205	0x3d7a85fb	0.06116293
206	0xbd82e407	-0.06391149
207	0xbdfbb465	-0.12290267
208	0xbb95606e	-0.0045586145
209	0xbd7bde2f	-0.061491188
210	0x3e2db0d9	0.16961993
211	0xbc4a2a3c	-0.012339171
212	0x3da708b8	0.0815596
213	0x3cf50313	0.029908692
214	0xbd86e7d8	-0.065871894
215	0x3c2bc493	0.010483879
216	0x3c984349	0.018586772
217	0x3ca93c08	0.020658508
218	0x38cc0031	9.727514e-05
219	0xbd2d1de3	-0.04226483
220	0x3d61092e	0.054940395
221	0xbca72779	-0.020404564
222	0x3c153f1c	0.009109285
223	0x3c7b885d	0.015352336
224	0xbde37dd9	-0.11107988
225	0xbdf202ec	-0.118169636
226	0x3cfa2f94	0.030540265
227	0xbc83002b	-0.015991291
228	0x3d218d42	0.039441355
229	0x3c81b04e	0.015831139
230	0xbc4f6e7a	-0.012660617
231	0xba3f46fd	-0.000729665
232	0xba1002ea	-0.00054935983
233	0xbdcaf5c3	-0.099101566
234	0x3c533346	0.0128906425
235	0xbd3052ae	-0.0430476
236	0x3d2c49c1	0.042062525
237	0xbc5357db	-0.012899364
238	0xbc8faf0e	-0.017539527
239	0xbbd9b32a	-0.0066436725
240	0x3c64d475	0.013966669
241	0xbbbb9668	-0.005724717
242	0x3db01f59	0.08599729
243	0x3d8d80a4	0.06909302
244	0xbd323f34	-0.043517306
245	0x3e36ad69	0.17839588
246	0xbe13d23e	-0.1443567
247	0x3e9da8f2	0.30792958
248	0xbbc5b3c5	-0.006033393
249	0xbe1ea86c	-0.15493935
250	0xbd368cd5	-0.0445679
251	0xbb34d01e	-0.0027589868
252	0x3a2b3e4e	0.00065324164
253	0x3d25a6a1	0.040442113
254	0x3c115c15	0.008872052
255	0x3d82075a	0.063490584

fc2.bias f4 [64]
0	0x83b73004	-1.0766797e-36
1	0x3d9f0768	0.077650845
2	0x3dc79ee7	0.09747105
3	0x3e388614	0.18019897
4	0x83a782b3	-9.845385e-37
5	0x833b177c	-5.498132e-37
6	0x83ddb73c	-1.3031281e-36
7	0x3b9d4e18	0.0048005693
8	0x3cc6df3f	0.024276374
9	0x3e1bf6e4	0.152309
10	0x02ab96e8	2.5212808e-37
11	0x826328ea	-1.6689068e-37
12	0x839554e5	-8.776924e-37
13	0x832af555	-5.0240137e-37
14	0x838d3697	-8.299768e-37
15	0x80e5fea0	-2.1121671e-38
16	0x83a529a2	-9.707387e-37
17	0xbe57f9f3	-0.21091442
18	0x3e395c39	0.18101586
19	0x3db4f039	0.08834881
20	0x3d71fa29	0.059076462
21	0x83239ba4	-4.808006e-37
22	0x3dc1fdf9	0.094722696
23	0x839d16de	-9.232881e-37
24	0x3dca6e9d	0.09884379
25	0x3de9326f	0.113865726
26	0x3d195c5e	0.037441604
27	0xbd2614f8	-0.04054734
28	0x0283ee88	1.938563e-37
29	0x3db61159	0.088900276
30	0x3d1463c1	0.036227945
31	0x3e3c2e2c	0.18376988
32	0x3d236eee	0.039900713
33	0x831890be	-4.483494e-37
34	0x3e35c6f2	0.17751673
35	0xbdb4cb29	-0.08827812
36	0x025db909	1.6289618e-37
37	0x83aaf7bb	-1.0048578e-36
38	0x83936162	-8.6622415e-37
39	0x83155849	-4.388851e-37
40	0x825d06fa	-1.6238518e-37
41	0x8330a73a	-5.191372e-37
42	0xbdc090b2	-0.094025984
43	0x8324c1c0	-4.8417682e-37
44	0x3e1615e6	0.14656791
45	0xbe548ad1	-0.2075608
46	0x807bf000	-1.1381862e-38
47	0xbe5d396e	-0.21603939
48	0x8361a21e	-6.630766e-37
49	0x840437b4	-1.5542103e-36
50	0x836d289b	-6.9694653e-37
51	0x83871dd0	-7.9414315e-37
52	0x8373fe3c	-7.170313e-37
53	0x3db10dbb	0.08645197
54	0x02b30c97	2.6308912e-37
55	0x828a8d0a	-2.035823e-37
56	0x3ea4166d	0.3204836
57	0x3db5a735	0.08869783
58	0x3e41ffa4	0.18945175
59	0x3e116d4d	0.14201851
60	0x8305614c	-3.919688e-37
61	0x3ea87537	0.32901928
62	0x83e646ff	-1.3534485e-36
63	0x02079b81	9.962861e-38

fc3.weight f4 [2, 64]
0	0x82070e32	-9.922307e-38
1	0xbc7fc948	-0.015611954
2	0xbbfe4b0b	-0.0077604107
3	0x3f24b3f6	0.643371
4	0x819fc086	-5.8683633e-38
5	0x837c9285	-7.422434e-37
6	0x82b194e8	-2.609328e-37
7	0xbd022cf0	-0.031781137
8	0x3d7469cc	0.05967121
9	0x3cb1c576	0.021700602
10	0x029c81c7	2.2996628e-37
11	0x822211d8	-1.1907001e-37
12	0x827e9e8e	-1.8706476e-37
13	0x820310de	-9.629201e-38
14	0x023b851b	1.377679e-37
15	0x8031cfe0	-4.574511e-39
16	0x827d16f4	-1.8594092e-37
17	0xbbb71a0d	-0.0055878223
18	0x3cbcffd8	0.023071215
19	0xbf05cab6	-0.5226244
20	0x3d2dc4da	0.04242406
21	0x823cfcc8	-1.3884603e-37
22	0xbd6c2928	-0.057656437
23	0x822ff36b	-1.2926827e-37
24	0xbbd01ee6	-0.0063513396
25	0xbc0b0038	-0.008483939
26	0x3c756dda	0.014979804
27	0x3bd7a5f6	0.0065810634
28	0x0112b9b4	2.69492e-38
29	0x3cdb2209	0.026749628
30	0xbcc2f3a6	-0.023797821
31	0x3d0f49cd	0.03498249
32	0x3eeec249	0.46632603
33	0x814a7ac8	-3.7189632e-38
34	0x3c2c9fc9	0.010536143
35	0xbea5b7fb	-0.32366928
36	0x01981ad0	5.5874456e-38
37	0x823c9de6	-1.3857373e-37
38	0x007aeb80	1.1288412e-38
39	0x0166da5c	4.2400993e-38
40	0x0106ef74	2.4783712e-38
41	0x80f65b50	-2.2624289e-38
42	0x3f3b002e	0.7304715
43	0x0278d95e	1.8282544e-37
44	0x3d1a30a2	0.037644036
45	0xbf43565a	-0.7630364
46	0x0283f2f1	1.9388162e-37
47	0x3d27e063	0.040985476
48	0x027a3aa8	1.8383933e-37
49	0x02bdd3e0	2.7892664e-37
50	0x829feb4e	-2.3498008e-37
51	0x013b02e0	3.4348538e-38
52	0x011ce6c8	2.8818252e-38
53	0xbc339fe9	-0.0109634185
54	0x8210ea0c	-1.0646617e-37
55	0x833bcee1	-5.5191846e-37
56	0x3e184df1	0.14873482
57	0xbd285f7e	-0.041106693
58	0xbcf40163	-0.029785817
59	0xbf5442fa	-0.829147
60	0x015a0e70	4.0050635e-38
61	0x3dc460b6	0.09588759
62	0x0272cfb0	1.7838955e-37
63	0x01e565f1	8.4267593e-38
64	0x81dd8f02	-8.1387785e-38
65	0x3f4b6e9c	0.7946565
66	0x3f5f1255	0.8713735
67	0xbdae62a2	-0.085149065
68	0x0295a518	2.1988341e-37
69	0x03074de2	3.976234e-37
70	0x02326c80	1.3108513e-37
71	0xbb362ae0	-0.0027796552
72	0x3e7b3b60	0.24534369
73	0x3f115a4b	0.567784
74	0x8354be6e	-6.2519803e-37
75	0x02bc56dc	2.7673972e-37
76	0x02d014ee	3.0574866e-37
77	0x01d2bfd4	7.7417077e-38
78	0x8301d31d	-3.815204e-37
79	0x8206914a	-9.886461e-38
80	0x81db4016	-8.0539853e-38
81	0x3f48b60e	0.78402793
82	0xbf5caefc	-0.86204505
83	0xbdfc5fef	-0.123229854
84	0x3efbf8a5	0.49213138
85	0x0192c5a0	5.391551e-38
86	0x3f80d663	1.0065426
87	0x024249f8	1.4274097e-37
88	0x3f324d58	0.6964927
89	0x3f6cf817	0.92566055
90	0xbe63593d	-0.2220201
91	0xbfac89ab	-1.3479513
92	0x830e9eba	-4.191226e-37
93	0xbf0029ed	-0.50063974
94	0x3ebf696c	0.37385118
95	0x3f9571b6	1.1675327
96	0x3e1108be	0.14163491
97	0x02b6d404	2.6864187e-37
98	0xbf0f05e5	-0.5586837
99	0xbc7a7bb6	-0.015288284
100	0x028481a5	1.947007e-37
101	0x000677f8	5.9405e-40
102	0x824c98e6	-1.5031433e-37
103	0x01faca12	9.2125453e-38
104	0x827a2b6e	-1.8379563e-37
105	0x030c8c98	4.1303696e-37
106	0x3bc72936	0.006077911
107	0x81e0c792	-8.2570974e-38
108	0x3f344b8e	0.7042779
109	0xbd16a685	-0.0367799
110	0x02cc6b00	3.003652e-37
111	0x3f1f9715	0.6233991
112	0x01adf224	6.389762e-38
113	0x02bb85f0	2.7554057e-37
114	0x81ea3528	-8.60343e-38
115	0x0253126b	1.5507117e-37
116	0x8253be16	-1.5556384e-37
117	0x3f53bdd9	0.8271156
118	0x8190ffc0	-5.326423e-38
119	0x0387ac90	7.974205e-37
120	0xbf746c48	-0.95477724
121	0xbf40ca37	-0.75308555
122	0xbf57325c	-0.8406122
123	0x3ccb69c8	0.024830714
124	0x012df668	3.195187e-38
125	0xbf937c00	-1.1522217
126	0x807ec898	-1.1643232e-38
127	0x00183940	2.22459e-39

fc3.bias f4 [2]
0	0x3d769cfa	0.0602083
1	0xbde6d882	-0.11271764
