model_config/model_noisy_45_64.pth (torch, 22450 bytes, 7 tensors)

input_weights f4 [8]
0	0x40a00000	5.0
1	0x40a00000	5.0
2	0x40a00000	5.0
3	0x3f800000	1.0
4	0x3f800000	1.0
5	0x3f800000	1.0
6	0x3f800000	1.0
7	0x3f800000	1.0

fc1.weight f4 [64, 8]
0	0x34a17338	3.007242e-07
1	0xb4bf447e	-3.5626357e-07
2	0x3342c64e	4.5349502e-08
3	0x3463ec1b	2.1226917e-07
4	0xb4274a22	-1.5580056e-07
5	0xb3cc586c	-9.515574e-08
6	0x340e8cb2	1.3275965e-07
7	0xb4c20504	-3.6138965e-07
8	0x3f1292ee	0.57255447
9	0x3c1e4bd2	0.009661632
10	0x3d01402c	0.03155534
11	0x3b6f7955	0.0036540825
12	0xb828fb23	-4.028821e-05
13	0xbcea05f0	-0.028567284
14	0x38d022ad	9.924672e-05
15	0xbcc20599	-0.02368431
16	0x34335aae	1.6703663e-07
17	0xb4899d8f	-2.5632878e-07
18	0xb450a2ac	-1.9430689e-07
19	0x35118fab	5.4225774e-07
20	0x326ec924	1.3899157e-08
21	0xb5324dad	-6.64232e-07
22	0xb48c07eb	-2.6082793e-07
23	0x3422dbee	1.5167436e-07
24	0xbe74bb0d	-0.23899479
25	0xbca445d4	-0.020052828
26	0xbd967336	-0.073461935
27	0xbadeddd1	-0.0017003362
28	0x369060a2	4.302784e-06
29	0x3aa394a0	0.0012480207
30	0x3832c50f	4.2622032e-05
31	0xbe5eab82	-0.21745113
32	0x33b8dbde	8.608161e-08
33	0xb43c199d	-1.7518182e-07
34	0xb4c3ba3b	-3.645708e-07
35	0xb4790868	-2.319299e-07
36	0x336c86bc	5.5070572e-08
37	0xb4c6212e	-3.6904515e-07
38	0xb4689c81	-2.166362e-07
39	0xb3592630	-5.055898e-08
40	0xbb823300	-0.003973365
41	0xbce62a34	-0.028096296
42	0xbe38ae43	-0.18035226
43	0xbca6a221	-0.020340981
44	0x3dd8e7d5	0.105910935
45	0x3e42620f	0.18982719
46	0xbaf4de2f	-0.0018681939
47	0xbf1e238e	-0.61773
48	0x33d61858	9.96958e-08
49	0x34ce65db	3.84446e-07
50	0x35122b84	5.445256e-07
51	0xb515718a	-5.5672047e-07
52	0xb26e6cd0	-1.3878164e-08
53	0xb45db63e	-2.0648528e-07
54	0x346ec453	2.22369e-07
55	0x3501f748	4.8416086e-07
56	0xb39127b7	-6.759313e-08
57	0xb4a112de	-3.0002315e-07
58	0xb3d63509	-9.9747986e-08
59	0x3385ab45	6.224449e-08
60	0xb37175b0	-5.621922e-08
61	0x331c8ee0	3.6451524e-08
62	0x337f893a	5.949662e-08
63	0x351d8b9b	5.869021e-07
64	0x34504d86	1.9399712e-07
65	0xb4f15e7e	-4.49585e-07
66	0xb4ac2c8e	-3.2069914e-07
67	0x34ee0de5	4.4341064e-07
68	0xb4c08022	-3.5856016e-07
69	0x34c9413c	3.7486632e-07
70	0x34a90a9f	3.148643e-07
71	0x34bdd966	3.5362172e-07
72	0x3aaca24a	0.0013170925
73	0x3d8cfcf0	0.068841815
74	0xbe1d465c	-0.15358871
75	0xb81a3753	-3.6767986e-05
76	0xbd60d1ee	-0.054887705
77	0xbd9ea7ad	-0.07746825
78	0x3d1c49dd	0.03815638
79	0x3ec55df3	0.3854824
80	0xb3462f60	-4.6143555e-08
81	0xb413e8c6	-1.3775124e-07
82	0xb4b32561	-3.3368545e-07
83	0x352a1636	6.3362256e-07
84	0xb49347b0	-2.7433043e-07
85	0xb2ae2a80	-2.0275593e-08
86	0x3403a6aa	1.2260958e-07
87	0xb39862cc	-7.0960226e-08
88	0xb3e3f7d6	-1.0615592e-07
89	0xb3c03bd5	-8.95158e-08
90	0x34a04cde	2.985825e-07
91	0xb46fb82b	-2.232561e-07
92	0x3408d0f4	1.2742004e-07
93	0xb50c15c9	-5.2185766e-07
94	0xb489a412	-2.5637615e-07
95	0x340f0623	1.3320145e-07
96	0xbd8c44f2	-0.06849088
97	0xbd1dd59f	-0.038533803
98	0x3e6b0096	0.22949442
99	0x3e90a2b7	0.28249142
100	0x3d32bc55	0.04363664
101	0x3e1ab237	0.15107046
102	0x3c633958	0.013868652
103	0x3873f623	5.8164947e-05
104	0xbd95f6e3	-0.073224805
105	0xbda9d3cd	-0.08292351
106	0xbe7da4cc	-0.24769896
107	0xbce22315	-0.027604619
108	0xbdab0bac	-0.083518356
109	0xbe5c6ff0	-0.21527076
110	0xbc03ad33	-0.008036899
111	0xbdbf75f6	-0.09348671
112	0xbf4b080c	-0.79309154
113	0x3ce8cb6e	0.028417315
114	0x3d6822c3	0.056673776
115	0x38191b38	3.6503392e-05
116	0xbcb64d16	-0.022253554
117	0x382a377e	4.058284e-05
118	0x3bbd56f6	0.005778189
119	0xbd2b03ba	-0.0417516
120	0x341086e8	1.3460124e-07
121	0xb4bc65d4	-3.5091819e-07
122	0x342950d9	1.5768764e-07
123	0x34aca9a7	3.2160935e-07
124	0xb4878f98	-2.5250188e-07
125	0x33a59dd4	7.71212e-08
126	0x351a5fc1	5.750881e-07
127	0xb29dac10	-1.835545e-08
128	0xbc375522	-0.011189731
129	0x3e1541e0	0.1457591
130	0x3db45598	0.08805388
131	0x3d34746e	0.04405635
132	0xbdb98e61	-0.0906036
133	0xbe3660ea	-0.17810407
134	0x3c60ab60	0.013712734
135	0xbd0a714a	-0.033799447
136	0x3c3f8c12	0.01169111
137	0xbdd44162	-0.10364033
138	0x3decd83e	0.115646824
139	0xbebd1de0	-0.36936855
140	0x388f9118	6.845797e-05
141	0x38d0875b	9.943425e-05
142	0xbd62b89c	-0.05535184
143	0xb6cddebc	-6.135406e-06
144	0x33cc3af4	9.510214e-08
145	0xb4a463e7	-3.062007e-07
146	0xb284a856	-1.5443373e-08
147	0xb561a8ee	-8.4064857e-07
148	0x346b8b91	2.1936854e-07
149	0x342a645f	1.5868999e-07
150	0x34c84ac5	3.7307305e-07
151	0x33e13934	1.0487784e-07
152	0xb40840a4	-1.2689503e-07
153	0x34a926a4	3.1506818e-07
154	0xb48d74a3	-2.634816e-07
155	0x3403cebc	1.2275535e-07
156	0x34905b34	2.688845e-07
157	0xb4660fdb	-2.1426187e-07
158	0x3525270a	6.15241e-07
159	0xb30b7c00	-3.2476237e-08
160	0xb50e68d4	-5.305167e-07
161	0xb50f0f4e	-5.329392e-07
162	0xb465fa40	-2.1418327e-07
163	0x34754734	2.2843307e-07
164	0xb42175d7	-1.5037163e-07
165	0xb4445289	-1.8283949e-07
166	0xb4815bba	-2.4094862e-07
167	0x34a4ab82	3.067217e-07
168	0x341f3d24	1.4830272e-07
169	0xb45309f7	-1.9654532e-07
170	0xb5486237	-7.464873e-07
171	0x31fdf6e0	7.3913355e-09
172	0x34736a1b	2.266974e-07
173	0x3450997c	1.9427347e-07
174	0x32968f90	1.7527583e-08
175	0x35141fee	5.518076e-07
176	0x344cbe7a	1.9068275e-07
177	0xb31c6ba0	-3.6419465e-08
178	0x34a62a02	3.0950474e-07
179	0xb5110ec4	-5.4038196e-07
180	0x3440c831	1.7954223e-07
181	0xb3cd5da8	-9.5630924e-08
182	0x32e0e0a0	2.617918e-08
183	0xb456c8dc	-2.0003375e-07
184	0x33854651	6.2060856e-08
185	0x344cfc95	1.909087e-07
186	0xb458b841	-2.0183599e-07
187	0xb42e23d5	-1.6218048e-07
188	0xb478e77d	-2.3181015e-07
189	0xb3c58628	-9.19793e-08
190	0xb5152c0c	-5.557092e-07
191	0x348404be	2.4590366e-07
192	0xbcbc06dd	-0.022952491
193	0x39b26f9b	0.00034033958
194	0x388c2d9b	6.684215e-05
195	0x39142725	0.00014128962
196	0xb98b6fa6	-0.0002659533
197	0xb709ceb3	-8.213962e-06
198	0x3f8c1638	1.0944281
199	0x36c18508	5.767335e-06
200	0x34dbef8c	4.0966222e-07
201	0x3221dcf8	9.421676e-09
202	0x34abe9cf	3.202135e-07
203	0x3414745c	1.3825905e-07
204	0xb40cca3a	-1.3112086e-07
205	0x33094682	3.1961925e-08
206	0xb3f3ad70	-1.13471174e-07
207	0x349efbbc	2.9612954e-07
208	0x34a2b459	3.0306072e-07
209	0x337e7386	5.924405e-08
210	0xb478e5c4	-2.3180388e-07
211	0x3475854e	2.2865899e-07
212	0x3428b2ac	1.571122e-07
213	0x34fa15bf	4.658195e-07
214	0xb2bb004c	-2.17698e-08
215	0x33a49188	7.663317e-08
216	0x33e9e19c	1.0890946e-07
217	0xb49cf1df	-2.923325e-07
218	0xb3d0bef7	-9.720491e-08
219	0xb4568d6e	-1.9981755e-07
220	0x34322045	1.6589281e-07
221	0xb375ce22	-5.7230984e-08
222	0xb4afa771	-3.271812e-07
223	0x349249b7	2.7248254e-07
224	0xb43d283d	-1.7616635e-07
225	0xb4cbde60	-3.7973496e-07
226	0x34e7767d	4.3113315e-07
227	0xb424d1f8	-1.5350076e-07
228	0xb484a7c4	-2.4708982e-07
229	0xb3cfd790	-9.678399e-08
230	0x33d10fc8	9.7351915e-08
231	0xb3f67974	-1.147736e-07
232	0x3c560462	0.013062568
233	0xbccdf4cf	-0.025141148
234	0xbd768989	-0.060189757
235	0xb8251571	-3.9359034e-05
236	0xbc45f463	-0.012082192
237	0xbda37d1f	-0.07982849
238	0x38cc9f87	9.757192e-05
239	0x3e57bdfe	0.2106857
240	0x3cc6410d	0.02420094
241	0xb9b4a027	-0.00034451598
242	0xb8291655	-4.031354e-05
243	0xbbf0fbf5	-0.0073542544
244	0xb453d550	-1.9728509e-07
245	0x3a2ce12f	0.0006594834
246	0xbf90314d	-1.1265045
247	0x3a2ad7ef	0.0006517162
248	0x34cac839	3.7771113e-07
249	0x31b65920	5.3070295e-09
250	0x3404d258	1.236998e-07
251	0x344a3f03	1.883564e-07
252	0x354e1846	7.67763e-07
253	0x34ecccc8	4.4107423e-07
254	0x3309bc3c	3.2068996e-08
255	0xb42f6b72	-1.6337233e-07

fc1.bias f4 [64]
0	0x33a92144	7.875727e-08
1	0x37911b5a	1.7298084e-05
2	0x33affb46	8.194779e-08
3	0xbee3d294	-0.44496596
4	0xb3c1169c	-8.9913755e-08
5	0xbed06720	-0.40703678
6	0x3442a25e	1.8126727e-07
7	0x32b3e830	2.094393e-08
8	0x3406ae54	1.2543143e-07
9	0x3db368f7	0.08760255
10	0x350ffd23	5.3640014e-07
11	0xb478607e	-2.3131904e-07
12	0x3849c203	4.8102822e-05
13	0x37856fb6	1.5906855e-05
14	0xbf106497	-0.5640349
15	0xb3cad44c	-9.4449746e-08
16	0xbf40af93	-0.75267905
17	0xb7f1e4fb	-2.8836066e-05
18	0x3504e852	4.95119e-07
19	0xb50d140a	-5.2555754e-07
20	0x3370f7d8	5.6104767e-08
21	0xb3f27e74	-1.1292005e-07
22	0x3483f0f8	2.457598e-07
23	0x34f9091a	4.6386486e-07
24	0x3ae97438	0.0017811125
25	0x34c6e4af	3.7046763e-07
26	0xb4c013ca	-3.5777185e-07
27	0xb48ee1b8	-2.6613793e-07
28	0xb46e0566	-2.2167441e-07
29	0xbd78edc0	-0.06077361
30	0xb7fe11f9	-3.0287529e-05
31	0xb32f5748	-4.0824744e-08
32	0xb490e30e	-2.6987294e-07
33	0xb4352640	-1.6870854e-07
34	0xbe8aa36c	-0.27077806
35	0x3f0ea04d	0.5571335
36	0xbf82e3b3	-1.0225738
37	0xb7df54eb	-2.6623215e-05
38	0xbf15ce00	-0.58517456
39	0x3ee1f3ae	0.44131225
40	0x3c2340fa	0.009964222
41	0xbe11165c	-0.14168686
42	0x375cbc84	1.3156914e-05
43	0x343f8744	1.783747e-07
44	0x32ba7484	2.1706235e-08
45	0xb1334638	-2.6087843e-09
46	0xb44b147d	-1.8913302e-07
47	0x34224af7	1.5114698e-07
48	0x32dede80	2.5945383e-08
49	0x32c26be0	2.2633628e-08
50	0xb34da51c	-4.7880448e-08
51	0x383dc4e9	4.52445e-05
52	0xb7d7bb91	-2.571734e-05
53	0x356f4e53	8.9148415e-07
54	0xb48c46d1	-2.6128558e-07
55	0xb4abe7a2	-3.2019767e-07
56	0x3403e0ab	1.228206e-07
57	0x3f6eb28d	0.93241197
58	0x3db80dbd	0.08986995
59	0x3f939f3d	1.1532971
60	0xbe3611b5	-0.17780192
61	0xbf42f569	-0.76155716
62	0xb456bbc0	-1.9998606e-07
63	0xbf9ebd98	-1.240161

fc2.weight f4 [64, 64]
0	0xb383a45b	-6.130059e-08
1	0x34a9b2c8	3.1608784e-07
2	0xb3961b11	-6.989843e-08
3	0xb4a8e57f	-3.145942e-07
4	0x2f832800	2.3857183e-10
5	0x341d87e3	1.46712e-07
6	0x33d9efb8	1.01484545e-07
7	0x3446076e	1.844289e-07
8	0xb30b5174	-3.243754e-08
9	0x33352f5c	4.218542e-08
10	0xb4893f74	-2.5564407e-07
11	0xb272ad98	-1.4125725e-08
12	0xb4a6d6a5	-3.1076084e-07
13	0x34c93504	3.7477741e-07
14	0x3491d98a	2.7166635e-07
15	0xb5239492	-6.093843e-07
16	0x3221b970	9.413597e-09
17	0xb39c9b62	-7.29258e-08
18	0xb2d38b38	-2.4626942e-08
19	0x332cf460	4.026913e-08
20	0xb36fab40	-5.5802275e-08
21	0x3495b613	2.788589e-07
22	0xb4c80664	-3.7257553e-07
23	0x33090324	3.1900655e-08
24	0xb49ce147	-2.9221175e-07
25	0xb3866638	-6.258455e-08
26	0xb39a6f2a	-7.1914044e-08
27	0xb48bdff0	-2.6053704e-07
28	0x34978007	2.8219094e-07
29	0x34c5506d	3.6752627e-07
30	0x34bda060	3.5320681e-07
31	0xb4afa1ba	-3.2713962e-07
32	0x34afe7ae	3.276486e-07
33	0x34d61583	3.9876258e-07
34	0x34810f30	2.4039173e-07
35	0x3488f8d6	2.5513026e-07
36	0x33130a08	3.4235228e-08
37	0x337189f1	5.6237642e-08
38	0x33bf114c	8.897277e-08
39	0x33cbbc36	9.4871595e-08
40	0xb50030ba	-4.775462e-07
41	0x34056718	1.2424096e-07
42	0x33c1ad4c	9.0187854e-08
43	0xb548107c	-7.4529794e-07
44	0x3462e52b	2.1131261e-07
45	0xb39a8763	-7.1958105e-08
46	0x34b86e59	3.435296e-07
47	0xb3d09100	-9.71213e-08
48	0xb45b4770	-2.0421953e-07
49	0xb47cef60	-2.3556413e-07
50	0x3073c980	8.8689234e-10
51	0xb3e49924	-1.06449335e-07
52	0x32cf5158	2.4134962e-08
53	0x3450be1c	1.9440671e-07
54	0x343cbc9d	1.7577482e-07
55	0xb23b1ae0	-1.0890943e-08
56	0x3503ee88	4.914841e-07
57	0xb409cc36	-1.2833411e-07
58	0xb49df1c6	-2.9419442e-07
59	0xb3136c32	-3.4324508e-08
60	0xb498987a	-2.8423148e-07
61	0xb189c0c8	-4.0091415e-09
62	0x348ba964	2.6014015e-07
63	0xb3ae6b62	-8.122039e-08
64	0xb44c6d3c	-1.903872e-07
65	0xb3a0a6f7	-7.480951e-08
66	0x32f08d20	2.8003853e-08
67	0x34504b71	1.9398955e-07
68	0xb3f9a592	-1.1625083e-07
69	0x35069afe	5.0144433e-07
70	0x34407388	1.7923423e-07
71	0xb2ae1c9c	-2.0269276e-08
72	0x34794d9b	2.3218165e-07
73	0xb403849c	-1.2248569e-07
74	0xb50a501a	-5.152557e-07
75	0x338eac66	6.6437494e-08
76	0xb4c35915	-3.6386396e-07
77	0xb50cdb61	-5.24733e-07
78	0xb3ecee5a	-1.1032962e-07
79	0x3225eac4	9.657644e-09
80	0x35187f03	5.680924e-07
81	0xb4ff9d95	-4.7612107e-07
82	0x3277fe60	1.443513e-08
83	0xb4aee8bd	-3.2579365e-07
84	0x33f9834b	1.1618848e-07
85	0xb2964830	-1.7495125e-08
86	0xb47e71d6	-2.3697007e-07
87	0xb51aae0e	-5.7622754e-07
88	0xb419cfce	-1.4324834e-07
89	0x348f187b	2.6653638e-07
90	0x3400465f	1.194653e-07
91	0xb4f5f8d0	-4.581584e-07
92	0x33ce794d	9.614687e-08
93	0x3490ad81	2.694833e-07
94	0x3374acb0	5.6967735e-08
95	0xb230ada8	-1.0284033e-08
96	0xb4f9da0c	-4.6538514e-07
97	0xb3d87824	-1.0080137e-07
98	0xb3dbe4b5	-1.0239584e-07
99	0xb4822cb0	-2.42469e-07
100	0x332f8590	4.0866837e-08
101	0x333e446e	4.430006e-08
102	0x32857838	1.5537907e-08
103	0xb5035c47	-4.8935584e-07
104	0xb2750a08	-1.4263158e-08
105	0xb4cf09f1	-3.8563988e-07
106	0xb3612d60	-5.2428163e-08
107	0xb3567f28	-4.9941406e-08
108	0x34d22160	3.9139832e-07
109	0x33f6378a	1.146537e-07
110	0x330fda58	3.3493365e-08
111	0xb4b1ea83	-3.313945e-07
112	0xb4ecdf65	-4.4120966e-07
113	0xb45fbcb0	-2.0837138e-07
114	0xb4e266e5	-4.2170646e-07
115	0x32f9d8c8	2.9085996e-08
116	0x3511e1b8	5.4345173e-07
117	0xb5144a47	-5.5242384e-07
118	0x3519cba4	5.729328e-07
119	0xb5621896	-8.422734e-07
120	0x334a5108	4.7105488e-08
121	0x34558511	1.988558e-07
122	0xb5190ffe	-5.7020213e-07
123	0x34c6995c	3.6991958e-07
124	0xb450d22c	-1.944797e-07
125	0xb45b4a6e	-2.0423042e-07
126	0xb4881f3a	-2.5354694e-07
127	0xb48b0144	-2.5891688e-07
128	0xb0da6600	-1.5890578e-09
129	0xb3bed675	-8.886574e-08
130	0x355ea40a	8.2940153e-07
131	0x333639b2	4.242765e-08
132	0xb48949f1	-2.5572038e-07
133	0x3392746a	6.8198304e-08
134	0x348a0f1e	2.5715502e-07
135	0xb2e41080	-2.6550197e-08
136	0xb4918481	-2.7104764e-07
137	0xb41da10b	-1.4680352e-07
138	0xb4cb2905	-3.7841542e-07
139	0x34bbca3c	3.497861e-07
140	0x34bd43c0	3.5253288e-07
141	0xb4898b30	-2.561951e-07
142	0xb3536be4	-4.922539e-08
143	0xb4a02065	-2.9825893e-07
144	0xb485e5f5	-2.4940496e-07
145	0x33fad913	1.1681018e-07
146	0x34d1ad84	3.9055533e-07
147	0x3368fee8	5.4248545e-08
148	0x3496e5e5	2.8106948e-07
149	0x35693a08	8.688371e-07
150	0xb4f91188	-4.639262e-07
151	0x342bc76f	1.599817e-07
152	0x32f2cd80	2.8265958e-08
153	0xb41fb374	-1.4873314e-07
154	0xb1ce8f60	-6.011689e-09
155	0xb4343b6c	-1.6785424e-07
156	0xafbe9c00	-3.4671643e-10
157	0xb495337f	-2.779088e-07
158	0x33ad968e	8.083326e-08
159	0xb493ccfe	-2.7530035e-07
160	0x33ecd6a2	1.1028648e-07
161	0x3440d69c	1.7959468e-07
162	0xafe49a00	-4.1582382e-10
163	0x341914de	1.4256827e-07
164	0x349ccdf5	2.9207118e-07
165	0x33f615a2	1.1459203e-07
166	0x35380480	6.855189e-07
167	0xb4f90a78	-4.638748e-07
168	0xb4881366	-2.5346088e-07
169	0xb3c48578	-9.151239e-08
170	0x339b6176	7.235478e-08
171	0xb4117e8e	-1.3550218e-07
172	0xb4a9edd0	-3.1651734e-07
173	0xb4c507ae	-3.6699697e-07
174	0x33ccf585	9.54415e-08
175	0xb4835b00	-2.4466863e-07
176	0x34870e7b	2.5156245e-07
177	0x3369ae8c	5.440829e-08
178	0xb4a22ea3	-3.0208784e-07
179	0xb19f2244	-4.6314046e-09
180	0xb43db521	-1.7667891e-07
181	0x34d3783e	3.93893e-07
182	0x341530d3	1.3894469e-07
183	0xb4cbfb16	-3.7994386e-07
184	0xb2ec5c10	-2.7515881e-08
185	0xb21bdce0	-9.072409e-09
186	0xb499de4a	-2.8660207e-07
187	0x32a69c00	1.9395884e-08
188	0x3532e5d2	6.66446e-07
189	0x3508cce2	5.096209e-07
190	0x348d9a58	2.6375596e-07
191	0xb33bfe5e	-4.3770676e-08
192	0xb43602c5	-1.6951078e-07
193	0x33985935	7.094278e-08
194	0xb3ff961c	-1.19016676e-07
195	0xb4ceb7ec	-3.850431e-07
196	0xb27f1c80	-1.4849434e-08
197	0xb34c8a38	-4.762316e-08
198	0x33ec6711	1.1008354e-07
199	0xb4b87043	-3.4354352e-07
200	0xb4b3d748	-3.3497986e-07
201	0x3502b560	4.869271e-07
202	0xb50eb324	-5.3159806e-07
203	0xb41c5952	-1.4561127e-07
204	0xb496c472	-2.808261e-07
205	0xb42fa1d5	-1.6357019e-07
206	0xb3e3ea90	-1.0613178e-07
207	0x352f7921	6.5368846e-07
208	0xb490a0a5	-2.6938974e-07
209	0x3515e04d	5.5833226e-07
210	0xb334acac	-4.206656e-08
211	0x332b6acc	3.991117e-08
212	0xb4d5b4b1	-3.9805812e-07
213	0x34c5775a	3.678095e-07
214	0xb555385b	-7.943069e-07
215	0xb432f2cb	-1.666587e-07
216	0x349a51b4	2.8744182e-07
217	0x34c3639f	3.6394064e-07
218	0xb345f23c	-4.6087948e-08
219	0x35119aae	5.42418e-07
220	0xb3ecdd00	-1.1029806e-07
221	0x34b87b12	3.4362216e-07
222	0x331b9da6	3.623213e-08
223	0x3474669c	2.27616e-07
224	0xb490a01e	-2.693859e-07
225	0x33d51e02	9.924044e-08
226	0x35105019	5.376074e-07
227	0x34ce1bfc	3.839085e-07
228	0x34c10b65	3.5957342e-07
229	0x3451618c	1.9500129e-07
230	0xb457998e	-2.0079298e-07
231	0x349b06b8	2.8875888e-07
232	0x349a62f5	2.8756736e-07
233	0x33e57876	1.0685555e-07
234	0xb4df51ad	-4.1596414e-07
235	0x340234c4	1.212639e-07
236	0x353845e9	6.8647074e-07
237	0x3505b3ae	4.980783e-07
238	0x33bfe1f4	8.935231e-08
239	0xb51710c8	-5.6276303e-07
240	0x33fc4088	1.17464026e-07
241	0xb385a9fe	-6.2242165e-08
242	0x3501f379	4.8410544e-07
243	0x343cb765	1.7575583e-07
244	0xb519fe56	-5.736705e-07
245	0x331ec500	3.6966412e-08
246	0x3488890c	2.543169e-07
247	0x354f9700	7.7333243e-07
248	0xb5274a89	-6.232081e-07
249	0xb43ba7e0	-1.7476805e-07
250	0xb5a28f74	-1.2111691e-06
251	0xb44c8b54	-1.9049668e-07
252	0xb4d8afb4	-4.0360976e-07
253	0xb4b5174e	-3.3730834e-07
254	0xb3adc1fe	-8.091227e-08
255	0x3419fc83	1.4341099e-07

fc2.bias f4 [64]
0	0x33e1afec	1.0509379e-07
1	0xb2ab91b0	-1.9973271e-08
2	0x352000e6	5.960595e-07
3	0xb4c9ff38	-3.7624864e-07
4	0xb4a0cdea	-2.9952145e-07
5	0x34f0bfbe	4.4842994e-07
6	0xb4b4caa9	-3.3675067e-07
7	0x3f060e7d	0.5236586
8	0xb4bba235	-3.4949485e-07
9	0x30b5f580	1.3239259e-09
10	0x3516555a	5.600356e-07
11	0xb402902a	-1.215964e-07
12	0x34910cb8	2.701761e-07
13	0xb5693516	-8.6876514e-07
14	0x3ecc0d27	0.39853784
15	0xb4d5deb2	-3.9836374e-07
16	0x332015e8	3.7272827e-08
17	0xb3ba1804	-8.6656684e-08
18	0xbd0ba260	-0.0340904
19	0x371e6cc5	9.442859e-06
20	0xb51a1a82	-5.7408045e-07
21	0xb7bb5f88	-2.2336622e-05
22	0x330b5306	3.243897e-08
23	0x341b5564	1.4466565e-07
24	0x3ed3da8e	0.41377681
25	0xb42dd72e	-1.6190162e-07
26	0x34d60396	3.9863215e-07
27	0xb4d78704	-4.0145108e-07
28	0x3e3599c6	0.17734441
29	0x38237e36	3.897977e-05
30	0x3ee2851d	0.44242182
31	0x34ba0ab2	3.4652982e-07
32	0x39017a3b	0.00012347933
33	0x3df44999	0.119281
34	0xb3902431	-6.712106e-08
35	0x3438d22e	1.7212798e-07
36	0xb4961e39	-2.7961667e-07
37	0xbf44a1ba	-0.76809275
38	0xb39f68aa	-7.423053e-08
39	0x3e127902	0.14303973
40	0xb508e742	-5.100047e-07
41	0x322fd5ac	1.0234924e-08
42	0xb31ca8cc	-3.64751e-08
43	0x32d6dd80	2.5013605e-08
44	0x3414fba0	1.3875115e-07
45	0x3507767c	5.0463836e-07
46	0x34c2e8be	3.6304658e-07
47	0xbe1a82c5	-0.15088947
48	0x35385aa4	6.867724e-07
49	0xb1a10a20	-4.686868e-09
50	0xb5080dc5	-5.0683985e-07
51	0xb484e238	-2.4751512e-07
52	0x3436ee6e	1.7036811e-07
53	0xb2974bb4	-1.761314e-08
54	0xb4627a4e	-2.1092384e-07
55	0xaf9ecd00	-2.8885694e-10
56	0xb437c0ec	-1.7113388e-07
57	0xb4d99138	-4.052506e-07
58	0x3f1e13e2	0.6174909
59	0xb4862dcf	-2.4992775e-07
60	0xb837994c	-4.377337e-05
61	0x36da67b5	6.5089794e-06
62	0x3551ea0c	7.819915e-07
63	0x34aa1f88	3.168791e-07

fc3.weight f4 [2, 64]
0	0x333db6d2	4.4171266e-08
1	0x35145080	5.525144e-07
2	0x341f437c	1.483258e-07
3	0x3497beb7	2.8264705e-07
4	0x3512b9bf	5.4659534e-07
5	0x35150ad6	5.5522594e-07
6	0xb4ce8242	-3.8465265e-07
7	0xb7163f0d	-8.955377e-06
8	0xb3c33d14	-9.091505e-08
9	0x3313e270	3.443205e-08
10	0xb4d487e6	-3.9586956e-07
11	0xb409d24e	-1.2835628e-07
12	0x33543f7e	4.9417842e-08
13	0x34449f63	1.8311907e-07
14	0x347d5f06	2.359703e-07
15	0x33248768	3.8307377e-08
16	0xb150d2e0	-3.0387852e-09
17	0x34f7c07c	4.6147386e-07
18	0x36e20160	6.735485e-06
19	0xbf74ee40	-0.9567604
20	0x33da9026	1.01776365e-07
21	0xb7cb2f54	-2.4221525e-05
22	0x34828cda	2.431687e-07
23	0xb49a631a	-2.875684e-07
24	0xb5d15a14	-1.559793e-06
25	0x35812648	9.62239e-07
26	0x34d70b26	4.0054982e-07
27	0xb3cf4d64	-9.653266e-08
28	0xb1b97d76	-5.398472e-09
29	0x3f772a60	0.96549034
30	0xb78c98c7	-1.6760443e-05
31	0xb38e54de	-6.6278275e-08
32	0x361ff8fa	2.383777e-06
33	0xb4a76218	-3.1177547e-07
34	0x34c9c41c	3.7581856e-07
35	0x32be2920	2.2137613e-08
36	0xb49528e4	-2.7783165e-07
37	0x3726915d	9.928216e-06
38	0x330c4296	3.265685e-08
39	0xb542787c	-7.244596e-07
40	0xb48c290a	-2.6106892e-07
41	0xb39dc2f3	-7.346343e-08
42	0xb3ab1c84	-7.967995e-08
43	0xb4f5171a	-4.5651615e-07
44	0x347d6795	2.3600144e-07
45	0xb49ed8f7	-2.9587656e-07
46	0x342bf742	1.6015568e-07
47	0xb6140afa	-2.2060108e-06
48	0xb467928f	-2.1566869e-07
49	0xb45440a6	-1.9767558e-07
50	0xb32c4880	-4.011281e-08
51	0x34919af4	2.7121098e-07
52	0x3481d738	2.4184715e-07
53	0xb4cbc8a8	-3.7957693e-07
54	0x35213f5d	6.006938e-07
55	0x345c961b	2.0543705e-07
56	0x33db36b4	1.02079326e-07
57	0x3331c126	4.138669e-08
58	0x36559bd0	3.1830168e-06
59	0x3469df7a	2.1781116e-07
60	0x358fb3d4	1.0706667e-06
61	0xb638addc	-2.7519336e-06
62	0x340990ee	1.2811844e-07
63	0xb3f635cc	-1.1465053e-07
64	0x34d1add2	3.9055755e-07
65	0x3411b6e9	1.357072e-07
66	0xb3ea01fb	-1.08968344e-07
67	0xb465f67a	-2.1416955e-07
68	0xb561fcaa	-8.4186706e-07
69	0x34147a1c	1.3827997e-07
70	0x33f51f18	1.14143575e-07
71	0x3fced96e	1.6160104
72	0x353d4502	7.0508406e-07
73	0x34711e9c	2.245601e-07
74	0xb46ae794	-2.1877196e-07
75	0xb33d0c6a	-4.4016282e-08
76	0xb445d9af	-1.8426248e-07
77	0x34b997da	3.4569422e-07
78	0xc054bb01	-3.3239138
79	0x350d074a	5.25372e-07
80	0x34042c9c	1.2309687e-07
81	0x30c4cf80	1.4319852e-09
82	0x3f5698f1	0.8382712
83	0xb894cd32	-7.0954105e-05
84	0xb4cae150	-3.7789368e-07
85	0xbf89cfe8	-1.0766573
86	0x343851e9	1.7166134e-07
87	0xb4120186	-1.3597864e-07
88	0x3f83f95c	1.0310473
89	0x33dadca0	1.01915475e-07
90	0x319e1380	4.600622e-09
91	0x33fd1f19	1.1786887e-07
92	0xbfed4db0	-1.8539333
93	0xb7a78adc	-1.9972613e-05
94	0xbf7fb411	-0.99884135
95	0xb48599fa	-2.4885213e-07
96	0xbf9e75dd	-1.2379719
97	0xc0049aad	-2.0719407
98	0xb4499309	-1.8773075e-07
99	0x34a04003	2.9848897e-07
100	0x354d4ef2	7.648333e-07
101	0xbfcb9d5f	-1.5907401
102	0x34a1169d	3.000504e-07
103	0x407e964e	3.9779239
104	0x340237b0	1.2127452e-07
105	0x33a480e8	7.660293e-08
106	0x33fd97fc	1.18088764e-07
107	0x345d2256	2.059472e-07
108	0x34a89cfc	3.140666e-07
109	0x34bac91f	3.4791535e-07
110	0xb38e37b8	-6.6225255e-08
111	0x3f9a3eed	1.2050453
112	0xb43cde84	-1.7589815e-07
113	0xb4b8c29d	-3.441427e-07
114	0x33a4481c	7.649962e-08
115	0xb39a3346	-7.1805104e-08
116	0xb1fddb80	-7.3882234e-09
117	0x334ca78e	4.764984e-08
118	0xb3cb0ee4	-9.455633e-08
119	0xb498c73d	-2.845717e-07
120	0x33eb90bd	1.0969368e-07
121	0x346e4dd3	2.219379e-07
122	0xbfd851a9	-1.6899921
123	0x34ff4a4d	4.7551512e-07
124	0x3faa3086	1.3296058
125	0x3f0fed78	0.56221724
126	0xb42ccd9f	-1.6093553e-07
127	0xb1574030	-3.1323104e-09

fc3.bias f4 [2]
0	0xb6c9a418	-6.00937e-06
1	0xb882b734	-6.233007e-05
