model_config/model_noisy_18_64.pth (torch, 21682 bytes, 7 tensors)

input_weights f4 [5]
1.0 1.0 1.0 1.0 1.0
00000000: 0000 803f 0000 803f 0000 803f 0000 803f
00000010: 0000 803f

fc1.weight f4 [64, 5]
-0.5912241 -0.045576762 0.2399112 -0.04445193 0.02737835 0.19265267 -0.391097 -1.0534072
0.061711926 0.027967727 -0.3444127 -0.3835068 -0.28866106 0.21391483 0.027429014 0.09960945
-0.27944332 1.7704219 -0.03686865 -0.024415804 0.20069663 0.38243315 -0.8682901 -0.20898518
-0.041307054 0.10337037 0.3747048 0.23865353 -0.37489706 -0.05317273 -0.050930504 0.29007837
-1.0488275 -0.011429344 0.0010970362 0.2806914 -1.070323 -0.30538094 -0.25103664 -0.02501053
0.68249726 -0.005067129 0.043303348 0.39521754 0.39779988 -0.38443476 1.0942507 0.63214344
0.102609925 0.013167971 0.91516215 0.2348297 -0.26113546 -0.117214926 -0.077216074 -0.53151387
0.11717609 0.8123251 0.54959774 0.099698514 -1.345331 0.116663896 -0.5293416 0.0095523
0.0071858647 -0.21998605 0.48193446 -0.19783819 0.28785843 0.068555824 0.33701438 0.43438905
0.5544953 0.009049403 -0.023897888 -0.17610767 0.111506484 -0.8345274 0.54484373 0.09135225
-0.0021607387 0.07204283 0.37728602 -0.6229408 -0.6236991 -0.013903316 -0.14258938 1.2968276
-0.12096492 -0.011144871 0.87858397 0.11015738 -0.7271215 0.26263592 -0.021770881 -0.7468009
-0.024846915 -0.07829656 -0.42150024 0.04408243 0.21095408 0.7081763 1.0591937 -0.07991162
0.013033409 0.7154987 0.30275065 0.56481415 -0.037618577 0.0056655733 0.8462303 0.12823938
0.3065872 -0.012189421 -0.064411506 -0.019609055 -0.10459999 -0.30626333 -0.022125706 -0.03936467
-1.2801343 -0.038853575 -0.67427343 0.0642207 -0.01298884 0.28242305 -0.13940774 0.818877
0.42307585 -0.14678717 -0.10054049 0.5901141 0.56205565 0.1344548 -0.08153305 -0.11471975
0.71586365 -0.2337345 -0.16841653 -0.07284298 -0.025599323 -0.2986394 -0.16207059 0.019711085
0.03996437 0.38729423 0.005434571 -0.12586437 -0.67250264 -0.31593603 -0.10697307 -0.09754235
-0.31966466 0.025298597 0.059848413 -0.21230447 -0.8705927 0.4523701 -0.21193375 -0.0071343803
-0.68355083 -0.18059082 -0.63648486 0.5100481 -0.07201588 -0.2804027 -0.008337655 -0.8800042
-0.13400123 0.07574545 0.98173475 -0.041865468 -0.37633952 0.0680813 0.027246233 0.24038646
0.27642104 0.7468064 -0.7563092 -0.04577288 0.0029600945 -0.46971098 -0.554409 0.16279733
0.5145889 0.051693052 0.57061034 0.009530967 -0.3273218 0.15122646 -0.1882822 0.5627946
-0.006883852 0.16890757 -0.118616946 -0.081051156 -0.24266456 0.03920392 0.4024874 -0.17979716
0.08245805 0.08890113 0.044537347 -0.08587933 0.64853525 0.007249817 0.027790451 0.81683815
0.019004965 0.2272833 -0.48856407 -0.1232342 0.914565 -0.12995389 -0.034036405 -0.06041527
0.101066396 0.33934343 0.18416682 0.05510004 0.17191233 0.29249915 -0.65062046 -0.15120989
-0.5162098 0.3014876 0.55350715 -0.6497892 0.084795624 -0.025980327 0.10556246 -0.63238084
-0.4756727 0.11493385 -0.0032552544 -0.07766007 -0.5446362 -0.09065384 -0.16984034 -0.1527721
-0.2241345 -0.15526704 -0.08025886 -0.35804167 0.52644575 -1.0327717 0.5111136 0.76536775
-0.10457699 -0.03174544 0.11445685 -0.14078169 0.009987892 -0.30385306 -0.10003918 0.20607916
00000000: 765a 17bf b3ae 3abd 48ab 753e 3a13 36bd
00000010: 9048 e03c be46 453e de3d c8be 0cd6 86bf
00000020: a5c5 7c3d 931c e53c dd56 b0be 015b c4be
00000030: 62cb 93be 7d0c 5b3e d0b2 e03c 0a00 cc3d
00000040: 3213 8fbe 2f9d e23f 9503 17bd a703 c8bc
00000050: 6b83 4d3e 47ce c33e 4348 5ebf 3600 56be
00000060: 9631 29bd d8b3 d33d 4fd9 bf3e 9761 743e
00000070: 82f2 bfbe a6cb 59bd 819c 50bd 2785 943e
00000080: fb3f 86bf 2542 3bbc 6dca 8f3a c8b6 8f3e
00000090: 5800 89bf e45a 9cbe e087 80be e2e2 ccbc
000000a0: 24b8 2e3f 290a a6bb da5e 313d f459 ca3e
000000b0: 6dac cb3e a2d4 c4be 6810 8c3f 27d4 213f
000000c0: 2725 d23d 79be 573c 1148 6a3f 3277 703e
000000d0: 8cb3 85be 610e f0bd 7623 9ebd 4b11 08bf
000000e0: 05fa ef3d 8af4 4f3f 70b2 0c3f bc2e cc3d
000000f0: ce33 acbf 7bed ee3d ee82 07bf 4081 1c3c
00000100: 6777 eb3b 0644 61be 1dc0 f63e 1896 4abe
00000110: 2e62 933e ff66 8c3d 268d ac3e 3e68 de3e
00000120: 67f3 0d3f f243 143c 81c5 c3bc 9255 34be
00000130: 835d e43d 96a3 55bf e17a 0b3f e316 bb3d
00000140: 2e9b 0dbb 318b 933d a22b c13e 0c79 1fbf
00000150: bfaa 1fbf bcca 63bc f302 12be 72fe a53f
00000160: 75bc f7bd fa98 36bc e1ea 603f 319a e13d
00000170: a224 3abf 3778 863e d958 b2bc 582e 3fbf
00000180: c28b cbbc f259 a0bd e1ce d7be c78f 343d
00000190: 5904 583e 0b4b 353f a993 873f b4a8 a3bd
000001a0: 148a 553c ec2a 373f 2202 9b3e a997 103f
000001b0: f015 1abd 46a6 b93b 8da2 583f 2f51 033e
000001c0: fff8 9c3e 23b6 47bc 2eea 83bd 2ba3 a0bc
000001d0: 8538 d6bd 8cce 9cbe f840 b5bc d93c 21bd
000001e0: 71db a3bf ed24 1fbd 2f9d 2cbf 2486 833d
000001f0: 25cf 54bc c199 903e e7c0 0ebe eca1 513f
00000200: 669d d83e 604f 16be 2ce8 cdbd b811 173f
00000210: e1e2 0f3f 85ae 093e cdfa a6bd 30f2 eabd
00000220: d742 373f 1958 6fbe 6275 2cbe b32e 95bd
00000230: acb5 d1bc 43e7 98be d5f5 25be 2479 a13c
00000240: aeb1 233d 6e4b c63e 7c14 b23b 97e2 00be
00000250: 2229 2cbf 5ec2 a1be b214 dbbd 49c4 c7bd
00000260: 16ab a3be 013f cf3c 9c23 753d 5866 59be
00000270: 2adf 5ebf 0e9d e73e 2905 59be 85c7 e9bb
00000280: 30fd 2ebf cdec 38be acf0 22bf 8392 023f
00000290: 107d 93bd f190 8fbe a99a 08bc f547 61bf
000002a0: 9e37 09be 6e20 9b3d f852 7b3f 207b 2bbd
000002b0: 93af c0be 356e 8b3d 7e33 df3c de27 763e
000002c0: 0f87 8d3e b42e 3f3f 7b9d 41bf 587c 3bbd
000002d0: 25fe 413b f57d f0be c0ed 0dbf 58b4 263e
000002e0: 19bc 033f 18bc 533d 8513 123f c627 1c3c
000002f0: b996 a7be 1cdb 1a3e 0dcd 40be 4f13 103f
00000300: f091 e1bb 1bf6 2c3e 71ed f2bd 26fe a5bd
00000310: 0f7d 78be 4a94 203d d412 ce3e bf1c 38be
00000320: c4df a83d cc11 b63d cb6c 363d 81e1 afbd
00000330: 6806 263f df8f ed3b cda8 e33c 4e1c 513f
00000340: 4db0 9b3c f4bc 683e 1225 fabe 3662 fcbd
00000350: ef20 6a3f a212 05be c269 0bbd 0176 77bd
00000360: e6fb ce3d 6cbe ad3e 3a96 3c3e 94b0 613d
00000370: c909 303e 73c2 953e 108f 26bf c4d6 1abe
00000380: 5326 04bf 955c 9a3e a5b2 0d3f 9658 26bf
00000390: 54a9 ad3d b2d4 d4bc 2231 d83d b6e3 21bf
000003a0: 5f8b f3be 7062 eb3d 1b56 55bb 3e0c 9fbd
000003b0: 476d 0bbf b8a8 b9bd a0ea 2dbe 4a70 1cbe
000003c0: 8483 65be 53fe 1ebe c25e a4bd 3d51 b7be
000003d0: 26c5 063f dd31 84bf 57d8 023f 24ef 433f
000003e0: 762c d6bd 8207 02bd 5a68 ea3d 1329 10be
000003f0: 41a4 233c a192 9bbe 57e1 ccbd 6a06 533e

fc1.bias f4 [64]
0.8470673 -1.1200254 0.27046478 -0.8033073 -0.94123334 0.17664658 0.53389156 -0.45487392
0.37040582 -0.751247 -1.0032847 -0.1533836 -1.251218 0.9388218 0.44796634 0.077528
-0.56422037 0.113173135 -0.20717953 -0.24952604 -1.3318154 0.46139154 0.56457424 0.7004639
-0.0255225 -0.8551456 -0.08532994 0.13933754 0.45634627 -0.73414314 0.66033727 -0.0039071436
-0.38202778 -0.15427125 0.36871454 -1.1325585 -0.41225854 0.18021214 0.14039233 0.94572985
-0.21588019 0.0410722 0.29211852 0.75121295 -1.0783055 -0.2595769 0.3839616 0.21236213
-0.23144652 -0.12192155 0.37661973 0.02839698 0.041226137 -0.51416934 -1.2069496 -0.90576935
-0.99540895 0.5335603 0.24509531 0.68560004 0.25944436 -0.38207296 0.15404259 0.23177217
00000000: 67d9 583f fe5c 8fbf 5c7a 8a3e 8ca5 4dbf
00000010: abf4 70bf d7e2 343e 1ead 083f 3ce5 e8be
00000020: d5a5 bd3e b951 40bf a26b 80bf 9710 1dbe
00000030: e927 a0bf a056 703f d85b e53e 00c7 9e3d
00000040: bf70 10bf 51c7 e73d df26 54be c183 7fbe
00000050: ed78 aabf 833b ec3e f087 103f 9a51 333f
00000060: 9014 d1bc d2ea 5abf 77c1 aebd 80ae 0e3e
00000070: 38a6 e93e cef0 3bbf dd0b 293f 7f07 80bb
00000080: 2599 c3be 48f9 1dbe 27c8 bc3e adf7 90bf
00000090: 8d13 d3be 8889 383e 02c3 0f3e 5a1b 723f
000000a0: b20f 5dbe 533b 283d 8f90 953e 7e4f 403f
000000b0: ea05 8abf 43e7 84be 9d96 c43e 7575 593e
000000c0: 5100 6dbe 01b2 f9bd 4dd4 c03e c9a0 e83c
000000d0: bddc 283d 9aa0 03bf 537d 9abf 80e0 67bf
000000e0: 1fd3 7ebf 6897 083f 44fa 7a3e 7c83 2f3f
000000f0: e4d5 843e 119f c3be 57bd 1d3e af55 6d3e

fc2.weight f4 [64, 64]
0.3213475 0.5062994 -0.40756577 -2.595359 0.13445766 0.29923582 -0.06949672 -0.19663134
0.18234582 -0.64932066 1.4224879 -0.032163337 -0.11766057 0.36313942 0.41953287 0.081842676
0.09876864 -0.9749029 -0.7522967 0.07903575 -2.2321246 0.71124244 -0.16070794 0.2691353
-0.019142983 -0.44152883 0.04530706 0.17055723 0.3084339 -0.3905514 0.36176333 -0.1706709
-0.36887068 -0.39063588 0.6085939 0.060415395 -0.29036534 0.07185586 0.17933755 0.24473476
0.06067004 -0.33832842 -0.7351838 0.10113186 -0.027441125 0.04166743 0.119377576 0.17901286
0.09309649 -0.08688556 -0.05251212 -0.16851315 -2.695852 -0.7758159 -0.6857665 -0.3448607
-0.3774474 0.25658348 0.19234765 0.369289 0.21333744 -0.073458634 -0.083771914 -0.3837959
-0.3888266 0.104834914 0.18764265 -2.7212298 -0.06786469 -0.15947385 0.011769117 -0.55387574
-0.23112905 -1.1484506 -0.715728 -0.8002775 -0.9404377 0.3084747 0.18207005 -0.09894427
-0.7631926 0.37836507 -0.19021977 0.083237626 -1.481849 0.08128054 -0.42574185 0.29113182
0.2551338 0.16477248 -0.29596695 0.32202727 0.13792136 0.33725548 0.35671237 -0.8367522
-0.43161234 0.08416194 0.17807707 -0.8989485 -0.2053984 0.2985603 0.20634516 0.29155287
0.14989685 0.29858595 -0.4878974 0.35233727 -0.10071789 -0.022988617 -0.46294233 -0.025906116
-0.16122216 0.23682232 0.010609432 -0.26308203 -0.16977519 0.045916334 -0.74350417 0.2231218
-0.5067025 0.08450693 0.22313501 0.29227844 -0.10626085 0.8251436 0.1328236 0.051430248
-0.19273044 0.65381074 0.29917303 -0.13732922 -0.12458945 0.37019852 -0.27065647 0.34617
0.099276334 -1.0094066 -0.03352627 -1.700976 1.032685 -0.18240221 0.44590262 0.0026919283
0.9405862 -0.40028602 0.28892115 0.2154756 -0.072154 0.09604292 0.24050096 -0.15159006
-0.09826139 0.82817066 0.08369444 0.093839906 -0.17397264 -0.16149463 -0.07265634 0.2280808
0.15136191 -0.34520772 -0.17053002 0.041354388 -0.04763797 -0.07515392 0.18981971 -0.44063523
-0.12808499 0.182403 -0.51357204 -0.02358253 0.18846403 -0.3106074 0.0077652684 0.040371064
0.121896654 0.48193258 0.014264924 -0.047872275 0.020391215 -0.048200134 -1.0219635 -0.35463881
0.5247056 0.12167303 0.10842308 0.07061824 -0.1845658 0.04626158 0.39393175 -0.12571852
0.2954604 0.4571313 0.3177414 0.13341404 -2.3771923 0.6114504 -0.5665827 -0.5586331
-0.08440952 0.33162978 -0.13753851 0.37053224 0.013203899 -0.33036885 0.4924405 0.081733674
0.37832874 -0.03434598 0.8385291 0.475555 -0.1302321 0.2107569 0.037218545 -0.14538482
0.3595514 -0.0037369465 -0.1461492 -0.535722 -0.15896274 -0.16087899 -0.2971415 0.32706064
0.67841727 -0.6032687 0.05264932 0.52545273 0.48559 0.10557024 -0.555834 0.06553579
-0.17350334 0.015129285 -0.05060572 -0.10906797 0.89095443 0.22130558 -0.23105551 0.3580064
-0.43906122 -0.17937022 0.38850218 0.08332564 0.594228 -0.56288606 -0.43499553 -0.0783723
0.012248408 -0.29698104 -0.11758416 -0.06392211 -0.23728184 0.21925892 -0.02927383 -0.11141558
00000000: a987 a43e d69c 013f 76ac d0be 5d1a 26c0
00000010: 45af 093e 7035 993e 4c54 8ebd ba59 49be
00000020: ddb8 3a3e e139 26bf 1514 b63f b4bd 03bd
00000030: 06f8 f0bd 69ed b93e 03cd d63e 229d a73d
00000040: 3647 ca3d 3d93 79bf 8496 40bf 7fdd a13d
00000050: 21db 0ec0 fc13 363f 9f90 24be 1acc 893e
00000060: bfd1 9cbc 1110 e2be e593 393d 8ea6 2e3e
00000070: 0ceb 9d3e 5af6 c7be 0b39 b93e 5ac4 2ebe
00000080: 9edc bcbe 6d01 c8be cfcc 1b3f 2276 773d
00000090: c4aa 94be 2a29 933d 43a4 373e c09b 7a3e
000000a0: 2681 783d 6239 adbe 0135 3cbf 381e cf3d
000000b0: 36cc e0bc 78ab 2a3d 3b7c f43d 264f 373e
000000c0: 5fa9 be3d 0ef1 b1bd f316 57bd b68e 2cbe
000000d0: d788 2cc0 df9b 46bf 658e 2fbf 9591 b0be
000000e0: c940 c1be e95e 833e c8f6 443e 7313 bd3e
000000f0: 2175 5a3e 7b71 96bd 9c90 abbd e580 c4be
00000100: 4814 c7be b0b3 d63d 6525 403e a128 2ec0
00000110: a5fc 8abd 1d4d 23be 41d3 403c cdca 0dbf
00000120: 18ad 6cbe 6e00 93bf f339 37bf fcde 4cbf
00000130: 86c0 70bf 65f0 9d3e 9270 3a3e 4ba3 cabd
00000140: 9760 43bf 11b9 c13e f9c8 42be 7d78 aa3d
00000150: 3aad bdbf 6976 a63d d6fa d9be 3b0f 953e
00000160: e6a0 823e 1eba 283e fb88 97be c2e0 a43e
00000170: 423b 0d3e c0ac ac3e 01a3 b63e 6435 56bf
00000180: 4bfc dcbe 185d ac3d d659 363e 7d21 66bf
00000190: f553 52be e5dc 983e 254c 533e 6b46 953e
000001a0: 8f7e 193e 42e0 983e b0cd f9be 8d65 b43e
000001b0: 2e45 cebd a052 bcbc c706 edbe 1039 d4bc
000001c0: 6c17 25be 8d81 723e 2fd3 2d3c b0b2 86be
000001d0: 8cd9 2dbe c412 3c3d 4a56 3ebf 0b7a 643e
000001e0: 41b7 01bf f811 ad3d 817d 643e 85a5 953e
000001f0: 4a9f d9bd 9c3c 533f e902 083e 86a8 523d
00000200: 215b 45be 2460 273f 352d 993e 08a0 0cbe
00000210: c128 ffbd a98a bd3e 7c93 8abe 323d b13e
00000220: 6451 cb3d 3c34 81bf d852 09bd 95b9 d9bf
00000230: 062f 843f a5c7 3abe 594d e43e 106b 303b
00000240: 42ca 703f 4af2 ccbe 79ed 933e a3a5 5c3e
00000250: 7ac5 93bd 27b2 c43d e245 763e 6d3a 1bbe
00000260: 453d c9bd fe02 543f fe67 ab3d 232f c03d
00000270: e225 32be d95e 25be d9cc 94bd 038e 693e
00000280: 9efe 1a3e 11bf b0be 6c9f 2ebe 3863 293d
00000290: 0820 43bd 4cea 99bd 1960 423e f19a e1be
000002a0: b628 03be dac7 3a3e 7579 03bf 2630 c1bc
000002b0: b7fc 403e ef07 9fbe cb73 fe3b 215c 253d
000002c0: f4a4 f93d debf f63e 6eb7 693c b815 44bd
000002d0: 7a0b a73c 816d 45bd b3cf 82bf 3893 b5be
000002e0: 1b53 063f b62f f93d eb0c de3d 4ca0 903d
000002f0: d1fe 3cbe c87c 3d3d 6cb1 c93e 5bbc 00be
00000300: 9646 973e 1d0d ea3e 00af a23e b19d 083e
00000310: eb23 18c0 0388 1c3f 900b 11bf 9402 0fbf
00000320: e6de acbd 61cb a93e e5d6 0cbe 67b6 bd3e
00000330: 2b55 583c 1b26 a9be 2921 fc3e fc63 a73d
00000340: 4eb4 c13e 5fae 0cbd d8a9 563f f27b f33e
00000350: 905b 05be a8d0 573e 7972 183d c2df 14be
00000360: 1f17 b83e 8fe7 74bb 23a8 15be 1425 09bf
00000370: 21c7 22be 76bd 24be ee22 98be 7e74 a73e
00000380: c1ac 2d3f d16f 1abf d0a6 573d 1284 063f
00000390: 419f f83e 3635 d83d 234b 0ebf a137 863d
000003a0: dcaa 31be d2e0 773c f247 4fbd 075f dfbd
000003b0: 9715 643f ee9d 623e d199 6cbe 9d4c b73e
000003c0: a2cc e0be d4ac 37be c2e9 c63e a2a6 aa3d
000003d0: 541f 183f 4d19 10bf bcb7 debe a881 a0bd
000003e0: 8cad 483c e60d 98be f7cf f0bd 98e9 82bd
000003f0: 03fa 72be 6985 603e accf efbc da2d e4bd

fc2.bias f4 [64]
0.377419 0.24145758 0.09403027 -0.21912512 0.06536198 -0.1498285 0.14632648 -0.26350805
-0.0027118423 0.20851262 -0.2017032 -0.30448228 0.031117387 0.2484481 0.42382956 0.25314796
-0.42538494 0.24600987 -0.2743993 0.1033696 -0.19675387 0.25419965 0.22782095 0.050724905
-0.010553061 -0.003338212 0.13845664 -0.0038742237 -0.11877401 0.24966359 -0.142062 -0.6583366
-1.655016e-05 -0.44361427 -0.08738912 -0.07136936 -0.34701455 0.3478358 0.45204547 0.18391374
0.64374477 0.4222052 0.059720933 0.45336318 0.6298781 0.41455054 -0.13021167 -0.16097134
-0.10627656 0.00014954268 0.25382406 -0.36336198 -0.24654704 0.046345085 0.19177347 -0.1904206
0.48637035 -0.05379789 -0.052474827 0.053473983 0.10314751 -0.07069278 0.30034918 0.2339507
00000000: 103d c13e a840 773e f192 c03d 5662 60be
00000010: 80dc 853d a46c 19be 9cd6 153e 87ea 86be
00000020: 2ab9 31bb 5584 553e 498b 4ebe 1ae5 9bbe
00000030: e4e9 fe3c 2e69 7e3e 3000 d93e 9c9c 813e
00000040: 0ecc d9be 03ea 7b3e 117e 8cbe 71b3 d33d
00000050: d979 49be 7526 823e e549 693e ebc4 4f3d
00000060: bfe6 2cbc e7c5 5abb 94c7 0d3e b0e6 7dbb
00000070: ca3f f3bd d0a7 7f3e b378 11be bf88 28bf
00000080: 33d5 8ab7 6921 e3be 11f9 b2bd 192a 92bd
00000090: e4ab b1be 8917 b23e 8172 e73e e253 3c3e
000000a0: 75cc 243f 482b d83e f09d 743d 381f e83e
000000b0: b13f 213f f83f d43e 3556 05be acd5 24be
000000c0: 86a7 d9bd 8fce 1c39 3af5 813e 950a babe
000000d0: d476 7cbe 58d4 3d3d 4460 443e 9efd 42be
000000e0: 8905 f93e 2d5b 5cbd d8ef 56bd 8907 5b3d
000000f0: 003f d33d 60c7 90bd 5ec7 993e c690 6f3e

fc3.weight f4 [2, 64]
-0.03649241 0.056346957 -0.06701623 -0.0093668485 0.16788453 0.49987155 -0.10340446 0.0069643017
-0.19980124 -0.016513543 0.001684435 -1.8514829 0.22164147 -0.09894256 -0.0017185499 -0.040279355
-1.0530971 0.053229302 -0.6002266 0.15418254 0.22200443 0.13693517 -0.028113676 -0.015396482
-0.033090603 -0.027231457 -0.024053192 -0.12697773 0.06643521 0.003128426 0.15399073 2.8024478
4.6865338e-05 -0.035962712 0.12122075 -0.023282807 -0.045068584 -0.19207697 -0.027594756 -0.008901357
0.05027447 0.032291807 -0.019781217 -0.015052044 -0.019763611 -0.003143659 0.0054733315 0.11251415
-0.12874706 -0.24084753 -0.014741732 -0.68114144 0.17208116 0.031420305 -0.06342353 -0.17870948
-0.23937006 0.09754793 -0.06438164 0.17347072 0.13041781 0.024932113 0.04126406 0.07573146
1.3871756 0.87841904 0.45548794 -0.5339072 1.2076074 0.02317895 -0.3740328 -0.35207355
-0.15028946 0.4073212 -0.38396275 -0.12885438 -0.07729442 -0.5573535 -0.75646806 -0.5193914
-0.40438405 -1.117554 0.53281426 -0.32003665 0.061127897 0.51612496 0.2766975 -0.2665932
0.4679994 0.00994818 -0.70787174 -0.68925136 -1.0610373 -0.6566329 0.61810553 0.14336531
3.703587e-05 -0.99573845 -0.54768246 1.1010722 0.5089952 -0.2629132 0.5662039 -0.45177534
0.42356423 -1.2424814 -0.47019196 0.40744156 -0.7435593 0.9463396 -0.5582304 -0.5769406
-0.26731896 -0.45766762 0.51634127 -0.28760284 -0.076806605 -0.35526982 0.52805066 -0.7571173
-0.045576006 0.8625635 -0.40101045 -0.49453816 -0.36134186 -0.55851865 1.0888345 0.24947977
00000000: 1179 15bd 11cc 663d ce3f 89bd 6977 19bc
00000010: ece9 2b3e 2aef ff3e b8c5 d3bd cc34 e43b
00000020: b298 4cbe 6947 87bc 42c8 dc3a 64fd ecbf
00000030: fbf5 623e 66a2 cabd f740 e1ba f7fb 24bd
00000040: e3cb 86bf f806 5a3d 73a8 19bf 07e2 1d3e
00000050: 2155 633e bc38 0c3e a74e e6bc 8741 7cbc
00000060: 038a 07bd 8114 dfbc 330b c5bc 7306 02be
00000070: 2f0f 883d 4706 4d3b bfaf 1d3e 4e5b 3340
00000080: 4691 4438 a34d 13bd 9642 f83d 96bb bebc
00000090: d699 38bd d3af 44be 660e e2bc ffd6 11bc
000000a0: 9aec 4d3d 6a44 043d 380c a2bc d99c 76bc
000000b0: 4ce7 a1bc d905 4ebb a259 b33b d26d e63d
000000c0: 45d6 03be bca0 76be 4e87 71bc 495f 2ebf
000000d0: 0b36 303e 94b2 003d 32e4 81bd 9eff 36be
000000e0: 6d1d 75be 36c7 c73d 85da 83bd 4fa2 313e
000000f0: 3f8c 053e 6e3e cc3c 8104 293d 1819 9b3d
00000100: f88e b13f 12e0 603f b735 e93e 24ae 08bf
00000110: e192 9a3f c8e1 bd3c 3a81 bfbe fc42 b4be
00000120: 7be5 19be 688c d03e c496 c4be 67f2 03be
00000130: 894c 9ebd b8ae 0ebf e4a7 41bf d6f6 04bf
00000140: 6d0b cfbe 020c 8fbf 8466 083f d8db a3be
00000150: 3f61 7a3d c420 043f 4bab 8d3e e77e 88be
00000160: 9e9d ef3e b1fd 223c 1537 35bf c772 30bf
00000170: 12d0 87bf 1819 28bf 2a3c 1e3f 5bce 123e
00000180: f656 1b38 b7e8 7ebf eb34 0cbf efef 8c3f
00000190: 824d 023f 8f9c 86be bdf2 103f 194f e7be
000001a0: 69dd d83e a109 9fbf 00bd f0be 2e9c d03e
000001b0: e759 3ebf 5043 723f 30e8 0ebf 61b2 13bf
000001c0: 08de 88be 6953 eabe f12e 043f ae40 93be
000001d0: c84c 9dbd ede5 b5be 542e 073f 70d2 41bf
000001e0: e8ad 3abd f6d0 5c3f 3e51 cdbe 1b34 fdbe
000001f0: cd01 b9be 14fb 0ebf ee5e 8b3f a077 7f3e

fc3.bias f4 [2]
0.2350151 0.03982917
00000000: cca7 703e e923 233d
