model_config/model_noisy_19_64.pth (torch, 21682 bytes, 7 tensors)

input_weights f4 [5]
00000000: 0000 803f 0000 803f 0000 803f 0000 803f
00000010: 0000 803f
1.0 1.0 1.0 1.0 1.0

fc1.weight f4 [64, 5]
00000000: 5c97 3bbf 7d71 173f f22a 69bc 7a73 f13d
00000010: 1c3e 713b 14a1 1dbe 5cfe f93e 97eb 5e3f
00000020: 702b 83bc e1ce 4dbc 303d 44bd 05f5 44be
00000030: d38b 37bf 86a7 36bb 620b ba3a bd02 d93c
00000040: 32bb e5bd 468c 92be a835 06bb 4308 8b3c
00000050: 2e59 863d 02f4 013f 4f66 afbc e710 293e
00000060: f728 b0bd 81b1 3c3c ca39 d7bd 43bf bdbe
00000070: 7560 1cbc a244 553b 90a8 5dbf b773 5c3e
00000080: e967 ac3e e6a4 ee3c 5326 d03a b9ed e5bc
00000090: 574c 173d 556f 723e 998e cf3d e16c 9aba
000000a0: 434f dc3d bf86 c2be e984 053f 886c 133d
000000b0: 2d98 743c 203a 963f 474c 03be 199a 103f
000000c0: ce86 643d a665 d9bb d104 fabc 3d70 fe3c
000000d0: 9271 49bf 2f85 313c 2354 00bd fe7c 5f3c
000000e0: 13ce 25be 53e6 f2be 22b4 05bd 1785 68bc
000000f0: 215c dcbb 4efc 5b3e b1a0 8ebf dbc8 ee3b
00000100: b181 56bc 683f 9cbe 730a 34bf a675 c63e
00000110: 0f35 0e3b 71fa b83d da44 013d e898 d7be
00000120: 1a5f 9fbf c4b9 a63d e451 aabc 0289 47be
00000130: 3fdc 3d3d ecd1 8d3d a466 fb3e 0057 5e3e
00000140: c96b cdbb 2885 9f3f d9bc 823e d3b9 9f3d
00000150: 7c3d f3bc f558 b1bf de94 cdbd f12c 99be
00000160: 3150 dbbc f76c 9fbc 72e9 2c3e f049 2b3f
00000170: cdbc 993e 28bb 04bd 72d7 e03c dad6 b53c
00000180: 35df 973e 82d4 26bf a294 613d 54f1 5bbd
00000190: 72d7 1a3f 7f41 11bf da24 d8bd 1bab 12bd
000001a0: 3e8f 2b3d a89e 7ebd d9ed dabd 06cb 1dbe
000001b0: 155e 463f 5e5b 0b3c 5848 863c c366 fa3d
000001c0: d190 8c3f 338e 99bc 4796 dfbc e828 983f
000001d0: 5915 0a3e ed99 94bd 0d0f 323d 64de 3cbc
000001e0: 1e15 21be 5b1a 09bf 49c3 c6be 6446 863e
000001f0: 9b3d cdbe a4e1 09bd daaa f8be 6f55 913c
00000200: a196 5fbb 2855 e9bc 2d92 f53b 9087 733f
00000210: e897 853f 54df c4bc 9b2c 83bd 7bdf 17bc
00000220: 8bc1 933f 383c 8fbe 8267 7c3a 6b21 a6bd
00000230: 263a 9ebe 9546 3dbf e0a2 52bf 5df0 72bd
00000240: fc34 12be d781 b6bb 478d 413d 3a86 99be
00000250: f56e 18bd a79a 24be 87d1 ce3a 9fee 96bf
00000260: 19d2 95bb 69b3 1bbe bb82 ad3c ed71 983d
00000270: 73fc 633e 7d5c 3b3f 9990 c53a de5f 303d
00000280: a6c9 823d d947 a6bd 336f 8f3e 3840 2a3f
00000290: ff43 a83e 776c 5cbc 7b43 04bf 8be3 763e
000002a0: 878d 54bc 1f10 293c 9d25 473c bc30 0fbe
000002b0: 5fd4 85be 58d9 3b3e 94f2 923d 9923 803c
000002c0: 3f1f d63d 2b3b 79be ecd0 2ebe d27b 863c
000002d0: 8936 803f a570 34bd 15bb 8cbe e229 a5bc
000002e0: 2b81 40bc 074c 623c 2659 4e3e 8625 1b3e
000002f0: 4be5 b83e c6c4 17be b599 813e cce2 933e
00000300: 5fac 703e 1e68 3abc 54e1 593d c323 98bf
00000310: 3c3e 983e ade8 3abe e97d 32bd 0a7e fcbd
00000320: a3b2 d33d ae20 afbc 3d24 86be 701a 0c3e
00000330: fc68 18bd 8bd8 60bf 8d38 82be 6ecd 5e3f
00000340: c141 613e ba5f b73b 8a0c e83d be58 013f
00000350: 6b54 f23b 0e39 743d 679b 47be b104 21be
00000360: 7113 7bbd f54a ae3c 45b3 823b be28 adbe
00000370: 6ece 153e a9f0 c0be f51b 5dbf bc61 8e3c
00000380: d776 86be 89d5 a6bd 4cb5 083e 18bb d93d
00000390: 900b e53d 2f9f 74be 2bbb c8bd f912 163f
000003a0: 6b7c 163f 7d43 31bc 3b9a 75bd d765 0b3f
000003b0: 160f 97bd 1478 83bd 2808 493d 876e 233c
000003c0: 7fab a1bc 6e28 0b3e 5b8e 043f 7250 d43b
000003d0: b24c 713c 28c1 dbbc 092d f6bc 794a ee3e
000003e0: 2ad1 a03e d8f8 ed3d 5573 91bf 556c 77be
000003f0: f300 debe 8854 8ebc b34c 75bc 6982 343d
-0.7327783 0.59157544 -0.01423143 0.117896035 0.0036810702 -0.15393478 0.48826873 0.8707823
-0.016011924 -0.012561531 -0.047909915 -0.19234093 -0.7169773 -0.0027870848 0.0014194066 0.026490564
-0.11217345 -0.28622645 -0.002047876 0.016971713 0.065599784 0.5076295 -0.02141109 0.16510354
-0.086015634 0.01151693 -0.10509069 -0.37059984 -0.0095444815 0.003254213 -0.8658533 0.21528517
0.33673027 0.029131364 0.0015880562 -0.028067457 0.036938038 0.23675282 0.1013462 -0.0011781716
0.107573055 -0.37993428 0.5215593 0.035992175 0.01492886 1.1736488 -0.12822066 0.56485134
0.055792622 -0.006634432 -0.030519875 0.031059379 -0.7868892 0.010834976 -0.03133024 0.01364064
-0.16191892 -0.47441348 -0.03264249 -0.014191887 -0.00672485 0.21482965 -1.1142789 0.0072871274
-0.013092444 -0.30517125 -0.70328444 0.38761634 0.0021699106 0.09032143 0.031559803 -0.42108846
-1.2450898 0.08140901 -0.020791002 -0.19485858 0.04635262 0.06924805 0.49101746 0.21712875
-0.0062689525 1.2462511 0.25534704 0.07799115 -0.029692404 -1.3855273 -0.1003816 -0.299171
-0.026771637 -0.019461138 0.16885927 0.66909695 0.30026856 -0.03240505 0.027446482 0.022197176
0.2966248 -0.6516801 0.055073388 -0.053696945 0.60484993 -0.56740564 -0.10553904 -0.03580771
0.041884653 -0.062163025 -0.10689897 -0.15409479 0.7748731 0.00850567 0.016391918 0.122266315
1.0981694 -0.018744564 -0.027293338 1.1887484 0.13484706 -0.072559215 0.043471385 -0.011527631
-0.15730712 -0.5355584 -0.38820866 0.2622558 -0.40086064 -0.033662453 -0.4856785 0.017740933
-0.0034116881 -0.028482988 0.007494232 0.95128727 1.0436983 -0.024032272 -0.06404992 -0.0092695905
1.154344 -0.2797563 0.0009628461 -0.08111843 -0.3090374 -0.73935825 -0.8227978 -0.05931126
-0.14278024 -0.0055696773 0.047253873 -0.2998522 -0.037215192 -0.1607462 0.0015778997 -1.1791571
-0.0045721647 -0.15205158 0.021180501 0.074436046 0.2226427 0.73188 0.0015073001 0.043060176
0.06386118 -0.081191726 0.28014526 0.6650424 0.32864377 -0.013453594 -0.5166547 0.24110238
-0.012973196 0.010318785 0.012154964 -0.13983434 -0.2613859 0.18344629 0.07175174 0.015641974
0.104551785 -0.24338977 -0.17071885 0.016416464 1.0016643 -0.04405274 -0.27486482 -0.020161573
-0.011749546 0.013812072 0.20151195 0.15151033 0.36112437 -0.14821157 0.25312582 0.2888397
0.23503254 -0.011377363 0.053193405 -1.1885914 0.2973498 -0.18252821 -0.04357711 -0.123287275
0.103368066 -0.021377888 -0.26199523 0.1368196 -0.037209496 -0.8783042 -0.2543377 0.8703221
0.2199774 0.0055961283 0.11330517 0.50526035 0.0073953173 0.059624724 -0.19492875 -0.15724446
-0.061297838 0.021275977 0.0039886557 -0.33820146 0.14629528 -0.3768361 -0.86370784 0.017380588
-0.26262543 -0.08146197 0.1335041 0.106313884 0.11183846 -0.23888849 -0.098013245 0.586227
0.58783597 -0.010819313 -0.05996154 0.5445227 -0.07375924 -0.064193875 0.049080044 0.009975082
-0.019735096 0.13589641 0.5177972 0.0064793164 0.014727758 -0.026825503 -0.030050771 0.46541193
0.3140958 0.11619729 -1.1363322 -0.24162419 -0.433601 -0.017374292 -0.0149719 0.04406968

fc1.bias f4 [64]
00000000: 3506 6c3f 5454 0fbe 81af a43e 02a9 293f
00000010: e8ec 0a3d 0dac b03f 47b6 0e3f 95ef 353f
00000020: 9b02 f63d d8a5 79bf 0192 753c c645 753f
00000030: a0fc 723e 852b f9bc d1b7 323d 6f4a f93d
00000040: 4c58 57bf fa36 233e 798c 473d 0b8f cc3e
00000050: 12d0 56bd 1eb5 20bd e158 cfbd 3010 dabf
00000060: ce2e 1ebf 89e1 bd3e 6661 4cbf 544c 23bf
00000070: 41b3 ecbe 5744 013e 5d11 3fbe df48 39bf
00000080: 3908 c4bd 002b 463e 09e5 d33d 091a 703c
00000090: 9c7d aebf 3273 6bbd 2b74 963e 714d b5be
000000a0: 71eb 0c3e 46ff 01bf 9515 7ebe e3c6 81be
000000b0: 55b3 1fbf dc37 9b3e 7ce6 bc3d 24a7 373f
000000c0: 204a 8c3f b9d6 083d bd5d 60bf 61ff f3be
000000d0: 90ed 1abf 735f 69bf a084 b7bd 4d03 a03e
000000e0: da35 89bf ee4b 7dbe e88e c8bd 2c2f 593f
000000f0: d857 b53e 6ba6 15be ceb6 8fbf b5d0 993e
0.9219697 -0.13997012 0.3216515 0.6627351 0.033917338 1.3802506 0.55746883 0.710687
0.12012216 -0.9751868 0.014988423 0.9580959 0.23729181 -0.03041626 0.043632332 0.121724
-0.84119105 0.1593894 0.04871795 0.39952883 -0.052444525 -0.039235227 -0.10124374 -1.703619
-0.6179017 0.37086132 -0.7983612 -0.6378834 -0.4623051 0.12623726 -0.18658967 -0.7237682
-0.09571881 0.1935234 0.10346419 0.014654645 -1.3632083 -0.057482906 0.29385504 -0.35410646
0.13761689 -0.5078014 -0.2481292 -0.2534705 -0.62383014 0.30316055 0.09223649 0.7173941
1.0960121 0.0334079 -0.87643033 -0.47655776 -0.6051874 -0.9116127 -0.08960843 0.31252518
-1.0719559 -0.24735996 -0.09792882 0.84837604 0.35418582 -0.14614265 -1.1227663 0.30042043

fc2.weight f4 [64, 64]
00000000: 8ce7 04be bf0d 95be 8e82 363e a109 5a3e
00000010: c954 8e3d 4cf5 993e 3572 05c0 aa65 893e
00000020: 4bfc 93bd 6f85 403f 4016 9fbd ec10 f53d
00000030: c96d 70bd 9658 3dbf d95b 42be 4fc0 66bf
00000040: a3b6 ac3e 5407 593d b30f 36be 8d7f 8b3e
00000050: e3f0 8a3e 911b 193f 23a8 e8be bf54 d5be
00000060: 08a9 873d df10 763e 0b42 103e 0184 13be
00000070: 94aa 14be 8dbf 773e 1464 3dbe 3fc9 383f
00000080: 07aa a43e 0ece a93e 8943 b03d f25d aa3c
00000090: 0287 babd c9c4 793e bb0f 4f3e ded3 1f3e
000000a0: bb36 d33e 2f58 04bf b868 7fbe b4d4 b63e
000000b0: 632b ebbd 1fd4 a33e a8d9 22bd 11cb 433e
000000c0: 10c2 4ebd 02d6 23be eda9 f1be 87da 5dbe
000000d0: 53ba e1bd d225 1dbd 6293 af3e a2fc 063d
000000e0: d611 58be fd91 6a3e 9bfc e3bd ec59 e9bd
000000f0: fbfb 313e 48c8 be3e 2f39 ac3d 4573 fe3d
00000100: 7dee 4b3e e831 dd3c 2b04 3fbf ab7c 7ebe
00000110: 9688 763c ec7a c13d b5b3 b6bd 5670 9a3e
00000120: 0c3e 283e cc27 bcbe 9a62 463f 98f1 00bf
00000130: 4e5d eebe a6ef 09be ede9 13bd 351c 493e
00000140: 81ca f9be 61a5 093f e572 643e 37ee 55bf
00000150: 1636 513e 5688 94bd 30f0 123e 0b04 693f
00000160: 737a 293d ca33 30be f89d b6be 1356 563e
00000170: 510e 6f3c 789c 5ebf 901b 50be 6be0 f6be
00000180: f821 bbbd fbbd 883e 10e7 d5be 3c50 403e
00000190: e585 0540 b9b2 883e eb7f 8e3e 94cb 773f
000001a0: f8d3 95be 1c2e 4fbe 0061 3c3e 8eff 99bd
000001b0: d163 60be 4b84 923d 6210 21bc b774 453e
000001c0: eccb 9a3d 4f81 be3e e967 433f 8bea 543c
000001d0: 9e13 7f3e 04e7 3fbf ebcf 89be 4097 de3d
000001e0: b44e 98be de54 16be 5dc7 e0bc cf71 393e
000001f0: 231d 05bf af0a 9abd cda9 743f b94c 473d
00000200: f44c 68bf 01ae 6e3d 79ef 993b 22f5 ebbe
00000210: 0579 45bf d700 0cbf ee24 c23c 79d9 a5bd
00000220: be17 9b3c 4d1f fa3d 67c6 8f3e 802c d7be
00000230: 1723 9e3d 1af2 debe 23f9 643e 575f 90bf
00000240: 1059 6dbe 1306 15be af0b 8bbe 55b2 9bbd
00000250: c692 263e 0f0b 15be 310f 123d 06a6 5fbe
00000260: b6fe a83c 12b1 aabe 72e9 353d 5041 0f3e
00000270: 0ee5 833e fea0 d5bd bcc3 b5be 0a9b bfbc
00000280: 0098 a03c 31b4 0e3f 1778 b73d 88c3 833d
00000290: ce20 c53d 04d1 343c 69fb 523c 57a9 c23e
000002a0: 0fe4 0c3d b26c 05be e51d 433f f3f4 52bf
000002b0: d0fe c33e 1760 03c0 d204 063d 480c 25bf
000002c0: fcb7 313e 77db dabc 8d9f 543e 7963 303c
000002d0: fc85 a13e 51a1 d2bc 22e1 d1bd 3dfa b83d
000002e0: 92ae 4fbd 35c4 063e 4a7b 743e 8b83 433e
000002f0: 4356 50be 8095 ab3e 4686 403f e5f6 a6bd
00000300: c9e7 81be 6c1d 0d3c 8397 75bd c321 a33b
00000310: 8009 9e3d b5b9 253d f7c6 aa3d d05c 483d
00000320: aee9 41bf c7ff 22bf 8df4 953d 46d2 673d
00000330: c10e b2bd 7cbb 583d b9ed 093e 9c0f 15bf
00000340: 6539 babf 4c4d 81be 6476 043e 3bcd 4d3c
00000350: 74ea 5abd 8e3b a23e 6cfe 6bbe 7540 1fbf
00000360: 1268 91bf 0a2d 03bc 96e3 13c0 c024 cfbd
00000370: 3385 bc3b baf4 a5be b30f b4be 0b08 f33b
00000380: 6b4e 873f 96b6 cd3b 42ba 0c3e 4081 dd3b
00000390: f65c 16c0 9e83 853f 568d 06bf ffab 253f
000003a0: 2de0 1c3e 9616 a1be d2c1 82bf 4937 11be
000003b0: 08a9 363e 258b 03be e277 08be 4145 6e3d
000003c0: 3903 593e cbef 993f 51aa 63bf d95b 81bf
000003d0: 4d58 6e3d a2aa 62be 8f81 0bbe e9b7 c8bb
000003e0: 5452 b6bb 8ea2 17bf 3741 513e 6d95 cc3c
000003f0: 247b c43c 36c7 a0bd 46e6 163e 262b e7be
-0.12978953 -0.2911205 0.1782324 0.21292736 0.06949765 0.3006996 -2.0850956 0.26835376
-0.072258554 0.75203604 -0.07767916 0.11966118 -0.05869845 -0.73963296 -0.1898035 -0.9013719
0.3373309 0.052985504 -0.17779426 0.2724575 0.27136907 0.5980769 -0.45440778 -0.4166622
0.06624037 0.24029873 0.14087693 -0.14405824 -0.14518195 0.24194165 -0.18495208 0.7218208
0.3216097 0.3316502 0.08606631 0.02079675 -0.09107782 0.24391474 0.20220844 0.15608165
0.41252694 -0.5169706 -0.24942291 0.35709155 -0.11482885 0.31997773 -0.039758354 0.19120432
-0.05047804 -0.15999606 -0.47199956 -0.21665393 -0.11021867 -0.038366146 0.34292132 0.032955773
-0.21100554 0.22907253 -0.11132165 -0.11394104 0.17381279 0.37262177 0.084093444 0.1242433
0.19915195 0.027001336 -0.74615735 -0.24852245 0.015047213 0.094472736 -0.08920995 0.3016383
0.16429919 -0.36749113 0.77494204 -0.5036864 -0.4655556 -0.13470325 -0.03611176 0.19639666
-0.4878731 0.53767973 0.22309454 -0.8356661 0.20430788 -0.072525665 0.14349437 0.91021794
0.041376542 -0.17207256 -0.35667396 0.20931272 0.014590816 -0.869575 -0.20323014 -0.48218092
-0.091373384 0.26707444 -0.4177785 0.18780607 2.0862973 0.26698855 0.2783197 0.9679501
-0.29263282 -0.20232433 0.18396378 -0.07519446 -0.21913077 0.07154139 -0.009830566 0.19282804
0.07558426 0.3720803 0.7633043 0.0129953725 0.24909827 -0.74961877 -0.2691644 0.108686924
-0.29747546 -0.14680812 -0.027438814 0.18109821 -0.51997584 -0.07521569 0.95571595 0.048657153
-0.9074242 0.05827141 0.004697737 -0.4608546 -0.77137786 -0.5468878 0.02369925 -0.0809812
0.01893222 0.122130014 0.28081056 -0.42026138 0.077215366 -0.43544084 0.22360663 -1.1279095
-0.23178506 -0.14553098 -0.2715735 -0.076023735 0.16266927 -0.14555 0.03565902 -0.21840677
0.020629268 -0.3333822 0.044412084 0.13989758 0.25760692 -0.104310974 -0.35500896 -0.023389358
0.01960373 0.557437 0.08958452 0.06433779 0.096253976 0.011036161 0.012877324 0.3801982
0.03439718 -0.13029745 0.7621749 -0.8240501 0.38280344 -2.0527399 0.03271944 -0.64471865
0.1735534 -0.026715977 0.20763989 0.010765904 0.31547534 -0.025711687 -0.10248019 0.09032104
-0.050703593 0.13160785 0.23875156 0.19093148 -0.20345406 0.33512497 0.75204885 -0.0815256
-0.2537215 0.008612972 -0.059958946 0.00497839 0.07716656 0.040460307 0.08338731 0.048916638
-0.7574719 -0.63671535 0.07322035 0.056597017 -0.0869422 0.052913174 0.1346959 -0.58226943
-1.4548765 -0.25254285 0.12935787 0.012561138 -0.05344625 0.31686062 -0.23046273 -0.6220773
-1.1359885 -0.008006344 -2.3107657 -0.101144314 0.0057531833 -0.32413274 -0.35168228 0.0074167303
1.0570806 0.0062778695 0.13742927 0.0067597926 -2.349424 1.0430791 -0.5255941 0.6471557
0.15319891 -0.31462544 -1.0215399 -0.14181246 0.17837918 -0.12846048 -0.13326982 0.058171514
0.21192636 1.2026304 -0.8893176 -1.0106155 0.05818968 -0.22135404 -0.13623641 -0.0061254394
-0.0055640135 -0.59232414 0.20435034 0.024973596 0.0239845 -0.078504965 0.1473628 -0.45150107

fc2.bias f4 [64]
00000000: e2fd 763e 24b8 2f3e 2fd5 6ebf ce93 433d
00000010: 8309 c03d 0b6b c03d 94aa 123e f369 acb9
00000020: 7b74 f33d b046 8e3e 8f75 21b9 ecb1 fb3d
00000030: 5a0f 47b9 983a 243d 8bfb 333e cef9 3e3e
00000040: 22d6 1d3e d8c7 303e bb67 83bc 35b4 c73d
00000050: fda6 3d3f 35bc b43e a22d 6b3e 382d 363e
00000060: 0b8a 2cb9 acec 3d3e e19c e23e 9dd7 343e
00000070: 1f4f d83e de6b 323e 9695 74bc a72b bb3e
00000080: 7d79 21b9 6bf8 923d dde7 55be 6cc5 e4bd
00000090: a271 803e 3144 143d c68d 2a3e d324 863e
000000a0: 8e4c 233f 43d0 543e d5cd 893e ee5a 553d
000000b0: b83c bb3e 11a1 ef3d 1251 19ba 7a8c aa3e
000000c0: e0fb a6bb fe14 1a3f 302f 08bb 9893 4e3e
000000d0: 27e7 3bbe 36f5 1b3e 0027 9f3e c302 b4bd
000000e0: cdc6 8e3e 5ad5 0d3e aee8 1ebe cbad a9b9
000000f0: 0c62 3abd dc1f 833e ed03 8abd e425 1a3d
0.24120286 0.17160088 -0.9329404 0.04774838 0.09376814 0.09395417 0.14322883 -0.00032885335
0.11887451 0.27788305 -0.0001539795 0.12289795 -0.00018983838 0.04009494 0.17576425 0.1864998
0.15413716 0.17263734 -0.016040673 0.09751169 0.7408293 0.3529984 0.22966626 0.17790687
-0.00016454623 0.18547314 0.44260314 0.17660375 0.42247865 0.1742396 -0.014928242 0.36556742
-0.00015399414 0.07176288 -0.2088923 -0.11170468 0.25086695 0.036197845 0.16655645 0.2619997
0.6378869 0.2078257 0.2691485 0.05208867 0.36569762 0.11700643 -0.0005848567 0.333103
-0.005095944 0.6018828 -0.002078008 0.2017349 -0.18349896 0.1523026 0.31084442 -0.08789589
0.27886048 0.13850918 -0.15518448 -0.00032363678 -0.04550366 0.25610244 -0.0673903 0.03763379

fc3.weight f4 [2, 64]
00000000: eca9 bcb4 5a5d e6b5 a82a 00b6 c07e ec35
00000010: 32f6 00b6 7f35 7a36 46a9 3d35 f4c5 0eb6
00000020: a80a 0bb5 25e9 1935 11eb 0636 58c1 ecb4
00000030: 1ec3 87b4 f294 98b5 84e6 0535 6480 1ab2
00000040: 5a48 a335 2152 a0b4 fd29 beb5 9953 99b4
00000050: ce7c 2cb5 34f4 6533 2f87 a0b4 44be 2cb5
00000060: c2ea d433 3e4c 8b34 79d9 64b4 8b48 1d34
00000070: 0751 b434 6584 24b5 d958 88b4 a78b 02b4
00000080: e9c9 53b4 05b3 8434 365e deb4 1a4a 2bb4
00000090: ddfc 8c35 8580 3db5 e523 9334 1d31 9334
000000a0: 59fe cab4 4d98 3b34 6271 7135 0d31 b433
000000b0: 654c d033 d62e 5fb4 5d40 aeb5 3a41 7434
000000c0: 52fa f0b4 b2ba bfb4 0103 9e35 8515 8435
000000d0: 1405 2735 f68d c0b5 11bc 9c34 58b7 b933
000000e0: 89a3 b135 cadf 0936 de8d b232 6894 b232
000000f0: f21f 7c35 70d6 2fb3 6620 d3b4 2ccd b5b5
00000100: 52a4 f3be 12c2 493f ee06 bdbf a6c7 903f
00000110: 2b50 82bf f2d6 48bf f196 053f 835f a537
00000120: 095f 07bf ddb9 933e 96a9 25b7 d2f9 8cbe
00000130: a01a e237 8809 4f3e 91a2 bfbe a615 00bf
00000140: ec9a 00be f3b9 5c3e 447a bbbe 8672 8e3e
00000150: 621c e9be 15cc 263f c081 1b3f be1c 063f
00000160: d6b6 5d38 c4f1 aabe 0094 58bf ee93 13bf
00000170: 9eba 30bf 5eb5 06bf 319d d9be 3526 edbe
00000180: 2717 3d37 439e c4be e466 ed3e a930 6c3f
00000190: 1b09 083e 35cf 983e e224 1e3f 1913 e33e
000001a0: 35ed b7be 8436 c0bf 7537 9f3f 438f ecbe
000001b0: e494 20bf 5b10 afbe d408 95b5 ccb0 f63e
000001c0: 1426 013f a285 98be 5b81 9ebf 14bd c1bf
000001d0: 1c3c 563f 5b1a c33e 81ce e23e 4b89 05c0
000001e0: b672 903e f460 35be a04e 253f 9f1c e837
000001f0: ddca 8fbe 7376 e3be 2d9a a03e e39b ac3d
-3.5141363e-07 -1.7163504e-06 -1.9098316e-06 1.7620259e-06 -1.921679e-06 3.7284042e-06 7.065431e-07 -2.1274873e-06
-5.179704e-07 5.733621e-07 2.0104383e-06 -4.4099102e-07 -2.5287676e-07 -1.1368231e-06 4.9881805e-07 -8.993172e-09
1.2165503e-06 -2.986208e-07 -1.4168323e-06 -2.8559296e-07 -6.425661e-07 5.354032e-08 -2.990068e-07 -6.4351866e-07
9.9147215e-08 2.594624e-07 -2.1313271e-07 1.4648155e-07 3.3586568e-07 -6.128742e-07 -2.539662e-07 -1.2157999e-07
-1.9724361e-07 2.471717e-07 -4.141927e-07 -1.5952574e-07 1.0504406e-06 -7.059501e-07 2.7407e-07 2.7416618e-07
-3.7810494e-07 1.7471139e-07 8.994449e-07 8.3908255e-08 9.699651e-08 -2.0785532e-07 -1.2982742e-06 2.2748e-07
-4.4885616e-07 -3.571236e-07 1.1772792e-06 9.841029e-07 6.221974e-07 -1.4346431e-06 2.91941e-07 8.648084e-08
1.3235123e-06 2.0544853e-06 2.0786441e-08 2.0789415e-08 9.39238e-07 -4.0940392e-08 -3.9325386e-07 -1.3545264e-06
-0.47586304 0.7881175 -1.476774 1.1310928 -1.0180715 -0.7845298 0.52183443 1.9714009e-05
-0.5287939 0.2885274 -9.874251e-06 -0.27534348 2.6953698e-05 0.2021848 -0.37428716 -0.5003303
-0.12559098 0.21555309 -0.3661672 0.2782175 -0.45529467 0.65155154 0.6074486 0.5238761
5.2860785e-05 -0.33387578 -0.8460083 -0.576476 -0.69034755 -0.52620494 -0.4250274 -0.46318212
1.1270668e-05 -0.38401994 0.46367562 0.9226175 0.13284723 0.29845586 0.6177503 0.44350508
-0.35923162 -1.5016637 1.2438799 -0.4620305 -0.6272719 -0.34192166 -1.1103934e-06 0.4818176
0.5044873 -0.29789454 -1.2383226 -1.5135827 0.8368547 0.38106045 0.44298175 -2.0865047
0.28212517 -0.17712766 0.645731 2.7669883e-05 -0.2808446 -0.44426307 0.31367627 0.084281705

fc3.bias f4 [2]
00000000: ee74 8038 db4a ecbd
6.1252955e-05 -0.11537715
