model_config/model_noisy_44_64.pth (torch, 22450 bytes, 7 tensors)

input_weights f4 [8]
000000 00 00 a0 40 00 00 a0 40 00 00 a0 40 00 00 80 3f
       5.0 5.0 5.0 1.0
000010 00 00 80 3f 00 00 80 3f 00 00 80 3f 00 00 80 3f
       1.0 1.0 1.0 1.0

fc1.weight f4 [64, 8]
000000 69 ad 30 bf b0 51 15 3d 81 96 3f 3d 5b b7 5a bd
       -0.690146 0.036454856 0.04677439 -0.053397518
000010 f4 1c ec bb 3b 53 d0 ba 9b 8c 27 3c 14 ac 5f bd
       -0.0072056 -0.0015893945 0.010226394 -0.054607466
000020 ab 5a 1b 3d ff 82 e3 bb 2a 4f aa 3d bc f3 0f 3e
       0.037928265 -0.006943106 0.083158806 0.14057821
000030 6d 6f 11 bd 4c 02 63 bf 88 ad 85 3d 52 41 c0 3f
       -0.035506655 -0.8867538 0.06527239 1.5019934
000040 8c e3 54 3e 94 e0 09 be d4 c2 90 3e b4 96 e0 3c
       0.20789927 -0.13464576 0.28273642 0.02741561
000050 2c de 4a be 17 21 09 bf f4 04 dc bd 88 93 34 3d
       -0.19811314 -0.53566116 -0.10743132 0.04408601
000060 d7 e1 99 be 60 d7 7b 3d fb 5b 6b 3d fe 42 7b 3d
       -0.30055115 0.061484694 0.057460766 0.061343186
000070 19 9e 14 3e 4d 7b 15 3e 48 84 f4 bc 95 fe 02 3d
       0.14513434 0.14597817 -0.029848233 0.03198107
000080 15 ed e9 be 46 ec aa 3c 76 d2 19 3e 3d 24 28 3e
       -0.45688692 0.020864617 0.1502169 0.16420074
000090 ea 80 0b be 20 29 ee be ab 32 71 3d e5 70 63 3f
       -0.13623396 -0.4651575 0.05888621 0.8884414
0000a0 66 f2 22 3e c6 5f 9f bc 8b 07 8e be 95 2a 11 3f
       0.1591278 -0.019454848 -0.2774013 0.567056
0000b0 26 69 07 3e dc 57 03 3e f6 4c 35 3e a6 f2 b1 3e
       0.13223705 0.12826484 0.1770514 0.3475544
0000c0 94 e1 3f 3f 49 53 22 bd fe dd aa bc 81 79 9d 3d
       0.7495358 -0.03963021 -0.020857807 0.07689191
0000d0 e0 ec 92 bc d8 99 57 3c bf a2 4d bd 3a 31 2f 3c
       -0.017935216 0.013159238 -0.050204035 0.010692889
0000e0 b9 65 fb be 37 c8 c6 3b 49 8e 7f 3d 0b 12 25 3d
       -0.49101046 0.006066348 0.062391553 0.04030041
0000f0 b8 a9 a6 bd 78 96 1a be 8f 2c 72 3c fc 40 26 3e
       -0.0813784 -0.15096462 0.014781131 0.16235727
000100 98 a1 57 be dd 82 0c bd 43 4c 7c 3e 8c 53 06 bd
       -0.21057737 -0.03430449 0.24638467 -0.03279452
000110 3f bd 8e bd 91 84 28 bf 1b 3a 18 3e 6f 7d d6 3e
       -0.069696896 -0.6582728 0.14865915 0.41892573
000120 0e ec 39 3e 6d dc 96 3c 3e 57 4d 3e f3 0c 24 bf
       0.18156454 0.018415654 0.20052812 -0.6408226
000130 cd 67 1a be 42 b1 c2 be 93 75 44 be ff 73 9f be
       -0.1507866 -0.38025862 -0.19185476 -0.31143185
000140 34 06 a3 3c 6a c4 7a bd 91 a7 4e be 03 28 9c bd
       0.019900419 -0.06122247 -0.20181109 -0.07624819
000150 74 49 e6 3d 37 cc 7c 3e 5e 3c 08 be 28 91 90 bf
       0.11244479 0.24687277 -0.13304278 -1.1294298
000160 c4 ef 2c 3e d3 dd 20 3e 83 57 a0 bd bb 5b a1 3d
       0.16888338 0.15709619 -0.078291915 0.07878824
000170 c0 1e 98 bd 84 b8 c2 be 96 51 96 bd 5f 33 1f 3f
       -0.0742774 -0.380314 -0.0733978 0.6218776
000180 cd 41 ca bb e8 f6 47 3d 5b 58 6b 3e 01 e3 00 bf
       -0.006172395 0.048819453 0.22982924 -0.5034638
000190 1f 76 ba be 5c 9a 8e 3d 66 a5 c7 bd 59 02 87 bd
       -0.36418244 0.069630355 -0.09748344 -0.06592245
0001a0 0f d8 8f bb b4 d3 03 3e 48 b9 0c be c4 b3 58 3e
       -0.00438977 0.12873727 -0.13742554 0.21162325
0001b0 49 58 db 3d d8 7e 66 3f 70 35 0a be 4e 83 05 3c
       0.107101984 0.900373 -0.13496947 0.008148981
0001c0 cd eb 87 bc 01 17 b9 3d 11 71 f5 bd 78 7e 01 bf
       -0.01659193 0.09037591 -0.11984456 -0.505836
0001d0 63 33 08 be 36 74 d2 bd bc 0a ec 3e ed da 3b be
       -0.13300852 -0.10276072 0.4610194 -0.18345232
0001e0 af fd 1d 3f 73 a5 e5 bb 37 b7 01 bb 38 81 80 3c
       0.61715215 -0.0070082485 -0.0019793042 0.015686616
0001f0 9b f1 11 bd 0d f7 a2 bd 24 c7 22 bb 89 e0 12 bd
       -0.035630804 -0.079572774 -0.0024837935 -0.035858665
000200 e2 7b 7a 3d 68 25 16 be 67 90 e2 3e 3f b0 82 be
       0.0611533 -0.14662707 0.44250795 -0.2552509
000210 c4 34 b7 bd c8 a6 b8 3e 55 90 66 be dd 34 12 bf
       -0.08945611 0.36064744 -0.22515996 -0.5711191
000220 35 87 cc bd c4 81 86 be 54 66 47 3e 42 5b 9c 3e
       -0.09986726 -0.26270878 0.19472629 0.30538374
000230 56 25 c4 3d c1 7f 97 be 43 34 85 bc 34 55 50 3d
       0.09577434 -0.29589656 -0.016260272 0.050862506
000240 aa 69 ff 3e 43 6e 3c 3d d1 c7 e4 3d 18 80 d4 3c
       0.49885303 0.04600359 0.111709245 0.025939986
000250 56 1b df bc 75 9a 4c bd 47 50 8b bd 8c 02 6b 3c
       -0.027234714 -0.04995199 -0.06802421 0.014343869
000260 b8 14 57 bc 2b 97 98 bd c8 aa 1d 3e a3 f0 89 be
       -0.013127498 -0.07450708 0.15397179 -0.26941404
000270 a2 47 1e bf 4f 7f 8c bf a9 25 94 be 59 c8 23 3f
       -0.61828053 -1.0976351 -0.28934982 0.6397758
000280 96 c5 06 bf 27 53 c4 bd 60 e3 46 be 2f 63 82 bd
       -0.5264524 -0.095861726 -0.19422674 -0.06366574
000290 8d 11 bc 3c 2d 77 7b 3d d2 3e 01 be ff 49 37 be
       0.022957588 0.06139295 -0.1262162 -0.17899321
0002a0 f3 d9 50 bd 55 b5 16 3d 1d 28 dc 3e c6 9b 8f 3c
       -0.050989103 0.036794025 0.42999354 0.017530333
0002b0 2a 9f c4 bd ce b0 b9 be af ea d2 3d 07 62 80 3f
       -0.09600671 -0.36267704 0.102986686 1.0029916
0002c0 00 93 0f be 0a 75 73 3b 61 c3 48 3e 16 89 38 bf
       -0.1402092 0.0037148618 0.19605781 -0.72084177
0002d0 de 60 2b be 3f f3 3c bd e3 c3 98 be 33 f8 8d be
       -0.1673617 -0.046130415 -0.2983695 -0.27728423
0002e0 22 bd ec 3d 2c 98 70 3e 2b c9 b7 3d a2 b1 50 bf
       0.11559512 0.23495549 0.089739166 -0.81521046
0002f0 db 6b 68 be dc bd 9c 3d 91 1b 30 be 17 e7 57 be
       -0.22697394 0.076534 -0.17198016 -0.21084248
000300 cc ad fe 3e 9e 45 fc 3c 23 43 9c be 90 29 eb 3d
       0.49741971 0.030794915 -0.3051997 0.11482537
000310 6a 8e 19 be b3 c6 dd bd 09 b1 01 be 32 89 c9 be
       -0.14995733 -0.108289145 -0.1266519 -0.39362484
000320 5b f6 f4 bd e3 ae 1b 3e 76 c0 f9 3c 49 f9 2e bf
       -0.11961051 0.15203433 0.03048728 -0.6834913
000330 c0 8a 2a be c1 ce a9 3e 52 e8 43 be 31 4b 4e be
       -0.16654491 0.33165553 -0.19131592 -0.20145871
000340 fc 89 91 bd a8 7d 88 bd 57 b4 4d be 01 78 8c bd
       -0.071063966 -0.06664592 -0.20088325 -0.068588264
000350 61 ef 2f bc 3d d7 06 bf 6a a8 bb 3d a4 db 06 3f
       -0.010738225 -0.5267218 0.09162982 0.52678895
000360 46 0d 71 bd 04 24 41 3e 3d 71 67 3e 35 96 f2 be
       -0.05885055 0.18861395 0.2260179 -0.47380224
000370 07 cc ac be 00 24 e3 be da ad ca bd 91 b9 84 3f
       -0.3374941 -0.44363403 -0.09896441 1.036913
000380 79 fa 8a be 9a aa 16 3e cc e3 8f 3c ff ed 42 3e
       -0.2714422 0.14713517 0.017564677 0.19036101
000390 b6 7c ca bd 8a 1a 38 bf db 4a d3 b7 d8 fd 5b 3c
       -0.09887068 -0.71915495 -2.5188017e-05 0.01342722
0003a0 ce 8b 09 3f 38 ae 4d 3e 94 f4 8a 3e dd be 23 3e
       0.5372895 0.2008599 0.27139723 0.15990777
0003b0 cb 99 50 3d ef 43 68 bd fc 8a 82 3e 47 a5 5f 3a
       0.05092792 -0.05670541 0.25496662 0.0008531403
0003c0 e8 6f 6b 3e 19 e9 0a 3e 7d c6 5b be e3 f7 07 be
       0.22991908 0.13565482 -0.21462436 -0.13278155
0003d0 e0 d4 be 3d de ad 00 bf 3a 59 59 be 9b 35 6d 3e
       0.093179464 -0.502653 -0.21225443 0.2316498
0003e0 ec 82 d8 3c 45 37 79 3c a0 0a 81 3b 78 d1 81 3e
       0.026429616 0.015210931 0.003938034 0.25355124
0003f0 2c 45 88 3d 65 f6 80 3d 27 ca 12 3f 70 0b 0b 3d
       0.066538185 0.06296996 0.5733971 0.033946455

fc1.bias f4 [64]
000000 28 22 a9 3d 57 78 b8 bf 4a 57 ea 3b 3b 94 a9 3f
       0.08258468 -1.4411725 0.007151519 1.3248361
000010 62 87 78 be fc f6 e4 be b2 2d 8e 3d 49 8f d7 3b
       -0.24270394 -0.44719684 0.069423094 0.00657836
000020 01 09 04 3f 00 78 03 3f 8f 6f cb 3e 4d 5d 84 3f
       0.5157624 0.5135498 0.3973355 1.0340973
000030 77 c4 97 3d 77 15 42 bf 0b 8c 7b 3e 62 20 03 3f
       0.074105196 -0.75814 0.24565141 0.5122129
000040 85 6a cb bf c9 71 55 bf a0 34 c4 3f 4d 20 9e bf
       -1.5891882 -0.8337675 1.532856 -1.2353607
000050 d6 91 08 bf cf 32 0d c0 4a 90 cd bf 22 d2 07 c0
       -0.5334753 -2.206226 -1.6059659 -2.1222005
000060 8a 29 a8 bf 77 e2 5d 3d 6d af e5 be 72 e4 bd bf
       -1.3137677 0.05417105 -0.44860402 -1.4835341
000070 cf 9d cd be 51 13 d6 bf a2 86 33 bf 42 d9 b2 3f
       -0.4015946 -1.6724645 -0.7012731 1.3972552
000080 80 da a3 be 9f 7a 1e 3d 9c dd 6c bf c0 80 0d c0
       -0.3200264 0.03869116 -0.9252565 -2.2109833
000090 6c 39 49 be ec d8 01 bf 60 49 62 bf c9 2a 3a 3e
       -0.19650811 -0.5072162 -0.8839321 0.18180384
0000a0 0c 2e 55 bf a2 42 b5 bf 1d 05 ca bf 95 c5 8d bf
       -0.83273387 -1.416096 -1.578281 -1.1075922
0000b0 b1 57 ba 3e 02 9b dd bf a5 e6 fe bf b6 5a 2d 3f
       0.36395028 -1.731293 -1.9914137 0.6771654
0000c0 f9 ec 26 3e e7 e5 9d 3e 5e c1 19 3e 5d 0e 50 3e
       0.16301335 0.30839464 0.1501517 0.20317979
0000d0 68 49 90 bd 39 a4 4c 3f 70 c4 15 bf 83 02 b6 bf
       -0.07045251 0.79938084 -0.58502865 -1.4219517
0000e0 68 14 07 c0 77 14 b9 3e 7c ad 47 3e de cc 28 be
       -2.1106205 0.36148426 0.19499773 -0.164844
0000f0 c5 a7 bf bf f5 f7 1f c0 3e a9 2e 3e 6f 79 f0 be
       -1.4973074 -2.499509 0.17056748 -0.46967646

fc2.weight f4 [64, 64]
000000 b2 09 cc 3d 6a fc 1e 3f 60 94 d4 3e df 8e d0 3e
       0.09962787 0.62103903 0.4151945 0.40734002
000010 c4 2d 98 3d b9 c4 61 3e cc 16 1e 3e ca a9 27 be
       0.07430604 0.220477 0.15438384 -0.16373363
000020 31 59 a3 bd 65 74 23 3e 11 3c b3 be 75 7a 65 be
       -0.07975996 0.1596237 -0.35006765 -0.22409995
000030 f3 ed 6f 3e d2 e6 80 be fd b9 11 bf b9 24 8b 3e
       0.23430614 -0.25176102 -0.5692442 0.27176455
000040 c6 d7 8b bd 09 0a 85 bd 59 ac a0 be 75 ba aa 3d
       -0.06828265 -0.06496055 -0.3138149 0.08336345
000050 bc 13 5d be 84 ca 8a bf 4e cf 07 be 60 be bd 3e
       -0.2158956 -1.0843053 -0.13262674 0.37059307
000060 83 a7 09 3e 2c ab e9 bd bb e6 c5 bc 69 79 39 bf
       0.13442807 -0.114096016 -0.024157872 -0.7245088
000070 9f 3c 0a bf bb 7f e4 bd 5d da 9e be ae 02 22 3e
       -0.5399875 -0.11157175 -0.31025973 0.15821335
000080 49 16 a1 3d e8 de 01 be 6b 13 c8 be ba 8b 92 bd
       0.07865579 -0.12682688 -0.39077315 -0.07155557
000090 3f ad 87 bd e6 58 15 bf d4 a9 28 be 2e e9 8c 3c
       -0.06624841 -0.58338773 -0.16471034 0.017201032
0000a0 55 ca 42 3e 68 2e 04 3f c0 d8 23 be a5 2c 90 bd
       0.19022496 0.5163331 -0.16000652 -0.07039765
0000b0 6d cb df 3d c4 8d f3 be c5 58 06 be 9d d9 21 3d
       0.10927472 -0.47569096 -0.131198 0.039514173
0000c0 9f 15 c3 bd f9 9a b5 3e b3 ab 86 be d8 d1 1b 3c
       -0.09525608 0.35469797 -0.2630287 0.00951048
0000d0 7b fb 87 bd f7 fd b8 3d e8 10 64 3e 80 c1 8f be
       -0.06639763 0.09032815 0.22272074 -0.28077316
0000e0 f4 fd f1 3e 05 2c 0e 3f 6b 5f 17 3d 85 0c b2 3e
       0.47264063 0.5553592 0.036956232 0.34775177
0000f0 08 aa f0 be 95 eb ab bf 9a 39 dd 3e 9b dd f5 3c
       -0.47004724 -1.3431269 0.4320801 0.030012896
000100 27 60 82 3e fd b9 c6 3e d4 e1 97 be 76 5c be 3e
       0.25463983 0.38813773 -0.2966448 0.37179917
000110 46 bb fd bd 35 3c 2e 3d 2c 48 8e be 8b 82 30 3e
       -0.12389235 0.042537887 -0.27789438 0.17237298
000120 48 31 03 3e 07 ce a3 3e 52 43 c3 bd 3f 12 7c 3c
       0.12811768 0.31993124 -0.09534325 0.01538521
000130 8b c7 bd 3d 51 64 f9 3d cb 70 8c 3c c6 c5 3b bf
       0.092665754 0.12177337 0.017143628 -0.73348653
000140 e7 ff a5 bc 36 2b 77 3e 04 ee 29 3f 5b 55 8e bd
       -0.020263625 0.24137577 0.6637881 -0.06949874
000150 61 25 de bc 9c 94 86 3e 36 00 9f bc fd 0a c5 be
       -0.027117433 0.26285255 -0.01940928 -0.38484946
000160 20 7f 08 bf 1c b3 0d 3d f7 44 ec be a4 a5 0b bf
       -0.5331898 0.03459464 -0.46146366 -0.5454962
000170 0a 5d da bb 45 98 20 bf 18 54 33 3e 70 f4 6b 3e
       -0.006663923 -0.62732345 0.17512548 0.23042464
000180 c2 93 1e ba d7 61 89 be 30 3e dc be 83 ec 0c 3e
       -0.00060492393 -0.26832458 -0.43016195 0.13762097
000190 2a 5d b9 3e 63 a5 99 3e cc ba d9 be f5 81 7f 3d
       0.3620389 0.30008993 -0.42525327 0.062379796
0001a0 9c d7 f6 bc 9d b4 41 3d a2 35 31 be cc f3 9e 3e
       -0.030132107 0.047291387 -0.17305616 0.31045377
0001b0 5c c9 a4 3e 99 45 57 bf 8e 9b 17 be 6d ad 3d 3e
       0.32184875 -0.8409057 -0.14805433 0.18523188
0001c0 d8 f9 46 3e e0 9f bd 3e 24 a1 66 bf fa 28 6f 3d
       0.19431245 0.37036037 -0.9008963 0.058388688
0001d0 e1 33 75 be 74 a5 4b be 21 2a 60 3c 06 4f 94 be
       -0.23945571 -0.19887334 0.013681919 -0.2896654
0001e0 2e ca bd bd 07 af 87 bd a2 47 8a 3d ec bd 4a 3e
       -0.09267078 -0.06625181 0.06751944 0.19799012
0001f0 06 25 e8 bc 25 49 d9 3e a4 9b ad bc 01 7e 61 be
       -0.028337967 0.42438617 -0.02119238 -0.22020723
000200 0f 37 bb be f5 da 91 3e 39 8f 48 3d 56 b4 7c be
       -0.36565444 0.28487363 0.048964713 -0.24678168
000210 12 94 87 bd 77 23 b5 be 2a e3 c1 be 92 b0 82 be
       -0.06620039 -0.3537862 -0.37868625 -0.25525337
000220 18 6c fc bc c1 f6 48 3d 33 23 94 3e 58 0a 16 be
       -0.030813262 0.049063448 0.28933105 -0.14652383
000230 8c 5d 5c be 51 39 38 3f 04 38 f1 3d 1d 9d 90 bd
       -0.2152006 0.7196246 0.11778262 -0.07061217
000240 96 92 f7 3d 93 3e e2 3e 3c 94 ab 3d 5c 6a 81 3d
       0.12088506 0.44188365 0.08377883 0.063191146
000250 b4 64 f1 bd d0 1a f1 3e 6a 98 f2 3d 60 85 74 3d
       -0.11786786 0.4709077 0.11845477 0.05969751
000260 87 53 a0 be a3 d0 bc be d8 49 19 be 2b 05 08 3e
       -0.31313726 -0.36877927 -0.14969575 0.13283221
000270 dc 41 27 3f ec b2 95 bc 4b c4 07 be 2b d6 9b 3c
       0.6533487 -0.018273793 -0.13258474 0.019023022
000280 41 4a cf 3c e3 81 c4 3e 53 97 18 3e a1 d2 06 3f
       0.025303962 0.38380346 0.14901476 0.52665144
000290 67 68 5b be 43 88 83 bd 6e 99 98 bb 0a a4 6d 3e
       -0.21426545 -0.06422474 -0.004656962 0.23207107
0002a0 7a 0d 39 be b5 28 98 3e a6 9c 30 3e a4 db 71 be
       -0.18071547 0.29718557 0.17247257 -0.23618942
0002b0 a5 7a a3 bd 8d 8b 6a be cb b6 5c 3f 58 6f a0 3e
       -0.07982377 -0.22904797 0.8621642 0.3133495
0002c0 e9 f4 b3 be 9c dc 12 3e 4c cb a1 3e 3c f6 07 3e
       -0.3514779 0.14341968 0.31600416 0.13277525
0002d0 ea d2 fe be af 79 e8 3d ac c2 fb bd 5d 08 82 3d
       -0.4977029 0.11351334 -0.1229299 0.063492514
0002e0 9e c0 e0 3e 72 3e 0e be 7d 14 09 be 96 c7 e3 bd
       0.43896955 -0.13891008 -0.13386722 -0.11122052
0002f0 99 06 b0 3e 7a 08 67 3f 1a 46 bc bd d1 1c 64 3d
       0.34380034 0.9024731 -0.09193058 0.055691544
000300 25 17 b8 3c 4c 2c f7 3d 2e fe c1 bd 8f a7 a0 be
       0.022471974 0.12068996 -0.09472309 -0.31377837
000310 50 3a 07 bf 2a e2 67 be fe 00 43 3e 73 2b 03 3e
       -0.5282335 -0.22644868 0.19043347 0.12809543
000320 25 78 20 bf 22 c0 9e be 46 aa 52 be 77 73 01 be
       -0.62683326 -0.3100596 -0.20572767 -0.12641703
000330 e1 eb 03 be fe 5e 09 bf df 28 c7 3e f6 ae 92 bc
       -0.1288295 -0.5366057 0.3889837 -0.017905694
000340 ba 2c b2 3e 81 45 86 bf d4 d6 82 be b8 ce 3f bf
       0.3479975 -1.0489961 -0.25554526 -0.749248
000350 09 13 07 3e 0b 3f ed 3b 4f 55 1e 3e d2 19 31 3f
       0.13190855 0.0072401813 0.1546223 0.69180024
000360 a5 e1 e8 bd 5b 31 6b 3e 3c c9 6a 3e 98 8e c0 bd
       -0.11371163 0.22968046 0.22928327 -0.094021976
000370 d3 13 fb 3b ee 11 0e be b5 85 e7 be 54 3c aa be
       0.0076622753 -0.13874027 -0.45219198 -0.33249152
000380 95 53 ac bb b6 98 d4 3e 80 9d b4 3e 84 b9 2a be
       -0.005258987 0.4152276 0.35276413 -0.16672331
000390 2f 25 a3 3c 7f 79 ed bd fe c2 bf be f3 0e a9 3d
       0.019915191 -0.11595439 -0.37453455 0.082548045
0003a0 e2 72 2b 3f 0c 9d 39 bf f1 52 36 be 67 14 b9 3e
       0.6697217 -0.7250526 -0.17805077 0.36148378
0003b0 fd 39 d8 be 75 23 9a be 07 d0 44 bb a9 55 ee bd
       -0.42231742 -0.30105177 -0.003003122 -0.11637432
0003c0 12 dd 13 be ba e1 33 3d 51 42 df be f1 86 b6 be
       -0.144398 0.04391644 -0.43605283 -0.35649827
0003d0 4e 86 13 3d 59 ec bf bb bf a4 ea be 06 18 1d bd
       0.036016755 -0.0058570323 -0.45828816 -0.03835299
0003e0 b6 d1 d6 3e de 05 94 3e 75 20 a3 be 61 b7 e7 3d
       0.41956872 0.28910726 -0.318607 0.113142736
0003f0 a8 d2 32 be 55 37 03 be 8f 7f a9 3d b9 76 94 3e
       -0.17463171 -0.12814076 0.08276283 0.28996828

fc2.bias f4 [64]
000000 8e b5 83 3e 54 53 c4 3e 6d 1a ea be a7 99 0d bf
       0.25724453 0.38344824 -0.45723286 -0.5531258
000010 49 f6 8a bf 77 fe d4 3d 15 ad 35 be b4 ba ac be
       -1.085641 0.10400098 -0.17741807 -0.33736193
000020 d2 63 4e bf 30 2a 35 bf 0a 67 da bf b3 87 6b 3f
       -0.80621064 -0.707675 -1.7062695 0.92003936
000030 66 ee e8 3e 06 90 c1 3d e8 4f 61 bf a3 83 20 3e
       0.45494384 0.094512984 -0.8801255 0.15675215
000040 30 2a 06 be ea 8b 84 3c 16 86 69 3f 14 77 21 3d
       -0.13102031 0.016179997 0.91220224 0.039420202
000050 5d 74 17 3f 8f e8 08 bf eb 74 47 bd 6e fd 55 bf
       0.5916193 -0.53479856 -0.048695486 -0.8358983
000060 93 74 32 bf 24 d4 02 3f 68 7c 30 3f 61 7e 47 3d
       -0.6970913 0.5110495 0.6893983 0.04870451
000070 bd 0f 81 3f 55 f1 56 3f 2c 58 f2 3e 36 77 37 be
       1.0082928 0.83961993 0.47332895 -0.17916569
000080 2d 0b cb be 48 3a a4 bf 93 cf 5e 3e 53 8a 0c be
       -0.39656964 -1.2830286 0.21758871 -0.13724642
000090 1b 18 cf 3e 93 36 b1 3d f2 a8 06 bf c1 80 f5 3e
       0.4044808 0.08652987 -0.5260154 0.47949794
0000a0 a1 a4 be be 43 47 0e be c1 03 f5 3e 19 8f 5d be
       -0.37234977 -0.13894372 0.47854427 -0.21636619
0000b0 11 16 d4 3e 0b 5d 09 3f ba 3d 21 3f e7 e6 33 3e
       0.41423085 0.536576 0.6298481 0.17568551
0000c0 ae 4f 4a bf 75 a1 2b bd a7 08 6c bf 35 dd 21 bf
       -0.7902783 -0.041902024 -0.922007 -0.6322816
0000d0 ed 62 f2 3e 8d 5a b0 be 77 e3 ee be 26 e4 66 be
       0.473411 -0.34444085 -0.46657917 -0.22547969
0000e0 da 3e b4 3e 58 dc 06 3e 8a c0 2e bd e8 69 7f bf
       0.35204202 0.13169992 -0.04266409 -0.99770975
0000f0 87 05 c3 3e d0 a7 61 bf 30 62 ef be 12 6c 8e bf
       0.38090155 -0.88146687 -0.467546 -1.112673

fc3.weight f4 [2, 64]
000000 ef 14 bc 3a 02 f4 9b b9 21 ac 63 bb 4e d4 d4 3a
       0.00143495 -0.00029745704 -0.0034740048 0.0016237588
000010 30 72 18 3a 38 bf db b9 2e b9 42 3b 2d 5b 99 3e
       0.0005815355 -0.00041913404 0.0029712426 0.29952374
000020 cb d9 a8 3a bb ef 84 be 2c 82 1a bb 9f fc 68 b7
       0.001288229 -0.2596415 -0.0023576124 -1.38870955e-05
000030 4d d3 cd ba 6f 42 41 b9 ff e9 bf b9 e5 a8 20 3b
       -0.0015703231 -0.00018430663 -0.000366047 0.0024514731
000040 6f de 39 3c be 9f 1c 39 82 a8 94 bb e6 22 b2 3a
       0.011344536 0.00014936828 -0.0045366893 0.0013590723
000050 cc 6b a3 b9 30 d2 88 bb 10 75 a2 ba cd c0 8e bc
       -0.00031170098 -0.004175447 -0.0012394506 -0.017425919
000060 f6 4c 05 3b 9a 08 6a 3a 0a c0 31 3a 84 83 d7 ba
       0.0020340062 0.00089276733 0.000678063 -0.0016442393
000070 7e b8 4e bb 7c 0d 07 3b 28 04 c5 3a ca ad 9c be
       -0.0031543071 0.0020607403 0.0015031146 -0.3060134
000080 a1 07 67 bb 94 25 03 b9 76 61 39 bb bd 9e 1c ba
       -0.003525235 -0.00012507132 -0.002828685 -0.00059745816
000090 85 2f b9 ba 54 a8 ab 3a 64 27 27 3f 19 78 de bb
       -0.0014128542 0.001309643 0.6529448 -0.006789219
0000a0 5c 24 8b 3a ba 6a 72 3b 76 da 53 be c1 8f 49 ba
       0.0010615694 0.0036989884 -0.20688805 -0.00076889625
0000b0 4f e6 bd ba a0 5b c4 ba a7 cf 25 bb 47 c6 50 3b
       -0.0014488193 -0.001498092 -0.0025300772 0.0031856464
0000c0 ab de 56 ba 31 f2 66 ba f6 9b b4 3a 3d ff 8c 3b
       -0.0008196632 -0.0008809893 0.001377939 0.0043028877
0000d0 54 ae 98 be ea 2f e8 ba 83 42 59 3e be d4 ca bb
       -0.29820502 -0.0017714475 0.21216778 -0.0061899116
0000e0 cc 3f 92 ba 65 d5 24 39 9e 98 0c ba ca 97 64 3b
       -0.0011157929 0.00015719754 -0.0005363318 0.0034880512
0000f0 00 ad c9 3a 27 dc d1 3c ea 15 40 3f ba 5d 8f bb
       0.0015386641 0.025617672 0.7503344 -0.0043751867
000100 b4 62 0c 3e 92 4d 3f be e5 43 1e 3e 06 66 14 bf
       0.13709527 -0.18681934 0.15455587 -0.57968175
000110 63 86 bb 3e 4f ee af 3e 1b b6 37 3e 83 1f 8a bb
       0.36625966 0.34361503 0.17940561 -0.0042151823
000120 0f ca 53 3f 90 37 c6 bb cf 6a 47 bf 33 a1 07 be
       0.8273019 -0.006049104 -0.7789735 -0.13245086
000130 bb 90 fa 3d ae ec a1 3e 52 d4 a7 3e f5 db ef 3e
       0.122346364 0.31625885 0.32779175 0.468475
000140 8a 60 7b be ef e4 3f be d9 c1 9a 3e 38 08 81 3e
       -0.24548545 -0.18739675 0.3022602 0.25201583
000150 dc 0b 2c 3e 0e e8 ba 3e b2 2d 89 bf 54 5d 8a 3e
       0.16801399 0.3650517 -1.071707 0.2702433
000160 f4 52 2a be 66 45 f5 bd 67 82 5a 3e a7 51 9c 3e
       -0.16633207 -0.11976127 0.21338807 0.30531046
000170 16 4f 22 3e 74 7e 57 3e 99 16 3e 3e b7 26 de 3e
       0.15850481 0.21044332 0.18563308 0.43388912
000180 af ae 0f be d8 f1 88 be 69 a3 41 3e 81 ca d4 3d
       -0.1403148 -0.26747012 0.18909992 0.10390187
000190 d5 0f 40 be dd 72 f1 bd 03 3e bb 3e a4 ed d0 be
       -0.1875604 -0.117894866 0.3657075 -0.40806305
0001a0 0e 2c d4 be b4 d0 fb be 5b 9c 44 3b 65 dc 23 be
       -0.4143986 -0.49182665 0.0030000422 -0.16002043
0001b0 60 48 fa bd f8 6f 1b 3f 7c 67 ab be 7b 33 76 3e
       -0.12220836 0.60717726 -0.3347739 0.24043076
0001c0 11 af 62 be 56 a1 09 be 2f 09 91 be 15 89 6c be
       -0.22137095 -0.13440451 -0.2832732 -0.23099168
0001d0 d9 d3 a0 3b 36 30 9e 3e 9d 6a 41 bb b6 5d a9 3e
       0.0049080667 0.30896157 -0.002951301 0.33079308
0001e0 69 0d a3 3d ce 87 3b be ce 60 4a 3e f6 7f 44 be
       0.07961542 -0.18313524 0.1976349 -0.19189438
0001f0 88 65 cc bd b5 76 43 3f 66 08 b4 be 48 52 ec 3e
       -0.09980303 0.7635301 -0.35162657 0.46156526

fc3.bias f4 [2]
000000 8d 18 e9 be d6 1d f0 3d
       -0.45526543 0.11724441
