model_config/model_3.pth (torch, 20819 bytes, 7 tensors)

input_weights f4 [5]
00000000: 0000 803f 0000 803f 0000 803f 0000 803f
00000010: 0000 803f
1.0 1.0 1.0 1.0 1.0

fc1.weight f4 [64, 5]
00000000: 7140 d93e d8d4 ffbe 0638 65be ab1f a6bd
00000010: d2c7 59be c18d 913e 434a 09bd d333 09bf
00000020: eda5 bcbd 8a00 36be edd6 2abb 26e4 ad3b
00000030: a285 aabb 508b 103e 2e49 e33e ca1a 283e
00000040: 8bdc 553e 3f70 c3bd f4d3 853e f5ad e73c
00000050: f946 283f 94c0 f93c 6ae6 79bd a5b0 a93e
00000060: ceb8 5f3c c95c 5abe 3796 173e 3c71 28bd
00000070: ae54 853f ef53 13be d1e8 87bf 59dd 7a3d
00000080: 47dd 22bd d14a 113e b33d d8bb 1c77 9dbd
00000090: 1052 81bd 6c4a d33e 158f a5be e745 5c3d
000000a0: f054 cf3f 0ff2 81bc 3d7f c6bd f481 5cbd
000000b0: 39bc 183d 581d cc3f 146f ff3b c687 f33d
000000c0: 6c76 db3d c02f 5c3c 0a84 fe3e b225 38bf
000000d0: 3bc3 ab3d e68f d8be 9e72 e03d a8ff ce3d
000000e0: bde5 053e be8a 873f 74fe 18bf 9e20 68be
000000f0: 6215 bebe 3ab6 983e c88c be3d ca0e 003f
00000100: 6d8b 673d 531f ac3e e7bf 97bb ee80 683e
00000110: 7599 4b3d a600 e53e 05c0 4a3f e27b 8b3c
00000120: 85a5 cd3d a790 a63e d09b d5bc 9cc4 b63e
00000130: 002f cb3c 7df6 013e 0e95 a43e e7aa 1fbe
00000140: 9674 d3be 863a 3e3f 336a a33e 6842 20be
00000150: d914 6a3e d2ff 81be df27 c8be 9ea6 e0be
00000160: 6233 853c cec9 193e 3f79 8fbe 484d 88be
00000170: b670 efbd 3caf 353d 8cf9 973d 825c 31bd
00000180: 50a8 f53c 247e 93be 06f6 1d3f 3db7 523e
00000190: 1b25 88bf da3f 4d3d 035a c23d 8a61 9a3c
000001a0: 2aae babc 90b6 bcba 1e18 1bbf 7fa5 743e
000001b0: 5c4a 9c3e c140 3b3e 81a6 263f 1627 983e
000001c0: 0963 67be 6b73 25bf 0fd4 92be a627 36be
000001d0: 82b5 71be ce5a 3e3e 0524 793f 2d44 d7bd
000001e0: 8fd8 21bf 0c4c 1c3e a772 b2be fea3 95be
000001f0: 2eb2 0d3e 37d5 cd3b 397a 863d f808 cebd
00000200: 9555 6abf 7269 1fbf 390e 12bf 0ae9 d23e
00000210: cfd1 debe 9ff4 b73e 0667 b93e 8ad1 3bbf
00000220: 9fe9 243d e764 c43c 0659 123e 0bf6 2d3c
00000230: cda1 f1be e52f 873c 70b9 19bf 217a 87be
00000240: fb8a 0bbe 1f72 133a 8164 da3e 2f8d 01bf
00000250: b5e1 5a3f aa36 58be 3dbd f93d 5612 03be
00000260: e65e 883e 6985 e9be 20d1 c2bd 9d8f 313e
00000270: 6734 273e c8c0 27be e29b 18be 1158 463c
00000280: 863a b33f ee9b 2ebe ee10 b13d b887 eebe
00000290: 13c0 8abc b7ac b13f 90ad 413c 2a01 e83d
000002a0: 1c51 933e 4406 163d 22fe 0b3f a9e4 483e
000002b0: 33b9 463e 998a a33d 2d6c bbbe 7e51 233e
000002c0: 4b7f e33d 097d 0b3e 57bd f43e 1e70 593e
000002d0: dd13 a2be 9079 07bd 467e 8abd 7d52 123e
000002e0: d45b a5be 6c5b d93b 0547 123e 0695 263f
000002f0: 680b 903e c7cb 60bc 6a73 833e 3821 5dbe
00000300: 4139 20bf e418 1d3f 17b3 a2be 7c97 7f3f
00000310: 41a4 3a3c 7e40 ad3d 90e6 f23e 551a 51be
00000320: 41df 4cbd 80fa 0cbe 4932 893e 0259 88be
00000330: 4cb8 a9bd 4b06 c63d 55d3 763e 9c1d 65bd
00000340: 4699 ca3d aa56 04bf dad4 e83c 8eae b1be
00000350: ff72 1d3d 0ac2 9abd 7f9c 843c 45be 38be
00000360: 9ab5 c23e aee4 f0bb e658 2d3f 9e2b 6c3d
00000370: c417 d93e 6deb 993e 7fc7 533e afed f1be
00000380: c48f 7abd 8bb5 24be 37a5 6ebe d87a 983e
00000390: 5a51 2abe f025 63bd 22f9 9b3e e6dd e6be
000003a0: 63c9 213f 50f3 f53e bf17 a8bd 5f93 c63e
000003b0: ab64 2fbf e441 de3e 0a0d 33bf 3966 e7be
000003c0: a090 f7be 9d80 853e 5842 bcbc 97fd 5b3e
000003d0: e1c1 d6bd e008 c1bd 02c8 853e 428b 05be
000003e0: 7382 01be aa25 e43e 0cb4 24bd 9668 20bc
000003f0: 8b44 69bd af35 02bf 3fea 4bbc c256 ee3c
0.42431977 -0.49967074 -0.22384652 -0.08111509 -0.21267632 0.28428462 -0.033518087 -0.535947
-0.09211335 -0.17773643 -0.0026068047 0.0053067384 -0.0052039186 0.14115644 0.4439177 0.16416469
0.20884912 -0.095428936 0.2613827 0.028281191 0.65733296 0.030487336 -0.061010756 0.33142582
0.013654901 -0.21324457 0.14803396 -0.041123614 1.0416467 -0.14387487 -1.0617925 0.06124625
-0.039761808 0.14188696 -0.006599152 -0.07688734 -0.0631448 0.41267717 -0.32335725 0.0537776
1.6197796 -0.015862493 -0.096922375 -0.05383487 0.037288878 1.5946455 0.007795224 0.11891131
0.107159466 0.013439119 0.49710113 -0.7193252 0.08386847 -0.42297286 0.109593615 0.10107356
0.1307592 1.0589216 -0.59763265 -0.22668692 -0.3712569 0.29826528 0.09304196 0.50022566
0.05652945 0.33617648 -0.004631031 0.22705433 0.049706895 0.44727057 0.7919925 0.017026845
0.10041336 0.32532236 -0.026075274 0.35696876 0.024802685 0.12691684 0.3214497 -0.15592538
-0.41299886 0.7430805 0.3191696 -0.15650332 0.22859515 -0.25390488 -0.3909292 -0.4387712
0.016259853 0.15018389 -0.2802219 -0.2662146 -0.1169142 0.04435657 0.07420644 -0.043301113
0.029987484 -0.28807175 0.61703527 0.20577712 -1.0636324 0.05010972 0.094898246 0.018845338
-0.022788126 -0.001439767 -0.60583675 0.23891257 0.30525482 0.1828642 0.65097815 0.2971732
-0.22596373 -0.6462924 -0.28677413 -0.17788562 -0.23604396 0.18589327 0.97320586 -0.105110504
-0.6322107 0.15263385 -0.34853098 -0.2922668 0.13837501 0.0062815207 0.06566281 -0.100603044
-0.9153684 -0.6227027 -0.5705295 0.4119342 -0.43519446 0.3592882 0.36211413 -0.73366606
0.04026186 0.023973895 0.14291772 0.010617743 -0.47193757 0.01650233 -0.6004858 -0.26460364
-0.13627236 0.00056246103 0.42654803 -0.50606054 0.8550065 -0.21114603 0.121942975 -0.12799963
0.26634902 -0.45609596 -0.09512544 0.1733994 0.16328584 -0.16382134 -0.14903215 0.012105958
1.4002235 -0.1705167 0.08645807 -0.4658792 -0.016937291 1.3880833 0.011821166 0.11328347
0.2877282 0.03662707 0.5468465 0.19618477 0.19406585 0.0798542 -0.3660597 0.15949056
0.111082636 0.13621916 0.47800705 0.21234176 -0.3165578 -0.033074915 -0.06762366 0.1428928
-0.32296622 0.006633213 0.14284904 0.6507114 0.28133702 -0.013720459 0.2567399 -0.21594703
-0.6258736 0.61366105 -0.3177726 0.9984052 0.0113917 0.084595665 0.4744153 -0.20420201
-0.0500176 -0.13767433 0.26796177 -0.26630408 -0.08287105 0.09669169 0.24104054 -0.05593644
0.09892516 -0.5169474 0.028421808 -0.34703487 0.038439747 -0.07556541 0.016187904 -0.18041332
0.38029176 -0.0073514795 0.67713773 0.057658784 0.42400944 0.30062428 0.2068157 -0.4725165
-0.06117226 -0.16084878 -0.23305212 0.29781222 -0.16632596 -0.055456102 0.3046351 -0.4509117
0.63197917 0.48037195 -0.08207654 0.3878431 -0.6851298 0.43409646 -0.6994177 -0.45195177
-0.48352528 0.26074687 -0.022980854 0.21483456 -0.10486198 -0.09425521 0.26129156 -0.13041404
-0.12647419 0.44559985 -0.04021077 -0.00979056 -0.056950133 -0.50863165 -0.012445985 0.029094104

fc1.bias f4 [64]
00000000: d620 e8be b02e 163e 3956 a73e 207f 543e
00000010: 5e6d 733e 89a5 17be 7f1d 6cbf 3488 ad3c
00000020: dc1f d13e 4540 61be cbc0 9fbe e5b4 86bf
00000030: be11 793b 4585 01be bb5f dd3e b9b1 ab3e
00000040: fa7e 7dbf 500b 45be 0ee4 523d 96ce 413f
00000050: 6703 b5bf a4ae 28bc 11ba 23bf e18b 38bf
00000060: 5f3e eebe a296 17c0 28b1 05bf 5983 263f
00000070: df29 78bf 65d7 33bf b418 59bd e33d 643e
00000080: f181 42bf 3261 c6bf 6155 1cbe 003c a63e
00000090: 76c3 d33c b779 85be dfdc d6be a46d a1be
000000a0: 5631 aabd 1728 32be 263b ee3d 1d94 27bf
000000b0: 7792 b8bc d26f 643e 9d80 4abf e665 50bf
000000c0: 6825 143f ba02 ffbd ec17 9e3e cd4a 5ebf
000000d0: 07d7 d1bc 0978 84bf fa10 b53e 0289 853e
000000e0: 1648 03bf ea53 5bbe d7b3 8abe 66d7 32bf
000000f0: 21ee 56bf 6385 16be ec73 39bf 0f3f 163f
-0.45337552 0.14666247 0.3268297 0.2075162 0.23772189 -0.1480924 -0.9223251 0.02118311
0.4084462 -0.21997173 -0.31201777 -1.0523955 0.003800496 -0.12648495 0.432371 0.3353403
-0.99021876 -0.19242597 0.05148702 0.7570585 -1.4141663 -0.010295544 -0.6395579 -0.7208844
-0.4653196 -2.368569 -0.52223444 0.6504417 -0.9693889 -0.7025054 -0.053002074 0.22289233
-0.75979525 -1.5498412 -0.15266944 0.3246765 0.025850039 -0.26069424 -0.41965386 -0.31528962
-0.08310191 -0.17398106 0.116323754 -0.6546038 -0.022530777 0.22308281 -0.791025 -0.81405485
0.5786958 -0.12451692 0.30877626 -0.86832887 -0.025615228 -1.0349132 0.35364515 0.2608109
-0.5128187 -0.2141873 -0.27090332 -0.6985992 -0.83957106 -0.1469932 -0.7244251 0.5868997

fc2.weight f4 [64, 64]
00000000: ae6d ab3e 488a 923e 16d8 3c3e b85d 3b3d
00000010: 468d 0d3e a171 69be aa8d a9bd 6e5c babe
00000020: d7f4 c23e 9393 993e 9020 47be e244 653e
00000030: c83b 96bd 6a3c 3ebc a38b fe3d 8759 a83e
00000040: 542f 6fbd 201a 003f 0b42 f93d 4d23 1cbc
00000050: b83d d3bc 0b00 cabd ac01 1fbf c6dd ee3e
00000060: 044e 8f3e 1fea a1be dcb0 0dbe c783 3bc0
00000070: 02ef 723e 73bd 57be a13a e0be 2858 863d
00000080: 84fc afbe ba70 063e 4a81 503e 7cca 203e
00000090: 9f76 d8be 8318 8d3e 5fe7 c4bd f514 4e3e
000000a0: 8a67 bfbe 9ba1 90bd 7567 77be 689a 323f
000000b0: a19d cc3e d6ce df3e 2930 17bf 232b abbc
000000c0: cc0d 2e3e 42f9 943d b17d dbbd c327 91be
000000d0: 9d5a 57bd 2ddd 47bd 6992 9cbd c33d 9c3e
000000e0: c454 c4be 2f42 103e 9a0c 38be ac4a cfbd
000000f0: 91e3 07be 72d5 dabd 4c3c 45be 65c0 55c0
00000100: 9ed2 9b3e 254a d73d b9ed 18bf b6a4 d9be
00000110: 72e5 ffbf 9666 6cbe c44e 993e 6356 903e
00000120: 9961 a83d e662 dcbc 9177 e43d 604f 92be
00000130: 98e2 31be 6c37 a53d 3afb 0abf 4ba0 fdbd
00000140: 2bc1 983e 5a70 8e3d 3210 993e f3d9 c3bd
00000150: e1ae ee3e db86 4ebe e80f 4dbe 4653 173e
00000160: 4781 87bd c939 d83b 06d9 b13e fad9 853e
00000170: ee5d d93e 6afd 37bf 9d54 193d 4b41 94be
00000180: 63a6 22be 8aff f2bc 3dc8 7b3f 6f8d e8be
00000190: 2e32 63bb 6298 a63e 46e3 14bf d852 b2be
000001a0: a42d 48bc 32d9 903e 08ce 053f 994b 0fbe
000001b0: ef1c a4be 7b0b 1cbe 476f c1bd 52e0 0dbe
000001c0: 4526 9dbc 4be7 14bf 42c5 f53d df1f 94bf
000001d0: efa1 1e3f a77f 85be 4378 20be cf37 17be
000001e0: 229c 49be 5ca5 af3e a957 09bf b60d 9d3d
000001f0: 6c32 0fbe ec7b f03e 8ba1 0b3f 5dde 883d
00000200: 9727 443d 4449 0f3e 870f c6bd 9650 763e
00000210: 12fc 023d e0c3 1bbe 6285 223e e702 423e
00000220: 8ebd 4d3d ac1c 8abd 5736 53be 55ac 073f
00000230: 06bd 14bf 87d3 a8be e7c9 0f3c 3222 99be
00000240: b179 503f 60d1 a2bd aa87 04bc 0bc5 8f3d
00000250: 4a89 0cc0 99b9 86be 8436 c0be 43ee 1b3f
00000260: 8a85 353e ca9f 0b3f b63c c23e 3ef2 fabd
00000270: e10b c0bd 6901 023e 135e 25bd 5256 823e
00000280: 1503 67bd f213 53be 0281 893d 504b 42bf
00000290: 76b6 503e 7d85 a3be 1438 4fbf 120b 2a3f
000002a0: d122 173f 3792 71be 0133 853e c9e3 c73d
000002b0: 91be 94be 19cb 893e 7e91 27bf a5a9 863d
000002c0: d67f 85be 9c31 a0bd 02b6 2a3e 8878 f9be
000002d0: 3794 05bf c029 cf3d e9ec 973e 60c0 603e
000002e0: a6be bd3d 9b2a 573e 3ecc 95be 5d11 edbe
000002f0: d16b 2fbe a841 c03e 89c7 08bf 1ac8 9ebd
00000300: daa7 9a3e e32d 02be a397 4fbe e3d2 cabd
00000310: c024 31bd c34a 4cbe 0091 6c3f 296d 4f3e
00000320: 6165 13be ae2c d6bc 2ec5 0f3e cd2c 82bf
00000330: ebcc 05be 70d7 73bd 259f cdbd 67e6 823d
00000340: f955 983d 574a 44bd bb16 9cbd e03f d8bd
00000350: adbc 04be 21b1 c93e 0a70 a33d b0dd 58bf
00000360: 2452 113e 14e3 313e 80be 23be 5c67 003d
00000370: cafd a43e 5e78 99bf 29a7 fdbd 2f94 fd3d
00000380: 8026 823e e04e 5cbf 51c8 c6be 17d9 9d3e
00000390: de34 a2be e23e 113f fe40 113f 1f11 10be
000003a0: 9189 82bd c37d 76be a39e 5e3c 2e74 2dbe
000003b0: 6248 87be e40b 4cbd 1383 bc3e 6ce8 073e
000003c0: 8c92 17bd b5b6 afbe 2ca6 5a3e a7b1 54bf
000003d0: 7012 aabd 3ab6 56bf 54c5 c23e d214 ccbd
000003e0: 3259 05bf ac87 e13e f9d3 0ebd e7ab 8c3d
000003f0: 5aa5 c0be f9ea adbe 4450 6a3e cee5 2f3c
0.33482116 0.28621125 0.18441805 0.045743674 0.13823423 -0.22797252 -0.082789734 -0.36398643
0.38077423 0.29995403 -0.19446015 0.22389558 -0.07335621 -0.0116110835 0.12428977 0.32880804
-0.058394745 0.50039864 0.121708 -0.009529901 -0.025786266 -0.098632894 -0.62111926 0.46653575
0.2798921 -0.31623933 -0.13836998 -2.929918 0.23723987 -0.21068363 -0.4379473 0.06559783
-0.34372342 0.1312894 0.2036182 0.15702242 -0.42278 0.27557763 -0.09614443 0.20125182
-0.37383682 -0.07062074 -0.2416056 0.69766855 0.3996401 0.4371249 -0.5905786 -0.020894593
0.1699745 0.07274105 -0.10717333 -0.28350648 -0.05257665 -0.048794914 -0.07645113 0.3051587
-0.3834592 0.14087747 -0.17973557 -0.101216644 -0.13270403 -0.10685243 -0.19261283 -3.3398678
0.30434126 0.10512189 -0.59737736 -0.42508477 -1.9991896 -0.23086008 0.29942906 0.28190908
0.0822174 -0.026902627 0.11155618 -0.28576183 -0.17371595 0.080672115 -0.5428959 -0.12384089
0.29834875 0.06955023 0.2989517 -0.09563055 0.46617797 -0.20168631 -0.20025599 0.1477786
-0.066164546 0.0065986854 0.34735888 0.26142865 0.42454475 -0.71871054 0.03743421 -0.28956065
-0.15883784 -0.029662866 0.98352414 -0.45420405 -0.003466736 0.32538134 -0.5815929 -0.3482883
-0.012217913 0.28290707 0.52267504 -0.13993682 -0.32053325 -0.15238754 -0.094450526 -0.13855103
-0.019183287 -0.58165425 0.120005146 -1.1572226 0.6196584 -0.26073954 -0.15670876 -0.14767383
-0.19688466 0.34305847 -0.53649384 0.07668631 -0.13984078 0.46969545 0.5454337 0.066830374
0.04788932 0.13992792 -0.0967093 0.24054179 0.031978674 -0.15211439 0.15871194 0.1894642
0.0502296 -0.0674375 -0.20626198 0.5299733 -0.58100927 -0.32973883 0.008776165 -0.299089
0.81435686 -0.07950091 -0.008088985 0.07020005 -2.1958795 -0.26313475 -0.37541592 0.60910434
0.17726722 0.54540694 0.37936944 -0.12253235 -0.09377266 0.1269585 -0.04037292 0.25456482
-0.056399424 -0.20613077 0.067140594 -0.7589617 0.20382103 -0.3193778 -0.80944943 0.6642314
0.590375 -0.23590933 0.26015475 0.097602434 -0.2905164 0.26912764 -0.6545638 0.06575326
-0.26074094 -0.07821962 0.16670993 -0.4872477 -0.5217928 0.10115385 0.29672936 0.21948385
0.09264879 0.21012346 -0.29257387 -0.4630231 -0.17130972 0.37550092 -0.53429466 -0.0775301
0.30206186 -0.12712817 -0.20272689 -0.09903505 -0.04324794 -0.19950394 0.9240875 0.20256485
-0.14394142 -0.026144352 0.14040062 -1.0169922 -0.13066451 -0.05953163 -0.1004012 0.06391602
0.07438273 -0.04792246 -0.07621523 -0.10559058 -0.12962599 0.3939295 0.07980354 -0.8471327
0.1419149 0.1737178 -0.15990639 0.03134857 0.32224876 -1.1989858 -0.12385399 0.123817794
0.25419998 -0.86057854 -0.38824704 0.3082969 -0.3168096 0.56736577 0.56739795 -0.14069031
-0.06373895 -0.24071412 0.013587627 -0.1693885 -0.2642241 -0.049816027 0.36818752 0.13272256
-0.037004992 -0.34319082 0.21352452 -0.83083576 -0.08304298 -0.83871806 0.38041174 -0.09964909
-0.52089226 0.44048822 -0.03487012 0.06868725 -0.37626153 -0.33968332 0.22882181 0.010735942

fc2.bias f4 [64]
00000000: c5da 4c3d 4f5e 95be c8be cd3e 785a b43e
00000010: 19ab ce3e 4f4a 203e 565c 2cbd 2ae4 acbe
00000020: 6be8 88be 23d0 503f d6a5 ab3e 3cbf 633e
00000030: 5d13 cbbc 65e1 143f c3a8 5abe ebdf 7b3e
00000040: 6bd7 c53e 3b24 28bb 3ae0 0a3e f607 ae3e
00000050: 37e6 9abd 3855 b8be 9f7f 3ebe e995 1abe
00000060: bd33 9ebe 1fd6 533f 1887 d33e 00cd 4a3e
00000070: aff2 d13d 96a5 92be 7932 66be 5329 e3be
00000080: e331 853e 4f27 1e3c 8ac8 de3c e959 68be
00000090: 90d3 04bf d45c 52bc 8838 953e 53c1 1b3e
000000a0: 19a3 63bd 9976 be3e 4b11 413e 45b5 41be
000000b0: 1654 c33d 8698 973d 1d66 4d3e 7cee 5d3d
000000c0: 93a7 f23d 46f6 873d 9e34 913e 7e3c 8f3c
000000d0: 8345 213e 8c40 883e 7cc6 903e ab4a dc3e
000000e0: 0bc9 ec3c b36c 2d3d b1c3 963e 369d 57be
000000f0: 4fec 803e d3cf 2e3d 0a89 2dbe bde5 debd
0.050013322 -0.29173514 0.40184617 0.35225272 0.40364912 0.15653346 -0.042080246 -0.33767825
-0.2673982 0.8156759 0.3352496 0.22240919 -0.024789507 0.58156425 -0.2135344 0.24597137
0.38640913 -0.002565636 0.13562098 0.3399045 -0.07563441 -0.36002517 -0.18603371 -0.15096249
-0.30898848 0.827486 0.41314006 0.19804764 0.10251366 -0.28641957 -0.22480191 -0.44367465
0.26014623 0.009652927 0.027195234 -0.22690548 -0.5188532 -0.012839515 0.29144692 0.15210466
-0.055575464 0.37199858 0.18854253 -0.18916805 0.095375225 0.074021384 0.20058484 0.054182515
0.118483685 0.0663877 0.28360456 0.0174849 0.15749173 0.26611745 0.28276432 0.43025717
0.028904459 0.04233999 0.29446176 -0.21056065 0.2518029 0.042678665 -0.16946808 -0.10883663

fc3.weight f4 [2, 64]
00000000: ce17 d3bd a1b0 98be 184f 43bd f3fe 1b3e
00000010: 2e8b babe 070f 36be 283f 62be b735 513c
00000020: 9bcf 5f3f 13a2 85be 9a4b b3bd 07c1 d3be
00000030: 4ca4 b9bf aba3 5abe 993a 3d3e 0502 70bf
00000040: c0f3 983d d4b1 383c 7123 22be 3fdf 42be
00000050: 1551 16bf 650e 21be 2bca 703c 95bf aa3e
00000060: 9959 d1be daf9 ae3e 535e 77bd 00c8 52be
00000070: 5f8c 1fbe 6bd8 f83e a092 6c3e a1cb acbe
00000080: f1b9 9dbd 944b 1dbe c93c abbe 8fe6 83bf
00000090: 464d 03be 1807 4c3f 4c21 64be 61e9 103f
000000a0: b8c0 d43e 043b 15c0 9c66 053f 0ea9 c0bd
000000b0: 73af 333e bc64 143f 7d29 ef3e 3149 99bf
000000c0: 28c5 07be fd90 71be d9ec d83e 0099 fabd
000000d0: e58a 08be a03f 9dbe 65ed 00be 3d59 f73e
000000e0: a81f 483e 8037 d53e 9c8b 033e 17f9 023f
000000f0: d8bc 0a3f e2ed f73e 1d40 2bbf 902d 62be
00000100: 6fdb 2fbf f618 d93e c992 d5be 8816 b1be
00000110: 9c01 f93d e13f 2d3e c9f2 253e ffec ba3e
00000120: d31d 0abf 399d 8cbf bac9 d3be dd46 783d
00000130: 9392 d6bc 6abe d2be 6263 473f ae3b adbc
00000140: 5b6c 5dbf 842d ca3b cc58 3d3f 5a6d 0ebf
00000150: c9cc 7a3e a939 12bf 01ef fe3e 04e1 cc3e
00000160: c8ef 83be d0ac 9abf a5e1 c23e 4265 4abf
00000170: 64f4 b53e f4b1 cabd 8f46 edbe 48f6 aabe
00000180: 5f52 ec3e 26ac 783e 8230 553d 6c20 96be
00000190: 2a1c f9be 4df5 e53d 0408 d9be fb6d bfbe
000001a0: b6b4 f73d 4e72 7dbe 7595 dfbc f410 383f
000001b0: 95bd 4e3e 0463 173e 775f 3cbc 77fe f0bc
000001c0: 57c7 903e 5d8a 053f 92a1 d4be 58bc d2be
000001d0: e9cc 18bf 105e 493f 9963 1a3f d561 aabe
000001e0: 918b b23e 5f18 48be 10b0 103f a07c 643d
000001f0: bb75 013c 6135 623d 005d 35be ddd0 723e
-0.10307275 -0.29822257 -0.04768285 0.15233974 -0.3643431 -0.1777917 -0.22094405 0.012769154
0.87426156 -0.26100215 -0.08754654 -0.41358206 -1.4503264 -0.21351497 0.18479384 -0.9375308
0.074683666 0.011272866 -0.15833832 -0.19030474 -0.5871747 -0.15728147 0.014696638 0.3334929
-0.4088867 0.34174997 -0.06039269 -0.20584106 -0.15580891 0.48602614 0.23102808 -0.33749107
-0.07701481 -0.15360862 -0.33444813 -1.0304736 -0.12822446 0.79698324 -0.22278327 0.5660611
0.41553283 -2.331727 0.52109694 -0.094072446 0.17547397 0.5796621 0.4671134 -1.1975461
-0.13258803 -0.23590465 0.423682 -0.12236214 -0.13334234 -0.30712605 -0.12590559 0.4831027
0.19543326 0.41643906 0.12846226 0.5116133 0.541944 0.48423678 -0.66894704 -0.22087693
-0.68694204 0.42401856 -0.4171355 -0.34587502 0.1215851 0.16918899 0.16205896 0.3650894
-0.5395176 -1.098548 -0.41364843 0.060614455 -0.026192939 -0.411609 0.7788602 -0.021146622
-0.8649346 0.0061699767 0.7396362 -0.5563561 0.24492182 -0.5711923 0.4979172 0.40015423
-0.25768876 -1.2083988 0.38062778 -0.7906076 0.35538018 -0.09897223 -0.46342894 -0.33391023
0.46156594 0.2428442 0.052048214 -0.2932161 -0.486543 0.11228428 -0.42388928 -0.37388596
0.12095015 -0.24750635 -0.027292946 0.7190087 0.20189507 0.14783865 -0.01149737 -0.029418213
0.28277084 0.5216425 -0.41529518 -0.4115932 -0.5968767 0.78659153 0.60308224 -0.33277765
0.34872106 -0.19540547 0.5651865 0.055782914 0.007901604 0.055226687 -0.17711258 0.23712488

fc3.bias f4 [2]
00000000: d20d 1dbc 8c90 84bd
-0.009585815 -0.06472883
