model_config/model_noisy_28_64.pth (torch, 21682 bytes, 7 tensors)

input_weights f4 [5]
000000 00 00 80 3f 00 00 80 3f 00 00 80 3f 00 00 80 3f
       1.0 1.0 1.0 1.0
000010 00 00 80 3f
       1.0

fc1.weight f4 [64, 5]
000000 97 66 82 bc f6 80 9f 3e ff 96 36 be 20 4a d8 3c
       -0.01591806 0.31153077 -0.17831038 0.026402533
000010 f7 08 06 3e 3d d6 82 be 41 f7 27 bd fa 00 b3 be
       0.13089357 -0.25554076 -0.041007284 -0.34961683
000020 d6 90 ce 3c 63 72 17 3c 65 da 60 be 34 70 ac 3b
       0.025215548 0.0092435805 -0.21958311 0.005262399
000030 d6 ca a8 bb c7 c7 e4 3e 1b b4 44 3d d6 a1 21 bd
       -0.005151133 0.44683668 0.048023324 -0.03946098
000040 9d 49 c3 3a 3d ef 42 ba cd df 85 3d 33 e9 91 be
       0.0014899258 -0.0007436162 0.06536827 -0.2849823
000050 35 8f 0c bd 76 fa 08 be ab c4 7e 3e 94 4a 30 bd
       -0.03431626 -0.13376793 0.2487971 -0.043039873
000060 51 d7 19 3e 13 10 96 3d 04 c2 35 3e 74 cb a2 bd
       0.15023543 0.07327285 0.17749792 -0.07948962
000070 51 da 83 ba 64 86 06 be 7f ad de bc fe 3e 82 be
       -0.001005957 -0.13137203 -0.027182339 -0.25438684
000080 33 40 7a be d8 6f 2f 3d 70 af 77 3d f6 88 16 3e
       -0.24438553 0.042831272 0.060470045 0.14700684
000090 91 55 be b9 cd 1f cd be a6 b4 9e bd 23 f9 33 bd
       -0.00036303376 -0.40063325 -0.077493 -0.043938767
0000a0 74 f7 55 3e 38 ab 8d bb 04 a0 37 bc 59 59 96 3e
       0.20895177 -0.0043233894 -0.011207584 0.29365042
0000b0 95 7b c5 bd b4 15 35 3e b8 6b 85 3d 81 07 50 be
       -0.09642712 0.1768406 0.06514686 -0.20315363
0000c0 22 f0 d3 3d 68 1c c9 38 80 a9 18 3d 0d 2d e3 bd
       0.10348536 9.589718e-05 0.037271023 -0.11092577
0000d0 f4 95 6d be 5f ac 14 3e 96 ca b2 3d ac da 0e 37
       -0.23201734 0.1451888 0.087300465 8.514773e-06
0000e0 9b 76 18 b7 5d ac 72 36 34 15 8c b7 df 06 8c b6
       -9.087521e-06 3.6161139e-06 -1.6699174e-05 -4.173125e-06
0000f0 12 8c 36 bd a6 31 ad 3d 67 77 7f 3d b2 a4 01 3e
       -0.044567175 0.08456735 0.06236973 0.12660483
000100 11 85 e7 3d d8 57 3c bd fe 08 5e bd 20 4f ab bc
       0.11304677 -0.04598221 -0.054207794 -0.020911753
000110 b9 59 d7 be c8 27 54 3e b5 a7 4b bd f6 cb f5 3c
       -0.4206064 0.207183 -0.049720485 0.030004483
000120 0c 4d 3e 3c 43 28 11 bf f1 70 59 3d 05 12 0d bb
       0.011615049 -0.5670206 0.053086225 -0.0021525633
000130 3f fa af b9 7d 77 c6 3a de 3e 80 3a 89 fe c6 ba
       -0.0003356505 0.0015141811 0.0009784361 -0.0015182059
000140 27 d7 96 bd 79 f4 9b 3e 61 5c 8e 3e 0c 46 33 3c
       -0.07365256 0.30459955 0.27804855 0.010941993
000150 c4 f9 52 bc 08 59 c6 3e ae 94 fe 3d 30 5b 7d ba
       -0.012876932 0.387398 0.12430702 -0.0009664772
000160 54 c3 8a bd 3f 94 c9 3d d0 02 23 be e9 91 04 3e
       -0.06775537 0.09842729 -0.15919042 0.12946285
000170 0b 9c 9a be 7f a7 b0 3c 5c 74 1c 3d 4c 4e 1a 3e
       -0.30197176 0.021564243 0.038196906 0.1506893
000180 bc 65 0b bc 8e b1 cd bb b8 2c f3 be 9c cd 30 be
       -0.008508142 -0.0062772697 -0.47495055 -0.17265934
000190 5b 3e 87 bf 10 46 01 be bc 45 84 be eb ea 81 bc
       -1.0565904 -0.12624383 -0.25834453 -0.015859088
0001a0 34 e1 de 3c 03 60 bb bd 90 bd ee bc 30 f3 66 3d
       0.027206995 -0.09149172 -0.029143125 0.056384265
0001b0 85 47 4f bd f8 29 24 bd c2 f2 3a be 6d e6 df 3d
       -0.050605316 -0.040079087 -0.18256667 0.10932622
0001c0 29 2c 4a 3e da 50 40 bd 31 5d 59 3c 66 69 29 3f
       0.19743408 -0.046952106 0.0132668475 0.6617645
0001d0 98 b2 98 bd 05 ad 99 bd 34 ea 75 bd c7 e1 8b bb
       -0.07455939 -0.07503704 -0.060037807 -0.004268858
0001e0 22 7a ea bc 1a 23 a5 bd d5 73 83 3d 1a c6 66 3c
       -0.02862269 -0.08063336 0.064185776 0.014085317
0001f0 e4 8b 1a 3e b5 97 8b 3f 5b cc e3 3d c1 2e 5f 3e
       0.15092427 1.0905672 0.11122962 0.21795179
000200 d8 0d 98 bc 4f 85 91 bc b9 5b 37 3d 57 ce 81 3e
       -0.018561289 -0.017763762 0.044765208 0.25352737
000210 be 28 dd bc 16 ab 42 be 7e b0 60 bb d6 0b 3c bc
       -0.026996966 -0.19010577 -0.0034284885 -0.011477431
000220 07 fc 31 3d c9 90 99 bb a5 e8 6b 3c 12 02 2c bb
       0.043453243 -0.004686449 0.0143987285 -0.0026246351
000230 c0 d1 ee 3c 0b 27 02 bd 4d d3 27 3e 74 32 b2 3d
       0.029152751 -0.031775516 0.16389199 0.087010294
000240 52 3a 6e bd 7e 8f 89 b8 8a e5 a5 36 b5 95 5d 39
       -0.058161087 -6.5593966e-05 4.944105e-06 0.00021131973
000250 8d 9f 31 3d 0b b9 b5 3e 48 65 ac 3c 93 bc b7 3e
       0.04336505 0.3549274 0.021044388 0.35886058
000260 64 27 d7 3d 2a 84 7b bd cb 82 ab bd e0 5e 61 b9
       0.1050556 -0.06140534 -0.08374556 -0.00021493016
000270 f1 85 09 ba 0b 90 bd 38 cd 3e 78 3a 49 17 16 38
       -0.0005246094 9.0390524e-05 0.0009469807 3.5784473e-05
000280 4b 91 e9 3d 30 de 7a be 65 fe 5a 3e a8 cf 0e be
       0.114046656 -0.2449882 0.21386106 -0.13946402
000290 13 0f e9 bd 24 79 a1 bc b3 5e 7e 3d 97 6b 3b 3e
       -0.11379828 -0.019711085 0.06210203 0.18302761
0002a0 a3 fb 32 be 33 ae 09 bd 5a 11 02 3b a3 e2 45 ba
       -0.17478804 -0.033613395 0.0019846768 -0.0007548725
0002b0 64 3b 3e 3a 19 02 40 b8 91 ce 49 39 6a a1 23 3d
       0.00072567747 -4.577832e-05 0.00019245806 0.03994886
0002c0 90 7b 8b be e6 09 ca 3e 53 69 76 3d f9 e4 c6 3d
       -0.27242708 0.39460677 0.06015904 0.09711642
0002d0 84 df 8a bf 1c 6b 06 3e 79 05 7f 3e 8e bd 8a bb
       -1.0849462 0.13126796 0.24904431 -0.0042340225
0002e0 7d 18 63 bd 4a 6a 2a 3e 07 06 8d bb 56 cf 3a 3a
       -0.055443276 0.16642109 -0.004303697 0.00071262324
0002f0 c3 65 55 3d db 7f c3 3e 5c 9e c3 b8 60 62 93 39
       0.052099 0.38183483 -9.327821e-05 0.0002811132
000300 1b 54 48 b7 e2 d4 d0 38 7d 12 fc b7 78 00 c4 3d
       -1.1940511e-05 9.9578654e-05 -3.004935e-05 0.09570402
000310 16 03 88 be e3 d0 88 be bd 31 9a 3d a4 7d 98 bc
       -0.26564854 -0.26721868 0.07529018 -0.018614598
000320 11 b5 11 3e 6a 52 f2 bd 08 62 46 3e 17 45 9d bd
       0.14229228 -0.118321255 0.19373333 -0.076791935
000330 4c 84 5d bd 12 4d 14 3f 81 78 2d bd c4 0a 54 be
       -0.054081246 0.579301 -0.04235125 -0.20707232
000340 ac ce 6f 3b 20 1d 7b 3d d0 1f 2c 3d a7 16 47 3d
       0.0036591692 0.061307073 0.042022526 0.048605587
000350 d9 d4 1a bf 40 0a 67 3d 6a 99 0e bd 72 8a 5c bf
       -0.6048103 0.05640626 -0.034814276 -0.8614875
000360 da 7e a5 bd 5b b0 6d be 92 84 5f 3c 64 23 06 3d
       -0.08080836 -0.23211806 0.013642447 0.032748595
000370 ca 85 dc 3d 93 5f b6 3d dd af 49 3d 10 3e 51 bd
       0.10767706 0.08904948 0.049239982 -0.051084578
000380 f4 5d d9 3c 53 7d ec 3b 0b 1c 9e be 87 bc 51 be
       0.026534058 0.0072170882 -0.3088077 -0.20482074
000390 fa 29 36 3c a6 42 99 3d 86 22 cc bd f0 6c 94 bd
       0.011118406 0.07483415 -0.09967522 -0.07247341
0003a0 dc 81 bf be 2c 9b 2f 3d f7 19 fd bd be c0 98 bc
       -0.37403762 0.042872593 -0.12358468 -0.018646594
0003b0 70 51 b0 3e 49 64 ae 3e 8f c8 8a 3c eb 84 ee ba
       0.34437132 0.34060887 0.016941337 -0.0018197572
0003c0 91 fc 7c be 19 5a b2 bd 29 0f ba 3e 4e 8a 6c bc
       -0.24705721 -0.08708591 0.3633969 -0.014437271
0003d0 ab ab 20 bd 9f 75 1d be b3 c2 f9 3c 0c 8e 8a 3c
       -0.039226215 -0.153769 0.030488348 0.016913436
0003e0 b3 c0 dd 3e 3e c2 e9 bd 5b 5c 0d bd a9 b1 e4 3d
       0.4331108 -0.11414002 -0.034511905 0.111666985
0003f0 8c c4 9c 3e c7 b0 3e 3d 23 21 ba 3c 44 f8 9a bc
       0.30618703 0.046555307 0.022720879 -0.01891721

fc1.bias f4 [64]
000000 81 0f 1e 3e 9b 89 08 3e 11 d2 ca bd 8d 42 87 3e
       0.15435602 0.13333742 -0.09903348 0.26417962
000010 ad 4e 56 3e 9f dd 19 3d 21 2b fa 3e 8b 70 9a 3c
       0.2092845 0.03756487 0.4886103 0.018852493
000020 20 dc 6b bd 54 05 c1 be dd c2 2c 3d 9f 21 bc b7
       -0.057582974 -0.37699378 0.042178024 -2.2427002e-05
000030 14 69 f4 bd 6c 74 a6 bd 88 6a 64 bd 8f 6e c4 b9
       -0.119341046 -0.081276745 -0.05576566 -0.00037466406
000040 1d 5f 5a be e1 9c 2e 39 b3 87 00 3e dc 2c 91 be
       -0.21325345 0.00016652375 0.12551765 -0.28354537
000050 1f af 4b bf f3 d0 c3 bd e4 1b 0b be ed 27 46 bf
       -0.7956409 -0.09561338 -0.13584858 -0.7740467
000060 3a 37 2d 3e 0b 53 8b 3e 79 a8 da bd 81 7a f2 bc
       0.16915599 0.27211794 -0.10676665 -0.02959943
000070 73 48 1f be e8 60 24 3e c0 85 81 be 64 38 0d 39
       -0.15554981 0.16052592 -0.25297356 0.00013467815
000080 f1 18 1d 3e 62 2a 40 3e 7f 5b 54 3a c8 65 10 be
       0.15341546 0.18766168 0.0008100792 -0.14101326
000090 f1 ba a7 be a4 72 6f bd c7 57 59 b9 23 aa 54 3d
       -0.32759812 -0.05845894 -0.00020727432 0.051920068
0000a0 c6 ed 44 bd 60 4a 2f 3f 59 76 1e be f4 7d 9d 3e
       -0.04807832 0.6847286 -0.15474834 0.30760157
0000b0 de a2 8d bd 1e bd 33 be 54 d7 ad bd 70 9d c6 3e
       -0.0691583 -0.17552611 -0.08488336 0.3879199
0000c0 5d c6 43 3e 09 0b 0e be 48 dc cb 3e 91 be 01 be
       0.19118638 -0.13871397 0.398165 -0.12670352
0000d0 cf f2 91 be a8 a2 99 be 79 b6 42 bf 48 9a d4 be
       -0.2850556 -0.3000691 -0.7605968 -0.41523957
0000e0 5b 14 0e 3d b9 e4 a6 bb 7f 6c 07 3e 39 67 30 3f
       0.03468738 -0.005093184 0.13224982 0.68907505
0000f0 30 5d 07 ba f3 5a 81 be 07 d3 64 3e 75 7e 25 3d
       -0.00051637273 -0.252647 0.22346126 0.040403802

fc2.weight f4 [64, 64]
000000 02 5d 34 83 7e c0 c8 83 57 18 a6 83 a6 af 26 83
       -5.3004014e-37 -1.17991375e-36 -9.762191e-37 -4.898465e-37
000010 58 e5 95 82 fa bc ca 81 8c 59 d1 81 de 0b c3 83
       -2.202522e-37 -7.447425e-38 -7.690297e-38 -1.14637945e-36
000020 ba 09 3e 83 99 91 32 02 56 e0 9d 83 9a 32 69 03
       -5.5847147e-37 1.3119159e-37 -9.279136e-37 6.8530634e-37
000030 0f e1 66 03 7f 2b 79 83 0a ce 35 83 f4 28 ef 82
       6.784928e-37 -7.3224454e-37 -5.342764e-37 -3.51414e-37
000040 3d 11 64 83 0c d9 da 82 3e 8f bf 82 e2 65 a8 83
       -6.7022967e-37 -3.21568e-37 -2.8147145e-37 -9.897544e-37
000050 e2 10 c7 83 3e 95 9b 02 95 55 df 83 b2 67 ab 82
       -1.1700045e-36 2.2860864e-37 -1.3126411e-36 -2.518571e-37
000060 6e d6 fb 82 1f 94 59 82 b7 c4 71 83 74 1d 62 02
       -3.7004212e-37 -1.5985151e-37 -7.104935e-37 1.661231e-37
000070 74 07 97 83 06 84 1c 83 00 64 9b 82 29 fe 87 83
       -8.8766935e-37 -4.5995835e-37 -2.28326e-37 -7.992939e-37
000080 18 ea 8d 82 3c d1 59 83 f5 51 98 83 79 05 25 83
       -2.0852451e-37 -6.401076e-37 -8.9525735e-37 -4.8495424e-37
000090 15 2c 1e 83 81 ff 9e 83 d0 e4 2b 80 13 c3 08 83
       -4.648263e-37 -9.345066e-37 -4.031009e-39 -4.019074e-37
0000a0 c8 ad 85 83 2c dc fb 82 6a 0c f3 81 99 a8 8e 82
       -7.856936e-37 -3.7007508e-37 -8.9281916e-38 -2.0961795e-37
0000b0 16 50 98 83 d4 34 3f 83 f6 24 75 83 16 91 0d 82
       -8.952144e-37 -5.61905e-37 -7.204146e-37 -1.0400682e-37
0000c0 b2 f2 95 82 31 ea 47 03 d0 ae 6e 82 6f 78 8b 82
       -2.2032883e-37 5.8749683e-37 -1.7535647e-37 -2.049334e-37
0000d0 a0 f7 25 83 d3 be 4c 83 5f 43 e3 02 ce 72 e2 81
       -4.87734e-37 -6.0169267e-37 3.3393321e-37 -8.3184025e-38
0000e0 e3 7e 13 83 33 fe 49 02 26 2e f2 82 8e 39 4e 82
       -4.3345076e-37 1.4840099e-37 -3.5585192e-37 -1.5151007e-37
0000f0 59 ee 83 83 1a 24 35 82 cc 5a 92 82 4a 90 a6 82
       -7.75421e-37 -1.330814e-37 -2.1504887e-37 -2.4474326e-37
000100 30 28 1b 3e 49 30 64 3c 62 ff c6 3c 65 e2 86 3c
       0.15152049 0.013927528 0.024291698 0.016465375
000110 2b 0f e7 3d 3e 53 0b 3b ff c7 f5 3d 19 3d 71 3c
       0.1128219 0.0021259333 0.12001037 0.0147240395
000120 05 47 93 bd 45 8b 46 be 8a 09 d0 bd df 30 94 35
       -0.0719128 -0.19389065 -0.101580694 1.1041083e-06
000130 52 d7 ca bd 50 b2 8a bc 33 2e 2b 3c 02 9a 69 ba
       -0.0990435 -0.01693073 0.0104480265 -0.00089111936
000140 c0 8f 6d be 96 f5 18 be ae 03 f9 3c 48 44 a2 3c
       -0.23199368 -0.14937434 0.030397262 0.01980795
000150 44 ab 42 bf f2 d7 91 bd f1 f7 0b be 2e e9 d4 be
       -0.7604258 -0.071212664 -0.13668801 -0.41584152
000160 15 77 cb 3d 4b f4 25 3e 21 17 5e 3d 77 17 d8 bc
       0.099348225 0.16206472 0.054221276 -0.026378376
000170 e0 7d cc 3c bd fd 48 3d cd ce 3e be 3b 85 4e 39
       0.024962366 0.04907011 -0.18633576 0.00019695323
000180 8d 50 13 be c3 6f 74 bd a5 0d 28 3a 27 43 51 be
       -0.14386196 -0.059676897 0.00064107246 -0.20435773
000190 f0 05 31 3e ff 10 dd bd 5d 27 24 b9 c2 46 24 be
       0.17287421 -0.107942574 -0.00015654923 -0.16042617
0001a0 9d ae f7 bc fb c9 24 be b1 18 6d 3e ba 65 7b be
       -0.03023463 -0.16092674 0.2315395 -0.24550524
0001b0 5e 47 8f bd cc c3 c4 bd 3a 20 eb 3b bb f7 0c bd
       -0.06996034 -0.09607658 0.0071754726 -0.03441594
0001c0 70 68 97 bd d6 1e b6 3c e3 1b 22 bd ca 7e 8c 3d
       -0.07392967 0.0222315 -0.039577376 0.068601206
0001d0 0d 41 9d be f7 7c 57 3c 99 0d 9c bc b8 77 a2 be
       -0.30713692 0.0131523525 -0.019049453 -0.31731963
0001e0 e6 63 b6 be a8 8a 4a bd 4a 0a 6f 3d 7c 46 cb 3e
       -0.3562309 -0.04944864 0.05835942 0.39702213
0001f0 ce dd 89 ba 43 1b f7 bd 33 08 f1 bc 17 ac 86 bc
       -0.0010518373 -0.12065747 -0.029422855 -0.01643948
000200 1c a8 3b 3d 28 1a d2 b9 c6 cb ea bb 7a 63 21 3b
       0.04581462 -0.0004007381 -0.007165405 0.0024625943
000210 a6 ca d1 bc c2 93 a1 3c 2c d5 42 bc 48 9d e7 3c
       -0.025609326 0.019723777 -0.011891644 0.02827324
000220 ac 56 32 3a 48 db a0 3c bd ce de 3b bf 80 71 36
       0.0006803076 0.019635811 0.0067995475 3.5986739e-06
000230 22 75 c7 3a 5f bb 9e 3a 80 c9 53 3c 54 2c cc 39
       0.0015217403 0.0012110284 0.012926459 0.0003894294
000240 79 13 32 bd 70 af b9 3c ed 73 2f 3d fd 13 85 3b
       -0.0434756 0.022666663 0.042835165 0.0040612207
000250 df 94 71 3d 67 10 8d 3c 02 a4 83 3c 47 23 ab bb
       0.058979865 0.017219735 0.016069416 -0.0052227112
000260 17 4b c5 bb ee c9 17 be 89 66 14 bc a7 05 14 3b
       -0.0060209143 -0.14823124 -0.009057649 0.0022586377
000270 41 4e 2e bc 02 24 9d 3c 06 b1 ef bc 5e e6 4a b8
       -0.010638774 0.019182209 -0.029259216 -4.83751e-05
000280 28 aa d0 bb 44 08 26 3a d4 bc 0d ba 2d 38 eb 3c
       -0.0063679405 0.0006333629 -0.0005406861 0.02871331
000290 f0 9f 04 bc 79 b5 64 3c 9e c4 5f 37 11 b0 3c bc
       -0.008094773 0.013959282 1.3337614e-05 -0.011516587
0002a0 32 b1 2f bc 3b fb 47 3d e4 7e 18 3c 56 91 a8 3d
       -0.010723399 0.048823576 0.009307597 0.08230846
0002b0 88 50 a0 bb c3 e6 d8 bb 02 c3 8c bb 33 78 a6 bb
       -0.0048924126 -0.006619306 -0.0042957077 -0.005080247
0002c0 57 02 b6 3b 1c d2 37 bb de 67 cb 3a ed c1 ef bc
       0.005554478 -0.002804882 0.0015518626 -0.029267276
0002d0 32 07 ac 3c 81 d7 e0 bb 40 f5 2f bd 2d 24 6e bd
       0.020999525 -0.0068616276 -0.042958498 -0.05813997
0002e0 4f 56 ba 3d e5 64 09 3d 7e 29 eb 3b 20 d9 73 3d
       0.09098493 0.033543486 0.007176577 0.05953324
0002f0 21 2b 62 39 59 70 47 ba 17 5f ee bb bc 1a 38 bd
       0.00021569106 -0.00076079887 -0.007274519 -0.04494737
000300 be dc 9b 02 3f a5 63 02 3c b7 27 83 f1 f7 31 83
       2.2901903e-37 1.6724749e-37 -4.928723e-37 -5.230025e-37
000310 8c 57 25 01 4e 1d b8 82 2a b1 92 83 76 9d 72 83
       3.0368526e-38 -2.705319e-37 -8.621784e-37 -7.1298165e-37
000320 98 9a fb 00 2e 28 05 83 ce 42 e0 82 30 e2 bc 82
       2.3106167e-38 -3.913131e-37 -3.2952186e-37 -2.7753943e-37
000330 c4 22 c6 82 7c de 29 83 37 ca df 82 33 26 40 02
       -2.911344e-37 -4.9920036e-37 -3.288297e-37 1.4116895e-37
000340 02 44 cd 82 0b 4f 8d 83 8d 0a c4 02 7e d7 39 83
       -3.0161077e-37 -8.3053825e-37 2.8805667e-37 -5.4613987e-37
000350 78 76 52 01 97 14 5b 83 f5 a9 0d 83 fc 0b d1 02
       3.8655906e-38 -6.438195e-37 -4.1631277e-37 3.0716669e-37
000360 d1 66 b0 02 72 74 48 02 64 72 a9 83 26 0b 9a 01
       2.591989e-37 1.4727098e-37 -9.95919e-37 5.6586663e-38
000370 12 57 a0 83 64 6d de 81 de 29 f4 01 d6 ed 1e 83
       -9.423945e-37 -8.170689e-38 8.969152e-38 -4.670505e-37
000380 38 15 ca 83 5e 00 18 83 f2 2e a7 83 f4 97 7d 03
       -1.18773645e-36 -4.4669207e-37 -9.826156e-37 7.452445e-37
000390 ef 5b 60 82 41 36 01 03 c0 df 8c 83 a0 c8 b9 02
       -1.6483305e-37 3.7971973e-37 -8.279831e-37 2.729846e-37
0003a0 15 54 82 02 f6 84 89 82 10 2c 89 82 e4 18 ab 82
       1.9150044e-37 -2.0206657e-37 -2.0155631e-37 -2.5140478e-37
0003b0 b1 6e 89 03 b3 95 35 82 33 4d 95 83 fc 9c b8 83
       8.07755e-37 -1.3340741e-37 -8.775157e-37 -1.085059e-36
0003c0 b3 36 8a 82 10 87 0e 83 ff bc 93 83 22 33 ed 01
       -2.0308673e-37 -4.1885094e-37 -8.683275e-37 8.713342e-38
0003d0 61 ce 85 03 d3 5d 8f 83 c3 b1 43 82 65 51 6c 83
       7.86442e-37 -8.426326e-37 -1.4377353e-37 -6.9447603e-37
0003e0 1c 38 a5 82 2c 82 b4 82 b6 aa 5d 82 ee b6 92 83
       -2.4276776e-37 -2.6523338e-37 -1.6285507e-37 -8.623107e-37
0003f0 24 88 77 83 82 6c 5a 83 f4 c4 b5 83 00 3f d0 01
       -7.274306e-37 -6.4189003e-37 -1.0683442e-36 7.6497533e-38

fc2.bias f4 [64]
000000 f4 36 23 82 8c d5 9d 3e f8 60 81 3c 46 ef d6 83
       -1.199112e-37 0.30826986 0.015793309 -1.2632724e-36
000010 06 d4 d1 3d 41 c0 1f 3e 53 ed 00 3e ff 82 13 83
       0.102455184 0.15600683 0.12590532 -4.3349794e-37
000020 f6 35 25 3e a6 35 b4 3b 7a 72 2f 83 a3 c1 8a 3e
       0.16133866 0.0054995595 -5.155929e-37 0.27100858
000030 42 7c b1 01 79 3c 51 83 b3 87 b6 82 97 3c d1 3d
       6.519783e-38 -6.1489e-37 -2.6820384e-37 0.10216635
000040 75 77 4c 83 62 ba 26 3e fb 8b c6 83 30 61 1c 3e
       -6.008734e-37 0.16282037 -1.1669532e-36 0.15271449
000050 10 e5 b1 81 85 7d 70 3e f5 f1 06 be 6c b8 14 3e
       -6.534822e-38 0.23485382 -0.13178237 0.14523476
000060 db 6c 2d 3e 6c e7 03 3c c3 0e 6c 82 21 71 cf 82
       0.16936056 0.008050781 -1.7342778e-37 -3.048085e-37
000070 ce 69 72 83 ef 85 d2 bd 0b 99 73 83 28 fa df 00
       -7.1238866e-37 -0.10279452 -7.1586967e-37 2.0569055e-38
000080 0d 67 b5 3b 93 8c 92 83 ef 8e 05 83 d1 23 a8 3d
       0.0055359663 -8.613383e-37 -3.9249267e-37 0.082099564
000090 f0 cc 95 83 d6 6a 13 3e 7e 3d 82 82 ef df 72 3d
       -8.804484e-37 0.14396223 -1.9137078e-37 0.05929559
0000a0 6c cb 3f 83 3c 10 0e 02 5c db b1 bc 58 8f d1 3d
       -5.636337e-37 1.0437171e-37 -0.021711044 0.10232419
0000b0 04 60 4f 3e f2 fb 8d 95 5a b9 1d 3d a8 16 97 3e
       0.20251471 -5.7346946e-26 0.038506843 0.29509473
0000c0 4a cf 2d be b6 d3 e1 3d d9 3d 31 83 4b 42 27 3e
       -0.16973606 0.11026709 -5.2086623e-37 0.16333883
0000d0 2a 47 0e 83 e2 50 80 3e a5 84 b4 3d eb c3 bb ad
       -4.181174e-37 0.2506171 0.088143624 -2.1346444e-11
0000e0 83 ee 23 3d ab bd 11 bd c7 92 28 3e ea e0 75 bd
       0.040022384 -0.035581272 0.16462241 -0.060028948
0000f0 66 39 bb 87 78 23 d9 83 71 8c 43 83 48 03 b0 3d
       -2.8170369e-34 -1.2762257e-36 -5.746657e-37 0.08594376

fc3.weight f4 [2, 64]
000000 b2 88 af 02 78 b4 26 bb af 75 0d 3d ac a4 32 02
       2.5792398e-37 -0.0025437158 0.03453606 1.3124633e-37
000010 f7 44 15 bf 72 08 8d bb 9c b4 6f 3d c8 20 6d 02
       -0.58308357 -0.0043039853 0.058521852 1.7421418e-37
000020 d7 39 df 3b 30 81 b4 3d 00 51 26 01 ea c7 63 bd
       0.006812315 0.08813703 3.05475e-38 -0.055610575
000030 00 72 25 01 50 5e 3f 01 8c 3f 86 82 70 e8 3f bc
       3.0387505e-38 3.5148825e-38 -1.9726004e-37 -0.011713132
000040 b0 80 e9 01 e5 15 5c bd 40 e4 6f 81 b3 a6 97 3d
       8.577534e-38 -0.053731818 -4.4061129e-38 0.07404842
000050 e8 0c 13 82 86 36 cc 3d 83 cd 11 bf 3c 55 26 3f
       -1.0803558e-37 0.09971337 -0.5695421 0.6497381
000060 c4 bc d0 bc b7 12 87 3d 6c 2b 26 82 40 cc 4d 82
       -0.025480635 0.065953664 -1.2208215e-37 -1.5119638e-37
000070 00 0a 69 80 61 71 3f 3f f8 b2 0a 82 98 65 a2 82
       -9.646314e-39 0.7478238 -1.019e-37 -2.3862073e-37
000080 aa 11 8a 3b f8 cd 32 03 de 0d 32 82 d0 cc 91 bc
       0.0042135315 5.254594e-37 -1.3081354e-37 -0.017797858
000090 a8 7b e6 81 3b 21 06 bd 68 39 5d 02 11 0f ee bb
       -8.4666094e-38 -0.032746535 1.625299e-37 -0.0072649796
0000a0 99 fd 84 82 b8 68 31 01 26 2d 96 bc 95 8f 66 bc
       -1.9541215e-37 3.2584898e-38 -0.018332075 -0.014072319
0000b0 55 2a f8 ba 98 c8 17 16 be e4 95 3e 8f 08 1c 3e
       -0.0018933514 1.2260979e-25 0.2927608 0.1523764
0000c0 7c ac 3b bf 3f b5 a0 bc d8 0f d7 02 11 fd d1 bc
       -0.73310065 -0.019617675 3.1600505e-37 -0.025633367
0000d0 a1 c9 04 82 60 0f 22 3e 22 58 04 be ed b6 93 ad
       -9.755693e-38 0.15826178 -0.12924245 -1.67932e-11
0000e0 ef d0 9b 3e bd 9e c8 3c e8 68 28 bf 7e 7f 9f 3b
       0.3043284 0.024489755 -0.65785074 0.004867493
0000f0 b0 d3 20 88 ee 2d 65 82 90 7e 5b 01 ab 46 dd 3c
       -4.8397086e-34 -1.6837444e-37 4.0314751e-38 0.027011236
000100 e8 b1 92 80 19 be b1 3f 33 14 86 be 96 88 fd 02
       -1.3471803e-38 1.3886138 -0.26187286 3.7253405e-37
000110 d5 1c 75 bd 60 3c 3f bf 20 8f 11 bf 60 ca 14 01
       -0.05984195 -0.747015 -0.56859016 2.7328504e-38
000120 d0 6d 68 bf 46 70 37 3f 1d 80 61 02 c7 52 46 3f
       -0.9079256 0.7165569 1.6567156e-37 0.7747006
000130 7c 90 52 82 68 e0 3e 02 8c 4e 18 02 78 95 14 3f
       -1.5469828e-37 1.4023397e-37 1.1189738e-37 0.5804057
000140 28 5a 0c 00 1b e6 8b 3f 4c cb 8d 82 52 aa 57 bf
       1.134368e-39 1.0929598 -2.0834775e-37 -0.84244263
000150 0c 52 e1 01 24 03 71 bf 08 3d 82 3c 0c a9 80 bc
       8.276968e-38 -0.9414542 0.015898243 -0.015705608
000160 17 a6 83 3f d0 c3 fe 3e 30 27 83 01 49 41 0c 03
       1.0285062 0.49758768 4.817803e-38 4.1217246e-37
000170 28 b2 ad 82 ec 53 78 bb 94 92 45 82 54 16 b0 01
       -2.5522322e-37 -0.0037891818 -1.451534e-37 6.468423e-38
000180 94 e6 44 3d 32 57 28 83 9a 69 c2 02 ce 59 03 3f
       0.04807146 -4.947086e-37 2.856635e-37 0.51308906
000190 ea cb 98 02 eb 62 6d 3f dc 9b 83 81 ea 93 a8 3e
       2.2451434e-37 0.9272906 -4.834545e-38 0.3292535
0001a0 59 f6 15 82 b2 6c bc 02 d2 6c 7c bf 5e 31 35 bf
       -1.101749e-37 2.7686505e-37 -0.98603547 -0.70778453
0001b0 99 f8 85 3f 2e 6f 00 95 e5 6a db bd cd 25 91 3f
       1.0466491 -2.59371e-26 -0.10713748 1.1339661
0001c0 d9 d2 a7 3c 85 ee 34 bf 70 c9 c0 80 21 c1 38 bf
       0.020486282 -0.7067645 -1.7704677e-38 -0.7216969
0001d0 dc 4d 94 02 5b 5c 7b bf bd 67 1d bf e9 33 41 2d
       2.1791335e-37 -0.981878 -0.6148642 1.0982306e-11
0001e0 73 ff e2 bd 93 7c ce 3e ab eb 25 bd d7 24 09 3f
       -0.11083879 0.40329418 -0.040507954 0.5357184
0001f0 0e e9 c9 88 8a c2 20 02 50 2f 59 82 b1 a2 02 bf
       -1.2152038e-33 1.1810773e-37 -1.595622e-37 -0.510295

fc3.bias f4 [2]
000000 85 6d 0d bd 38 9f a9 bd
       -0.034528274 -0.08282322
